Code/698/data/10step_5horizon/10step_5horizon_best_model_OK.pth (torch, 335058 bytes, 11 tensors)

lstm.weight_ih_l0 f4 [256, 85]
0	0xbf25d3d1	-0.6477633
1	0x3da8b5c7	0.08237796
2	0xbdf36eed	-0.11886392
3	0x3d083b8a	0.033259906
4	0x3df25ec1	0.11834479
5	0xbe083f76	-0.13305458
6	0xbe056ae0	-0.13029051
7	0xbcfdbc5f	-0.030973611
8	0xbdc1e67b	-0.09467789
9	0xbe24c770	-0.16091704
10	0x3e474406	0.19459543
11	0x3de9e342	0.11420299
12	0xbd9cfa78	-0.076649606
13	0xbe558915	-0.20853074
14	0x3dadcfdc	0.08486912
15	0x3e56605d	0.20935197
16	0x3e2f991b	0.17148249
17	0x3e4a15d7	0.19734894
18	0xbdd4341e	-0.10361503
19	0x3ce09bf0	0.027418107
20	0xbd6c73f6	-0.057727776
21	0xbed962d9	-0.42458227
22	0x3de79517	0.113077335
23	0x3e22e753	0.15908556
24	0xbd00490c	-0.031319663
25	0x3cd60b78	0.026128516
26	0x3d44a8c1	0.0480125
27	0x3cd488b3	0.02594409
28	0x3da3b73a	0.07993932
29	0x3dff4b87	0.124655776
30	0xbe5c5130	-0.21515346
31	0xbd3fa105	-0.04678442
32	0xbeaf822a	-0.34278995
33	0x3d3d6a5b	0.046244007
34	0xbe1cf641	-0.15328313
35	0x3ea137f3	0.31487998
36	0xbda6409b	-0.08117791
37	0x3e698ba6	0.22807178
38	0xbe06ccec	-0.13164109
39	0xbd2eee05	-0.042707462
40	0xbe0b19c6	-0.1358405
41	0x3e856dbc	0.26060283
42	0xbae4fd1b	-0.0017470451
43	0xbc3f19c3	-0.011663857
44	0x3d58ba45	0.052912015
45	0xbd728a42	-0.059213884
46	0xbd435d2d	-0.04769628
47	0x3e68dce4	0.22740513
48	0x3e8b6678	0.27226615
49	0x3cc2fce5	0.02380223
50	0xbea8b557	-0.3295085
51	0xbe58a8de	-0.21158168
52	0x3eb0e62b	0.34550604
53	0xbd2a6705	-0.041602153
54	0x3ea90529	0.3301175
55	0xbea01dc4	-0.3127271
56	0x3e2df8fd	0.16989513
57	0xbe6a6b88	-0.22892582
58	0x3e3d2b66	0.18473586
59	0xbed21114	-0.41028655
60	0xbddbdfdf	-0.107360594
61	0xbe115537	-0.14192663
62	0xbb09c24d	-0.0021020353
63	0xbd61f459	-0.05516467
64	0x3e59a781	0.21255304
65	0x3ead7163	0.3387557
66	0xbe173113	-0.14764814
67	0xbd9490cf	-0.072541825
68	0xbb2e9e68	-0.002664471
69	0x3e80eba1	0.2517977
70	0xbd0c49aa	-0.03424994
71	0x3cf5c39e	0.030000504
72	0x3da6ac28	0.08138305
73	0x3dc05058	0.09390324
74	0x3e6ac39c	0.22926182
75	0xbe53d6bc	-0.20687383
76	0xbe91334b	-0.28359446
77	0x3da99978	0.08281225
78	0x3e84658a	0.25858718
79	0x3e347f6f	0.17626737
80	0x3ea14168	0.31495214
81	0x3e85e55a	0.26151544
82	0xbd84596d	-0.06462369
83	0xbde1e574	-0.11030093
84	0xbe872865	-0.26398006
85	0xbf102077	-0.5629954
86	0xbd17f5f7	-0.037099805
87	0xbdbf51b2	-0.09341754
88	0x3de1025a	0.10986777
89	0xbd94e891	-0.07270921
90	0x3eb988b9	0.36237124
91	0xbe6ace15	-0.22930177
92	0xbe189b75	-0.14903052
93	0x3e1f2b9f	0.15543984
94	0xbe6c561b	-0.23079722
95	0x3e5beee6	0.21477851
96	0xbd5e9708	-0.054343253
97	0xbe8a5e33	-0.27024993
98	0xbe7a47ab	-0.24441402
99	0xbe78f8e1	-0.2431369
100	0x3e32a16e	0.17444393
101	0xbd9de02f	-0.07708775
102	0x3e8e239d	0.27761546
103	0x3e543c48	0.2072612
104	0x3e8eb181	0.278698
105	0x3e26ec1d	0.16301008
106	0xbe84ecf2	-0.25962025
107	0x3d1e3ceb	0.038632315
108	0xbe9963db	-0.29958996
109	0x3e88e634	0.2673813
110	0x3de49551	0.11161292
111	0x3e83aed6	0.25719327
112	0xbd7768ba	-0.06040261
113	0x3e9ca161	0.30591872
114	0x3d72c790	0.05927235
115	0x3e53cdd7	0.2068399
116	0x3e801259	0.25013998
117	0x3d100f63	0.035170924
118	0x3e9185c6	0.28422374
119	0x3e951b9e	0.29122633
120	0xbec1d1f2	-0.37855488
121	0x3e01b8bc	0.12668127
122	0xbc05764a	-0.008145878
123	0x3c61641b	0.013756777
124	0x3d0c833b	0.03430484
125	0x3e9540c9	0.2915099
126	0xbcd6eaf2	-0.026235078
127	0x3b28a846	0.0025735064
128	0xbe723c0d	-0.2365572
129	0x3df44af9	0.119283624
130	0xbef0040f	-0.46878096
131	0x3e73958d	0.23787518
132	0xbe1c2f5a	-0.15252438
133	0xbe8c0bc8	-0.27352738
134	0x3df43b46	0.11925368
135	0xbeac35ee	-0.33634895
136	0x3e4d3f73	0.20043735
137	0xbdbc400d	-0.09191904
138	0xbd170bd3	-0.03687651
139	0x3db15caf	0.08660256
140	0xbea496af	-0.32146212
141	0x3eee3c0d	0.4653019
142	0x3dc6e41a	0.09711476
143	0x3d3a123e	0.045427553
144	0xbe21b36e	-0.15791103
145	0x3d887a87	0.06663995
146	0xbe690561	-0.22755958
147	0xbda7461d	-0.0816767
148	0x3ea5e33f	0.32399938
149	0xbe915774	-0.28387034
150	0xbead0cd0	-0.33798838
151	0xbe14b108	-0.14520657
152	0x3eca4519	0.39505842
153	0xbd6d1593	-0.057881903
154	0x3e7278e8	0.23678935
155	0xbe9ed604	-0.31022656
156	0x3eb040f0	0.34424543
157	0x3e985e3c	0.29759395
158	0x3e1e97e0	0.15487623
159	0xbc485726	-0.012227809
160	0xbd8bd4a7	-0.068276696
161	0x3db8b975	0.09019748
162	0x3db95d08	0.090509474
163	0xbd9a87fe	-0.0754547
164	0x3d86cd73	0.06582155
165	0x3c238ed4	0.009982783
166	0xbd0cb2b4	-0.034350112
167	0xbe3fee0d	-0.18743153
168	0x3dc17453	0.09446015
169	0x3e963ed4	0.2934481
170	0x3f04c3cd	0.5186127
171	0x3d33a982	0.043862827
172	0x3e32b7ed	0.17452975
173	0x3e3c5ca2	0.18394712
174	0xbda31384	-0.07962707
175	0x3e3feb15	0.1874202
176	0x3e398fb0	0.18121219
177	0x3c8859bd	0.016644353
178	0x3ce3830d	0.02777245
179	0xbd059e77	-0.032621827
180	0xbe046592	-0.12929371
181	0x3cdd76d2	0.027034197
182	0xbe47fdba	-0.19530383
183	0x3e1c336d	0.15253992
184	0x3d2dbcf5	0.04241653
185	0xbde9783e	-0.113998875
186	0x3e429ce9	0.19005169
187	0xbe0d8dd6	-0.13823637
188	0xbe86cbfe	-0.2632751
189	0xbe0ec114	-0.13940841
190	0x3d96a421	0.07355524
191	0x3e63a7f1	0.22232033
192	0xbd562e86	-0.052290462
193	0x3e4cd5ac	0.20003384
194	0xbcdcf9d1	-0.02697459
195	0xbd5d7ca5	-0.05407395
196	0x3dbae628	0.0912593
197	0x3d5b8328	0.053591877
198	0x3dae923c	0.08523986
199	0x3e15010b	0.14551179
200	0x3e2350fa	0.15948859
201	0xbd8c998f	-0.068652265
202	0x3da398df	0.07988142
203	0x3d6e52c3	0.058184396
204	0xbd941dab	-0.07232221
205	0x3dd30ee6	0.10305576
206	0xbcb7c93e	-0.022434827
207	0xbdebf344	-0.115210086
208	0xbe23dbd7	-0.16001831
209	0xbd7c3a86	-0.06157925
210	0x3b820e0f	0.003968961
211	0xbe41fcd5	-0.18944104
212	0x3e460dca	0.19341198
213	0x3c395f9c	0.011314299
214	0xbe30b994	-0.17258292
215	0x3e13e5ec	0.14443177
216	0xbe3bf063	-0.18353419
217	0x3e96c785	0.29449096
218	0xbe44ef81	-0.19231988
219	0xbe5b5b42	-0.21421531
220	0xbdbc83ef	-0.09204852
221	0xbd36c902	-0.04462529
222	0x3c04b921	0.008100779
223	0x3df2002b	0.11816438
224	0x3d3ac543	0.04559828
225	0x3d4858aa	0.04891268
226	0xbdbb3661	-0.09141231
227	0xbe2318db	-0.1592745
228	0x3e4b980f	0.19882225
229	0x3d7ee15d	0.062226642
230	0x3deb188b	0.114792906
231	0xbe21b05e	-0.15789935
232	0x3bb95549	0.0056559187
233	0xbe0437c3	-0.12911896
234	0x3e1bbe61	0.15209343
235	0x3e2dcf85	0.16973694
236	0xbda4bbe3	-0.08043649
237	0xbd92e5ce	-0.07172738
238	0xbbfa4da7	-0.0076386514
239	0xbe4f9c41	-0.2027445
240	0x3dc9920b	0.098423086
241	0xbdcd0c8b	-0.10012158
242	0x3de7bf58	0.11315793
243	0xbd4cc85a	-0.049995758
244	0xbdcf8d06	-0.1013432
245	0xbe51025d	-0.20411058
246	0x3e00b43e	0.12568757
247	0xbd98ab82	-0.074545875
248	0xbd908b2f	-0.07057797
249	0x3ea5b30c	0.32363164
250	0x3d8d04f4	0.0688571
251	0xbd35dff2	-0.044403024
252	0xbd399423	-0.04530729
253	0x3d9d937a	0.076941445
254	0xbde4200c	-0.11138925
255	0xbf3c3728	-0.7352166

lstm.weight_hh_l0 f4 [256, 64]
0	0x3de5ff5f	0.11230349
1	0x3d2d3717	0.042288866
2	0xbe4493bc	-0.19196981
3	0x3ee4b7d8	0.44671512
4	0xbf016402	-0.50543225
5	0x3c263a64	0.010145757
6	0x3e2be23e	0.16785523
7	0x3f2b3923	0.6688406
8	0x3ecac85e	0.39605993
9	0x3e972f26	0.2952816
10	0xbd494d65	-0.049146075
11	0x3d02c2b9	0.031923983
12	0xbf62aec9	-0.8854795
13	0xbe8b0bcc	-0.27157438
14	0x3e02d926	0.12778148
15	0xbe3930c6	-0.18085012
16	0x3bb3bb1e	0.0054849526
17	0x3e94aac0	0.29036522
18	0x3ec8f7d9	0.39251593
19	0xbe8760e2	-0.26441103
20	0x3d156014	0.03646858
21	0x3df22f81	0.11825467
22	0x3e78c9ec	0.24295777
23	0xbf07cbfa	-0.5304562
24	0x3f02b5be	0.51058567
25	0xbf108d39	-0.5646549
26	0x3e7b9468	0.24568331
27	0xbe065268	-0.13117373
28	0x3e2c2e89	0.16814627
29	0x3ecde31c	0.40212333
30	0xbef5015b	-0.47852597
31	0xbeb89665	-0.36052242
32	0xbe60aa43	-0.2193995
33	0xbe8dacb2	-0.2767082
34	0xbe79a3dc	-0.24378914
35	0x3dcf1a79	0.10112471
36	0xbd7d2a26	-0.061807774
37	0xbc896662	-0.016772453
38	0x3bbd4a14	0.005776653
39	0x3d30e5f7	0.04318806
40	0xbe9a5551	-0.30143216
41	0x3f1549e4	0.58315873
42	0x3f026949	0.509419
43	0x3f3b1db4	0.730922
44	0x3ee37f24	0.44432938
45	0xbedc0e0a	-0.4297946
46	0xbdda4f18	-0.10659617
47	0x3e391d6a	0.18077627
48	0xbebc3756	-0.36760968
49	0x3e0171ec	0.12641114
50	0x3e95a924	0.29230607
51	0xb9255a93	-0.00015769368
52	0x3e123fe4	0.14282185
53	0x3d022f8a	0.031783618
54	0x3c5d7462	0.013516517
55	0x3e75889d	0.23977895
56	0xbd79f225	-0.061021943
57	0xbdd8e6ca	-0.105908945
58	0x3e021f41	0.12707235
59	0x3d082c21	0.03324521
60	0x3e41df9d	0.18932958
61	0x3aca4361	0.0015431457
62	0x388daf72	6.756083e-05
63	0x3ec8a434	0.39187777
64	0x3e5edb1b	0.2176327
65	0xbd8a4906	-0.06752209
66	0xbeb5bd72	-0.35496098
67	0xbd9b6c33	-0.07588997
68	0x3e87c39b	0.26516423
69	0xbedee359	-0.43532827
70	0xbd361a3d	-0.044458617
71	0x3d425e47	0.04745319
72	0xbeb737c7	-0.35784742
73	0x3ebce76b	0.36895308
74	0x3eb2728c	0.34853017
75	0x3cd63215	0.026146928
76	0x3e2d03fe	0.16896054
77	0x3e808731	0.25103143
78	0x3dcaf815	0.09910599
79	0x3da83780	0.08213711
80	0x3e7d5707	0.2474023
81	0xbbf91729	-0.007601638
82	0xbec356e6	-0.38152236
83	0xbe93c69f	-0.28862473
84	0x3de21e26	0.110409066
85	0xbdb12c1b	-0.086509906
86	0x3e9b633d	0.3034915
87	0xbf04dbc7	-0.51897854
88	0xbe3f4074	-0.1867693
89	0xbe451f15	-0.19250138
90	0xbdd3eed2	-0.10348286
91	0xbc6e5319	-0.014546179
92	0x3ed54fac	0.41662347
93	0xbd23c65a	-0.039984085
94	0xbecc8f79	-0.3995321
95	0xbc51944e	-0.012791706
96	0x3e769236	0.24079213
97	0xbf308022	-0.68945515
98	0x3ec4d9b6	0.3844735
99	0xbda06d66	-0.07833366
100	0xbf1460ca	-0.5796019
101	0xbe06af4f	-0.13152812
102	0x3df2a78c	0.11848363
103	0xbe116447	-0.14198409
104	0xbeadb7ca	-0.33929282
105	0x3eaf7763	0.34270772
106	0xbdc9a1f3	-0.098453425
107	0x3eb38f95	0.35070482
108	0x3e9d26bc	0.30693614
109	0xbef51466	-0.47867125
110	0x3d456fb6	0.04820224
111	0xbe385d4d	-0.18004341
112	0xbe7a88bd	-0.24466224
113	0x3dadea4e	0.08491956
114	0xbd820b96	-0.06349866
115	0x3e25523a	0.16144648
116	0x3e7be128	0.24597609
117	0xbed165ae	-0.40897888
118	0xbdf86fbd	-0.121306874
119	0xbecef299	-0.40419462
120	0x3e8ab255	0.27089182
121	0xbc998daa	-0.018744309
122	0x3ec283c5	0.37991157
123	0x3cdb72df	0.026788173
124	0x3f28367e	0.6570815
125	0x3ec7a299	0.3899124
126	0xbee349b4	-0.4439217
127	0x3e40f1b2	0.188422
128	0xbf4ac876	-0.7921213
129	0xbee07680	-0.43840408
130	0x3e636ae0	0.22208738
131	0xbf56a376	-0.8384317
132	0xbefafc7e	-0.4902076
133	0xbe609def	-0.21935247
134	0x3e8850dc	0.2662419
135	0xbd5cb1dc	-0.053880557
136	0xbeb42ceb	-0.3519052
137	0x3e148070	0.1450212
138	0x3e80b89d	0.2514085
139	0x3e3ee990	0.18643785
140	0xbe2f795d	-0.1713614
141	0xbe671f42	-0.22570518
142	0x3d97d2f2	0.074132815
143	0x3d53d340	0.051715136
144	0x3e072057	0.1319593
145	0x3cd1da11	0.025616677
146	0x3c21c970	0.009874687
147	0xbeab6620	-0.33476353
148	0xbf3a8c9e	-0.72870815
149	0xbe5f84c7	-0.21827994
150	0x3d85640c	0.06513223
151	0xbece1d59	-0.40256765
152	0x3e3287f4	0.17434675
153	0x3e5ce62f	0.21572183
154	0x3e8440a7	0.25830576
155	0xbe8af182	-0.2713738
156	0xbe0d47cc	-0.1379692
157	0x3d67bd08	0.05657676
158	0xbe653363	-0.22382884
159	0x3e2c948d	0.16853543
160	0xbeb0db04	-0.34542096
161	0x3ed58e39	0.4171007
162	0x3dbf93ee	0.09354387
163	0x3e579a04	0.21054846
164	0xbdf96dc9	-0.12179143
165	0xbbd6770c	-0.006544953
166	0xbe4a2bad	-0.19743223
167	0xbe6dfb2d	-0.23240347
168	0x3e86e394	0.26345503
169	0x3f1cf850	0.61316395
170	0xbf0961ad	-0.53664666
171	0x3ea85c8d	0.3288311
172	0xbe90797b	-0.28217682
173	0xbe37bb0a	-0.17942443
174	0x3ec26ced	0.3797373
175	0x3f2543da	0.6455666
176	0xbeb44ffa	-0.35217267
177	0x3e769ecc	0.24084014
178	0xbd5ae92b	-0.053445023
179	0x3e8d7079	0.27624872
180	0x3e27cf3b	0.16387646
181	0xbe242e1c	-0.16033214
182	0xbe27a59d	-0.1637177
183	0x3e0bb970	0.13644958
184	0xbeaafcb0	-0.3339591
185	0x3eb2ff79	0.34960535
186	0x3e9a0b27	0.30086634
187	0xbe49bea8	-0.19701636
188	0xbd17e83c	-0.03708671
189	0x3e93dc09	0.2887881
190	0xbe35cab7	-0.17753111
191	0xbe121827	-0.14267026
192	0xbc84934a	-0.016183514
193	0xbf1ca86c	-0.6119449
194	0xbd4c2696	-0.049841486
195	0xbf6c2ebe	-0.9225882
196	0xbf677137	-0.9040713
197	0x3ee4a8bd	0.44659987
198	0x3e639e00	0.22228241
199	0x3ead5291	0.33852056
200	0xbebc9e4c	-0.3683952
201	0x3f7a3166	0.97731626
202	0x3e68fc6d	0.22752543
203	0x3f32e6f1	0.6988364
204	0xbf591df8	-0.84811354
205	0xbcb4e1f5	-0.022080401
206	0xbdf9cf1f	-0.12197708
207	0x3b360638	0.0027774703
208	0xbe1ca5be	-0.152976
209	0xbf04fe65	-0.51950675
210	0xbede4ae6	-0.43416518
211	0x3dad9a4d	0.08476696
212	0x3f430a1f	0.7618732
213	0xbddd2562	-0.10798146
214	0xbd457b6d	-0.04821341
215	0xbf246ade	-0.64225566
216	0x3f2bbff6	0.67089784
217	0xbc8544b1	-0.016268106
218	0xbdcb8582	-0.09937574
219	0x3e042430	0.1290443
220	0x3ec954a6	0.39322394
221	0x3ee976a3	0.45598325
222	0x3e68ef3d	0.22747512
223	0xbf5f5953	-0.8724567
224	0xbd731d82	-0.059354313
225	0xbe2bfb8e	-0.16795179
226	0xbed9ff32	-0.4257751
227	0xbde82743	-0.113356136
228	0x3da95cda	0.08269663
229	0x3e0cb084	0.1373921
230	0xbf2aad4f	-0.666707
231	0x3ed3883f	0.41314885
232	0xbe3a1b4f	-0.1817448
233	0x3b4168d4	0.0029511945
234	0xbedb19fe	-0.42793268
235	0x3fb1e8e3	1.3899196
236	0xbe060ff8	-0.13092029
237	0xbf19ff34	-0.60155034
238	0xbd890045	-0.066895045
239	0xbe7a7516	-0.24458727
240	0x3e5c9899	0.21542586
241	0xbc5b5ab4	-0.0133883245
242	0xbeb13663	-0.34611806
243	0x3e51aff3	0.20477276
244	0x3f5b163c	0.855808
245	0xbdf729c1	-0.12068511
246	0x3efffcfc	0.499977
247	0xbee5e10f	-0.4489827
248	0xbd3c04b0	-0.045902908
249	0x3f0fd2ce	0.5618104
250	0x3f279ec0	0.6547661
251	0x3eaa0ccd	0.3321289
252	0x3ea9aca1	0.33139518
253	0xbda8e5ed	-0.0824698
254	0xbfac08ef	-1.3440226
255	0xbd9339b1	-0.07188738

lstm.bias_ih_l0 f4 [256]
0	0xbf13f5e0	-0.5779705
1	0xbee21ce0	-0.44162655
2	0xbf096b33	-0.536792
3	0xbe993e53	-0.29930362
4	0x3d98e151	0.07464851
5	0xbf0e87aa	-0.55675757
6	0xbdabd6d7	-0.08390587
7	0xbdb2d5ba	-0.08732171
8	0xbee6f32d	-0.45107403
9	0xbf171ca5	-0.59028083
10	0xbf3a890b	-0.7286536
11	0xbf8351af	-1.0259303
12	0x3e7ef059	0.24896373
13	0xbfa16dc9	-1.2611629
14	0xbfcd1970	-1.6023388
15	0xbe83629c	-0.2566117
16	0x3e7d205c	0.24719375
17	0xbf36de63	-0.71433085
18	0xbf424de3	-0.75900096
19	0xbf84108f	-1.0317553
20	0x3e938791	0.28814366
21	0x3e968e3f	0.294054
22	0xbf4d46d7	-0.8018622
23	0xbeaae031	-0.3337417
24	0xbeb987d6	-0.36236447
25	0xbea9c984	-0.33161557
26	0xbeb1ccac	-0.34726465
27	0x3c393574	0.011304248
28	0xbf22f24c	-0.63650966
29	0xbf57ea7c	-0.8434217
30	0xbe049be5	-0.12950094
31	0xbf1e7cb2	-0.6190902
32	0xbf0d60ee	-0.5522603
33	0x3e69ab63	0.22819285
34	0xbf8ccdb1	-1.1000272
35	0x3cb3d71f	0.021953164
36	0xbf24b7cd	-0.6434296
37	0xbf95efc7	-1.1713799
38	0xbf47cacf	-0.78043836
39	0xbe4c2e8e	-0.19939634
40	0xbf3a346b	-0.72736233
41	0xbf43fac2	-0.765545
42	0xbeacb46e	-0.33731407
43	0xbd50b84a	-0.050957
44	0xbeefc922	-0.4683314
45	0xbedd9eaa	-0.43285114
46	0x3fa3f381	1.2808686
47	0x3f672622	0.9029256
48	0xbf6e6c70	-0.9313421
49	0xbf9fcc59	-1.2484237
50	0xbf27b9a8	-0.65517664
51	0x3f26609b	0.6499116
52	0x3e542e10	0.20720696
53	0xbf731abe	-0.9496268
54	0xbf3925b4	-0.72323155
55	0x3eb5751f	0.3544092
56	0xbf4befaa	-0.79662573
57	0xbf6d3132	-0.9265319
58	0xbf7772f6	-0.9665979
59	0xbf471cbe	-0.7777823
60	0xbf03b008	-0.5144048
61	0xbf58b48e	-0.84650505
62	0x3e8949cc	0.26814115
63	0xbfb362ed	-1.4014565
64	0xbf4eee02	-0.8083192
65	0xbf2861c4	-0.6577418
66	0xbf615a1b	-0.88028115
67	0xbf25af34	-0.64720464
68	0xbed4d105	-0.4156572
69	0xbf35a159	-0.7094932
70	0xbe2b1bc6	-0.16709813
71	0xbee61a90	-0.4494214
72	0xbf816d7d	-1.0111538
73	0xbf472834	-0.7779572
74	0xbf83bbde	-1.0291708
75	0xbf8e68b4	-1.1125703
76	0xbebf82fd	-0.37404624
77	0xbfad1871	-1.3523084
78	0xbf9899d6	-1.1921947
79	0xbeb5d283	-0.3551217
80	0xbf3ab28b	-0.72928685
81	0xbf4ae096	-0.7924894
82	0xbf6553ea	-0.8958117
83	0xbf678f28	-0.90452814
84	0x3cf2ae36	0.029624086
85	0xbe899fc8	-0.26879716
86	0xbf6dd381	-0.92900854
87	0xbf84c269	-1.0371829
88	0xbf3fb79f	-0.7488956
89	0xbf23cd6d	-0.6398533
90	0xbeb21ad3	-0.3478609
91	0xbee45673	-0.44597206
92	0xbf842806	-1.0324714
93	0xbfaae8f9	-1.3352348
94	0xbec71e55	-0.3889033
95	0xbf423e58	-0.7587638
96	0xbf7260da	-0.94679034
97	0xbe75edb5	-0.2401646
98	0xbf895db5	-1.0731722
99	0xbf7bc5ab	-0.9834849
100	0xbf4db963	-0.80361
101	0xbf9eb259	-1.2398177
102	0xbf3ce585	-0.7378772
103	0xbe63a13a	-0.22229472
104	0xbf59eb9c	-0.85125136
105	0xbf96079a	-1.172107
106	0xbf7f3da3	-0.99703425
107	0xbe8ca61d	-0.27470484
108	0xbf5e2c88	-0.867867
109	0xbf8b1948	-1.086709
110	0x3f9ae446	1.2100914
111	0xbdc11119	-0.09427089
112	0xbf8c7e26	-1.0975997
113	0xbfa07dc3	-1.253838
114	0xbf1f57ec	-0.62243533
115	0x3e5334e2	0.20625642
116	0x3daea3e2	0.08527352
117	0xbf7d88ea	-0.9903704
118	0xbf422170	-0.7583227
119	0xbf70c517	-0.94050735
120	0xbf5049bd	-0.81362516
121	0xbf8519fc	-1.0398555
122	0xbf518c0a	-0.8185431
123	0xbf074936	-0.52846086
124	0xbf08dc4a	-0.53461134
125	0xbf918957	-1.1370038
126	0x3bda1a67	0.0066559794
127	0xbf8d7e0f	-1.1054095
128	0x3ef5e2f3	0.4802471
129	0xbd9452ce	-0.07242356
130	0xbe90cd04	-0.28281415
131	0x3f605ede	0.87644756
132	0x3ed3cdcc	0.41367948
133	0x3e5843fb	0.21119682
134	0xbe6fb0ac	-0.23407239
135	0x3d99ba2c	0.075062126
136	0x3a396d38	0.0007073465
137	0xbed0d564	-0.40787804
138	0xbeb12a85	-0.34602752
139	0xbe9b7471	-0.30362275
140	0x3e7d6a79	0.24747647
141	0x3e28ab5e	0.16471621
142	0xbe7b09ab	-0.24515407
143	0xbec495dc	-0.38395584
144	0xbecfefff	-0.4061279
145	0x3eaa1af3	0.33223686
146	0x3ebd5d54	0.36985266
147	0xbdf2fd71	-0.11864746
148	0xbe6b8a4d	-0.23001976
149	0x3e97334a	0.29531318
150	0x3d9b434e	0.07581197
151	0x3e82d66c	0.25554216
152	0xbe6599ee	-0.22422001
153	0x3d8ae1bd	0.067813374
154	0xbdebd33c	-0.11514899
155	0x3ef34326	0.47512168
156	0x3c12a163	0.00894961
157	0xbbe9fe00	-0.007140875
158	0xbdaff7de	-0.08592199
159	0x3f24b13f	0.64332956
160	0xbe41f5d7	-0.18941437
161	0xbdd7b79b	-0.10533067
162	0xbe760395	-0.24024804
163	0xbeae0298	-0.33986354
164	0x3e714a4b	0.23563497
165	0x3d39bf7b	0.045348626
166	0x3e8d4ae3	0.27596197
167	0xbe10f0d9	-0.14154376
168	0xbd7855ee	-0.060628824
169	0xbf38d254	-0.72195935
170	0x3e270ab0	0.1631267
171	0xbebdcbb1	-0.37069467
172	0x3c3b01f2	0.011414038
173	0x3ec8a3e5	0.39187542
174	0xbec776f4	-0.38957942
175	0x3ef54f84	0.47912228
176	0x3e4b7f35	0.19872744
177	0x3d650912	0.055916853
178	0x3e0bb5d8	0.13643587
179	0xbec09ca2	-0.376195
180	0xbf48ab0e	-0.7838601
181	0xbd254bb9	-0.040355418
182	0x3d95cf52	0.07314934
183	0xbe972006	-0.2951662
184	0xbd06a03e	-0.032867663
185	0xbda9dd01	-0.08294106
186	0xbec03971	-0.37543824
187	0x3e545d03	0.20738606
188	0x3e63e9e1	0.22257186
189	0xbca66843	-0.020313388
190	0xbe84fc9a	-0.2597397
191	0xbd5748ae	-0.052559547
192	0xbf6acc3a	-0.91717875
193	0xbf989ee2	-1.1923487
194	0xbf3d3294	-0.739053
195	0xbf36ee72	-0.7145759
196	0xbd864f26	-0.06558065
197	0xbf41c82d	-0.7569607
198	0xbe887aee	-0.26656288
199	0xbe5e471f	-0.21706818
200	0xbf3cf0a3	-0.7380468
201	0xbf90b12b	-1.1304067
202	0xbf88d16e	-1.0688913
203	0xbf8febcb	-1.1243833
204	0x3ed67bce	0.4189133
205	0xbfa667ef	-1.3000468
206	0xbfc6ec61	-1.5540887
207	0xbf98d9b5	-1.1941439
208	0x3d1e8b90	0.038707316
209	0xbf901e79	-1.12593
210	0xbf8f2b60	-1.1185112
211	0xbfb5d2ea	-1.4204991
212	0x3ec91bc6	0.39279002
213	0x3ef41bc2	0.47677428
214	0xbfb4465a	-1.408397
215	0xbf6035fe	-0.87582386
216	0xbf9abff2	-1.2089827
217	0xbf8acb19	-1.084323
218	0xbfabb308	-1.3414011
219	0x3dbb7520	0.09153199
220	0xbfa126ce	-1.2589967
221	0xbf950360	-1.1641655
222	0xbf00b3ec	-0.5027454
223	0xbfa8875d	-1.316631
224	0xbf6e776a	-0.9315096
225	0xbdd04be9	-0.10170729
226	0xbf956900	-1.1672668
227	0xba9ee0b4	-0.001212141
228	0xbf96e285	-1.1787878
229	0xbfc354b1	-1.5260221
230	0xbfc54127	-1.5410508
231	0xbebbc103	-0.36670694
232	0xbfb3bd3a	-1.4042122
233	0xbfa4a389	-1.2862407
234	0xbf016ea0	-0.50559425
235	0xbf8a14aa	-1.0787556
236	0xbee8fda9	-0.45506027
237	0xbf350fb6	-0.707271
238	0x3fb88987	1.441697
239	0x3f293cb7	0.6610827
240	0xbf6e1f53	-0.93016547
241	0xbfb92a01	-1.4465944
242	0xbf0cba56	-0.54971826
243	0x3f3d66e7	0.7398514
244	0xbd128731	-0.03577346
245	0xbfad1ed6	-1.3525035
246	0xbf990307	-1.1954049
247	0x3f2ebf8c	0.6826103
248	0xbf9d1247	-1.2271203
249	0xbf98e330	-1.1944332
250	0xbfaa9019	-1.3325225
251	0xbf10e200	-0.5659485
252	0xbf7c4c13	-0.9855358
253	0xbfaedecb	-1.3661741
254	0x3f0266ea	0.50938284
255	0xbfbc9444	-1.4732747

lstm.bias_hh_l0 f4 [256]
0	0xbf1e0678	-0.6172862
1	0xbf1d8b5c	-0.6154077
2	0xbf02e252	-0.5112659
3	0xbec97d05	-0.39353195
4	0x3e2eab60	0.17057562
5	0xbf166b5c	-0.5875757
6	0xbdc33c91	-0.095330365
7	0xbe0b0f3c	-0.1358003
8	0xbe8b4111	-0.2719808
9	0xbf154eff	-0.58323663
10	0xbf5734b6	-0.84064806
11	0xbf81cda2	-1.0140879
12	0x3ec014b4	0.37515795
13	0xbf8764e3	-1.0577663
14	0xbfcf8fac	-1.621572
15	0xbdec94aa	-0.11551793
16	0x3df0f4c9	0.11765439
17	0xbf121665	-0.5706542
18	0xbf3d08ad	-0.73841363
19	0xbf66c4b9	-0.90143925
20	0x3ec304e5	0.38089672
21	0x3e8f9c19	0.2804878
22	0xbf6225f9	-0.8833919
23	0xbef43aa5	-0.47700992
24	0xbef08739	-0.46978167
25	0xbeab584c	-0.33465803
26	0xbeb3e6c6	-0.35137004
27	0x3dbef670	0.09324348
28	0xbf36f84a	-0.7147261
29	0xbf59ea58	-0.85123205
30	0x3ca0e080	0.0196383
31	0xbf36106e	-0.7111882
32	0xbf04eaef	-0.5192098
33	0x3e1b408f	0.15161346
34	0xbf6953d8	-0.9114356
35	0x3c98ffa9	0.018676596
36	0xbee5c14f	-0.44874045
37	0xbfa6ba43	-1.3025593
38	0xbf466323	-0.7749502
39	0xbea4bb45	-0.32174125
40	0xbf4edf83	-0.808098
41	0xbf2f5836	-0.68493974
42	0xbe8899f2	-0.2667995
43	0xbe35f1f9	-0.17768086
44	0xbedbf66a	-0.42961437
45	0xbf143a9c	-0.5790193
46	0x3faceb7f	1.3509368
47	0x3f521be4	0.8207381
48	0xbf66e56c	-0.9019382
49	0xbfa33cbf	-1.2752913
50	0xbf21e8b0	-0.6324568
51	0x3f074ded	0.5285328
52	0x3e533fae	0.2062976
53	0xbf64b54c	-0.8933914
54	0xbf1f42ca	-0.6221129
55	0x3efa22d6	0.48854703
56	0xbf23bc93	-0.63959616
57	0xbf663776	-0.89928377
58	0xbf7e2632	-0.9927703
59	0xbf4b6732	-0.7945434
60	0xbed26a00	-0.41096497
61	0xbf633026	-0.88745344
62	0x3df0585b	0.117356025
63	0xbfa64a53	-1.2991432
64	0xbf4512f4	-0.76982045
65	0xbf316282	-0.69290936
66	0xbf68e067	-0.9096741
67	0xbf1e4e30	-0.61838055
68	0xbecac6b7	-0.39604732
69	0xbf367bad	-0.71282464
70	0xbdcb10f3	-0.09915342
71	0xbf072d66	-0.5280365
72	0xbf648004	-0.89257836
73	0xbf359158	-0.709249
74	0xbf7454bf	-0.9544181
75	0xbf98d82e	-1.1940973
76	0xbe4f327a	-0.20234099
77	0xbf8e321f	-1.1109046
78	0xbfa0c637	-1.256049
79	0xbecd4163	-0.4008895
80	0xbf610fab	-0.8791453
81	0xbf730652	-0.9493152
82	0xbf5ce320	-0.86284065
83	0xbf718e98	-0.94358206
84	0x3e0c03e9	0.13673367
85	0xbeac726a	-0.3368104
86	0xbf830397	-1.023547
87	0xbf832b73	-1.0247635
88	0xbf4417f5	-0.76599056
89	0xbf31a855	-0.6939748
90	0xbee702fc	-0.45119464
91	0xbedac045	-0.42724815
92	0xbf6c51ad	-0.9231213
93	0xbfa2e1f4	-1.2725205
94	0xbe905949	-0.2819312
95	0xbf80c7ba	-1.0060952
96	0xbf59c150	-0.85060596
97	0xbe40ae15	-0.18816407
98	0xbf895fc8	-1.0732355
99	0xbf6f8e13	-0.93576163
100	0xbf1bcb89	-0.60857445
101	0xbfa95c7f	-1.3231353
102	0xbf65de03	-0.8979189
103	0xbe97c5df	-0.2964315
104	0xbf606ed4	-0.8766911
105	0xbfa3803c	-1.2773509
106	0xbf95650b	-1.1671461
107	0xbe5b0c73	-0.21391468
108	0xbf4acf2e	-0.7922238
109	0xbf7cc268	-0.9873414
110	0x3f95dd40	1.1708145
111	0x3d13f64a	0.03612355
112	0xbfa0217c	-1.2510219
113	0xbf98cd1b	-1.1937593
114	0xbf2d17ba	-0.6761433
115	0x3db6939a	0.089148715
116	0x3d9e9612	0.077434674
117	0xbf951792	-1.1647818
118	0xbf47b4a6	-0.7801002
119	0xbf5163d5	-0.81792957
120	0xbf8515ff	-1.0397338
121	0xbf843f6b	-1.0331854
122	0xbf709944	-0.93983865
123	0xbf04a86d	-0.518195
124	0xbf22b688	-0.6355977
125	0xbf6a5f0f	-0.915513
126	0x3c81b05c	0.015831165
127	0xbfab4a93	-1.3382133
128	0x3effc40e	0.49954265
129	0xbd95f425	-0.073219575
130	0xbe470167	-0.19434129
131	0x3f65be4c	0.89743495
132	0x3ef69714	0.48162138
133	0x3e09dcd6	0.13463148
134	0xbe2a7dfd	-0.16649623
135	0x3e5bbcfd	0.21458812
136	0xbd171a59	-0.03689036
137	0xbeec8370	-0.4619403
138	0xbeb28bee	-0.34872383
139	0xbe206561	-0.15663673
140	0x3e8c74dd	0.2743291
141	0x3e8f6298	0.2800491
142	0xbe885fb2	-0.2663551
143	0xbe430326	-0.1904417
144	0xbef5be21	-0.4799662
145	0x3eb32a8f	0.34993407
146	0x3eb702d8	0.35744357
147	0xbdb2fab3	-0.08739223
148	0xbe560913	-0.20901899
149	0x3e747f38	0.23876655
150	0x3d8ec3a6	0.06970911
151	0x3e3cac54	0.18425113
152	0xbea03692	-0.31291634
153	0x3c3bd0d1	0.01146336
154	0xbe835c67	-0.25656435
155	0x3e71c81e	0.23611495
156	0x3e103d65	0.1408592
157	0xbe0b592a	-0.13608232
158	0x3e1a138f	0.15046524
159	0x3f285005	0.657471
160	0xbe6b77d9	-0.22994937
161	0xbd64bf6f	-0.055846628
162	0xbe617f4a	-0.22021213
163	0xbea20c6a	-0.31650096
164	0x3e8ea06d	0.2785677
165	0xbd51eda8	-0.051252037
166	0x3eaf691b	0.34259877
167	0xbdc4b331	-0.096044905
168	0x3d435fb8	0.047698706
169	0xbf4c82ea	-0.7988726
170	0x3dd75402	0.1051407
171	0xbed3f19f	-0.4139528
172	0x3c97b438	0.018518552
173	0x3e9a2e3f	0.30113408
174	0xbefa42bc	-0.4887904
175	0x3ef9bbec	0.48776186
176	0x3e823b91	0.2543607
177	0x3e30f991	0.17282702
178	0x3e701224	0.2344442
179	0xbea0eb60	-0.31429577
180	0xbf482bc4	-0.7819178
181	0x3db28795	0.087172665
182	0x3cd25e0a	0.025679607
183	0xbe8f239f	-0.27956864
184	0xbd2868cc	-0.041115567
185	0xbe5df871	-0.21676804
186	0xbe4900ca	-0.19629207
187	0x3db2a424	0.087227136
188	0x3e1b9580	0.15193748
189	0xbdd7b107	-0.10531812
190	0xbe40c277	-0.18824182
191	0xbbd68f85	-0.0065478706
192	0xbf693de8	-0.91110086
193	0xbfb07568	-1.378583
194	0xbf3a3f68	-0.72753
195	0xbf25d2e0	-0.64774895
196	0xbceb08d7	-0.028690739
197	0xbf5874d3	-0.8455326
198	0xbdf3a9d5	-0.11897627
199	0xbd41810f	-0.04724222
200	0xbf70c1a9	-0.940455
201	0xbf916637	-1.1359318
202	0xbf88566a	-1.0651371
203	0xbf8f77d5	-1.1208445
204	0x3edd5839	0.4323137
205	0xbfa90297	-1.3203915
206	0xbfbc8293	-1.4727348
207	0xbf9123a5	-1.1339003
208	0xbdd4f13a	-0.10397573
209	0xbf762388	-0.96147966
210	0xbf8af1f8	-1.0855093
211	0xbfa86611	-1.3156148
212	0x3ed7c3fe	0.42141718
213	0x3ee12374	0.4397236
214	0xbfade005	-1.358399
215	0xbf267322	-0.6501943
216	0xbf96b7ba	-1.1774819
217	0xbf8705fb	-1.05487
218	0xbfb65b7a	-1.4246666
219	0x3e3e4319	0.18580283
220	0xbf9af370	-1.2105541
221	0xbfaa2f9a	-1.3295777
222	0xbf0d049a	-0.55085146
223	0xbfa72989	-1.305955
224	0xbf8c5f3a	-1.0966561
225	0xbddf2503	-0.10895731
226	0xbfae2650	-1.3605442
227	0x3dcec391	0.10095895
228	0xbfac93c1	-1.3482591
229	0xbfc822bf	-1.5635604
230	0xbfbc3165	-1.4702574
231	0xbe8b39b7	-0.2719247
232	0xbfa33220	-1.2749672
233	0xbfa0695f	-1.2532157
234	0xbf22faed	-0.6366413
235	0xbf84eba6	-1.0384414
236	0xbf277031	-0.65405566
237	0xbf50b278	-0.8152232
238	0x3fcd9c2b	1.6063284
239	0x3f349f25	0.70555335
240	0xbf868e7a	-1.051223
241	0xbfae535b	-1.3619188
242	0xbf07c92e	-0.5304135
243	0x3f41d85b	0.7572076
244	0x3d27fa0e	0.041009955
245	0xbfbf12cc	-1.4927611
246	0xbfa0569d	-1.2526432
247	0x3eff4421	0.49856666
248	0xbf863568	-1.0485048
249	0xbfa42e06	-1.2826545
250	0xbfa65b07	-1.2996529
251	0xbf252c1e	-0.6452044
252	0xbf83688f	-1.0266284
253	0xbfa33d79	-1.2753135
254	0x3f18a84f	0.5963182
255	0xbfa4d65a	-1.2877915

lstm.weight_ih_l1 f4 [256, 64]
0	0xbc1bab9d	-0.009501365
1	0xbe1d3843	-0.15353493
2	0x3e11bd77	0.14232431
3	0xbee606f6	-0.44927186
4	0xbd13cc08	-0.03608325
5	0xbe95f7a9	-0.29290512
6	0x3ce2b30b	0.027673265
7	0x3b306872	0.0026917723
8	0x3d1a722d	0.037706543
9	0x3d8706f9	0.06593127
10	0x3ca81419	0.020517396
11	0xbd8bbb3d	-0.06822822
12	0x3e8f865c	0.28032196
13	0xbd456e7f	-0.04820108
14	0xbd874e56	-0.06606738
15	0xbe35d332	-0.17756346
16	0xbe15b7ed	-0.14620943
17	0x3e214091	0.15747286
18	0xbc83ad2b	-0.016073784
19	0xbd6d875a	-0.05799041
20	0xbd2c4fbd	-0.04206823
21	0x3db5d0a1	0.088776834
22	0xbdc2876b	-0.09498485
23	0xbe103519	-0.14082755
24	0x3e787405	0.24263008
25	0x3d1368bb	0.03598855
26	0x3ea91fa0	0.3303194
27	0x3ec1a4c1	0.3782101
28	0x3bcac762	0.006188319
29	0x3e0aff52	0.1357396
30	0xbd4a48b4	-0.04938574
31	0xbe39b1e0	-0.1813426
32	0xbe770290	-0.24122071
33	0xbd05fa7a	-0.032709576
34	0xbd9ea951	-0.07747138
35	0x3e5965b0	0.21230197
36	0xbe3cfd46	-0.18455991
37	0xbe47763c	-0.19478697
38	0xbcc72bbe	-0.02431285
39	0xbe1de998	-0.1542114
40	0xbd4a669d	-0.049414266
41	0x3ebb4431	0.36575463
42	0x3d33501f	0.04377758
43	0x3d444f6f	0.047927316
44	0x3ed6e78a	0.41973525
45	0x3dd43a40	0.10362673
46	0x3c3bbf2f	0.011459156
47	0x3d806315	0.062688984
48	0x3c394ff4	0.011310566
49	0x3d52aced	0.051434446
50	0xbdd17057	-0.10226505
51	0xbd9c28db	-0.0762498
52	0x3f112587	0.5669789
53	0x3e8b8472	0.27249485
54	0x3d4a83b6	0.049442016
55	0xbe82a5ae	-0.2551703
56	0xbe0e941c	-0.13923687
57	0xbd34ebf4	-0.044170335
58	0x3dd08ad0	0.101827264
59	0xbe95555e	-0.29166692
60	0x3d0f20ca	0.03494338
61	0x3e5c691d	0.21524473
62	0x3e919773	0.2843586
63	0x3e503fda	0.20336857
64	0x3c43b952	0.011946039
65	0x3c2955ed	0.010335428
66	0x3b761819	0.0037550984
67	0xbea3179c	-0.3185395
68	0xbd0e9383	-0.034808647
69	0xbde16fdb	-0.11007663
70	0xbd5e9957	-0.054345455
71	0x3ec6bd5a	0.3881634
72	0xbc412d91	-0.011790649
73	0x3ea1d8f0	0.31610823
74	0x3ec1695b	0.37775692
75	0xbcd28d61	-0.02570218
76	0x3d5ca776	0.05387064
77	0xbd61a282	-0.05508662
78	0x3e6f9115	0.23395188
79	0x3e8fb989	0.2807124
80	0x3e8e9758	0.2784984
81	0x3e8e3159	0.27772024
82	0xbe3b9d87	-0.1832181
83	0xbe04efa6	-0.12982044
84	0x3deb80a3	0.11499145
85	0xbe3b4a87	-0.18290149
86	0x3e4db760	0.20089483
87	0xbe045dea	-0.1292645
88	0x3e199687	0.14998828
89	0x3ce24a2a	0.027623255
90	0x3e5e16da	0.21688405
91	0x3db60f09	0.088895865
92	0x3defcdf5	0.11709205
93	0xbc845fee	-0.016159024
94	0xbe5af171	-0.21381165
95	0xbeea9637	-0.4581773
96	0x3ea62b5c	0.32454956
97	0xbe78e35b	-0.24305479
98	0x3eac6ea6	0.33678168
99	0x3ec21c04	0.37912
100	0x3d144350	0.036197007
101	0x3c952096	0.018204015
102	0x3d350505	0.04419424
103	0xbefe2b06	-0.496422
104	0xbd55cd80	-0.052197933
105	0x3ce3d2cc	0.027810477
106	0x3c0b474d	0.008500886
107	0x3df6392b	0.12022623
108	0x3f1fe0da	0.6245247
109	0xbd816bdf	-0.06319403
110	0x3e699194	0.2280944
111	0xbf4113b8	-0.75420713
112	0xbdffd708	-0.12492186
113	0x3dd4a6e9	0.10383398
114	0x3ebcf64c	0.3690666
115	0xbd41d813	-0.047325205
116	0x3f05ae36	0.5221895
117	0x3e16d85e	0.14730975
118	0x3dc1db6e	0.09465681
119	0x3e29a221	0.16565754
120	0x3e36abd1	0.1783898
121	0x3ea65749	0.32488468
122	0x3e8af43f	0.2713947
123	0x3d8cdcf3	0.0687808
124	0x3e01d05a	0.12677136
125	0xbe448765	-0.19192274
126	0x3e4850f0	0.19562125
127	0x3e8215f4	0.25407374
128	0x3db04c7e	0.0860834
129	0xbd091f6c	-0.03347723
130	0x3e6556d0	0.22396398
131	0xbdc40ec4	-0.09573129
132	0xbdcb3bef	-0.09923541
133	0xbebada0d	-0.36494485
134	0x3e024df3	0.12725048
135	0xbe0c79d4	-0.13718349
136	0xbe1afbaa	-0.15135065
137	0x3dd362a4	0.103215486
138	0x3baed57f	0.0053355093
139	0x3cf984ec	0.03045889
140	0xbdb03319	-0.08603496
141	0xbe8f1498	-0.279454
142	0xbdecd7f0	-0.11564624
143	0x3e43cbd8	0.19120729
144	0x3ddf16e7	0.1089304
145	0xbc4494fd	-0.011998412
146	0xbdb102e6	-0.08643131
147	0xbdb47d9e	-0.08813022
148	0xbec8447c	-0.3911475
149	0x3dfaaecd	0.12240372
150	0xbd96a1cb	-0.07355078
151	0xbdd7f7ef	-0.105453365
152	0x3e383434	0.17988664
153	0x3d4b0e65	0.049574275
154	0xbd9a5acd	-0.0753685
155	0xbc2ee631	-0.010674999
156	0xbd583c43	-0.052791845
157	0xbc42da6e	-0.011892898
158	0xbd7b1939	-0.06130335
159	0xbe80bb95	-0.25143114
160	0x3d26683d	0.040626753
161	0x3e9a6579	0.30155542
162	0x3d3bfc1d	0.04589473
163	0x3c062577	0.008187643
164	0xbe76161f	-0.24031876
165	0x3e91a367	0.2844498
166	0xbe7cb652	-0.24678925
167	0x3daf4441	0.0855794
168	0xbce7ca76	-0.028294783
169	0x3e8e4ba0	0.27792072
170	0x3d85da97	0.06535833
171	0x3e10ed8e	0.1415312
172	0xbd82a553	-0.06379189
173	0xbe097683	-0.13424115
174	0xbd13a86b	-0.036049288
175	0x3f0f304d	0.55933076
176	0xbe767491	-0.24067904
177	0xbd18df4f	-0.03732234
178	0xbe40d2ca	-0.1883041
179	0xbc6ef40a	-0.014584551
180	0xbe8a39a9	-0.26997116
181	0xbdd37818	-0.103256404
182	0x3e298b8a	0.16557136
183	0x3c911bb9	0.017713415
184	0xbd1cfbf0	-0.038326204
185	0x3e52f826	0.20602474
186	0xbd6fce7b	-0.058546524
187	0xbdc2a6be	-0.0950446
188	0xbc70678d	-0.014673126
189	0xbe3842de	-0.17994258
190	0x3df0d429	0.11759216
191	0x3d7243b5	0.0591466
192	0x3d77e31b	0.06051932
193	0xbe9f63db	-0.3113087
194	0x3dac00c2	0.08398582
195	0xbed2a7b3	-0.4114357
196	0x3d7b2412	0.061313696
197	0xbe38bab8	-0.18039978
198	0xbd9ea592	-0.07746424
199	0xbd09e18f	-0.033662375
200	0xbe079f01	-0.13244249
201	0x3d1f43c7	0.038882997
202	0xbc04ca4a	-0.00810487
203	0x3d8e2a55	0.06941668
204	0x3daefe49	0.08544595
205	0xbdd0d3ca	-0.101966456
206	0x3dbe78d5	0.09300391
207	0x3ccfdf21	0.02537495
208	0x3db99ece	0.09063493
209	0xbe7c6bd6	-0.24650511
210	0x3d992fb8	0.07479805
211	0xbdea54bd	-0.11441944
212	0x3e27891e	0.163609
213	0x3c6ebc4b	0.01457126
214	0x3e00b99e	0.12570807
215	0xbe5d4d07	-0.21611415
216	0x3e9f3831	0.31097558
217	0x3c1c69a8	0.009546675
218	0xbe5b98d3	-0.21445017
219	0xbdbbca28	-0.091694176
220	0x3e020e1f	0.127007
221	0x3decfb64	0.115713865
222	0x3e1df85d	0.15426774
223	0xbe1bd6c4	-0.15218645
224	0xbddd5b11	-0.10808385
225	0x3d5e2924	0.054238454
226	0x3e45e5eb	0.19325988
227	0x3d1183e3	0.035526168
228	0xbc372777	-0.011178843
229	0x3e5aa9b9	0.21353807
230	0x3cce78d1	0.025204094
231	0xbe93470f	-0.2876515
232	0x3e4fae63	0.20281367
233	0xbc500c9b	-0.012698318
234	0xbcf58cc6	-0.029974353
235	0x3f127fcb	0.57226247
236	0x3dce226f	0.100651614
237	0xbd2c22d8	-0.042025417
238	0xbcca2c3c	-0.024679296
239	0xbe3563f8	-0.17713916
240	0x3e0f1943	0.1397448
241	0x3e1fe54b	0.15614812
242	0x3d94b7ac	0.07261595
243	0x3d8a1965	0.06743125
244	0x3d2e7727	0.0425941
245	0x3ee42117	0.44556496
246	0x3d82c975	0.06386081
247	0x3d860684	0.065442115
248	0xbda167ee	-0.07881151
249	0xbd3d2e4f	-0.04618674
250	0x3e885dfd	0.26634207
251	0x3dfa8573	0.12232485
252	0x3db693e3	0.08914926
253	0xbe2bc803	-0.16775517
254	0xbcba12d3	-0.022714054
255	0x3eab4237	0.33448955

lstm.weight_hh_l1 f4 [256, 64]
0	0x3e885637	0.26628277
1	0xbbd96664	-0.0066345204
2	0xbe170ffd	-0.14752193
3	0x3e047d6b	0.12938468
4	0xbe8b9b92	-0.27267128
5	0x3b1abff0	0.0023612939
6	0xbf1cf302	-0.613083
7	0xbd87cd8d	-0.066310026
8	0xbcf964f6	-0.03044365
9	0xbf02e474	-0.5112984
10	0x3dd08810	0.10182202
11	0x3c9b35d7	0.018946571
12	0x3eaf766a	0.3427003
13	0xbe7e0e9e	-0.24810264
14	0xbe284ffb	-0.1643676
15	0xbe32573f	-0.17416094
16	0xbd7d7a6e	-0.061884336
17	0x3e565d23	0.20933966
18	0x3e4b40cd	0.19848938
19	0x3dd68892	0.104752675
20	0x3c5c3acc	0.013441753
21	0xbc75020d	-0.014954102
22	0xbe6e29fc	-0.23258203
23	0x3de032cc	0.10947189
24	0xbebc62ea	-0.36794215
25	0x3dd81f45	0.10552839
26	0xbd308d64	-0.04310359
27	0xbe526b42	-0.20548728
28	0xbecdf043	-0.40222368
29	0x3e5b40a0	0.21411371
30	0x3d87a300	0.06622887
31	0xbe9673b8	-0.2938516
32	0x3e80fb49	0.25191715
33	0xbe0e6e53	-0.13909273
34	0x3e9e45f8	0.30912757
35	0xbdedddd0	-0.11614573
36	0xbec11379	-0.3771017
37	0x3e4c8025	0.19970758
38	0xbccb7db9	-0.024840223
39	0xbeca180f	-0.3947148
40	0x3e46b090	0.19403291
41	0xbea9d032	-0.33166653
42	0xbe53fe24	-0.20702416
43	0xbe8a4b44	-0.27010548
44	0x3df27c56	0.118401214
45	0x3e0bc4f1	0.13649346
46	0x3e62fbca	0.22166362
47	0x3ec5f27f	0.38661572
48	0xbe880ed0	-0.265738
49	0x3db2c502	0.087289825
50	0x3e5f07f3	0.21780376
51	0x3d22e430	0.039768398
52	0xbe8af73b	-0.27141747
53	0xbf041649	-0.51596504
54	0xbd537750	-0.051627457
55	0x3ec86d98	0.39146113
56	0x3eabb5c2	0.33537108
57	0xbdc973e2	-0.09836556
58	0x3ccc0109	0.024902837
59	0x3e200616	0.15627322
60	0x3dc453fe	0.09586333
61	0xbe0be3d1	-0.13661124
62	0x3e520a0c	0.20511645
63	0x3e1e7b33	0.15476684
64	0x3e01da30	0.12680888
65	0xbe7adc8a	-0.24498191
66	0x3e0dce5d	0.13848253
67	0x3e1720bd	0.14758582
68	0xbe8ff148	-0.2811377
69	0x3e6bfb39	0.23045053
70	0xbe8ca35e	-0.2746839
71	0x3ee8e175	0.4548451
72	0x3db479ce	0.08812295
73	0xbd01bdba	-0.031675078
74	0xbf0b22c8	-0.54349947
75	0x3da23d09	0.07921798
76	0x3dbfabb6	0.09358923
77	0x3d489f52	0.048980065
78	0x3d8e4b5f	0.0694797
79	0x3f1a529b	0.60282296
80	0x3ee45ee2	0.4460364
81	0x3eae24f0	0.34012556
82	0x3eec1116	0.46106786
83	0xbd308ae5	-0.04310121
84	0x3dfabe66	0.12243347
85	0xbd9cd86b	-0.07658466
86	0xbdefab38	-0.11702579
87	0x3ed90143	0.42383775
88	0x3ba9ea2d	0.0051853866
89	0x3e243fae	0.16039917
90	0xbe97b23f	-0.29628178
91	0xbea7462f	-0.32670733
92	0xbee02061	-0.43774703
93	0x3efe67c4	0.49688542
94	0x3e2f1e4e	0.17101404
95	0x3f0f3eb7	0.5595507
96	0x3ee69a38	0.45039535
97	0xbdbfe748	-0.09370285
98	0x3e160b5d	0.14652772
99	0x3d4f18e5	0.05056085
100	0xbd6647b7	-0.056220736
101	0x3ccc475d	0.024936372
102	0xbeb55487	-0.35416052
103	0x3e9ac43a	0.30227834
104	0x3e371629	0.17879547
105	0x3d2d2eaf	0.04228085
106	0x3db6d291	0.08926881
107	0xbf1187ab	-0.5684764
108	0x3e595e8d	0.21227475
109	0xbdd18787	-0.10230928
110	0x3e4d6cf3	0.20061092
111	0xbe3f7401	-0.18696596
112	0xbe7e8d63	-0.24858622
113	0x3ec0bcb2	0.37643963
114	0x3d65a30d	0.0560637
115	0xbe0548dc	-0.13016075
116	0x3e5c6a87	0.21525012
117	0x3d5d5100	0.054032326
118	0xbdfe789f	-0.124253504
119	0x3e90b6eb	0.28264555
120	0x3e245914	0.16049606
121	0x3d7f11b0	0.062272727
122	0x3e03d898	0.12875593
123	0xbe9106aa	-0.28325397
124	0x3ea3d8ac	0.32001245
125	0xbbe9796e	-0.0071250712
126	0x3e94dbb1	0.2907386
127	0x3e0fc8ae	0.14041397
128	0xbbd61375	-0.006533081
129	0xbcc9f4e2	-0.024652902
130	0x3d560e94	0.052259997
131	0x3e851a13	0.25996456
132	0xbd07532d	-0.033038307
133	0xbca036bf	-0.019557355
134	0xbe029547	-0.12752257
135	0xbda1ec47	-0.079063945
136	0x3e1427f3	0.14468364
137	0x3e1d6de0	0.15373945
138	0xbca355fe	-0.019938465
139	0x3e213a43	0.15744881
140	0x3d196e36	0.03745862
141	0x3e3694b0	0.17830157
142	0xbe6b830d	-0.2299921
143	0x3e00e002	0.12585452
144	0xbe748e83	-0.23882489
145	0x3d552fc0	0.05204749
146	0xbd251b88	-0.04030946
147	0xbe43cfd6	-0.19122252
148	0xbdde0873	-0.10841455
149	0xbe120281	-0.14258768
150	0x3dad6118	0.08465785
151	0x3de0013c	0.109377354
152	0xbd6cdfa3	-0.057830464
153	0x3e62ca5c	0.22147506
154	0xbd2c5537	-0.042073455
155	0xbc913e40	-0.017729878
156	0x3e4c717e	0.19965169
157	0xbbd7b5fe	-0.0065829745
158	0x3dfa9f04	0.12237361
159	0xbdabd61d	-0.08390448
160	0xbb4604d2	-0.0030215275
161	0x3e304b99	0.17216338
162	0x3d2f0de8	0.04273787
163	0x3d8b6653	0.06806626
164	0xbe15bdbd	-0.1462316
165	0x3c7ad9f9	0.015310758
166	0x3db2a90a	0.08723648
167	0x3db510d4	0.088411
168	0xbd859a4b	-0.0652357
169	0x3d80fd17	0.06298273
170	0xbda7feda	-0.08202906
171	0xbc3a4b03	-0.011370423
172	0x3ea965ba	0.33085424
173	0x3e1e66d7	0.15468918
174	0xbdc404d6	-0.09571235
175	0x3cd39b28	0.02583082
176	0x3d6f90b8	0.058487624
177	0xbda8b359	-0.08237333
178	0x3c9a3101	0.018822195
179	0xbdb8d291	-0.09024537
180	0x3e2f1f50	0.17101789
181	0x3e81e07a	0.25366575
182	0x3deb33ba	0.114844754
183	0x3c3f66cd	0.011682224
184	0xbe2e5d6c	-0.17027825
185	0x3e54cecb	0.2078201
186	0xbdf29157	-0.118441276
187	0xbd6fae9c	-0.05851613
188	0xbd80bbf9	-0.06285853
189	0x3b3189c9	0.0027090183
190	0xbdc297b8	-0.09501594
191	0x3e1d06e9	0.15334667
192	0x3ec1aaa6	0.37825507
193	0x3e703bb9	0.23460282
194	0xbd0f0894	-0.03492029
195	0xbe47dedc	-0.19518608
196	0xbef0cf8d	-0.4703335
197	0x3d0d14f9	0.03444383
198	0xbea2a216	-0.31764287
199	0x3c011e36	0.007880738
200	0x3e59f224	0.21283776
201	0xbe725c0a	-0.23667923
202	0xbd910f85	-0.07083038
203	0x3e018474	0.12648183
204	0xbecd7d6b	-0.4013475
205	0x3e12e8d5	0.14346631
206	0xbdec5522	-0.11539675
207	0x3e08eec8	0.13372338
208	0x3e345b29	0.176129
209	0x3da8ab1a	0.0823576
210	0x3ee9a959	0.45637015
211	0x3eef9c5b	0.46798977
212	0x3e1e08bb	0.15433018
213	0xbc4017e7	-0.011724449
214	0xbe25ad97	-0.161795
215	0xbe1df541	-0.15425588
216	0x3cd98689	0.02655341
217	0x3e6c86b9	0.23098268
218	0xbef203ac	-0.47268426
219	0xbcee8c9d	-0.029119784
220	0xbe9a63f4	-0.30154383
221	0x3f114921	0.5675221
222	0x3e86074e	0.26177448
223	0x3e08fb3b	0.13377087
224	0x3e2b28d4	0.16714793
225	0xbeb11201	-0.34584048
226	0x3eac0321	0.33596137
227	0xbdab238c	-0.083563894
228	0xbdcc54d2	-0.09977116
229	0xbe104c79	-0.14091672
230	0xbdc47716	-0.09593026
231	0xbe8bbfbe	-0.27294725
232	0x3d53e57f	0.051732536
233	0x3d8eface	0.06981431
234	0xbe60954a	-0.2193195
235	0x3beaf379	0.0071701375
236	0x3ed7b9f2	0.42134053
237	0xbebb8f47	-0.3663275
238	0x3ea583dd	0.32327166
239	0x3e23218d	0.15930767
240	0xbe11f3ea	-0.14253202
241	0x3e85e71e	0.2615289
242	0x3e4e3cac	0.20140332
243	0xbe38e819	-0.18057288
244	0xbb478641	-0.0030445012
245	0xbea18f1c	-0.31554496
246	0xbe901050	-0.28137445
247	0x3d8bca4c	0.068256944
248	0x3e98c0c2	0.29834563
249	0x3d222766	0.039588355
250	0xbe4951a6	-0.19660053
251	0xbb762683	-0.0037559576
252	0x3e2302c9	0.15919031
253	0x3df6c2b6	0.12048857
254	0x3ddaea0e	0.10689174
255	0xbde54ebb	-0.11196657

lstm.bias_ih_l1 f4 [256]
0	0xbf64f543	-0.8943674
1	0xbefda7cd	-0.49542084
2	0xbeb9d398	-0.36294246
3	0xbf22a191	-0.6352778
4	0xbf2b161e	-0.66830623
5	0xbfec4695	-1.845904
6	0xbebdfd15	-0.3710715
7	0xbf7b661f	-0.982027
8	0xbf8c2e09	-1.0951549
9	0xbedf22ae	-0.43581146
10	0xbf4a85bf	-0.7911033
11	0xbf66bb4a	-0.9012953
12	0xbf301186	-0.6877674
13	0xbf91cd63	-1.1390804
14	0xbfa0402f	-1.2519587
15	0x3d907df6	0.07055275
16	0xbee9d532	-0.45670468
17	0xbf6d8ed8	-0.9279609
18	0xbeb3ea4c	-0.35139692
19	0xbf167a36	-0.5878023
20	0xbf37e869	-0.71839005
21	0xbf7353d9	-0.95049816
22	0xbf28eda1	-0.6598759
23	0xbeb6d74c	-0.35711133
24	0xbf7dacc4	-0.99091744
25	0xbe0398c3	-0.12851243
26	0xbecc30cc	-0.3988098
27	0xbe742541	-0.23842336
28	0xbf6c784c	-0.9237106
29	0xbf4ba8db	-0.7955453
30	0xbf605297	-0.8762602
31	0xbe9c8cfe	-0.30576319
32	0xb99ae184	-0.0002954119
33	0xbf79fc1c	-0.97650313
34	0xbf69cd16	-0.9132856
35	0xbf0b08b8	-0.5431018
36	0xbf408111	-0.7519694
37	0xbf409093	-0.752206
38	0xbf22259e	-0.6333865
39	0xbe3ebda4	-0.1862703
40	0xbefbcb6f	-0.49178645
41	0xbfa2d747	-1.2721947
42	0xbf42013f	-0.7578315
43	0xbf4453c1	-0.766903
44	0x3d15791c	0.036492452
45	0xbf6581c6	-0.89651144
46	0xbedca295	-0.4309279
47	0xbef25d3c	-0.47336757
48	0xbedf9452	-0.43667847
49	0xbdaacb03	-0.08339503
50	0xbf1f9616	-0.6233839
51	0xbf0c0191	-0.5468989
52	0xbf390668	-0.722754
53	0x3d0558ba	0.03255532
54	0xbf06f888	-0.5272298
55	0xbf2b1a32	-0.66836846
56	0xbf553369	-0.8328157
57	0xbf0feefb	-0.5622403
58	0xbf58d05c	-0.8469293
59	0xbf31c343	-0.6943857
60	0xbe9e7ea8	-0.30956006
61	0xbf3092d8	-0.68974066
62	0xbf3175fc	-0.69320655
63	0xbf542107	-0.82862896
64	0xbfc2cfae	-1.5219629
65	0xbffe1b3c	-1.9852061
66	0xbeee55f5	-0.46549955
67	0xbfd38ee2	-1.6527979
68	0xbf8249bd	-1.0178753
69	0xbfc035a2	-1.5016367
70	0xc00a48a8	-2.1606846
71	0xbf995774	-1.1979814
72	0xbfe02c52	-1.7513525
73	0xbf7a82ba	-0.9785572
74	0xbfbbf1fb	-1.4683222
75	0xbf00f82e	-0.5037869
76	0xbfecfa8e	-1.8513963
77	0xbfdcb317	-1.7242154
78	0xbf827e9f	-1.0194892
79	0xbfd2c27c	-1.6465602
80	0xc004aca2	-2.0730367
81	0xbfaa8d7d	-1.3324429
82	0xbfe4369f	-1.7829169
83	0xbfc6d523	-1.5533794
84	0xbfc8e5b5	-1.5695101
85	0xbf907944	-1.1287007
86	0xbf167e75	-0.5878671
87	0xbfbe90fd	-1.4887997
88	0xbf880214	-1.0625634
89	0xbecac846	-0.39605922
90	0xc014aae3	-2.32293
91	0xc001b6d1	-2.0267832
92	0xbfd24cdc	-1.6429706
93	0xc0078c2d	-2.1179307
94	0xbf893d33	-1.0721802
95	0xbfddb166	-1.7319763
96	0xc00530f0	-2.081112
97	0xbf7fbc96	-0.99897134
98	0xbfc8e24c	-1.569406
99	0xbf1c8b2f	-0.6114988
100	0xbf99d189	-1.201707
101	0xbfa8608f	-1.3154467
102	0xbed00b0f	-0.40633437
103	0xbff8e02a	-1.944341
104	0xc0056d1f	-2.0847852
105	0xbfbc87dc	-1.4728961
106	0xbfe060a9	-1.7529498
107	0xbfbe9200	-1.4888306
108	0xbe8c8d10	-0.27451372
109	0xbfbc8cca	-1.4730465
110	0xbf964b19	-1.1741668
111	0xc00cbfde	-2.1992106
112	0xbf7581da	-0.9590126
113	0xc00d7b1c	-2.210639
114	0xbf43ac20	-0.76434517
115	0xbf009f79	-0.50243336
116	0xbfebfa75	-1.8435808
117	0xc0084239	-2.129042
118	0xc00a9599	-2.1653807
119	0xc007721d	-2.11634
120	0xc00279e9	-2.0386908
121	0xbf035442	-0.5130044
122	0xbfb58f33	-1.4184326
123	0xbf98383b	-1.189216
124	0xc0135808	-2.302248
125	0xbf9f409c	-1.2441592
126	0xbffeda95	-1.9910456
127	0xbf39bb21	-0.7255116
128	0x3d9f42a0	0.077763796
129	0xbd9a8efa	-0.07546802
130	0xbdbd8cfe	-0.09255408
131	0x3da2b81f	0.079452746
132	0xbc97dcb0	-0.01853785
133	0x3d68a142	0.056794412
134	0x3c78c74d	0.015184236
135	0x3de1f491	0.110329755
136	0x3cebd12e	0.028786268
137	0x3cb75d8b	0.022383472
138	0x3d3780b5	0.04480048
139	0x3d808b70	0.062765956
140	0xbda27aee	-0.07933603
141	0xbc5ffea1	-0.013671548
142	0x3e1776a4	0.14791352
143	0xbe167bb9	-0.14695634
144	0x3d372d33	0.04472084
145	0x3c1cf548	0.009579964
146	0xbcb6c2d0	-0.02230969
147	0xbd6ebea2	-0.05828727
148	0x3d3d99b7	0.046289172
149	0x3dcbf0ca	0.09958036
150	0xbd8ca0bc	-0.06866595
151	0x3d6fdceb	0.058560293
152	0xbc51b6d7	-0.01279994
153	0xbc242e4e	-0.0100208055
154	0xbdaa9fea	-0.083312824
155	0xbda5a3ec	-0.08087906
156	0x3d1dbbd4	0.038509205
157	0xbcaf628f	-0.021409301
158	0x3cea9dd9	0.02863972
159	0x3df16993	0.11787715
160	0xbd74034a	-0.05957345
161	0x3cf39879	0.02973579
162	0xbdd29a84	-0.10283378
163	0xbe0d4fe9	-0.13800015
164	0x3dba9366	0.09110145
165	0xbdd6b1e3	-0.10483148
166	0xbce00547	-0.027346266
167	0xbb87c3d9	-0.00414322
168	0xbc96b18b	-0.018395206
169	0x3da6c5ab	0.08143171
170	0x3da1956d	0.07889829
171	0x3dd8f8b2	0.1059431
172	0x3d87aa2e	0.06624256
173	0x3d063e12	0.03277404
174	0xbd57e413	-0.052707743
175	0x3c98c70f	0.018649606
176	0xbd800836	-0.06251566
177	0xbd83a0f5	-0.064271845
178	0x3c4d3d4e	0.012526823
179	0x3da01e81	0.07818318
180	0x3cfb08a3	0.030643767
181	0x3ddedf4c	0.10882434
182	0x3de7c8dd	0.113176085
183	0xbd80c02a	-0.062866524
184	0x3dadd000	0.084869385
185	0xbd13b071	-0.03605694
186	0x3be70cdf	0.007051095
187	0x3c8bbcbf	0.017057775
188	0xbde84f80	-0.113432884
189	0x3c421bb5	0.011847426
190	0xbdad7ef5	-0.08471481
191	0x3d8f95f1	0.07011021
192	0xbf477a79	-0.77921253
193	0xbf117115	-0.56813174
194	0xbe25ecbe	-0.16203591
195	0xbf250932	-0.64467156
196	0xbf18499b	-0.59487313
197	0xbfe1b660	-1.7633781
198	0xbeab16e7	-0.3341591
199	0xbf825b24	-1.0184064
200	0xbf954ece	-1.1664674
201	0xbe899cb7	-0.26877376
202	0xbf37021f	-0.7148761
203	0xbf38a97b	-0.72133607
204	0xbf32f8cd	-0.6991089
205	0xbf928aa7	-1.1448563
206	0xbf94e8ce	-1.1633546
207	0x3c47444b	0.012162278
208	0xbf1c0506	-0.60945165
209	0xbf7a5d38	-0.9779849
210	0xbe17aff3	-0.14813213
211	0xbf11551c	-0.5677049
212	0xbf3b641b	-0.73199624
213	0xbf626931	-0.8844176
214	0xbf239d85	-0.6391223
215	0xbed8b2f1	-0.4232402
216	0xbf83f9a4	-1.0310559
217	0xbd8f3d63	-0.069941305
218	0xbee2546e	-0.4420504
219	0xbed70424	-0.41995347
220	0xbf7c021c	-0.9844072
221	0xbf38f605	-0.72250396
222	0xbf68e5e9	-0.90975815
223	0xbe20edc7	-0.15715705
224	0xbe086f16	-0.13323626
225	0xbf6fcfa8	-0.93676233
226	0xbf45316f	-0.77028555
227	0xbf12d42d	-0.57355005
228	0xbf70385f	-0.93836015
229	0xbf4208b3	-0.75794524
230	0xbf01a70f	-0.50645536
231	0xbd81b11c	-0.06332609
232	0xbf097302	-0.53691113
233	0xbfac9470	-1.34828
234	0xbf4eae46	-0.8073467
235	0xbf554521	-0.8330861
236	0x3e1c5924	0.1526838
237	0xbf8792b4	-1.0591645
238	0xbec65673	-0.3873783
239	0xbed8bb59	-0.42330435
240	0xbef44929	-0.47712067
241	0xbd371829	-0.044700775
242	0xbf2244c1	-0.6338616
243	0xbf02a683	-0.51035327
244	0xbf450911	-0.7696696
245	0xbcebc004	-0.028778084
246	0xbf0d8c7b	-0.5529248
247	0xbf19eebc	-0.60129905
248	0xbf391bdb	-0.7230813
249	0xbf07cdc7	-0.53048366
250	0xbf47a7c9	-0.77990395
251	0xbf346d14	-0.7047894
252	0xbe3a1e0d	-0.18175526
253	0xbf55a0e1	-0.83448607
254	0xbf3e3ef7	-0.74314827
255	0xbf79e6e7	-0.97617954
