Code/698/10step_5horizon/models/lstm/10step_5horizon_RMSE_84.pth (torch, 335197 bytes, 11 tensors)

lstm.weight_ih_l0 f4 [256, 85]
0.44198948 -0.0891172 0.35063258 -0.538243 0.29397663 0.17869939 0.16581857 -0.73819935
0.09718927 0.41638112 -0.07262952 0.025234938 0.2741173 -0.11875493 -0.06629746 0.2937648
0.35649082 0.035143435 -0.20791094 -0.24417529 0.05063727 -0.02483011 -0.63475376 -0.0834183
0.1162438 -0.454749 0.07321766 0.12219621 0.021289293 -0.26325506 -0.10416205 -0.18892065
0.2188292 0.30367905 -0.06018652 0.4961407 0.012413343 0.03768899 -0.3412506 0.17117393
0.13270679 0.3167352 0.37926674 -0.02442592 -0.019020816 -0.005269926 -0.15275283 -0.09428384
0.40009272 0.04201867 -0.12846741 -0.14832588 0.19279127 0.22896016 0.03393831 0.20812353
0.19967055 -0.04968147 -0.004260022 0.40717533 0.06530658 0.14134182 0.037573997 0.06769865
-0.0239521 0.040425945 -0.39144266 0.21305726 0.48092356 -0.22407779 0.0039878036 -0.13991292
0.2762524 -0.20151477 -0.9504525 -0.16467828 -0.0837898 -0.24264951 0.11052013 -0.22318523
0.17026462 0.05753946 0.3156514 -0.37831527 0.44930166 -19.666555 -0.06714479 -0.009846661
-0.07878546 -0.012095237 0.008891897 0.013587002 -0.07816919 0.0018965293 0.026971396 -0.0037459098
-0.0009330936 -0.12396353 0.057237707 -0.06295658 0.043932542 -0.00981504 0.09013921 0.009989559
-0.0016054307 -0.028836872 0.009354159 0.16075969 0.0005935154 0.0005829039 -0.08156863 0.0048227515
-0.09339187 0.0048748697 -0.055921916 -0.0020008942 0.0031134672 -0.013362623 -0.014795796 -0.0008982142
0.04549035 0.05993028 0.05750966 -0.017560223 -0.0007579374 -0.0012872632 0.022068562 -0.003878967
-0.03628301 0.016971266 0.0052042236 0.0026218658 0.008771104 0.029433336 -0.068767585 0.009602452
-0.013394528 -0.0040554716 0.006052277 0.008191241 -8.537264e-05 -0.05649138 0.0029465691 -0.0008832347
0.07551755 -0.0026827985 -0.00540023 -0.09527544 -0.032235023 -0.111198545 0.08316506 0.00085291837
0.014218778 0.03762822 -0.00073916913 0.0042725964 0.038879905 -0.045269113 -0.012471825 -0.04496035
-0.008738072 0.01211281 0.004644962 -0.054103184 -0.03465067 -0.07758328 -0.025082033 0.0015554617
-0.054543037 0.08845723 -0.54452455 1.0548015 -0.15180515 0.74881315 -0.1014266 -0.028796038
-0.23495895 -1.7131938 -0.02805219 -0.22258267 0.05063889 0.02275331 -0.55438644 0.7300705
1.8252954 -0.53546983 -0.088504314 0.6332157 -0.11687362 -0.13568258 -0.666066 0.059134725
-0.3118247 0.21616334 -0.004637761 -0.6413686 0.12795694 -2.0962415 0.013442854 -0.33841905
0.0005726219 -0.014619668 -0.065029986 -0.320656 -0.09318922 0.28329182 1.2423836 0.1369533
1.066012 0.30766356 -0.118948914 -0.10292247 -1.117455 0.8120161 0.5370132 0.017885184
-0.07182493 -0.06660988 1.3997843 0.39065927 -0.08098772 0.68727356 -0.03816757 0.1884975
-0.022667443 0.045333263 0.36440864 0.81192935 -0.17428564 -0.26431793 -0.21220881 -0.09010895
-1.4059514 0.6423401 -1.0717845 1.3373022 0.41316074 0.33898616 0.44056827 0.2577433
0.011315751 -0.13160384 -0.013771825 -0.06802452 -1.5797709 -0.022153765 -0.11631978 0.07390933
-0.10882064 -0.6404643 -0.54757786 -0.44161507 0.045727696 -0.17517838 1.1846039 3.2640805
00000000: 724c e23e 1483 b6bd 1d86 b33e 4bca 09bf
00000010: 1b84 963e f9fc 363e 58cc 293e a2fa 3cbf
00000020: 2b0b c73d e82f d53e c9be 94bd 80b9 ce3c
00000030: 1a59 8c3e c935 f3bd f6c6 87bd 5768 963e
00000040: f785 b63e 90f2 0f3d 9be6 54be 1609 7abe
00000050: 0769 4f3d 8468 cbbc 397f 22bf 37d7 aabd
00000060: 3b11 ee3d dcd4 e8be 24f3 953d 0242 fa3d
00000070: e266 ae3c 5ec9 86be ea52 d5bd 6a74 41be
00000080: c314 603e d27b 9b3e 2486 76bd 2706 fe3e
00000090: 5661 4b3c c55f 1a3d 66b8 aebe 3848 2f3e
000000a0: 4ae4 073e 1e2b a23e 402f c23e de18 c8bc
000000b0: 8bd1 9bbc 58af acbb 3d6b 1cbe e317 c1bd
000000c0: f4d8 cc3e c51b 2c3d f68c 03be bde2 17be
000000d0: 136b 453e 8874 6a3e e602 0b3d 561e 553e
000000e0: 7076 4c3e cc7e 4bbd a897 8bbb 4979 d03e
000000f0: 75bf 853d e9bb 103e 31e7 193d 97a5 8a3d
00000100: 3237 c4bc ad95 253d 2c6b c8be af2b 5a3e
00000110: 9d3b f63e a674 65be 1fac 823b 5545 0fbe
00000120: f470 8d3e e359 4ebe db50 73bf 6ca1 28be
00000130: fd99 abbd 1d79 78be 6158 e23d ab8a 64be
00000140: d959 2e3e 7fae 6b3d 0f9d a13e 8ab2 c1be
00000150: de0a e63e 1b55 9dc1 3583 89bd e453 21bc
00000160: 455a a1bd 1a2b 46bc 52af 113c 049c 5e3c
00000170: 2b17 a0bd f794 f83a 1ef3 dc3c f07d 75bb
00000180: da9a 74ba 97e0 fdbd 1672 6a3d 61ef 80bd
00000190: 9cf2 333d 43cf 20bc e89a b83d 3fab 233c
000001a0: 516d d2ba 4e3b ecbc 3042 193c 309e 243e
000001b0: 2596 1b3a 05ce 183a 740d a7bd 2c08 9e3b
000001c0: 3d44 bfbd 5fbd 9f3b 610e 65bd 6f21 03bb
000001d0: 500b 4c3b e7ee 5abc 116a 72bc 2276 6bba
000001e0: 1754 3a3d 7479 753d 408f 6b3d 75da 8fbc
000001f0: 51b0 46ba 63b9 a8ba 21c9 b43c 4436 7ebb
00000200: 7e9d 14bd 5307 8b3c 3188 aa3b 9cd3 2b3b
00000210: adb4 0f3c 2e1e f13c 05d6 8cbd 9a53 1d3c
00000220: b974 5bbc c3e3 84bb 2e52 c63b 8e34 063c
00000230: 160a b3b8 8163 67bd 3a1b 413b e188 67ba
00000240: f2a8 9a3d e4d1 2fbb 6af4 b0bb c51f c3bd
00000250: df08 04bd 10bc e3bd 7152 aa3d 6296 5f3a
00000260: e1f5 683c 0c20 1a3d cdc4 41ba 2301 8c3b
00000270: 8940 1f3d 1b6c 39bd a056 4cbc 5828 38bd
00000280: 212a 0fbc cf74 463c c434 983b 4d9b 5dbd
00000290: dced 0dbd fce3 9ebd d678 cdbc a2e0 cb3a
000002a0: 8568 5fbd 1029 b53d f665 0bbf bc03 873f
000002b0: cf72 1bbe 38b2 3f3f c0b8 cfbd abe5 ebbc
000002c0: 1499 70be ef49 dbbf b5cd e5bc b6ec 63be
000002d0: ba6a 4f3d 2665 ba3c 45ec 0dbf e6e5 3a3f
000002e0: 48a3 e93f 8d14 09bf c041 b5bd 6d1a 223f
000002f0: 705b efbd 60f0 0abe 4d83 2abf 4137 723d
00000300: 7da7 9fbe ec59 5d3e 5cf8 97bb bc30 24bf
00000310: 2507 033e d228 06c0 6b3f 5c3c 4345 adbe
00000320: 011c 163a 5587 6fbc 712e 85bd 062d a4be
00000330: fdd9 bebd a00b 913e 6d06 9f3f 7c3d 0c3e
00000340: 1573 883f 1486 9d3e 7d9b f3bd 04c9 d2bd
00000350: c408 8fbf 4ae0 4f3f b279 093f f383 923c
00000360: f318 93bd c36a 88bd 222c b33f 7e04 c83e
00000370: e4dc a5bd 29f1 2f3f 9955 1cbd 7d05 413e
00000380: 13b1 b9bc 5faf 393d c593 ba3e 9ada 4f3f
00000390: ef77 32be ae54 87be 444d 59be 0b8b b8bd
000003a0: 37f6 b3bf 6770 243f 3c30 89bf b82c ab3f
000003b0: ce89 d33e 988f ad3e 2a92 e13e eef6 833e
000003c0: b365 393c 28c3 06be 38a3 61bc 7150 8bbd
000003d0: ef35 cabf d07b b5bc 1139 eebd c65d 973d
000003e0: 5bdd debd 78f5 23bf 102e 0cbf 5f1b e2be
000003f0: f74c 3b3d f661 33be 1aa1 973f b2e6 5040

lstm.weight_hh_l0 f4 [256, 64]
-0.33341506 -1.1480222 -0.17054723 0.24571611 0.49093482 0.339699 0.017237118 0.19367768
0.07926132 -0.20495088 -0.088285536 0.08618652 -0.022049183 0.1721565 -0.07639191 0.118053965
-0.17587939 -0.5885159 0.12904643 0.051272076 0.043010093 0.4230753 0.0022567816 0.4090279
0.22742614 -0.5728137 -0.3684554 0.3227499 -0.105796404 0.15397526 -0.1771749 0.82768846
-0.2400885 -1.0280081 -0.18695667 -0.16264528 -0.061240554 0.3000429 0.16855638 -0.2301323
-0.55561185 0.4757732 -0.005208544 0.08272189 -0.36391172 0.10897668 0.1660491 -0.3993535
0.0073030186 0.13012159 0.14420833 0.08619583 -0.015713975 -0.61885303 0.1148589 0.017081713
0.1819107 0.056812696 0.33550122 -0.23115467 0.023832297 0.2503067 -0.118664466 -0.018042423
-0.7353141 -0.033158287 0.23045577 -0.62079734 -1.7178553 -0.092071496 0.5085556 -1.4811574
0.22787714 2.1661046 -0.31934878 -0.65090686 -0.25474027 0.28737783 -1.3512692 0.6215018
-0.56319255 0.61455625 -0.03803798 -0.28011596 -0.29987314 -0.67106456 -0.57925403 -0.79595786
0.40377444 0.13542567 1.1881486 -1.2419057 0.35002238 -0.35519442 -1.9593544 -1.7527114
1.5058846 1.7182969 0.29967266 -0.31328622 -1.5609225 0.10672459 -0.2269158 -0.8342721
0.6413451 -1.5548384 1.0460652 -1.1861079 0.3487 -1.0802644 0.9324784 -0.55451906
-0.6188778 0.069925725 -0.7748998 0.45017233 -1.4790125 1.7196136 -1.3055222 -0.21217035
-0.5682375 -1.430415 -0.39939925 -0.5958302 -0.5761534 1.3506482 0.40084386 -0.114974916
-0.38525924 -1.7586048 0.1493149 0.7649305 0.11027909 0.15854357 0.06726167 -0.33422926
-0.19575663 -1.342498 -1.4141768 -0.3958498 -0.35964644 0.14452305 -0.046902083 -0.25249076
-0.5126086 -1.2857018 0.70959437 -0.015912507 0.20797493 0.13985583 -0.21752726 -0.09459041
-0.018107107 0.3662415 -0.7146866 -0.023359358 -0.93450993 -0.6409437 -0.22722422 0.71236485
-0.32723036 -2.0079393 -0.84683275 0.31443757 -1.8650854 0.33182245 0.2073275 -0.53780603
0.4028607 0.75655454 -0.032142475 0.20432402 -0.18692474 -0.52631444 0.55108523 -0.414485
-0.10868253 0.12617393 0.014542688 -0.13927966 1.6480731 -1.2034175 0.055198535 0.54815394
0.026819695 -0.58002824 0.53135896 0.31783378 0.08577718 0.06591354 -0.17656922 -0.24083388
-0.2727526 0.58885795 0.7214978 -2.1204977 -1.0101862 -1.3805829 3.0072227 -0.90698785
-3.8560102 4.6149235 1.3569558 0.31176892 -0.39317718 -0.04103625 0.40654138 0.30166763
-4.355136 -2.0614517 -1.2090116 0.42794666 0.10445176 -0.9895581 0.98920786 1.0987047
0.5188675 0.39031997 -1.1322311 0.056991473 -1.0961308 0.5150361 -1.0896697 -5.559148
4.1328487 3.2803571 -0.12423082 -0.57020307 -1.8249981 0.11051151 -0.082638845 -0.44936955
2.589033 -2.9558506 3.0756807 -2.556984 -0.83163875 -1.9126618 -0.6807444 -7.9414096
-0.10885587 -1.5052258 0.8786108 0.18445416 -4.905955 5.798187 -1.7265825 0.3024376
0.055990368 0.5398978 1.368002 3.3386948 -0.38142624 1.020244 -0.2856668 0.5580841
00000000: 61b5 aabe 64f2 92bf efa3 2ebe 019d 7b3e
00000010: cf5b fb3e 07ed ad3e db34 8d3c 7153 463e
00000020: c253 a23d a5de 51be 0ccf b4bd 8f82 b03d
00000030: 7da0 b4bc cb49 303e 5d73 9cbd 47c6 f13d
00000040: ba19 34be faa8 16bf bf24 043e ab02 523d
00000050: 5a2b 303d 539d d83e 83e6 133b 1b6c d13e
00000060: 66e2 683e eba3 12bf 30a6 bcbe 7a3f a53e
00000070: c9ab d8bd b1ab 1d3e 566d 35be 64e3 533f
00000080: c2d9 75be c595 83bf 9271 3fbe 7c8c 26be
00000090: 60d7 7abd 399f 993e 0b9a 2c3e cda7 6bbe
000000a0: 943c 0ebf 8b98 f33e 6fac aabb 186a a93d
000000b0: a352 babe 2a2f df3d c608 2a3e 1078 ccbe
000000c0: 294e ef3b 983e 053e 59ab 133e 7087 b03d
000000d0: 98ba 80bc 276d 1ebf 253b eb3d f3ee 8b3c
000000e0: cc46 3a3e 6eb4 683d d1c6 ab3e cfb3 6cbe
000000f0: f33b c33c 3328 803e 5b06 f3bd b4cd 93bc
00000100: 8b3d 3cbf fcd0 07bd 99fc 6b3e 93ec 1ebf
00000110: afe2 dbbf fb8f bcbd b330 023f 9196 bdbf
00000120: a058 693e 75a1 0a40 af81 a3be d5a1 26bf
00000130: 516d 82be 3023 933e 64f6 acbf be1a 1f3f
00000140: 632d 10bf 8f53 1d3f b7cd 1bbd 5c6b 8fbe
00000150: f988 99be e3ca 2bbf fe49 14bf e5c3 4bbf
00000160: 86bb ce3e 07ad 0a3e 4115 983f c4f6 9ebf
00000170: 2236 b33e 0bdc b5be 20cc fabf d958 e0bf
00000180: d4c0 c03f 27f1 db3f b26e 993e 0d67 a0be
00000190: 4fcc c7bf 6c92 da3d 9e5c 68be db92 55bf
000001a0: 312f 243f f204 c7bf 77e5 853f 62d2 97bf
000001b0: ce88 b23e 1b46 8abf e8b6 6e3f f6f4 0dbf
000001c0: c76e 1ebf 3835 8f3d d55f 46bf fd7c e63e
000001d0: 4850 bdbf 4c1c dc3f 5a1b a7bf 2f43 59be
000001e0: 0378 11bf d717 b7bf 0f7e ccbe 5488 18bf
000001f0: ca7e 13bf 0ae2 ac3f 683b cd3e f877 ebbd
00000200: b340 c5be f619 e1bf 01e6 183e 7cd2 433f
00000210: 01da e13d 3f59 223e 7dc0 893d 1920 abbe
00000220: 6d74 48be f9d6 abbf bf03 b5bf d3ac cabe
00000230: 9423 b8be dafd 133e 661c 40bd 7846 81be
00000240: 513a 03bf e091 a4bf faa7 353f f25a 82bc
00000250: 61f7 543e 5e36 0f3e 77bf 5ebe 9eb8 c1bd
00000260: 5b55 94bc 0284 bb3e b3f5 36bf 205c bfbc
00000270: 0b3c 6fbf e314 24bf 77ad 68be 8b5d 363f
00000280: bd8a a7be 1482 00c0 08ca 58bf f6fd a03e
00000290: 1ebb eebf a2e4 a93e a94d 543e a8ad 09bf
000002a0: c243 ce3e 8fad 413f d4a7 03bd 513a 513e
000002b0: 3369 3fbe 8bbc 06bf ec13 0d3f 6137 d4be
000002c0: f294 debd bd33 013e 7444 6e3c 549f 0ebe
000002d0: 0ff4 d23f 9609 9abf dc17 623d d153 0c3f
000002e0: fab4 db3c bb7c 14bf 2407 083f 1cbb a23e
000002f0: f2ab af3d aefd 863d 90ce 34be 289d 76be
00000300: 3ba6 8bbe 65bf 163f 14b4 383f 3cb6 07c0
00000310: c84d 81bf f1b6 b0bf 5676 4040 5b30 68bf
00000320: dfc8 76c0 74ad 9340 bab0 ad3f 2da0 9f3e
00000330: 854e c9be a015 28bd 3126 d03e 2e74 9a3e
00000340: 465d 8bc0 d3ee 03c0 e4c0 9abf d31b db3e
00000350: ceea d53d ae53 7dbf ba3c 7d3f 5ba2 8c3f
00000360: 80d4 043f 05d8 c73e f3ec 90bf e46f 693d
00000370: 044e 8cbf 68d9 033f 4c7a 8bbf 8ae4 b1c0
00000380: 4c40 8440 5ff1 5140 ba6c febd d4f8 11bf
00000390: 8a99 e9bf dc53 e23d 8e3e a9bd c413 e6be
000003a0: b7b2 2540 a82c 3dc0 f4d7 4440 a0a5 23c0
000003b0: 47e6 54bf 1ad2 f4bf 4445 2ebf 0720 fec0
000003c0: d4ef debd 3dab c0bf a3ec 603f 8de1 3c3e
000003d0: 95fd 9cc0 bf8a b940 a800 ddbf 1ad9 9a3e
000003e0: 2856 653d be36 0a3f b11a af3f 2dad 5540
000003f0: 4d4a c3be 5b97 823f eb42 92be 99de 0e3f

lstm.bias_ih_l0 f4 [256]
-2.0665529 -0.38468033 -1.0896626 -2.6280134 0.0043785484 -1.6870275 -2.6557755 0.6537117
0.046243396 -0.5882205 -1.1194326 -0.95927835 -0.39160135 -1.4924107 -1.4949368 -1.269892
-0.12807155 0.12056312 -0.84690464 -2.2563643 -1.4425516 -1.0921717 -1.085364 -1.5185447
-1.5221399 0.5823291 -3.3406122 -1.8735305 -2.0772014 -0.5069252 -1.582175 -0.28071347
2.9657574 -0.6487716 0.09809575 -2.2084758 -0.18625568 -1.5913916 -1.413538 -1.8863138
-1.1519293 2.055509 -1.5343474 -2.267938 -0.30672026 0.09849747 -0.32614958 2.1058326
-1.7370704 -2.1057217 -1.253021 -1.8772588 -0.870349 -0.9840095 -0.98351246 -1.8960166
-1.7072853 -0.24663584 -1.1386817 -1.5892456 -0.94771636 -0.084515855 -1.0660995 -0.8062694
-0.7000163 0.6559171 -1.0648683 -1.3839493 -1.6261694 -0.910901 -2.0750911 -1.6240485
-1.8028392 -2.2154841 -1.4840993 -0.7727048 -1.3928615 -1.0538032 -0.6870301 -2.2039402
0.1214405 -0.018337637 -0.024725536 -1.3078018 -1.2227323 -2.0644283 -1.6177614 -1.9947441
-1.4730239 -1.3556427 -1.9730468 -2.8320856 -1.1458393 -0.65508723 -2.1350293 -2.1150832
-2.066734 -2.7044852 -1.521377 -2.4087422 -1.0590863 -0.32849845 -1.1469275 -1.7099831
-2.263948 2.522804 -1.7167283 -2.0126038 -1.169974 -2.0443842 -1.2834638 -0.14463145
-0.78394127 -1.4489338 -1.7958301 -0.8687939 -1.9072263 -1.6378235 -0.64059997 -1.7981915
-2.3273056 -1.6310129 -1.8717579 -0.37281403 -0.53243417 -1.8075145 -0.8362551 -1.3599198
0.77244854 2.0578585 0.102100655 1.4714121 -0.58298576 0.04146344 0.7387281 -0.25144452
-0.25096923 0.1054998 2.1955845 -0.73705167 -0.35606855 -0.61136824 -0.35418049 0.7215473
0.48424166 1.0297786 1.1039255 -0.0118918745 0.33349496 -0.7143484 0.77212334 -0.10948059
-0.89121836 1.5159955 0.66967237 1.3210666 0.30610365 -0.9852747 0.6652739 0.56237775
-0.53029454 1.3664964 1.6211549 -1.0580989 1.5534457 0.26729202 -0.067190416 -0.9943304
1.0820338 0.20569903 -0.9843182 -0.8067537 2.1883268 1.8514246 -0.77350146 1.4192487
-0.21785998 0.47580788 0.6670203 -0.018730838 0.29389948 0.2067598 -0.89770377 0.42504206
0.1149828 0.27906537 -0.09419361 -0.38769478 -0.8802907 -2.166254 0.023091521 0.70680356
-2.9279742 1.9531981 -1.6966045 -2.1165917 -2.3255417 -1.862565 -2.953732 -1.7008103
-1.5070237 -1.7249304 -1.8652437 -1.5143687 -1.5132862 -2.1368365 -1.1100209 -1.9152377
-0.6069253 -1.4461306 -1.738986 -2.1778479 -1.8709689 -2.1133988 -2.1582906 0.19074382
-1.746854 -2.503309 -2.518128 -2.535589 -2.3797994 -1.7047797 -1.3374358 -1.307966
2.6706567 -0.38443747 -1.8516716 -1.8108568 -0.54882014 -1.8330277 -1.3953137 -2.5462263
-2.326828 -0.09358456 -1.898693 -3.6611729 -1.6692854 -0.5055507 -1.8495494 -0.24892819
-1.5994056 -2.1155548 -1.9153986 -1.6886376 0.22527649 -1.56313 -1.8223534 -2.8799226
-2.9236157 -1.1977358 -2.0324962 -2.5218918 -1.8604228 0.066811204 -1.5683544 -2.1084306
00000000: 6742 04c0 d2f4 c4be 107a 8bbf 5f31 28c0
00000010: ed79 8f3b 84f0 d7bf 3af8 29c0 a659 273f
00000020: b769 3d3d 9e95 16bf 9149 8fbf 4493 75bf
00000030: f97f c8be 5007 bfbf 175a bfbf d28b a2bf
00000040: 3025 03be cce9 f63d bece 58bf 4668 10c0
00000050: 88a5 b8bf 48cc 8bbf 35ed 8abf ac5f c2bf
00000060: 7bd5 c2bf 8513 153f 97cc 55c0 d9cf efbf
00000070: def0 04c0 dac5 01bf b684 cabf adb9 8fbe
00000080: f8ce 3d40 e515 26bf 6de6 c83d ab57 0dc0
00000090: cfb9 3ebe b8b2 cbbf d0ee b4bf bb72 f1bf
000000a0: 6b72 93bf 768d 0340 7f65 c4bf e525 11c0
000000b0: 700a 9dbe 0bb9 c93d 14fd a6be f6c5 0640
000000c0: 5358 debf 25c4 06c0 fe62 a0bf 044a f0bf
000000d0: 31cf 5ebf 0ce8 7bbf 79c7 7bbf acb0 f2bf
000000e0: 5388 dabf 1b8e 7cbe 52c0 91bf 666c cbbf
000000f0: 8a9d 72bf a616 adbd f375 88bf ac67 4ebf
00000100: 4534 33bf 2fea 273f 9b4d 88bf 4025 b1bf
00000110: 5226 d0bf cf30 69bf 4bce 04c0 d2e0 cfbf
00000120: 6fc3 e6bf 7eca 0dc0 f7f6 bdbf fbcf 45bf
00000130: 4949 b2bf 06e3 86bf 34e1 2fbf 5b0d 0dc0
00000140: ccb5 f83d d038 96bc 358d cabc 0d66 a7bf
00000150: 7e82 9cbf 981f 04c0 ce12 cfbf c653 ffbf
00000160: 0c8c bcbf b385 adbf cc8c fcbf e440 35c0
00000170: ddaa 92bf ccb3 27bf 52a4 08c0 865d 07c0
00000180: 5f45 04c0 4916 2dc0 7bbc c2bf d528 1ac0
00000190: 2490 87bf f330 a8be 85ce 92bf bae0 dabf
000001a0: 86e4 10c0 9f75 2140 c1bd dbbf 80ce 00c0
000001b0: b5c1 95bf 31d7 02c0 8b48 a4bf 441a 14be
000001c0: 60b0 48bf aa76 b9bf c3dd e5bf 4769 5ebf
000001d0: fe1f f4bf 33a4 d1bf 5cfe 23bf 242b e6bf
000001e0: 93f2 14c0 08c5 d0bf c395 efbf 7be1 bebe
000001f0: 9b4d 08bf a35c e7bf d014 56bf da11 aebf
00000200: 30bf 453f f4b3 0340 261a d13d 3b57 bc3f
00000210: 8e3e 15bf 91d5 293d 491d 3d3f 56bd 80be
00000220: 0a7f 80be 4710 d83d 7584 0c40 6baf 3cbf
00000230: 9e4e b6be a182 1cbf 2557 b5be 53b7 383f
00000240: 86ee f73e c9cf 833f 6e4d 8d3f 23d6 42bc
00000250: dabf aa3e 89df 36bf e0a9 453f 5c37 e0bd
00000260: e326 64bf 240c c23f a66f 2b3f b618 a93f
00000270: 9eb9 9c3e f63a 7cbf 644f 2a3f fdf7 0f3f
00000280: 62c1 07bf 5be9 ae3f 0182 cf3f c96f 87bf
00000290: 4fd7 c63f 80da 883e 219b 89bd 708c 7ebf
000002a0: 1580 8a3f c4a2 523e 47fc 7bbf 6987 4ebf
000002b0: 8c0d 0c40 7bfb ec3f 3104 46bf f1a9 b53f
000002c0: b016 5fbe 179d f33e d8c1 2a3f 6a71 99bc
000002d0: fe79 963e d7b8 533e eacf 65bf 1d9f d93e
000002e0: 1a7c eb3d a8e1 8e3e 94e8 c0bd ee7f c6be
000002f0: bb5a 61bf e8a3 0ac0 6e2a bd3c 14f1 343f
00000300: ee63 3bc0 6502 fa3f 562a d9bf 3d76 07c0
00000310: add5 14c0 8868 eebf f209 3dc0 27b4 d9bf
00000320: 27e6 c0bf 85ca dcbf 4ec0 eebf d5d6 c1bf
00000330: 5db3 c1bf eec1 08c0 2a15 8ebf 8226 f5bf
00000340: 755f 1bbf cf1a b9bf 1897 debf dc61 0bc0
00000350: e97b efbf ed41 07c0 6f21 0ac0 5952 433e
00000360: e998 dfbf 3736 20c0 0229 21c0 1747 22c0
00000370: a24e 18c0 3936 dabf 1931 abbf 6e6b a7bf
00000380: 0aec 2a40 fdd4 c4be 9303 edbf 28ca e7bf
00000390: 7a7f 0cbf a7a0 eabf a499 b2bf 5ff5 22c0
000003a0: c0ea 14c0 43a9 bfbd 5f08 f3bf a850 6ac0
000003b0: 25ab d5bf c56b 01bf 09be ecbf 08e7 7ebe
000003c0: 53b9 ccbf 4065 07c0 c82b f5bf 4725 d8bf
000003d0: e1ae 663e a514 c8bf e042 e9bf a750 38c0
000003e0: 851c 3bc0 684f 99bf 6b14 02c0 ad66 21c0
000003f0: 5622 eebf 50d4 883d d6bf c8bf 87f0 06c0

lstm.bias_hh_l0 f4 [256]
-2.2096112 -0.3732596 -1.1026034 -2.5492375 -0.082913935 -1.5831568 -2.522759 0.6403649
-0.117906 -0.54106486 -1.2866069 -0.9999121 -0.157077 -1.5266845 -1.3675789 -1.4258065
-0.14355405 0.03522578 -0.8565663 -2.112505 -1.585293 -1.1333864 -1.1063205 -1.3700707
-1.4667667 0.5194694 -3.4214623 -1.7968556 -2.0198162 -0.6114813 -1.5776689 -0.1933704
3.019957 -0.4299588 0.059566505 -2.3672407 -0.18493898 -1.4544618 -1.2476835 -1.7247998
-1.0852536 2.1541624 -1.5402352 -2.0851557 -0.21102805 -0.04547163 -0.40114248 1.999334
-1.7993122 -2.1352475 -1.3390667 -1.9512999 -0.8251912 -1.0093215 -0.9784109 -1.8407731
-1.6685845 -0.09656236 -1.0811129 -1.6298583 -1.0514284 -0.16140813 -1.1716813 -0.91111505
-0.79012114 0.6369466 -0.8828927 -1.4211917 -1.7079113 -0.9967731 -2.1983078 -1.7659819
-1.8870746 -2.368123 -1.628338 -0.5935733 -1.2328175 -0.9190231 -0.83707666 -2.1501143
-0.014751329 0.1979348 0.017477578 -1.3378495 -1.1760213 -2.1743283 -1.6717179 -2.0407438
-1.3637495 -1.43215 -2.077215 -2.8627062 -1.2391416 -0.587144 -2.037437 -2.2893033
-2.0715663 -2.7589428 -1.659649 -2.589959 -1.0282708 -0.2948331 -1.217935 -1.9525087
-2.3866143 2.683398 -1.6127063 -1.9075484 -1.2738189 -2.1487868 -1.2126108 0.06191637
-0.7528436 -1.2822492 -1.5976132 -0.9215413 -1.959878 -1.6193691 -0.5344144 -1.820703
-2.15672 -1.7605648 -2.039658 -0.29799595 -0.5257941 -1.9153329 -0.82328737 -1.4731708
0.83438826 1.9819002 -0.046462465 1.4474193 -0.665782 0.20516168 0.51644987 -0.21380183
-0.33639935 0.03387224 2.126148 -0.6531318 -0.4656731 -0.52473813 -0.50618786 0.5571491
0.5204453 1.0464817 0.978968 0.102059536 0.17543109 -0.91588324 0.8127036 0.017304813
-0.8705773 1.4811573 0.6010674 1.1798599 0.3814118 -0.9903433 0.680084 0.3901001
-0.2848384 1.423509 1.6707128 -1.2230886 1.6683317 0.22089355 0.07235617 -1.0195014
1.1101958 0.35502514 -0.906076 -0.97554094 2.1108046 1.8096393 -0.85768026 1.4249786
-0.32972455 0.37806058 0.6998826 0.121237114 0.42588776 -0.010634181 -0.8010719 0.28943804
0.20407084 0.13934913 -0.13117166 -0.38036162 -0.6337703 -2.05858 -0.16313638 0.69847965
-2.8514814 1.8131081 -1.6280487 -2.135887 -2.1189616 -2.0425522 -3.045558 -1.6083502
-1.6454967 -1.5791899 -1.8058393 -1.3976859 -1.6246983 -2.0670104 -0.9546816 -2.0347106
-0.49128515 -1.4479297 -1.5963473 -2.1428843 -1.9144152 -2.0221164 -2.1193407 0.18406586
-1.7322146 -2.4412801 -2.6498022 -2.4620402 -2.3331294 -1.6291403 -1.4654042 -1.0970685
2.5998468 -0.4513807 -1.8053659 -1.7373445 -0.5117005 -1.8740045 -1.4667006 -2.4864385
-2.2906127 -0.05827685 -1.8679708 -3.7883635 -1.7402548 -0.52039874 -1.8287884 -0.07526363
-1.7792801 -2.1129456 -2.0302255 -1.6243044 0.43406704 -1.4033655 -1.7847219 -2.8210833
-2.9214318 -1.1825573 -2.0235856 -2.4678943 -2.0134892 0.12448154 -1.5736356 -2.1566422
00000000: 456a 0dc0 e21b bfbe 1c22 8dbf b526 23c0
00000010: c8ce a9bd e2a4 cabf e274 21c0 f4ee 233f
00000020: b378 f1bd 3a83 0abf 89af a4bf 3dfa 7fbf
00000030: cbd8 20be 666a c3bf d30c afbf d480 b6bf
00000040: d5ff 12be e848 103d ee47 5bbf 4833 07c0
00000050: e2ea cabf ce12 91bf e99b 8dbf 7a5e afbf
00000060: 03bf bbbf f2fb 043f 3df9 5ac0 5dff e5bf
00000070: ab44 01c0 0a8a 1cbf 0ef1 c9bf e402 46be
00000080: fa46 4140 8f23 dcbe 02fc 733d df80 17c0
00000090: a560 3dbe ce2b babf 18b4 9fbf 3dc6 dcbf
000000a0: 97e9 8abf ccdd 0940 6d26 c5bf 3173 05c0
000000b0: bd17 58be 7640 3abd 8c62 cdbe 2dea ff3f
000000c0: dd4f e6bf e5a7 08c0 8a66 abbf 32c4 f9bf
000000d0: bb3f 53bf 7231 81bf 2379 7abf 749e ebbf
000000e0: 2d94 d5bf 7dc2 c5bd e861 8abf 329f d0bf
000000f0: 3595 86bf 2c48 25be a7f9 95bf d63e 69bf
00000100: 6145 4abf ef0e 233f 4205 62bf 9ce9 b5bf
00000110: d69c dabf 862c 7fbf 13b1 0cc0 b20b e2bf
00000120: a98b f1bf 548f 17c0 616d d0bf 6bf4 17bf
00000130: f7cc 9dbf 1945 6bbf a84a 56bf 799b 09c0
00000140: 8faf 71bc 6caf 4a3e 232d 8f3c a73e abbf
00000150: de87 96bf 3228 0bc0 dafa d5bf 8c9b 02c0
00000160: 588f aebf b150 b7bf 17f1 04c0 9436 37c0
00000170: 319c 9ebf 124f 16bf 5e65 02c0 f283 12c0
00000180: 8b94 04c0 8592 30c0 616f d4bf e3c1 25c0
00000190: 619e 83bf 5df4 96be 4be5 9bbf ceeb f9bf
000001a0: 4abe 18c0 cbbc 2b40 296d cebf 8c2a f4bf
000001b0: 7f0c a3bf b985 09c0 d536 9bbf 059c 7d3d
000001c0: 5cba 40bf be20 a4bf 977e ccbf 21ea 6bbf
000001d0: 48dd fabf 7d47 cfbf 62cf 08bf cc0c e9bf
000001e0: b307 0ac0 305a e1bf c289 02c0 ed92 98be
000001f0: 719a 06bf a129 f5bf f6c2 52bf dc90 bcbf
00000200: 789a 553f e8ae fd3f 6d4f 3ebd 0945 b93f
00000210: b070 2abf e715 523e 0f36 043f deee 5abe
00000220: 893c acbe 9ebd 0a3d cf12 0840 a533 27bf
00000230: b46c eebe 3d55 06bf 8795 01bf 53a1 0e3f
00000240: e73b 053f 1df3 853f a69d 7a3f 9704 d13d
00000250: 35a4 333e 5377 6abf 580d 503f d3c2 8d3c
00000260: 27de 5ebf 9096 bd3f 8edf 193f a605 973f
00000270: 6848 c33e 2387 7dbf fc19 2e3f 33bb c73e
00000280: 57d6 91be 8b35 b63f ebd9 d53f 2b8e 9cbf
00000290: e58b d53f eb31 623e 792f 943d 067f 82bf
000002a0: e51a 8e3f dbc5 b53e 99f4 67bf 0dbd 79bf
000002b0: 6c17 0740 43a2 e73f ef90 5bbf b365 b63f
000002c0: a8d1 a8be 2891 c13e 822b 333f 2a4b f83d
000002d0: f60d da3e fd3a 2ebc 0c13 4dbf 3931 943e
000002e0: f2f7 503e 8ab1 0e3e dd51 06be c2be c2be
000002f0: c53e 22bf c6bf 03c0 390d 27be 90cf 323f
00000300: ac7e 36c0 ed13 e83f e663 d0bf 5fb2 08c0
00000310: 119d 07c0 2db9 02c0 6cea 42c0 6bde cdbf
00000320: a39f d2bf e522 cabf be25 e7bf 5fe7 b2bf
00000330: 1df6 cfbf e649 04c0 0366 74bf b338 02c0
00000340: ba89 fbbe c355 b9bf 1c55 ccbf 0425 09c0
00000350: 8f0b f5bf 5b6a 01c0 47a3 07c0 c37b 3c3e
00000360: 35b9 ddbf ef3d 1cc0 5c96 29c0 1192 1dc0
00000370: fe51 15c0 ab87 d0bf 5d92 bbbf be6c 8cbf
00000380: e463 2640 5f1b e7be 3b16 e7bf 4e61 debf
00000390: cefe 02bf 61df efbf d8bc bbbf cf21 1fc0
000003a0: 6699 12c0 b5b3 6ebd ab19 efbf 8c74 72c0
000003b0: abc0 debf da38 05bf bd15 eabf d123 9abd
000003c0: 73bf e3bf 803a 07c0 37ef 01c0 35e9 cfbf
000003d0: 093e de3e 7ba1 b3bf c471 e4bf a18c 34c0
000003e0: bdf8 3ac0 0a5e 97bf 6d82 01c0 fbf1 1dc0
000003f0: 02dd 00c0 2df0 fe3d e46c c9bf 6d06 0ac0

lstm.weight_ih_l1 f4 [256, 64]
-0.42717588 -3.0312593 -0.20329626 0.425703 -0.22023842 0.42035654 0.10813496 0.21656404
0.15316641 -0.2807756 0.13735679 -0.123495825 0.117282055 0.121922016 0.120296896 0.0012397043
-1.0681536 -0.96070063 0.16242601 -0.19158149 -0.00068546704 -0.17571783 -0.050022088 -1.525054
0.08359031 -0.03819257 -0.060115784 0.061966307 -0.010577249 0.01454963 -0.64917606 -0.780005
0.92022383 -0.4220667 0.244167 0.21627656 -0.62459534 -0.067783006 0.15681095 -0.3128434
-0.42254984 -0.39339298 -0.065539196 0.3859951 -0.7134524 -0.2991266 -0.006780285 -1.5116681
0.07478272 -0.30013213 -0.99600077 0.035243046 -0.9921766 0.6486104 0.15937355 -0.06598196
0.014094552 -0.32278705 -0.4749137 -0.11814727 -0.23752804 0.5360943 0.3015282 -0.2358663
-0.15352833 -0.952977 0.12098996 0.75140196 1.6820897 0.86888725 -0.32946208 -1.2589101
-0.11586691 -1.1803974 -0.65690017 1.1492975 0.4102916 -0.22628398 0.058529608 -1.6094186
0.16012226 -0.7981242 -0.090747476 0.58630097 0.84487784 0.86932325 -0.82070833 1.5983303
0.12055876 -0.777225 1.4126301 -0.9467065 0.8292125 1.3086256 -0.287263 1.8941586
-1.4647107 -2.1228628 1.0565214 0.8266881 -1.7322816 -0.99196535 0.6594356 -3.8122108
-0.15390195 -0.91133696 0.2875919 0.9879537 -0.61987835 -0.28014174 1.0072985 0.23779656
0.19492994 -0.62117654 0.42878807 0.122617975 0.9888425 -0.62702024 1.6186785 1.0681963
1.5335368 1.9530425 -1.8538213 -2.3055258 -0.0032408016 1.315311 -0.31731114 -1.122007
-0.19910564 -1.2810482 -0.17677347 0.43536004 0.2959164 0.523768 -0.18805288 0.20234616
-0.041013148 -0.18767856 -0.24851088 0.0640117 0.089939624 0.12792355 0.039345328 -0.18843797
-0.86740214 -0.85425603 0.16100039 0.24706133 0.09520065 0.18030849 -0.22700348 -0.06520669
0.01807614 -0.34193778 -0.06641634 0.16857344 -0.060079996 0.29910883 -0.32618955 0.59217227
-0.19085997 -0.9333083 -0.1898793 0.24429399 -0.73371506 0.16560702 0.18202397 -0.111710854
-0.48271516 0.013325111 -0.16977394 0.1297843 -0.8870641 -0.11963635 -0.10200406 -1.2322406
0.059771396 0.03270502 -0.018414337 -0.06670903 -0.045003865 -0.35765162 -0.06578963 -0.4363527
0.013475292 -0.12590855 0.14605154 -0.14676102 -0.1422524 0.45166987 0.117965266 -0.13766083
-0.33420414 -2.4282687 -0.30147585 1.4342009 -0.5757102 0.65520245 -0.08888414 -1.4096949
-1.0383326 0.47829962 -0.8400241 0.02213034 0.396752 -0.027857065 0.38336802 -0.90093786
-1.00536 0.5289915 0.75399715 -0.27840158 -0.5712572 -0.4578143 0.44558367 -1.3628017
0.09322428 0.985578 -0.52737033 -0.20646188 0.23730351 -0.11017853 0.9344687 -0.30298954
0.33845395 0.5193693 -1.0101918 -0.09218862 -3.907804 0.53477806 0.10480923 -0.7096721
-0.8138355 -0.9093823 0.15293297 -0.7831983 -1.332902 0.8644944 0.84064394 -2.3317385
0.28627136 -0.17486049 -0.7345805 -0.28369004 0.27062207 0.44628695 -0.038186245 1.2741863
-0.03935658 0.6622195 -0.93110746 2.3278873 1.5731037 2.1405053 -0.4552088 0.1837445
00000000: ccb6 dabe 2700 42c0 e52c 50be bef5 d93e
00000010: 2e86 61be f938 d73e dd75 dd3d f7c2 5d3e
00000020: a8d7 1c3e d2c1 8fbe 42a7 0c3e 61eb fcbd
00000030: 9331 f03d 40b2 f93d 385e f63d 937d a23a
00000040: 42b9 88bf 7af0 75bf 0153 263e f02d 44be
00000050: eab0 33ba 60ef 33be f6e3 4cbd f834 c3bf
00000060: 6531 ab3d d06f 1cbd f83b 76bd 62d0 7d3d
00000070: 334c 2dbc 9261 6e3c 6730 26bf 68ae 47bf
00000080: ca93 6b3f 2019 d8be ea06 7a3e 9a77 5d3e
00000090: 7be5 1fbf d1d1 8abd 0d93 203e 032d a0be
000000a0: 7458 d8be ce6a c9be 6a39 86bd 26a1 c53e
000000b0: d1a4 36bf 1f27 99be 272d debb 577e c1bf
000000c0: af27 993d ebaa 99be e8f9 7ebf 035b 103d
000000d0: 49ff 7dbf 550b 263f d232 233e 8d21 87bd
000000e0: d6ec 663c 5844 a5be e327 f3be 32f7 f1bd
000000f0: 8d3a 73be 7a3d 093f e761 9a3e ef86 71be
00000100: 8836 1dbe 4df6 73bf 96c9 f73d e15b 403f
00000110: b74e d73f 656f 5e3f 41af a8be f723 a1bf
00000120: a14b edbd 4317 97bf 9c2a 28bf 2e1c 933f
00000130: be11 d23e fdb6 67be bebc 6f3d 6e01 cebf
00000140: 17f7 233e de51 4cbf d0d9 b9bd d217 163f
00000150: ea49 583f f88b 5e3f f119 52bf 1696 cc3f
00000160: 83e7 f63d 38f8 46bf 10d1 b43f 5b5b 72bf
00000170: 4547 543f 0b81 a73f 2314 93be ca73 f23f
00000180: a47b bbbf fcdc 07c0 183c 873f d5a1 533f
00000190: 67bb ddbf 71f1 7dbf c5d0 283f 43fb 73c0
000001a0: 7998 1dbe 614d 69bf 3f3f 933e 89ea 7c3f
000001b0: 59b0 1ebf bd6e 8fbe 28ef 803f f180 733e
000001c0: b79b 473e 6d05 1fbf 1c8a db3e 221f fb3d
000001d0: c824 7d3f 6684 20bf db30 cf3f a8ba 883f
000001e0: ef4a c43f 4cfd f93f 044a edbf bc8d 13c0
000001f0: a163 54bb 1c5c a83f 9b76 a2be ed9d 8fbf
00000200: 59e2 4bbe 63f9 a3bf 1b04 35be 83e7 de3e
00000210: 5b82 973e a915 063f ef90 40be d533 4f3e
00000220: 67fd 27bd cf2e 40be a379 7ebe 9118 833d
00000230: 4432 b83d 64fe 023e 9128 213d e2f5 40be
00000240: 110e 5ebf 86b0 5abf 49dd 243e a5fd 7c3e
00000250: 8ff8 c23d caa2 383e 9a73 68be 168b 85bd
00000260: 6a14 943c 7812 afbe 4a05 88bd 849e 2c3e
00000270: 7116 76bd cb24 993e 5102 a7be 9a98 173f
00000280: cc70 43be 4bed 6ebf b86f 42be 3428 7a3e
00000290: c0d4 3bbf e394 293e 7e64 3a3e a9c8 e4bd
000002a0: 7126 f7be 9151 5a3c 38d9 2dbe 2de6 043e
000002b0: a216 63bf e703 f5bd 81e7 d0bd 0fba 9dbf
000002c0: dad2 743d b3f5 053d aad9 96bc be9e 88bd
000002d0: f955 38bd 1d1e b7be b7bc 86bd 9f69 dfbe
000002e0: 79c7 5c3c 2cee 00be 898e 153e 8548 16be
000002f0: 9daa 11be 4641 e73e c697 f13d f6f6 0cbe
00000300: ce1c abbe c168 1bc0 0b5b 9abe e593 b73f
00000310: be61 13bf 59bb 273f e308 b6bd e270 b4bf
00000320: 15e8 84bf b0e3 f43e d20b 57bf b04a b53c
00000330: 1423 cb3e 8034 e4bc d048 c43e dda3 66bf
00000340: a3af 80bf fd6b 073f f505 413f a78a 8ebe
00000350: e93d 12bf a366 eabe 8b23 e43e 4970 aebf
00000360: 5fec be3d d74e 7c3f be01 07bf be6a 53be
00000370: b1ff 723e 48a5 e1bd 5739 6f3f 7221 9bbe
00000380: d649 ad3e 63f5 043f f74d 81bf 63cd bcbd
00000390: 7619 7ac0 37e7 083f 39a6 d63d 12ad 35bf
000003a0: 8657 50bf 47cd 68bf 769a 1c3e af7f 48bf
000003b0: 889c aabf 814f 5d3f 7134 573f 343b 15c0
000003c0: 2992 923e a10e 33be 780d 3cbf d23f 91be
000003d0: fa8e 8a3e b97f e43e 2e69 1cbd 8918 a33f
000003e0: 5d34 21bd 3887 293f 0f5d 6ebf 1bfc 1440
000003f0: 765b c93f 0afe 0840 2111 e9be 8527 3c3e

lstm.weight_hh_l1 f4 [256, 64]
0.45410636 0.1530176 0.23325348 0.6303251 -0.49654308 0.38842055 -0.10905696 -0.080437586
-0.21516019 0.23180099 0.0012051822 -0.3212339 -0.20435984 0.2251347 0.2946246 -0.009822011
-0.1912467 0.3680733 0.34930706 -0.33961177 0.14648946 -0.46978733 -0.22576049 -0.38871646
0.14924888 -0.5919497 0.0016020495 -0.2189903 -0.34294334 0.27019235 0.08087557 0.3319083
0.6005664 0.10333042 0.20726347 -0.15844595 0.12932235 -0.04121202 -0.15697879 -0.30270687
-0.43749535 0.18549852 0.0105441725 -0.2582993 -0.13199472 -0.55539924 -0.2850652 0.24277112
-0.14227241 0.30942625 -0.13767868 0.13515218 -0.1843383 0.4172713 -0.06921704 0.12648578
1.4524982 0.24018976 -0.03994461 0.17723313 -0.310528 0.26332188 -0.2188602 -0.3737205
0.204546 0.6571116 0.057725374 -0.009211791 -0.49333367 0.3068445 0.04121955 0.2790402
-0.0031603551 0.014840149 0.013946131 2.8894124 -0.20584567 0.34412885 0.27030513 -0.16164035
-1.0455306 0.08195332 0.23078737 -0.23026983 -0.03732278 2.930568 -5.198912 -0.18623611
0.31283182 -0.58359504 1.0982581 -0.09861236 -0.37440974 0.23755597 0.113192536 0.22575653
0.26604185 0.29120514 -0.0015512488 -0.4248533 0.13592406 0.0829588 0.12736434 -0.049090896
-0.34437117 -0.0152310515 -0.0046436135 -0.19542672 -0.03740199 -0.45327055 -0.44802913 0.10951405
-0.0805589 0.12814112 -0.223952 -0.5690046 0.85628617 0.01036029 -0.044113584 0.24684249
1.8947269 1.0287472 -0.10341495 -0.52999306 0.104748935 -0.1627724 -0.2708597 1.489331
0.3358848 0.034482047 0.19619216 0.28982332 -0.10630431 0.22700268 0.109387144 0.2900276
-0.211652 0.01494238 0.07901794 -0.08488039 -0.23192725 0.16545852 0.36208445 -0.029788405
-0.29637992 0.2758918 0.30659163 -0.21990934 0.15735187 0.65938 -0.31090772 -0.30377886
0.18010242 -0.36088812 0.086388804 -0.08319975 -0.09035543 0.19397463 0.066689275 0.3240409
0.4394445 0.16623168 0.08114156 -0.2197074 0.21928996 -0.07362334 0.09822578 -0.23067519
-0.122203976 0.12659138 0.012624835 -0.32969663 -0.25782087 -0.33940107 -0.30403343 0.37116316
-0.2282334 0.033038475 0.04935495 0.12126228 -0.016253939 0.20000638 -0.22242823 0.020107258
0.43968663 -0.057547275 -0.04108733 0.12401934 -0.17040499 0.121060126 -0.15773857 -0.17542718
0.14905761 2.1656005 -0.0803013 1.2525321 -2.5243554 0.31706148 -0.2972849 -0.29130217
-0.116225876 0.18042864 0.07066549 -1.5505365 0.13025148 0.32782817 0.37098846 -0.044559088
-0.5989399 0.76903236 0.28693134 0.15298598 0.30460033 -2.6156142 0.28611913 -0.34060213
0.17694029 -1.1375558 -1.6497673 -0.28616226 -0.086085655 0.3636699 0.2450152 0.24853548
0.276963 0.20149374 -0.120974466 -0.36042622 0.0705409 -0.14702398 -0.10875552 -0.4497564
-0.80958456 0.25518018 -0.0040281387 -0.11970092 -0.04911894 -0.80353713 -0.12429481 0.24313432
0.019661276 0.13732502 -0.16119756 0.7639522 -0.3538698 0.51839817 -0.009488197 0.13248636
1.9021533 -3.8979268 -0.020362766 -1.9261682 0.34069723 -0.049977597 -0.20974702 -0.34928992
00000000: a180 e83e a5b0 1c3e 00da 6e3e fc5c 213f
00000010: e53a febe 0fdf c63e 4159 dfbd 76bc a4bd
00000020: f452 5cbe 3d5d 6d3e 34f7 9d3a c578 a4be
00000030: b543 51be b689 663e 09d9 963e 80ec 20bc
00000040: 2dd6 43be 1b74 bc3e 60d8 b23e 98e1 adbe
00000050: 5501 163e f787 f0be c22d 67be d805 c7be
00000060: b3d4 183e 048a 17bf dcfb d13a fe3e 60be
00000070: 4596 afbe a756 8a3e 17a2 a53d e2ef a93e
00000080: b8be 193f e69e d33d e03c 543e a83f 22be
00000090: 146d 043e efcd 28bd 0cbf 20be 65fc 9abe
000000a0: 64ff dfbe 53f3 3d3e 77c1 2c3c ce3f 84be
000000b0: a029 07be a52e 0ebf 11f4 91be fe98 783e
000000c0: dcaf 11be 1e6d 9e3e a4fb 0cbe 5565 0a3e
000000d0: 2ec3 3cbe 95a4 d53e aac1 8dbd 7d85 013e
000000e0: 76eb b93f 4ef4 753e f69c 23bd 9a7c 353e
000000f0: 87fd 9ebe 20d2 863e e31c 60be 4b58 bfbe
00000100: 8274 513e 7738 283f 7171 6c3d 0ded 16bc
00000110: 3b96 fcbe b91a 9d3e d5d5 283d 5bde 8e3e
00000120: f61d 4fbb 1924 733c 507e 643c 22ec 3840
00000130: 35c9 52be a831 b03e 6f65 8a3e 0c85 25be
00000140: f2d3 85bf 24d7 a73d 8653 6c3e dbcb 6bbe
00000150: c5df 18bd 6d8e 3b40 7d5d a6c0 aeb4 3ebe
00000160: 7e2b a03e 7c66 15bf b993 8c3f 47f5 c9bd
00000170: a2b2 bfbe df41 733e 7dd1 e73d b82c 673e
00000180: a336 883e d718 953e 4653 cbba 5f86 d9be
00000190: ad2f 0b3e 4ee6 a93d cc6b 023e 8913 49bd
000001a0: 6b51 b0be a98b 79bc 7429 98bb f11d 48be
000001b0: d432 19bd 1413 e8be 1364 e5be e748 e03d
000001c0: 11fc a4bd 6d37 033e ac53 65be 49aa 11bf
000001d0: 9235 5b3f 35be 293c 72b0 34bd 47c4 7c3e
000001e0: 6986 f23f fdad 833f 38cb d3bd a0ad 07bf
000001f0: 9c86 d63d cfad 26be 1fae 8abe 66a2 be3f
00000200: 18f9 ab3e 0c3d 0d3d 99e6 483e b963 943e
00000210: 13b6 d9bd 6473 683e 5e06 e03d 7f7e 943e
00000220: 4dbb 58be e2d0 743c 28d4 a13d c5d5 adbd
00000230: 567e 6dbe f56d 293e 2263 b93e d006 f4bc
00000240: 1cbf 97be b141 8d3e 94f9 9c3e ea2f 61be
00000250: d920 213e 21cd 283f 4c2f 9fbe e788 9bbe
00000260: c56c 383e 54c6 b8be 9dec b03d a164 aabd
00000270: 450c b9bd 49a1 463e 6394 883d b0e8 a53e
00000280: dffe e03e a338 2a3e 8c2d a63d fafa 60be
00000290: 8c8d 603e d5c7 96bd 992a c93d 1e36 6cbe
000002a0: 1446 fabd 2ca1 013e 65d8 4e3c ffcd a8be
000002b0: 1901 84be fac5 adbe 45aa 9bbe 1909 be3e
000002c0: 04b6 69be 5a53 073d 6b28 4a3d 5c58 f83d
000002d0: fb26 85bc 79ce 4c3e 3ac4 63be fab7 a43c
000002e0: 9b1e e13e b1b6 6bbd 304b 28bd dafd fd3d
000002f0: a57e 2ebe 5fee f73d 3886 21be 2fa3 33be
00000300: 8fa2 183e 3399 0a40 0275 a4bd f952 a03f
00000310: 0a8f 21c0 e255 a23e ba35 98be 8f25 95be
00000320: d507 eebd 49c2 383e 12b9 903d fb77 c6bf
00000330: a560 053e 18d9 a73e 33f2 bd3e 9783 36bd
00000340: 2054 19bf 4edf 443f aae8 923e 5ba8 1c3e
00000350: 93f4 9b3e 3966 27c0 357e 923e 6763 aebe
00000360: d62f 353e 6e9b 91bf 932b d3bf dc83 92be
00000370: ad4d b0bd f132 ba3e 44e5 7a3e 1680 7e3e
00000380: 18ce 8d3e 6054 4e3e 76c1 f7bd c989 b8be
00000390: bf77 903d 748d 16be 37bb debd 7946 e6be
000003a0: ef40 4fbf faa6 823e 7afe 83bb c225 f5bd
000003b0: f130 49bd 9cb4 4dbf 478e febd 34f8 783e
000003c0: af10 a13c ee9e 0c3e f910 25be 5f92 433f
000003d0: 6c2e b5be beb5 043f 6274 1bbc 81aa 073e
000003e0: c279 f33f a277 79c0 d1cf a6bc ae8c f6bf
000003f0: de6f ae3e 4fb5 4cbd ecc7 56be 21d6 b2be

lstm.bias_ih_l1 f4 [256]
-1.9382527 -0.6265936 -1.8680582 -1.5376872 -1.151129 -1.8225601 -1.8369257 -2.4283926
-1.8746128 -1.9528517 -2.0003297 -1.9109169 -1.810272 -1.9865959 -1.8614364 -1.9684942
-0.491577 -2.204654 -1.9776899 -1.9082471 -1.9469177 -1.0779145 -1.3366505 -1.8420931
-1.9334238 -1.8695979 -0.79016364 -1.9343193 -1.9441696 -1.7948176 -1.9531082 -1.8113252
-1.9716152 -1.9540526 -0.9067481 -2.0261433 -1.7582545 -1.9327137 -1.3925623 -2.2771006
-2.1769161 -1.983275 -1.8297141 -1.8923609 -1.7764472 -1.638925 -2.014889 -1.8789668
-2.1523576 -1.9529759 -1.9628876 -1.542448 -1.2409917 -1.8809708 -1.8328127 -1.857502
0.14776795 -1.5929471 -1.9192439 -0.87317836 -0.9431329 -1.7939236 -1.9109838 -1.5839616
-1.4089007 -1.2364389 -0.97028583 0.46443483 -2.7286127 -0.77756256 -0.7373799 -0.8752914
-0.9538595 -0.86247945 -0.76491755 1.8391799 -1.0246779 -0.9059301 -0.99755466 -0.73116064
-2.625062 -0.9989946 -0.6222793 -0.9969446 -0.77607113 0.31991214 -3.0836296 -0.9112102
-0.8218563 -0.64691865 -2.3276742 -0.6604141 -0.8910737 -0.89320076 -0.951836 -1.1234747
-1.028286 -0.82611346 -2.6344092 -0.94850343 -0.90429634 -1.0414832 -1.3988101 -1.1946355
-1.2380953 -0.82581675 -1.0931945 -0.93435377 -1.0092139 0.27510166 -0.97619677 -0.77778256
-0.8024748 -0.91241 -0.729205 -1.2877314 -0.5197103 -0.87312716 -0.9781107 -0.98098224
0.17465419 -2.0814142 -0.94908464 -2.145508 -1.414458 -0.9180481 -1.0040791 -3.2911394
-0.011917714 0.21142435 -0.10168674 -0.20611092 -0.004721174 0.06585448 -0.06964148 -0.21604054
0.021167047 0.075502165 -0.057123423 0.2848221 0.047420338 0.07041421 0.036355752 0.08145667
0.28731465 -0.031852983 0.021516811 -0.03542925 0.026139086 0.123697974 -0.5950172 0.048085812
0.04325225 -0.07299985 -0.06615826 -0.0028601645 -0.0766683 0.019950744 0.051738042 0.035847224
0.024233075 -0.05692169 -0.07659518 0.08291152 -0.012383064 -0.05367411 0.1922816 -0.008872971
-0.0879268 0.09901872 -0.053408965 -0.033066366 0.04058523 0.2980116 -0.10461046 -0.00069436233
-0.03272189 0.029141394 -0.07390519 0.13048604 -0.3300615 0.08043879 0.0127208615 -0.021622935
-0.0032586432 0.9710437 0.08342455 -0.22188412 0.3254607 -0.035467997 0.06377811 0.57911557
-1.7302071 -0.7728369 -1.8860656 -1.0427332 -1.2767549 -1.8269562 -1.8227472 -2.4025023
-1.7634413 -1.9416045 -1.8906215 -0.57632035 -1.8254392 -1.8340944 -1.8040674 -2.0705352
-0.45070213 -2.2516198 -2.0108554 -1.8225311 -1.8897812 0.6367696 -1.6087965 -1.9681721
-2.0652552 -1.5642914 -0.55089325 -1.8501086 -1.8430734 -1.8326399 -1.8874652 -1.7831274
-2.0892017 -2.0395653 -1.154328 -1.9104137 -1.7760547 -1.7852746 -1.2578988 -2.1997354
-2.2918952 -1.9824148 -1.6791211 -1.7934167 -1.8616056 -1.6689161 -2.1134522 -2.0222309
-2.0703328 -1.9199789 -1.9596881 -1.3679572 -0.8664905 -1.9394883 -1.7895052 -1.9421219
-0.57943374 -1.6231704 -1.9497887 -1.0855048 -0.8367072 -1.6580868 -1.8128196 -1.6364325
00000000: aa18 f8bf 7068 20bf 881c efbf efd2 c4bf
00000010: 3258 93bf a649 e9bf 6220 ebbf c96a 1bc0
00000020: 50f3 efbf 0bf7 f9bf 6705 00c0 ed98 f4bf
00000030: feb6 e7bf c648 febf 8c43 eebf 9ef7 fbbf
00000040: fbaf fbbe 0d19 0dc0 f124 fdbf 7141 f4bf
00000050: 9934 f9bf 1af9 89bf 5d17 abbf b5c9 ebbf
00000060: 6e7a f7bf fc4e efbf 2a48 4abf c697 f7bf
00000070: 8dda f8bf 95bc e5bf 73ff f9bf 81d9 e7bf
00000080: e35d fcbf 651e fabf a520 68bf 55ac 01c0
00000090: 7c0e e1bf 2a63 f7bf 7b3f b2bf 04bc 11c0
000000a0: 9852 0bc0 f5db fdbf 1234 eabf e238 f2bf
000000b0: 9f62 e3bf 4bc8 d1bf f1f3 00c0 fc81 f0bf
000000c0: 3ac0 09c0 1dfb f9bf e73f fbbf f06e c5bf
000000d0: d1d8 9ebf a7c3 f0bf 9b99 eabf a0c2 edbf
000000e0: 7b50 173e b1e5 cbbf c9a9 f5bf 9e88 5fbf
000000f0: 2871 71bf 4a9f e5bf 1e9b f4bf 41bf cabf
00000100: dc56 b4bf a143 9ebf a764 78bf 67ca ed3e
00000110: 97a1 2ec0 570e 47bf eec4 3cbf 1913 60bf
00000120: 2330 74bf 74cb 5cbf a3d1 43bf 3f6a eb3f
00000130: a528 83bf 09eb 67bf be5f 7fbf 582d 3bbf
00000140: 0401 28c0 1cbe 7fbf b24d 1fbf c337 7fbf
00000150: 99ac 46bf 86cb a33e 305a 45c0 1245 69bf
00000160: 2d65 52bf 769c 25bf 9df8 14c0 e610 29bf
00000170: 681d 64bf cea8 64bf 86ab 73bf 05ce 8fbf
00000180: e09e 83bf 2c7c 53bf 299a 28c0 1fd1 72bf
00000190: f77f 67bf 524f 85bf 360c b3bf d1e9 98bf
000001a0: e879 9ebf ba68 53bf cced 8bbf cf31 6fbf
000001b0: ec2d 81bf 20da 8c3e 08e8 79bf c21c 47bf
000001c0: fd6e 4dbf b493 69bf 2ead 3abf 62d4 a4bf
000001d0: bc0b 05bf 4385 5fbf 7665 7abf a721 7bbf
000001e0: 8cd8 323e e435 05c0 36f7 72bf 0150 09c0
000001f0: f60c b5bf 3305 6bbf aa85 80bf 07a2 52c0
00000200: 8442 43bc a07f 583e 2341 d0bd be0e 53be
00000210: 14b4 9abb b7de 863d 31a0 8ebd bb39 5dbe
00000220: 8466 ad3c e1a0 9a3d 40fa 69bd 34d4 913e
00000230: d43b 423d 5335 903d c5e9 143d c1d2 a63d
00000240: e81a 933e 4678 02bd 0644 b03c 431e 11bd
00000250: a321 d63c 5d55 fd3d 0c53 18bf a1f5 443d
00000260: 4529 313d f280 95bd fb7d 87bd 9971 3bbb
00000270: 4504 9dbd be6f a33c 45eb 533d 8ad4 123d
00000280: 7184 c63c b826 69bd efdd 9cbd 84cd a93d
00000290: 56e2 4abc 62d9 5bbd 78e5 443e f05f 11bc
000002a0: f712 b4bd 54ca ca3d 5cc3 5abd 9970 07bd
000002b0: b33c 263d fa94 983e 023e d6bd de05 36ba
000002c0: 6307 06bd efb9 ee3c 9b5b 97bd 229e 053e
000002d0: d2fd a8be 18bd a43d 296b 503c 9522 b1bc
000002e0: f68e 55bb 5296 783f 7eda aa3d 9735 63be
000002f0: c9a2 a63e e446 11bd 199e 823d eb40 143f
00000300: 6d77 ddbf a4d8 45bf 996a f1bf 4878 85bf
00000310: b46c a3bf b3d9 e9bf c84f e9bf 99c2 19c0
00000320: 72b8 e1bf 7f86 f8bf e3ff f1bf bb89 13bf
00000330: fea7 e9bf 9bc3 eabf aeeb e6bf a683 04c0
00000340: 6ec2 e6be 8a1a 10c0 dbb1 00c0 b348 e9bf
00000350: 5ae4 f1bf 5503 233f 0bed cdbf 10ed fbbf
00000360: 242d 04c0 b33a c8bf 5707 0dbf 5cd0 ecbf
00000370: d4e9 ebbf f293 eabf 7698 f1bf 853d e4bf
00000380: 7bb5 05c0 3d88 02c0 05c1 93bf 7088 f4bf
00000390: c355 e3bf e183 e4bf d402 a1bf 77c8 0cc0
000003a0: 69ae 12c0 c5bf fdbf 71ed d6bf ae8e e5bf
000003b0: 1849 eebf 0b9f d5bf cd42 07c0 3b6c 01c0
000003c0: 5580 04c0 dec1 f5bf 0fd7 fabf 3919 afbf
000003d0: 52d2 5dbf 2741 f8bf 820e e5bf 7397 f8bf
000003e0: c555 14bf 0cc4 cfbf ad92 f9bf d2f1 8abf
000003f0: 7132 56bf 303c d4bf 790a e8bf 9f76 d1bf

lstm.bias_hh_l1 f4 [256]
-1.811558 -0.643747 -1.7293091 -1.4900624 -1.0865264 -2.0352812 -1.9621034 -2.4613845
-1.8956969 -2.0216827 -1.9599239 -1.9021915 -1.9340737 -1.9430373 -1.8396921 -1.9736409
-0.54629606 -2.3430874 -1.9797801 -1.9628049 -2.1296825 -0.93170893 -1.4813615 -1.9361187
-1.9554825 -2.0035002 -0.76017773 -2.026611 -1.8633901 -2.0143218 -1.8234693 -1.7284335
-1.966653 -1.8311647 -0.8950222 -1.8977598 -1.9577284 -1.8598907 -1.2874652 -2.2469068
-2.3981872 -1.9288632 -1.7244358 -2.0151587 -1.768937 -1.7513999 -1.9836173 -1.8818729
-1.9340717 -1.8405954 -1.8418938 -1.4240525 -1.2781864 -2.0520475 -1.9116777 -1.9023206
0.048478562 -1.6563874 -1.9331971 -0.99836093 -0.96181214 -1.6308794 -1.7624071 -1.729802
-1.2424569 -1.3678492 -0.9252055 0.48157808 -2.8783395 -0.6029051 -0.7741598 -0.94585985
-1.0786945 -0.7452316 -0.93961114 1.6351515 -1.0342156 -0.8785388 -0.94024205 -0.6783184
-2.547195 -0.8873786 -0.69870675 -0.9239864 -0.8217897 0.22047268 -3.2033029 -0.9178368
-0.7059507 -0.5999439 -2.2919276 -0.7514491 -0.92416537 -0.74190736 -0.9363141 -0.9937935
-1.0251467 -0.7365123 -2.6557171 -1.0113394 -0.9668389 -1.0510266 -1.3482792 -1.2999326
-1.3275485 -0.6787429 -1.0387859 -0.81275314 -1.0126662 0.38889396 -0.98860633 -0.8654268
-0.76880187 -0.94026005 -0.6625774 -1.472522 -0.37096316 -0.9294892 -0.899776 -0.7773066
0.24045078 -1.9208211 -0.90921843 -2.2408516 -1.6003785 -1.1002628 -0.945301 -3.2692297
-0.030685142 0.10134178 -0.009442912 -0.2610085 0.1495497 -0.06521624 0.03673351 -0.14212178
0.015078343 -0.0341836 0.026008831 0.14649884 0.0004417832 -0.04355398 -0.017287184 -0.100023665
0.2721555 -0.03903904 -0.016395472 0.07849163 -0.02891715 0.008756062 -0.4617044 -0.0053179273
-0.063426256 0.12606858 0.09109877 0.009022273 0.002388156 0.008235178 -0.08036168 -0.08317143
0.027409168 0.042084135 -0.027299777 -0.06438507 0.04769693 -0.06905687 0.060836114 -0.03709724
0.08713008 -0.08565454 -0.012618556 -0.024391964 0.019463832 0.49634802 -0.050536785 -0.018052218
0.028593937 0.041063625 0.0775019 0.1479984 -0.36225724 -0.09306148 -0.028917376 0.08460695
-0.16344315 0.97680795 -0.123245135 -0.20029987 0.28556886 0.059172038 -0.049583163 0.4435481
-1.6287771 -0.6783879 -1.8907384 -1.1195917 -1.2342327 -1.9303948 -2.0191061 -2.5230553
-1.7208452 -1.9565905 -1.9637898 -0.7003301 -1.7618077 -1.8395511 -1.8665736 -1.9934753
-0.6171306 -2.2098665 -1.8436903 -1.8654541 -2.1124349 0.7062231 -1.5658375 -2.0385406
-2.070735 -1.701769 -0.6264848 -1.8947303 -1.8543508 -1.915256 -1.8031135 -1.671548
-2.0726373 -2.0456407 -1.1141399 -1.8553925 -1.8938502 -1.9725565 -1.2395594 -2.1630476
-2.2966816 -1.9383987 -1.7069908 -1.7923284 -1.8618119 -1.5048801 -1.959138 -1.9574819
-1.9480101 -1.8585742 -1.8800131 -1.3960451 -0.87717855 -1.8703023 -1.9720211 -1.8736967
-0.51964056 -1.5490313 -1.9293929 -1.0052929 -0.9097727 -1.7286334 -1.951564 -1.800424
00000000: 22e1 e7bf 9acc 24bf 005a ddbf 5dba bebf
00000010: 4c13 8bbf 0c42 02c0 3426 fbbf 5387 1dc0
00000020: 32a6 f2bf 4063 01c0 c9de fabf 037b f3bf
00000030: ba8f f7bf 72b5 f8bf 087b ebbf 44a0 fcbf
00000040: 0fda 0bbf 25f5 15c0 6f69 fdbf 313d fbbf
00000050: b84c 08c0 7a84 6ebf 419d bdbf bdd2 f7bf
00000060: 404d fabf 5939 00c0 029b 42bf ffb3 01c0
00000070: 9183 eebf a6ea 00c0 7167 e9bf 4f3d ddbf
00000080: 49bb fbbf 9b63 eabf 2d20 65bf cbe9 f2bf
00000090: d896 fabf e610 eebf a9cb a4bf 52cd 0fc0
000000a0: e67b 19c0 fde4 f6bf 50ba dcbf 5cf8 00c0
000000b0: 876c e2bf df2d e0bf 2ce7 fdbf 36e1 f0bf
000000c0: a98f f7bf a198 ebbf 2dc3 ebbf 5a47 b6bf
000000d0: 9d9b a3bf bf54 03c0 dbb1 f4bf 3e7f f3bf
000000e0: 7591 463d 8104 d4bf 0173 f7bf 9594 7fbf
000000f0: 5239 76bf a8c0 d0bf 8e96 e1bf 276a ddbf
00000100: d408 9fbf af15 afbf 45da 6cbf 6791 f63e
00000110: b736 38c0 fd57 1abf 562f 46bf df23 72bf
00000120: a912 8abf 80c7 3ebf 5b8a 70bf a54c d13f
00000130: 2d61 84bf ebe7 60bf b4b3 70bf 46a6 2dbf
00000140: 3e05 23c0 3e2b 63bf 72de 32bf 5f8a 6cbf
00000150: cf60 52bf 97c3 613e ea02 4dc0 5af7 6abf
00000160: 2fb9 34bf ec95 19bf f1ae 12c0 f85e 40bf
00000170: 1a96 6cbf a4ed 3dbf 48b2 6fbf 4069 7ebf
00000180: 0238 83bf 128c 3cbf 45f7 29c0 9273 81bf
00000190: c182 77bf 0a88 86bf 6a94 acbf 3164 a6bf
000001a0: 1ced a9bf 18c2 2dbf f0f6 84bf 9710 50bf
000001b0: 0c9f 81bf 1c1d c73e 4e15 7dbf 9c8c 5dbf
000001c0: 33d0 44bf e2b4 70bf ac9e 29bf 9a7b bcbf
000001d0: e2ee bdbe 01f3 6dbf b857 66bf 91fd 46bf
000001e0: bb38 763e 77dd f5bf 8ac2 68bf 1d6a 0fc0
000001f0: 34d9 ccbf 69d5 8cbf 3fff 71bf 0f3b 51c0
00000200: 685f fbbc 478c cf3d 72b6 1abc e8a2 85be
00000210: 8e23 193e 1890 85bd e175 163d 5f88 11be
00000220: 280b 773c 1a04 0cbd 7910 d53c cb03 163e
00000230: 239f e739 a865 32bd da9d 8dbc 35d9 ccbd
00000240: f757 8b3e 67e7 1fbd cc4f 86bc 38c0 a03d
00000250: a9e3 ecbc 9675 0f3c 8564 ecbe 0242 aebb
00000260: a0e5 81bd 1f18 013e fe91 ba3d 28d2 133c
00000270: 9c82 1c3b d7ec 063c aa94 a4bd c855 aabd
00000280: 3189 e03c 6a60 2c3d c8a3 dfbc 52dc 83bd
00000290: db5d 433d b06d 8dbd 4a2f 793d 47f3 17bd
000002a0: 4171 b23d a66b afbd 0fbe 4ebc a8d1 c7bc
000002b0: 9d72 9f3c 5421 fe3e a9ff 4ebd 3fe2 93bc
000002c0: d53d ea3c 5532 283d 51b9 9e3d e48c 173e
000002d0: c879 b9be 0497 bebd 22e4 ecbc 6946 ad3d
000002e0: a45d 27be 1610 7a3f f267 fcbd 691b 4dbe
000002f0: 1536 923e 615e 723d b717 4bbd bd18 e33e
00000300: c57b d0bf d4aa 2dbf b703 f2bf c84e 8fbf
00000310: 56fb 9dbf 2d17 f7bf 0939 01c0 bd79 21c0
00000320: a844 dcbf 8f71 fabf 775d fbbf d548 33bf
00000330: ea82 e1bf 6976 ebbf e2eb eebf 332a ffbf
00000340: 45fc 1dbf 746e 0dc0 0bfe ebbf 33c7 eebf
00000350: 2232 07c0 09cb 343f 5d6d c8bf 7377 02c0
00000360: ec86 04c0 91d3 d9bf 4f61 20bf 8686 f2bf
00000370: 5e5b edbf 1c27 f5bf 6ccc e6bf 49f5 d5bf
00000380: 17a6 04c0 c7eb 02c0 239c 8ebf 807d edbf
00000390: af69 f2bf bb7c fcbf e2a9 9ebf 5f6f 0ac0
000003a0: d5fc 12c0 731d f8bf ad7e dabf 046b e5bf
000003b0: da4f eebf e99f c0bf 09c5 fabf c48e fabf
000003c0: 6558 f9bf c2e5 edbf 45a4 f0bf 9bb1 b2bf
000003d0: c68e 60bf 1166 efbf 306b fcbf 4bd5 efbf
000003e0: 2a07 05bf a846 c6bf 59f6 f6bf 70ad 80bf
000003f0: dde6 68bf dc43 ddbf d9cc f9bf 4b74 e6bf
