Code/698/10step_5horizon/models/lstm/10step_1horizon_RMSE_8.pth (torch, 218454 bytes, 10 tensors)

lstm.weight_ih_l0 f4 [256, 9]
0.6228736 -0.17821348 0.06357771 -0.085576996 -0.01414457 -0.04632208 -0.080416724 -0.095048994
0.22749287 0.21400896 -0.22560349 -0.12561665 -0.19836248 -0.114278786 -0.5565228 -0.17224641
-0.07463078 0.121493615 0.3752172 -0.13618685 0.07375498 0.20525762 -0.038917243 -0.14259008
-0.10782106 0.020701084 0.016674131 0.108422294 -0.1271976 -0.122993864 0.08032724 -0.040047064
-0.29369298 -0.037023336 0.16103949 0.08885033 -0.50465906 -0.22280334 -0.0027561763 0.1493394
0.023014942 0.0041021267 -0.15608242 0.03432091 0.05409266 0.3795447 -0.31992564 -0.20263168
0.10077912 -0.13381912 -0.48023576 -0.07024272 -0.012538875 0.08124394 0.39666572 -0.31303298
-0.11064762 -0.08906023 -0.14125091 -0.3311731 0.021261306 -0.030511776 0.20758164 0.613218
-0.1006734 0.09685088 0.07392467 -0.115886554 -0.1234865 -0.18721165 -0.16912863 0.1355587
0.36360016 -0.0983853 0.009049949 0.036390778 -0.03298297 0.119555116 -0.34570694 -0.30689728
0.9595758 0.15122704 0.26718155 -0.08283628 0.1292823 0.114608504 0.0051625515 -0.68595374
-0.45512247 0.47989085 0.30359912 0.023674974 -0.22715652 0.024943365 -0.013699795 -0.12766136
-0.2640979 -0.23216055 -0.027073013 0.2134684 0.045266725 0.13312033 0.017630255 -0.004722756
0.06548113 -0.22847606 -0.4458926 0.29730648 -0.24906269 0.09091707 -0.00054136553 0.14373213
-0.062629946 -0.07644295 0.0104332315 -0.12501393 0.14490001 -0.22280394 -0.08623185 -0.19145423
0.104654804 -0.027284158 -0.11558432 -0.060950603 0.018189145 -0.006203307 -0.61565924 -0.013067296
-0.033946577 0.12253577 0.057491858 -0.01859119 -0.0643599 0.07007008 0.0021157947 0.12501875
0.15970501 -0.20354715 0.017748905 -0.09959907 -0.15058596 -0.16047354 -0.109281614 0.08640529
-0.5587481 -0.1129605 0.023649309 0.1280697 -0.011214171 -0.027723609 0.026565177 0.022404568
0.083917715 -0.29486737 -0.31434318 -0.060829487 -0.11050506 -0.08307433 -0.6213335 0.08388737
-0.07307936 -0.14884341 0.37452605 -0.06601852 -0.07851996 0.07930353 0.054850873 -0.15152816
-0.09415946 -0.08052753 0.040729485 0.5801969 0.15897562 0.1098758 0.16246662 -0.049606025
0.021780461 -0.21502513 -0.48703986 0.3024989 -0.3508181 -0.10167315 -0.039054554 0.12798844
-0.014974573 -0.011728768 -0.058573633 -0.015605297 0.018471487 0.9242933 0.5053002 0.33313847
0.26945677 -0.35101378 -0.1242518 0.18731843 0.0704163 -0.12127542 -0.2412868 -0.17295425
-0.06401415 0.09492498 0.062567115 0.02850475 -0.07597138 -0.13343075 0.11547039 1.3481362
-0.2040886 0.1757046 -0.20631748 -0.14323708 -0.38730595 0.5634292 -0.2515869 -0.15557447
-0.4515395 -0.21117647 -0.0005030223 0.04516592 -0.030310858 -0.094029084 -0.024078894 0.091355324
0.031700224 -0.5207455 -0.1856002 0.016246544 0.21918271 0.0125660645 -0.14057298 -0.05737347
-0.070811376 0.061728407 -0.47589573 -0.049808975 0.014308717 0.2293791 0.17237763 0.044572305
0.01503308 0.096545234 0.03258227 -0.39763 -0.1215982 -0.19806635 0.083180696 -0.084827475
-0.111170694 -0.19646612 0.16968328 0.15888497 0.2785472 -0.08714046 -0.0895645 0.023045521
00000000: a574 1f3f 987d 36be 0835 823d fe42 afbd
00000010: a0be 67bc 39bc 3dbd 86b1 a4bd 0ca9 c2bd
00000020: e4f3 683e 2a25 5b3e 9a04 67be a7a1 00be
00000030: 891f 4bbe ff0a eabd 4778 0ebf 5d61 30be
00000040: 06d8 98bd a5d1 f83d 781c c03e 9174 0bbe
00000050: da0c 973d 0e2f 523e b067 1fbd 2203 12be
00000060: 4ad1 dcbd 5295 a93c 3098 883c 820c de3d
00000070: 1640 02be 35e4 fbbd 9c82 a43d 6408 24bd
00000080: ed5e 96be c8a5 17bd 89e7 243e 29f7 b53d
00000090: 5631 01bf 8f26 64be f7a0 34bb 6dec 183e
000000a0: d589 bc3c 226b 863b 12d4 1fbe 1594 0c3d
000000b0: 4490 5d3d af53 c23e 4bcd a3be ae7e 4fbe
000000c0: 4965 ce3d e107 09be 76e1 f5be 6adb 8fbd
000000d0: db6f 4dbc 3963 a63d c517 cb3e dc45 a0be
000000e0: 389b e2bd 3665 b6bd 14a4 10be 858f a9be
000000f0: 312c ae3c d5f3 f9bc 4890 543e dbfb 1c3f
00000100: db2d cebd c159 c63d d165 973d ee55 edbd
00000110: 7de6 fcbd 69b4 3fbe 0e30 2dbe e6cf 0a3e
00000120: cd29 ba3e 3b7e c9bd 3d46 143c 7f0e 153d
00000130: 2719 07bd 50d9 f43d 8000 b1be a421 9dbe
00000140: c2a6 753f 43db 1a3e 05cc 883e 11a6 a9bd
00000150: 9462 043e ddb7 ea3d 9f2a a93b aa9a 2fbf
00000160: d005 e9be 41b4 f53e 5871 9b3e 05f2 c13c
00000170: b89b 68be 0756 cc3c 1b75 60bc a9b9 02be
00000180: d737 87be 7fbb 6dbe 39c8 ddbc 7697 5a3e
00000190: 9a69 393d b250 083e 536d 903c 59c1 9abb
000001a0: f81a 863d a1f5 69be 094c e4be 8e38 983e
000001b0: 4a0a 7fbe bb32 ba3d 6dea 0dba 842e 133e
000001c0: 2144 80bd 1f8e 9cbd 25f0 2a3c a703 00be
000001d0: ab60 143e b726 64be 539a b0bd 940c 44be
000001e0: 4255 d63d 0783 dfbc 79b7 ecbd 57a7 79bd
000001f0: 6701 953c 1c45 cbbb d89b 1dbf 3618 56bc
00000200: 910b 0bbd 09f4 fa3d 957c 6b3d 8d4c 98bc
00000210: 20cf 83bd e780 8f3d 25a9 0a3b ea04 003e
00000220: b689 233e aa6e 50be 2766 913c 99fa cbbd
00000230: 3533 1abe 2d53 24be 0acf dfbd 42f5 b03d
00000240: 1e0a 0fbf d657 e7bd 32bc c13c b424 033e
00000250: a4bb 37bc 9f1c e3bc 379f d93c c989 b73c
00000260: 0ddd ab3d dbf8 96be 97f1 a0be 5728 79bd
00000270: 7a50 e2bd e022 aabd b60f 1fbf 24cd ab3d
00000280: a2aa 95bd 686a 18be e1c1 bf3e b834 87bd
00000290: 13cf a0bd e469 a23d 4fab 603d 332a 1bbe
000002a0: add6 c0bd 9eeb a4bd f6d3 263d c987 143f
000002b0: 81ca 223e 9006 e13d a65d 263e b02f 4bbd
000002c0: f06c b23c 8c2f 5cbe 4a5d f9be 23e1 9a3e
000002d0: 6e9e b3be 033a d0bd abf7 1fbd 670f 033e
000002e0: e957 75bc 052a 40bc e8ea 6fbd 5cad 7fbc
000002f0: 8451 973c 7c9e 6c3f 5b5b 013f 2091 aa3e
00000300: 3df6 893e 14b8 b3be ba77 febd 67d0 3f3e
00000310: 6c36 903d 3f5f f8bd e313 77be eb1a 31be
00000320: da19 83bd 0768 c23d 3023 803d cb82 e93c
00000330: e296 9bbd 12a2 08be bd7b ec3d ba8f ac3f
00000340: 9afc 50be e8eb 333e e444 53be beac 12be
00000350: f74c c6be e53c 103f 00d0 80be ea4e 1fbe
00000360: 2f30 e7be a53e 58be 41dd 03ba e6ff 383d
00000370: 7a4e f8bc 5292 c0bd 1a41 c5bc 8018 bb3d
00000380: 18d8 013d 944f 05bf fb0d 3ebe 7917 853c
00000390: 6f71 603e e5e1 4d3c 5df2 0fbe 7200 6bbd
000003a0: 8e05 91bd edd6 7c3d 9ba8 f3be 7f04 4cbd
000003b0: 1c6f 6a3c 5be2 6a3e c383 303e 7391 363d
000003c0: 4f4d 763c 82b9 c53d fd74 053d 2996 cbbe
000003d0: 7a08 f9bd e8d1 4abe a45a aa3d 07ba adbd
000003e0: 76ad e3bd 6a2e 49be 74c1 2d3e beb2 223e
000003f0: bd9d 8e3e b376 b2bd 986d b7bd f6c9 bc3c

lstm.weight_hh_l0 f4 [256, 64]
-0.041900307 -0.024083136 -0.09304919 -0.18364312 -0.017723827 -0.020511592 0.009907984 -0.054260224
0.12092428 0.14588784 -0.053946957 0.028116265 0.010737515 0.018014453 -0.07495616 0.035983566
0.10150443 -0.1236737 -0.03356485 0.14745867 -0.088340156 -0.061409026 0.024456063 -0.021848911
0.022264244 -0.050369054 -0.039799385 -0.02729786 -0.00014698003 0.07484792 0.12351942 -0.15981096
-0.100018725 -0.16507043 -0.10040666 -0.02015427 -0.15655778 -0.0077065327 0.049036823 -0.026463771
-0.010670613 0.2639977 -0.051181804 -0.15494835 -0.09895456 -0.033629145 0.06019477 0.21062733
0.01287193 -0.12839222 -0.08874231 -0.06872485 0.113087535 0.061670594 0.17982903 0.08692435
-0.13502282 0.1147943 -0.060651734 0.008781907 0.06513087 0.039819013 0.09529456 -0.11019065
0.09433345 0.013972873 0.117474385 -0.033204593 -0.094060555 0.051376283 -0.11959619 -0.087148905
0.05252329 -0.040318858 0.023084035 -0.05838305 -0.12887752 0.034722388 0.067026585 -0.07282663
-0.05156658 0.06106675 0.00698871 -0.01930511 -0.18311357 -0.06292822 0.034570474 -0.309944
0.016806668 0.014283374 -0.014730671 0.014365927 0.045786336 -0.04739516 0.08796868 0.024642216
0.009735483 0.078646004 0.121816866 0.08030398 0.007868074 -0.06749365 -0.037144545 0.027959539
-0.034737088 -0.0015114987 -0.15413071 0.10424415 0.041264206 0.04561523 -0.071320385 0.15395023
-0.03627867 0.026201159 0.04725686 0.0771023 -0.061893273 0.125646 0.114467084 -0.10444349
-0.038904075 0.06655895 -0.02940411 -0.10647348 -0.036723237 -0.15617684 -0.0073199254 0.087729365
-0.33338335 -0.12143327 -0.12499781 0.05642119 0.08305072 -0.19972365 -0.39779496 0.09545273
-0.10386859 0.03713755 0.085642666 0.04966384 0.054031618 -0.04294856 -0.008050166 0.0009763399
0.01412221 0.026120182 -0.09336144 -0.17029394 0.09906559 -0.13272195 0.007611015 0.03426208
-0.095518075 0.11772619 -0.019985491 -0.0033110743 -0.0010396063 0.0398106 -0.046043362 -0.08324827
0.013160354 -0.10241487 0.08195528 -0.23600735 0.28648493 -0.20185769 -0.115441345 -0.034660283
-0.24126638 -0.07907076 0.0023148973 0.037334003 -0.15217477 -0.08969504 0.020283744 0.040210843
-0.19364792 0.040365297 0.057602383 0.07822242 0.06271941 0.08101052 0.15082234 -0.08665794
0.22347632 0.011945616 -0.05965097 0.21248378 0.086663514 -0.008912494 -0.033137206 0.07440058
0.12862916 -0.005220653 -0.114320055 0.098133296 0.023545008 0.013285134 -0.06889909 -0.058212142
0.14743888 0.14530618 -0.082192585 0.0031688316 -0.038628835 0.051848937 0.04503577 -0.07166917
0.082539216 0.041469753 0.08538398 -0.0092745535 0.01850494 -0.21511899 0.030834015 -0.08068345
0.11710732 0.024984088 -0.044628926 -0.043788854 -0.024767185 -0.038351923 -0.16428937 -0.030769967
0.031236358 -0.04113969 -0.13073201 0.054656018 -0.20013179 0.15055518 -0.031839862 -0.019870559
0.1376706 0.121720545 -0.103883915 -0.08183048 -0.2200277 -0.19567041 0.121112 0.1899106
0.050986964 0.11431528 0.039606575 -0.2925946 0.16496842 0.0054126726 0.2979654 0.16331503
-0.022047153 -0.0715627 0.028062463 -0.0026096157 -0.02728195 -0.13284847 -0.059957173 0.19740959
00000000: a89f 2bbd ff49 c5bc 9390 bebd f10c 3cbe
00000010: 8f31 91bc ed07 a8bc 1955 223c f83f 5ebd
00000020: 26a7 f73d 9f63 153e 7cf7 5cbd 1554 e63c
00000030: 67ec 2f3c 0c93 933c 9d82 99bd 8163 133d
00000040: 8ee1 cf3d a348 fdbd 4c7b 09bd 68ff 163e
00000050: afeb b4bd 0888 7bbd 1558 c83c 7dfc b2bc
00000060: 8163 b63c c84f 4ebd ae04 23bd c39f dfbc
00000070: a71e 1ab9 de49 993d c0f7 fc3d 7ca5 23be
00000080: 9ed6 ccbd 3908 29be 02a2 cdbd 911a a5bc
00000090: af50 20be 1587 fcbb d6da 483d 8dca d8bc
000000a0: cbd3 2ebc b52a 873e 03a4 51bd c8aa 1ebe
000000b0: b0a8 cabd b7be 09bd cb8e 763d b1ae 573e
000000c0: cae4 523c 4079 03be 87be b5bd 9dbf 8cbd
000000d0: 709a e73d 4e9a 7c3d 1a25 383e 6505 b23d
000000e0: 6c43 0abe 4619 eb3d f46d 78bd fde1 0f3c
000000f0: 5563 853d 4319 233d cb29 c33d a3ab e1bd
00000100: e531 c13d 7aee 643c 6996 f03d 8a01 08bd
00000110: d2a2 c0bd f06f 523d d9ee f4bd 207b b2bd
00000120: a922 573d 6325 25bd bb1a bd3c 1123 6fbd
00000130: 78f8 03be 1039 0e3d 3c45 893d 2126 95bd
00000140: 7a37 53bd 2121 7a3d 8c01 e53b c025 9ebc
00000150: 2082 3bbe 83e0 80bd c599 0d3d fbb0 9ebe
00000160: 23ae 893c d004 6a3c ea58 71bc 115f 6b3c
00000170: 748a 3b3d 6d21 42bd ec28 b43d 79de c93c
00000180: 9381 1f3c 2811 a13d 1f7b f93d 6a76 a43d
00000190: 18e9 003c 1c3a 8abd e124 18bd 670b e53c
000001a0: 7a48 0ebd 7b1d c6ba 71d4 1dbe f57d d53d
000001b0: a804 293d 09d7 3a3d 6c10 92bd 21a5 1d3e
000001c0: f198 14bd d0a3 d63c 6990 413d d0e7 9d3d
000001d0: cd83 7dbd 58a9 003e b86d ea3d 78e6 d5bd
000001e0: e159 1fbd 0f50 883d e3e0 f0bc c50e dabd
000001f0: 1b6b 16bd d2ec 1fbe fcdb efbb 74ab b33d
00000200: 39b1 aabe 02b2 f8bd dafe ffbd e819 673d
00000210: 7f16 aa3d 5b84 4cbe c8ab cbbe b97c c33d
00000220: 0eb9 d4bd 8b1d 183d 6c65 af3d 506c 4b3d
00000230: 4250 5d3d d4ea 2fbd d8e4 03bc 10f1 7f3a
00000240: d860 673c fef9 d53c 4834 bfbd 8961 2ebe
00000250: e6e2 ca3d 43e8 07be d265 f93b 6556 0c3d
00000260: fb9e c3bd 6e1a f13d 9db8 a3bc 9cfe 58bb
00000270: 6643 88ba 7110 233d f797 3cbd 127e aabd
00000280: 879e 573c e3be d1bd 2bd8 a73d e9ab 71be
00000290: 27ae 923e c8b3 4ebe 836c ecbd f1f7 0dbd
000002a0: 890e 77be daef a1bd 88b5 173b 8aeb 183d
000002b0: b4d3 1bbe 08b2 b7bd 182a a63c 20b4 243d
000002c0: a44b 46be 1556 253d 7af0 6b3d 1333 a03d
000002d0: 0973 803d d8e8 a53d 2c71 1a3e b879 b1bd
000002e0: fad6 643e 8cb7 433c 9354 74bd 5995 593e
000002f0: a47c b13d b605 12bc e1ba 07bd 555f 983d
00000300: 5db7 033e 0312 abbb a220 eabd 1cfa c83d
00000310: 76e1 c03c e4a9 593c f71a 8dbd db6f 6ebd
00000320: 38fa 163e 25cb 143e 9654 a8bd 2cac 4f3b
00000330: 4539 1ebd 8d5f 543d 6d77 383d 49c7 92bd
00000340: 520a a93d 30dc 293d ccdd ae3d 4cf4 17bc
00000350: ac97 973c 2748 5cbe 9e97 fc3c 5d3d a5bd
00000360: f6d5 ef3d 6eab cc3c d2cc 36bd f15b 33bd
00000370: 8de4 cabc e816 1dbd 793b 28be 4c11 fcbc
00000380: 64e3 ff3c 1782 28bd 9dde 05be fdde 5f3d
00000390: 59ef 4cbe 232b 1a3e 846a 02bd 95c7 a2bc
000003a0: 86f9 0c3e 9f48 f93d 17c1 d4bd bd96 a7bd
000003b0: f14e 61be d35d 48be 9109 f83d ed77 423e
000003c0: b5d7 503d 211e ea3d 813a 223d f6ce 95be
000003d0: 7bed 283e ca5c b13b ec8e 983e 0e3c 273e
000003e0: 3b9c b4bc 778f 92bd 40e3 e53c 1606 2bbb
000003f0: 657e dfbc 6e09 08be a795 75bd bd25 4a3e

lstm.bias_ih_l0 f4 [256]
-1.5852485 -1.3548791 -1.6643885 -1.7332047 -1.6936908 -1.3162978 -1.5981714 -1.4853216
-1.1410812 -1.2349733 -1.6786711 -1.5472494 -1.7299334 -1.312526 -1.6729819 -1.6522797
-1.6411425 -1.3854375 -1.687094 -1.4735739 -1.6395398 -0.82958406 -1.5904284 -0.2742531
-1.5675542 -1.6665143 -1.5806016 -1.8192277 -1.7238266 -1.7768981 -1.6399924 -1.0174899
-1.7756788 -1.7377661 -0.74905896 -1.461427 -1.5578672 -1.5795711 -1.5349532 -1.7996793
-1.2213411 -1.478186 -1.5945925 -1.5320982 -0.042981107 -0.7109257 -1.461558 -0.5753347
-1.9376894 -1.76181 -1.3735139 -1.128393 -1.6918206 -1.5389155 -0.8273837 -1.5808513
-1.4506116 0.80186206 -1.791807 -1.6164061 -1.779367 -1.698826 -0.8128195 -1.5200257
-0.71613264 -0.20499265 -0.84335107 -0.82868093 -0.89164084 -0.21633555 -0.8086533 -0.5292627
-0.5882314 -0.38608572 -0.65722966 -1.1067328 -0.89212626 -0.7493713 -0.9056155 -0.8968869
-0.990427 0.009876616 -0.8883895 -0.83504176 -0.8802 -0.27580944 -0.9754405 0.5989663
-0.84007895 -0.91278 -0.9173692 -0.857419 -0.809645 -0.797275 -0.95754063 -0.3244104
-0.9771096 -0.83747804 -0.07557911 -0.52696383 -0.74521327 -0.77334976 -0.82487637 -0.90742934
-0.49834186 -0.23451729 -0.98719156 -0.22589965 -0.14254183 -0.541129 -0.664901 -0.054708995
-0.9220434 -0.9388074 -0.29154643 -0.064204894 -0.9367506 -1.0490956 0.12150374 -0.90206957
-0.87243253 0.53343517 -0.8639845 -0.8642679 -0.969151 -0.87764674 -0.30811828 -0.7183892
-0.0984862 -0.05181225 -0.016934793 0.04756719 0.04798891 -0.09695859 -0.14158498 0.14383171
-0.108337276 -0.15301205 0.047710463 0.19129616 0.11248647 0.019970195 0.030771054 -0.010267077
0.014599874 0.18925147 -0.08552309 -0.10481379 -0.043322355 0.15076216 0.038637042 0.12745683
-0.010500773 -0.015629735 0.06283673 -0.028834963 0.019304404 0.20171966 -0.021090314 0.043080013
0.010511154 0.13094595 0.1759127 -0.120113015 0.008160804 -0.03805495 0.009184184 0.034674916
-0.08168842 -0.12238088 0.02480588 0.13952628 0.08424657 0.1368933 0.013444085 -0.065769404
-0.08188895 0.050165277 -0.012756308 0.062060643 -0.05637066 -0.089287594 -0.18761283 0.015124274
0.090029456 0.25932688 -0.012931156 0.12138184 -0.0047207624 -0.1079132 0.060390357 -0.028836781
-1.6531724 -1.5757763 -1.6972789 -1.7551048 -1.5289127 -1.4801838 -1.7297724 -1.4627064
-1.176906 -1.2238189 -1.7604765 -1.5635867 -1.6071956 -1.462806 -1.5393646 -1.6290417
-1.5886499 -1.377912 -1.7576013 -1.4120036 -1.4887094 -0.57076347 -1.8759133 0.1854108
-1.430384 -1.613194 -1.5562769 -1.5612338 -1.6967672 -1.8007663 -1.5989698 -0.72812897
-1.6401005 -1.7720681 -0.6895924 -1.3358538 -1.5514246 -1.5690506 -1.7480621 -1.7813578
-1.1466466 -1.509632 -1.6966373 -1.459261 0.2653674 -0.60995615 -1.2592293 -0.26634917
-1.8650033 -1.578843 -1.3898886 -0.95207614 -1.7335943 -1.5644022 -0.8478853 -1.7653543
-1.6217196 1.3987048 -1.5727429 -1.6234657 -1.5887318 -1.754816 -0.6328613 -1.4972557
00000000: 6ce9 cabf ae6c adbf af0a d5bf a7d9 ddbf
00000010: dcca d8bf 727c a8bf e190 ccbf 051f bebf
00000020: f30e 92bf 9b13 9ebf b2de d6bf 450c c6bf
00000030: 756e ddbf da00 a8bf 4524 d6bf e77d d3bf
00000040: f510 d2bf 0456 b1bf b2f2 d7bf 129e bcbf
00000050: 71dc d1bf 9f5f 54bf 2893 cbbf e76a 8cbe
00000060: 9ea5 c8bf 5750 d5bf 2751 cabf 74dc e8bf
00000070: 5aa6 dcbf 6671 e3bf 45eb d1bf 1c3d 82bf
00000080: 7149 e3bf 1f6f debf 54c2 3fbf 0a10 bbbf
00000090: 3168 c7bf 632f cabf 5979 c4bf e45b e6bf
000000a0: e854 9cbf 3335 bdbf 9b1b ccbf cb1b c4bf
000000b0: f50c 30bd 3aff 35bf 5514 bbbf 2349 13bf
000000c0: 3506 f8bf fd82 e1bf 4ecf afbf 2f6f 90bf
000000d0: 948d d8bf 2ffb c4bf 6bcf 53bf 5659 cabf
000000e0: a4ad b9bf d546 4d3f ef59 e5bf 65e6 cebf
000000f0: 4cc2 e3bf 2173 d9bf f014 50bf 3490 c2bf
00000100: 7854 37bf 98e9 51be dbe5 57bf 6f24 54bf
00000110: 9342 64bf 1187 5dbe e703 4fbf c37d 07bf
00000120: 5596 16bf 07ad c5be 3440 28bf 6ca9 8dbf
00000130: 6362 64bf ccd6 3fbf 6bd6 67bf 619a 65bf
00000140: a08c 7dbf 88d1 213c 7f6d 63bf 4cc5 55bf
00000150: ca54 61bf e536 8dbe 78b6 79bf db55 193f
00000160: 6a0f 57bf f3ab 69bf b5d8 6abf d07f 5bbf
00000170: e544 4fbf 371a 4cbf 6221 75bf 1f19 a6be
00000180: db23 7abf f664 56bf 38c9 9abd 1ae7 06bf
00000190: 4cc6 3ebf 40fa 45bf 192b 53bf 4a4d 68bf
000001a0: aa26 ffbe 4d25 70be 96b8 7cbf 3d52 67be
000001b0: 7cf6 11be 6e87 0abf f436 2abf 8a16 60bd
000001c0: 090b 6cbf af55 70bf 9345 95be db7d 83bd
000001d0: e3ce 6fbf c448 86bf f4d6 f83d 08ee 66bf
000001e0: bd57 5fbf 358f 083f 172e 5dbf a940 5dbf
000001f0: 481a 78bf 75ad 60bf aec1 9dbe 5be8 37bf
00000200: 22b3 c9bd 1539 54bd d6ba 8abc d0d5 423d
00000210: 0590 443d 3a92 c6bd a7fb 10be 9f48 133e
00000220: efdf ddbd 31af 1cbe 0c6c 433d 24e3 433e
00000230: 4e5f e63d 8998 a33c 9413 fc3c 3e37 28bc
00000240: 4f34 6f3c 23cb 413e bb26 afbd 9da8 d6bd
00000250: c872 31bd 6561 1a3e e041 1e3d 0b84 023e
00000260: 6f0b 2cbc ee09 80bc 8bb0 803d 4d37 ecbc
00000270: 4524 9e3c 998f 4e3e 98c5 acbc ab74 303d
00000280: fa36 2c3c b216 063e 7522 343e d0fd f5bd
00000290: e5b4 053c 82df 1bbd 4279 163c 4907 0e3d
000002a0: 424c a7bd d4a2 fabd b335 cb3c fadf 0e3e
000002b0: 7789 ac3d c22d 0c3e 9444 5c3c 1cb2 86bd
000002c0: 65b5 a7bd 1b7a 4d3d d5ff 50bc 4d33 7e3d
000002d0: ece4 66bd 6adc b6bd 941d 40be cecb 773c
000002e0: 5d61 b83d 7ec6 843e 33dd 53bc 0b97 f83d
000002f0: a0b0 9abb 9901 ddbd e15b 773d 1d3b ecbc
00000300: 279b d3bf 0ab3 c9bf 6f40 d9bf 46a7 e0bf
00000310: 69b3 c3bf aa76 bdbf 2f69 ddbf f739 bbbf
00000320: dba4 96bf 19a6 9cbf 4b57 e1bf 9c23 c8bf
00000330: 96b8 cdbf 3a3d bbbf e609 c5bf 7084 d0bf
00000340: e158 cbbf 6c5f b0bf 14f9 e0bf 89bc b4bf
00000350: 088e bebf 8e1d 12bf ed1d f0bf 54dc 3d3e
00000360: d316 b7bf 247d cebf 1534 c7bf 82d6 c7bf
00000370: ab2f d9bf 837f e6bf 0bab ccbf a966 3abf
00000380: d0ee d1bf 21d3 e2bf 2189 30bf 42fd aabf
00000390: 1595 c6bf a6d6 c8bf 80c0 dfbf 8803 e4bf
000003a0: 51c5 92bf 9f3b c1bf 692b d9bf 10c9 babf
000003b0: 3cde 873e 1626 1cbf 6d2e a1bf eb5e 88be
000003c0: 6eb8 eebf 8717 cabf dfe7 b1bf 43bb 73bf
000003d0: 6be6 ddbf 553e c8bf 030f 59bf 21f7 e1bf
000003e0: 8294 cfbf c208 b33f a44f c9bf b9cd cfbf
000003f0: 905b cbbf d09d e0bf 3303 22bf 13a6 bfbf

lstm.bias_hh_l0 f4 [256]
-1.6283212 -1.4121497 -1.6784898 -1.6917564 -1.6207564 -1.4498422 -1.7297417 -1.4487928
-1.0901002 -1.3026594 -1.6418722 -1.5793983 -1.6032034 -1.2911739 -1.5298461 -1.6426936
-1.5490837 -1.3448169 -1.5415924 -1.4758351 -1.686509 -0.80222183 -1.6447127 -0.1671089
-1.5337975 -1.6252254 -1.5964254 -1.706094 -1.8572278 -1.6570818 -1.7461363 -0.8884169
-1.6429847 -1.7389396 -0.79143584 -1.443908 -1.5419685 -1.6377023 -1.7314376 -1.6923926
-1.2273259 -1.3426996 -1.6356868 -1.4006487 0.014329093 -0.797434 -1.3021845 -0.5668768
-1.8095409 -1.7420264 -1.4554439 -0.9952153 -1.7597439 -1.5795046 -0.7381237 -1.5937035
-1.6306624 0.768547 -1.6028246 -1.5549399 -1.7079799 -1.6014918 -0.91917455 -1.5811329
-0.94960463 -0.2790344 -0.93288 -0.8775186 -0.97276807 -0.27558976 -0.83056337 -0.70433503
-0.627961 -0.49481422 -0.5938225 -0.9642377 -0.900634 -0.7884337 -0.9137743 -0.8454425
-0.91990495 -0.0233252 -0.92787063 -0.88768244 -0.9948441 -0.14822195 -0.9568963 0.6188641
-0.8379023 -0.935046 -0.862214 -0.91553694 -0.8947187 -0.754242 -0.89628506 -0.25668547
-0.8510496 -0.88152385 0.017665079 -0.56540215 -0.7338854 -0.70001364 -0.9033968 -0.96171296
-0.7135483 -0.36543238 -1.0189068 -0.25410935 -0.135441 -0.47818995 -0.7117884 -0.020847118
-0.9422478 -0.92173463 -0.32761607 -0.15402183 -0.9614434 -0.9215203 -0.0084007885 -0.818944
-0.8861292 0.6879595 -0.9496277 -0.8484015 -0.9790783 -0.7281262 -0.3497784 -0.90822405
-0.099479556 -0.16325083 -0.034318604 0.15746127 -0.035244823 -0.14052363 -0.06508375 -0.043976236
-0.0013611 -0.036610924 0.1446763 0.0356514 0.06827591 -0.0049215034 -0.07527232 -0.098311104
0.0285717 0.10982512 -0.069635086 -0.08381345 0.09604343 -0.02859498 -0.15222599 0.051469795
0.052022982 0.09380783 -0.040953252 0.0041409205 0.12159511 -0.018496271 -0.023717016 0.095064744
-0.02365267 0.076675765 0.12831879 -0.06521288 0.14081591 -0.10744792 -0.1705166 -0.05399764
-0.07880288 -0.09165906 -0.052236866 0.029351985 0.25129408 0.11227738 -0.13725933 -0.12812847
-0.041186657 -0.107112214 0.21934226 0.14167972 -0.05413808 -0.07073443 -0.15610245 0.004859242
0.09967028 0.10268717 -0.050876833 0.00026809718 0.016277205 0.009174808 0.19832627 -0.10292688
-1.5974087 -1.5358248 -1.5764917 -1.647573 -1.6977736 -1.4018261 -1.6895734 -1.4964265
-1.2481626 -1.2408181 -1.6245872 -1.4332857 -1.785985 -1.4445279 -1.692261 -1.6956296
-1.6644691 -1.4123654 -1.7059159 -1.4465593 -1.4923108 -0.5711223 -1.8308002 0.15264523
-1.6247238 -1.710336 -1.7558972 -1.6011193 -1.6645213 -1.6311408 -1.6753074 -0.8354214
-1.5692617 -1.5570203 -0.8570731 -1.4917808 -1.5607754 -1.5481534 -1.6478596 -1.5577195
-1.238758 -1.5017802 -1.6311623 -1.4148219 0.14946105 -0.6332363 -1.3615826 -0.30310145
-1.772938 -1.6186365 -1.4387065 -1.0204853 -1.6125387 -1.7093009 -0.79290277 -1.7541062
-1.5040455 1.4647582 -1.7975953 -1.6233236 -1.6590679 -1.7556701 -0.7432546 -1.5226399
00000000: d46c d0bf 52c1 b4bf c1d8 d6bf 798b d8bf
00000010: f274 cfbf 6e94 b9bf 2d68 ddbf 0b72 b9bf
00000020: 6788 8bbf 8bbd a6bf de28 d2bf b929 cabf
00000030: c535 cdbf 3045 a5bf ffd1 c3bf c943 d2bf
00000040: 6048 c6bf f622 acbf e652 c5bf 2ae8 bcbf
00000050: 87df d7bf 695e 4dbf f285 d2bf 981e 2bbe
00000060: 7a53 c4bf 6307 d0bf ab57 ccbf 4a61 dabf
00000070: a4b9 edbf 421b d4bf 6581 dfbf 4a6f 63bf
00000080: 534d d2bf 9395 debf 8a9b 4abf fad1 b8bf
00000090: 395f c5bf 3ba0 d1bf bf9f ddbf 52a0 d8bf
000000a0: 0419 9dbf 95dd abbf 2f5e d1bf 7548 b3bf
000000b0: 92c4 6a3c a224 4cbf fbad a6bf d71e 11bf
000000c0: 099f e7bf b9fa debf fc4b babf 6ec6 7ebf
000000d0: 4a3f e1bf 352d cabf adf5 3cbf 7afe cbbf
000000e0: 8cb9 d0bf 7fbf 443f 5b29 cdbf 4508 c7bf
000000f0: 169f dabf affd ccbf 064f 6bbf 9062 cabf
00000100: 4a19 73bf 99dd 8ebe 39d1 6ebf 0fa5 60bf
00000110: 5407 79bf 1a1a 8dbe cd9f 54bf 4d4f 34bf
00000120: 0dc2 20bf 4a58 fdbe c004 18bf 48d8 76bf
00000130: f38f 66bf cad6 49bf 1ded 69bf eb6e 58bf
00000140: e47e 6bbf 7d14 bfbc ee88 6dbf 283f 63bf
00000150: 1aae 7ebf 7fc7 17be 28f7 74bf e16d 1e3f
00000160: c480 56bf 2d5f 6fbf 0fba 5cbf a160 6abf
00000170: 490c 65bf 0116 41bf f072 65bf 476c 83be
00000180: 63de 59bf 8cab 61bf 5bb6 903c 32be 10bf
00000190: eadf 3bbf 1834 33bf 0345 67bf d232 76bf
000001a0: 1aab 36bf f419 bbbe 8a6b 82bf 9f1a 82be
000001b0: 0cb1 0abe 50d5 f4be c437 36bf 93c7 aabc
000001c0: 2737 71bf cdf6 6bbf 4bbd a7be e6b7 1dbe
000001d0: 2821 76bf c1e8 6bbf 76a3 09bc 50a6 51bf
000001e0: 5dd9 62bf 1d1e 303f cd1a 73bf d730 59bf
000001f0: e0a4 7abf 7b66 3abf 2816 b3be 5f81 68bf
00000200: f0bb cbbd 3a2b 27be aa91 0cbd 873d 213e
00000210: e05c 10bd 6de5 0fbe a14a 85bd 6d20 34bd
00000220: f066 b2ba 56f5 15bd 0626 143e 3407 123d
00000230: 3ed4 8b3d 9044 a1bb 6028 9abd 5557 c9bd
00000240: 330f ea3c feeb e03d d79c 8ebd 63a6 abbd
00000250: 6bb2 c43d 0540 eabc 21e1 1bbe fed1 523d
00000260: 0d16 553d 521e c03d 99be 27bd 8fb0 873b
00000270: db06 f93d 7e85 97bc 304a c2bc 4eb1 c23d
00000280: 3fc3 c1bc 2f08 9d3d 0066 033e 558e 85bd
00000290: 0c32 103e a80d dcbd e79b 2ebe a12c 5dbd
000002a0: 6863 a1bd bfb7 bbbd 53f6 55bd 9373 f03c
000002b0: 9ea9 803e aff1 e53d b68d 0cbe 1c34 03be
000002c0: 57b3 28bd a65d dbbd 429b 603e 7d14 113e
000002d0: e4bf 5dbd 36dd 90bd 52d9 1fbe 473a 9f3b
000002e0: ef1f cc3d a74d d23d 3a64 50bd 658f 8c39
000002f0: c657 853c ef51 163c 0b16 4b3e 54cb d2bd
00000300: e377 ccbf e895 c4bf 7bca c9bf ace3 d2bf
00000310: a550 d9bf 0a6f b3bf f143 d8bf e78a bfbf
00000320: cbc3 9fbf 21d3 9ebf 79f2 cfbf e875 b7bf
00000330: 289b e4bf 4ae6 b8bf 029c d8bf 640a d9bf
00000340: 530d d5bf 64c8 b4bf 745b dabf db28 b9bf
00000350: 0a04 bfbf 1235 12bf a957 eabf 084f 1c3e
00000360: f3f6 cfbf 4aec dabf 3dc1 e0bf 7af1 ccbf
00000370: 090f d5bf 39c9 d0bf 7970 d6bf 2dde 55bf
00000380: 91dd c8bf 714c c7bf 2569 5bbf acf2 bebf
00000390: 7dc7 c7bf e429 c6bf 10ed d2bf 5a63 c7bf
000003a0: 9f8f 9ebf 553a c0bf edc9 d0bf e218 b5bf
000003b0: 510c 193e c61b 22bf 5748 aebf 1d30 9bbe
000003c0: a2ef e2bf 7b2f cfbf 8927 b8bf 439f 82bf
000003d0: ab67 cebf 5fca dabf adfb 4abf 8d86 e0bf
000003e0: 9084 c0bf 327d bb3f 9a17 e6bf 11c9 cfbf
000003f0: 565c d4bf ccb9 e0bf ef45 3ebf dde5 c2bf

lstm.weight_ih_l1 f4 [256, 64]
-0.016252754 -0.0054254355 -0.052089356 -0.026119987 0.10648503 0.058737505 -0.09263732 0.008891096
-0.13987935 0.036620155 0.08669437 -0.037028413 0.04760081 -0.08923327 0.07644636 -0.025652342
-0.13781913 0.109786585 -0.009741362 -0.03142038 0.08651844 -0.042995747 -0.023373358 0.02364919
-0.17770827 0.10535836 0.06563918 -0.008520771 0.029487832 -0.040818524 -0.062662795 0.036162578
0.0527966 -0.07678219 -0.080229 0.03140101 0.20617701 0.02836446 0.14508943 -0.03731066
-0.21214068 0.07436211 -0.064722314 0.078024566 -0.12688725 -0.050772514 0.10035681 0.08103232
-0.10890034 0.09231967 0.06717912 0.013480806 -0.09217175 -0.04909393 -0.033965487 0.07458967
0.13326237 0.34736013 0.06971444 0.20279291 -0.031259414 0.10502213 -0.019653236 -0.002200913
0.065234795 0.16594377 0.13452028 0.009142372 0.116639726 0.03890692 0.06250984 -0.12562743
0.09514225 0.15900807 -0.05969855 -0.16505478 0.041295957 -0.06493088 0.12628937 0.10059179
-0.083067015 -0.21108966 0.13691689 0.12774545 -0.10144989 0.044842545 0.06789713 -0.13022377
-0.12334394 0.012941332 -0.0476416 -0.080836974 -0.033981066 -0.015916461 -0.10385084 -0.04522971
0.049551357 -0.013797638 -0.06646748 -0.038464136 -0.04989812 0.051823888 -0.07575561 0.121268086
-0.029986959 0.06690519 -0.13626125 0.05879407 -0.0919287 -0.16483082 0.17024976 0.14634424
0.1517655 0.024912475 0.0049761944 -0.0033879639 -0.02365108 0.10768568 0.06099275 -0.09325144
-0.1467329 0.29317972 -0.074850395 0.035669215 0.014217235 -0.014102039 -0.10894989 0.027091576
0.024603875 -0.027175453 0.08448556 0.07606092 -0.07995176 -0.09456934 -0.103791684 0.1421006
-0.13594353 0.05167309 0.022578446 -0.085709125 0.065956876 0.121430285 0.070916235 0.14577411
-0.0491164 -0.18736564 0.09955361 -0.055711754 0.06266303 0.09249341 -0.02264 0.064493366
0.09215911 0.008340113 -0.05592628 0.06778451 0.059351332 -0.006214122 0.10295479 0.1723685
0.08682307 -0.26740497 -0.33536017 0.032962933 0.066529535 -0.11199061 -0.14455558 0.1963192
-0.030928303 -0.12671624 0.03892122 0.11612999 -0.09020153 0.019004844 0.01992396 0.09857744
-0.11749459 0.019380802 0.014277703 -0.010376876 0.026879894 -0.048300713 0.19151422 -0.1331625
-0.036875147 -0.10347779 0.07744739 0.03774248 -0.06092202 -0.029054692 -0.026375456 0.07559554
-0.28218475 -0.107289344 -0.08787567 -0.012491349 0.11835179 -0.05611104 -0.35574794 0.1397542
-0.1542644 0.12515284 0.03290729 0.11161805 0.13384737 0.03666113 0.063263044 0.09541861
0.082967855 -0.10645282 0.00020326607 -0.09983029 -0.12138555 0.066929094 -0.011167495 0.19344814
0.0051704044 -0.037339654 0.029490067 -0.1535804 0.11983905 -0.08153958 -0.05488645 0.208069
0.0053152875 -0.09719035 -0.11295145 -0.27901855 0.14984432 -0.01097527 -0.029464563 0.003412676
-0.05896722 0.068350755 0.04248095 0.025368715 0.026727023 -0.035134733 0.042686857 0.03444023
-0.062048055 -0.04543789 0.08259546 -0.04232943 0.06395526 0.034720268 0.09521352 -0.084716715
0.046867874 -0.10786945 -0.041120637 0.24157253 0.047803987 0.013815698 0.11016692 -0.12983823
00000000: 7f24 85bc dac7 b1bb a65b 55bd 95f9 d5bc
00000010: d314 da3d bd96 703d a3b8 bdbd f6ab 113c
00000020: 883c 0fbe 04ff 153d d18c b13d 1bab 17bd
00000030: 11f9 423d efbf b6bd e98f 9c3d dc24 d2bc
00000040: 7520 0dbe cad7 e03d 3c9a 1fbc a8b2 00bd
00000050: 9430 b13d 4f1c 30bd 7c79 bfbc f2bb c13c
00000060: 28f9 35be 20c6 d73d d66d 863d b49a 0bbc
00000070: 7790 f13c 5331 27bd 5a55 80bd 361f 143d
00000080: 3f41 583d fb3f 9dbd 1a4f a4bd 589e 003d
00000090: 1120 533e 965c e83c 5392 143e 10d3 18bd
000000a0: 683b 59be 294b 983d 228d 84bd 58cb 9f3d
000000b0: bbee 01be d7f6 4fbd df87 cd3d 46f4 a53d
000000c0: 2407 dfbd 1812 bd3d 3595 893d 99de 5c3c
000000d0: 8bc4 bcbd b716 49bd 651f 0bbd 78c2 983d
000000e0: ee75 083e 30d9 b13e 72c6 8e3d f2a8 4f3e
000000f0: df09 00bd d815 d73d d3ff a0bc 313d 10bb
00000100: d299 853d 2aed 293e afbf 093e e3c9 153c
00000110: cfe0 ee3d dd5c 1f3d 2905 803d 7aa4 00be
00000120: f1d9 c23d 03d3 223e 7786 74bd 1f04 29be
00000130: f325 293d 7bfa 84bd 0052 013e 1203 ce3d
00000140: 0a1f aabd e327 58be f133 0c3e b4cf 023e
00000150: f6c4 cfbd d1ac 373d a70d 8b3d 6159 05be
00000160: bf9b fcbd e107 543c d723 43bd db8d a5bd
00000170: bb2f 0bbd 3d63 82bc c0af d4bd ca42 39bd
00000180: 5df6 4a3d 7d0f 62bc 1a20 88bd 928c 1dbd
00000190: f961 4cbd 4945 543d c225 9bbd 675b f83d
000001a0: 36a7 f5bc 9705 893d 1288 0bbe 0dd2 703d
000001b0: 1d45 bcbd 69c9 28be f455 2e3e 44db 153e
000001c0: 6a68 1b3e 3f15 cc3c 580f a33b 9a08 5ebb
000001d0: e9bf c1bc 4f8a dc3d 89d3 793d 9cfa bebd
000001e0: 2641 16be a71b 963e 2a4b 99bd e219 123d
000001f0: 68ef 683c 3d0c 67bc 1f21 dfbd 27ef dd3c
00000200: 118e c93c 0e9f debc c406 ad3d d4c5 9b3d
00000210: c0bd a3bd 92ad c1bd bc90 d4bd d282 113e
00000220: c834 0bbe 29a7 533d 6ff6 b83c 4488 afbd
00000230: 6614 873d 71b0 f83d 883c 913d cf45 153e
00000240: 472e 49bd c7dc 3fbe c3e2 cb3d 0232 64bd
00000250: 7a55 803d 2f6d bd3d 8577 b9bc 1915 843d
00000260: eabd bc3d f8a4 083c f412 65bd 9bd2 8a3d
00000270: 621a 733d d59f cbbb f6d9 d23d 5e81 303e
00000280: 4bd0 b13d 4ee9 88be 54b4 abbe 2404 073d
00000290: a340 883d 555b e5bd 6106 14be e607 493e
000002a0: 5a5d fdbc e7c1 01be db6b 1f3d 8fd5 ed3d
000002b0: 94bb b8bd 0cb0 9b3c 9337 a33c f8e2 c93d
000002c0: 01a1 f0bd 7dc4 9e3c 07ed 693c c603 2abc
000002d0: 3933 dc3c f8d6 45bd 4e1c 443e c05b 08be
000002e0: 650a 17bd 2aec d3bd bd9c 9e3d dc97 1a3d
000002f0: 5e89 79bd 1b04 eebc 5711 d8bc d6d1 9a3d
00000300: 857a 90be 84ba dbbd 29f8 b3bd 84a8 4cbc
00000310: 6c62 f23d b1d4 65bd 9824 b6be ba1b 0f3e
00000320: 7df7 1dbe 1128 003e cbc9 063d 0198 e43d
00000330: 490f 093e fb29 163d 0e90 813d d56a c33d
00000340: 0deb a93d f003 dabd d223 5539 d373 ccbd
00000350: fd98 f8bd 1f12 893d def7 36bc 4517 463e
00000360: 7f6c a93b 77f1 18bd 2795 f13c 2e44 1dbe
00000370: 2d6e f53d 39fe a6bd 9dd0 60bd 0a10 553e
00000380: dd2b ae3b bc0b c7bd 1753 e7bd 85db 8ebe
00000390: ca70 193e 9ed1 33bc ab5f f1bc 34a7 5f3b
000003a0: 9d87 71bd 7bfb 8b3d 8100 2e3d 0dd2 cf3c
000003b0: a1f2 da3c 70e9 0fbd 6ad8 2e3d 3311 0d3d
000003c0: 1a26 7ebd 151d 3abd cf27 a93d a061 2dbd
000003d0: fafa 823d d736 0e3d 4eff c23d f57f adbd
000003e0: 87f8 3f3d a8ea dcbd 1d6e 28bd ca5e 773e
000003f0: 1dce 433d 3d5b 623c 329f e13d 50f4 04be

lstm.weight_hh_l1 f4 [256, 64]
0.0041457266 0.14195193 0.033359542 0.09642142 0.3607766 -0.073405795 0.08580242 0.13963534
-0.08028545 0.08656959 0.10804316 -0.08905023 0.09072046 -0.007820171 -0.09279536 0.022020677
0.18122411 0.18860549 -0.23030415 -0.17031536 0.17650184 0.23180355 -0.017359663 -0.20105907
0.1507468 -0.22747642 0.05660997 -0.025169097 -0.0086271195 -0.030713832 0.07964998 0.06474546
0.043710735 -0.20895839 -0.07316384 -0.015249922 0.13840559 0.2812667 -0.0058754957 -0.09226351
-0.1293907 -0.0845645 0.11528618 -0.010940075 -0.1331304 0.021852097 -0.2045255 0.01886698
0.08565053 0.009915684 0.14968398 -0.13599408 -0.047934845 0.09944477 -0.014804436 -0.03254257
0.03381677 0.09747401 -0.32411733 -0.0064068935 0.32956207 -0.011061183 -0.052968662 -0.0006381196
0.103120185 -0.05051009 0.043636225 -0.048030242 0.019306947 -0.025314238 -0.056367073 -0.037322883
0.024580514 0.22281815 0.047464244 -0.1366342 0.15261467 -0.032308355 -0.0198161 0.076500095
0.1469658 0.20320551 -0.088801116 0.059895042 0.1701896 0.19437885 -0.044354737 -0.10358843
-0.06488082 -0.08682169 0.097629406 0.005677532 0.032814488 0.009590746 0.09377399 -0.024173047
0.14503486 -0.04013712 -0.19026159 0.08119859 0.036643863 0.036672518 0.08529592 -0.08586671
-0.0093119 -0.035001904 -0.11800682 -0.07793844 -0.046648826 0.061929636 0.04039868 -0.0190769
0.049760673 0.020272965 0.19136074 -0.006984142 0.1469805 0.09289681 -0.18533303 0.08657155
0.022196176 0.07703197 -0.47358853 0.045520056 0.3874338 -0.05209227 0.022492243 -0.12170488
0.015878819 -0.006500034 0.07471686 -0.03672034 0.41078874 0.1151384 -0.05516491 0.21669205
-0.09545782 0.22752677 -0.0054765744 -0.022878436 0.033455554 -0.011202547 0.035802808 -0.15565966
0.3769423 0.18499255 -0.19390279 0.027761403 0.20348053 0.23050766 0.09465097 -0.0011579503
0.106852874 -0.22245671 0.055864803 0.013350522 -0.16215754 0.088497154 0.15687762 -0.034344275
0.11423316 -0.24862194 -0.07595194 0.04920462 0.025065366 0.25419968 -0.05377473 -0.09662
-0.05119436 0.014677161 0.009944832 -0.17329946 -0.17203324 0.05528344 -0.1875053 -0.08056524
0.15562649 -0.01731723 0.21083613 -0.03479878 0.026866263 -0.003873067 0.0865701 -0.0020369245
-0.16758196 0.05730717 -0.20454669 -0.19430105 0.14638585 -0.02331583 0.13685629 -0.12314292
0.1126457 0.02631646 0.061682064 -0.08662747 0.3988746 0.0025820383 0.0071163718 0.19869113
-0.094573475 0.14866716 -0.111847065 -0.14497314 -0.06272482 -0.08463529 -0.07960638 0.076822475
0.46193108 0.2852334 -0.24562557 -0.16153766 0.28451702 0.2180968 -0.05615547 0.0099922465
0.023393271 -0.01157082 0.16589655 -0.086740576 -0.103327796 0.0019022838 0.11512184 0.13702779
0.12003889 -0.22489683 -0.061613273 -0.10454976 0.054721773 0.32966664 0.020933585 -0.121198125
0.06024307 -0.16882822 -0.009517559 -0.12476631 -0.08673207 0.08098709 -0.16735229 0.024402188
0.12107842 -0.06693026 0.1344357 -0.014559846 0.0352642 0.006347161 0.14176536 -0.0043561687
0.038988113 -0.05255626 -0.11041009 -0.0910896 0.07541966 -0.013672358 -0.046898585 -0.089009255
00000000: e0d8 873b d95b 113e 04a4 083d 9878 c53d
00000010: b6b7 b83e c755 96bd 2eb9 af3d 91fc 0e3e
00000020: b36c a4bd 664b b13d bb45 dd3d f85f b6bd
00000030: a6cb b93d 2d20 00bc 7e0b bebd b564 b43c
00000040: d092 393e cc21 413e dad4 6bbe 2667 2ebe
00000050: e6bc 343e e95d 6d3e da35 8ebc 6ee2 4dbe
00000060: 5e5d 1a3e 94ef 68be dbdf 673d 6c2f cebc
00000070: c358 0dbc 939b fbbc 871f a33d 4599 843d
00000080: 070a 333d 30f9 55be ecd6 95bd cfda 79bc
00000090: 32ba 0d3e 3002 903e 3b87 c0bb a7f4 bcbd
000000a0: ff7e 04be 2730 adbd 291b ec3d 003e 33bc
000000b0: 5653 08be 2b03 b33c 226f 51be ed8e 9a3c
000000c0: 8c69 af3d 6575 223c c246 193e 0842 0bbe
000000d0: 5457 44bd b3a9 cb3d 4e8e 72bc 5c4b 05bd
000000e0: 7483 0a3d 74a0 c73d b5f2 a5be ebf0 d1bb
000000f0: 5cbc a83e f739 35bc abf5 58bd 7b47 27ba
00000100: ad30 d33d abe3 4ebd e6bb 323d 5cbb 44bd
00000110: 9a29 9e3c ce5f cfbc 29e1 66bd e1df 18bd
00000120: 135d c93c 712a 643e de69 423d d6e9 0bbe
00000130: 0547 1c3e c455 04bd 6055 a2bc 15ac 9c3d
00000140: 347e 163e 1b15 503e 5cdd b5bd 8154 753d
00000150: 2f46 2e3e 400b 473e 50ad 35bd 2c26 d4bd
00000160: 3ce0 84bd 92cf b1bd edf1 c73d 970a ba3b
00000170: 7c68 063d 8122 1d3c 940c c03d 8e06 c6bc
00000180: 0584 143e d266 24bd efd3 42be 724b a63d
00000190: e017 163d ec35 163d a1af ae3d e3da afbd
000001a0: f090 18bc 285e 0fbd 8fad f1bd 309e 9fbd
000001b0: d712 3fbd eea9 7d3d 1679 253d 2947 9cbc
000001c0: d9d1 4b3d 7d13 a63c 12f4 433e 3bdb e4bb
000001d0: 0e82 163e af40 be3d f1c7 3dbe 6d4c b13d
000001e0: c1d4 b53c f0c2 9d3d 327a f2be 3d73 3a3d
000001f0: b95d c63e b45e 55bd a741 b83c 6840 f9bd
00000200: 4c14 823c 3dfe d4bb 2705 993d 1168 16bd
00000210: e752 d23e aecd eb3d 9af4 61bd 85e4 5d3e
00000220: 647f c3bd c7fc 683e d674 b3bb 8f6b bbbc
00000230: b108 093d e38a 37bc f7a5 123d 3f65 1fbe
00000240: 95fe c03e b06e 3d3e 748e 46be e26b e33c
00000250: 335d 503e 330a 6c3e 5ed8 c13d 5dc6 97ba
00000260: aed5 da3d b1cb 63be 7ed2 643d 26bc 5a3c
00000270: a00c 26be ff3d b53d 87a4 203e 95ac 0cbd
00000280: 13f3 e93d c096 7ebe b18c 9bbd c98a 493d
00000290: e255 cd3c 7626 823e e442 5cbd b5e0 c5bd
000002a0: 2db1 51bd 7a78 703c a6ef 223c 6a75 31be
000002b0: 7b29 30be e370 623d 6401 40be 63ff a4bd
000002c0: 8d5c 1f3e dddc 8dbc 6de5 573e 2a89 0ebd
000002d0: a316 dc3c 48d3 7dbb aa4b b13d ec7d 05bb
000002e0: 9b9a 2bbe ecba 6a3d b074 51be dbf6 46be
000002f0: 2ce6 153e d700 bfbc 0e24 0c3e 5b32 fcbd
00000300: cab2 e63d 9e95 d73c 55a6 7c3d be69 b1bd
00000310: 4b39 cc3e 6a37 293b 7430 e93b b075 4b3e
00000320: bdaf c1bd 343c 183e 1310 e5bd d773 14be
00000330: df75 80bd 4455 adbd ab08 a3bd 1a55 9d3d
00000340: 3b82 ec3e 1d0a 923e 4585 7bbe 216a 25be
00000350: 37ac 913e c454 5f3e 4703 66bd 85b6 233c
00000360: 3fa3 bf3c 8993 3dbc c9e0 293e 0ba5 b1bd
00000370: 869d d3bd 0d56 f93a 00c5 eb3d 0351 0c3e
00000380: f3d6 f53d 5b4b 66be 335e 7cbd 2f1e d6bd
00000390: f023 603d 11ca a83e e97c ab3c b936 f8bd
000003a0: 70c1 763d 4ee1 2cbe 89ef 1bbc 7b85 ffbd
000003b0: 95a0 b1bd 8fdc a53d 665e 2bbe 19e7 c73c
000003c0: f6f7 f73d bb12 89bd 83a9 093e 6c8c 6ebc
000003d0: 3271 103d d8fb cf3b f02a 113e 31be 8ebb
000003e0: 00b2 1f3d 3c45 57bd af1e e2bd 2f8d babd
000003f0: 9f75 9a3d 0702 60bc bb18 40bd 7c4a b6bd

lstm.bias_ih_l1 f4 [256]
-1.7462604 -1.681459 -1.7422581 -1.8223895 -0.2997322 -1.7125899 -1.7274972 -1.737467
-1.762521 -1.7437845 -1.7359533 -1.8798385 -1.6812633 -1.8041074 -1.821091 -1.8554558
-1.3373328 -1.5942353 -1.0223482 -1.6779463 -0.56852025 -1.7809511 -1.7853937 -1.7017916
-1.6635135 -1.3672531 -1.6653925 -1.7154328 -1.8010806 -1.6095512 -1.8528228 -1.7120284
-1.89051 -1.753664 -1.7375745 -1.7044096 -0.6147689 -1.6493272 -1.7210573 -1.8256606
-1.695689 -1.6961466 -1.8486968 -1.7898676 -2.007055 -1.7341044 -1.8530318 -1.6899056
-1.7381463 -1.8590754 -1.8355728 -1.8355618 -1.6341606 -1.7704251 -1.783935 -1.7082847
-1.8074936 -1.6600552 0.15054204 -1.8123568 -0.16307366 -1.5887268 -1.7720411 -1.7689083
-1.0022362 -0.7751349 -0.8833027 -0.9112798 -0.32510668 -0.94064677 -0.9502699 -0.68199193
-0.82138157 -1.011182 -0.8258623 -0.625115 -0.819141 -0.9021461 -0.83083713 -1.014586
-0.31238514 -0.9426668 -0.39921546 -0.80894536 -0.46633852 -1.0739831 -1.0364763 -0.83481926
-0.7342749 -1.2647136 -0.7194851 -0.88206565 -0.91972846 -0.85151106 -0.71870214 -0.92682856
-0.84624755 -0.9508963 -0.8080471 -0.90798557 -1.6687686 -0.28308845 -0.7571101 -0.80138755
-0.95504034 -0.91023695 -0.86462235 -0.86746913 -1.3093607 -0.914612 -0.7823658 -0.85520744
-0.79776573 -0.8199764 -0.75502926 -0.88717586 -0.8807037 -0.91070724 -0.809037 -0.93701994
-0.8229379 -0.8778585 -0.38174894 -0.9502733 0.15253249 -0.7698169 -0.8971273 -0.8405827
-0.08749476 -0.015723372 -0.0051475894 -0.03142697 -0.0050781714 -0.07175082 0.017754024 -0.06492183
0.056783907 -0.081619315 -0.014268174 0.007928143 -0.008169461 -0.07070718 -0.035084747 0.026335139
-0.063560136 -0.015005112 0.013490151 -0.022930814 -0.0105488235 -0.0103831 -0.07794093 0.015735911
-0.027380398 -0.07406812 0.006259575 0.092476256 0.022296568 0.0026301148 0.009744074 0.020362338
-0.009073717 0.06981375 -0.05388293 0.08709857 -0.11966434 -0.03660117 0.031513497 -8.438206e-05
0.020874744 -0.07586871 0.07346424 0.031973805 -0.016321557 -0.037838157 0.036569823 -0.0518116
0.023215622 -0.0013924321 0.044281136 -0.018380465 0.052898135 0.06586544 -0.098440446 -0.06718154
-0.04642514 0.014279066 0.055944234 -0.020233508 -0.04966097 0.01229335 0.011271293 -0.033646934
-1.9174699 -1.8413905 -1.7885705 -1.8666729 -0.10894753 -1.7865676 -1.5895863 -1.8720987
-1.7567358 -1.6875659 -1.848626 -1.8067669 -1.8322256 -1.8046491 -1.7635288 -1.6446968
-1.0845367 -1.8002044 -0.91719854 -1.6418222 -0.41220525 -1.7948266 -1.7512149 -1.6522486
-1.8550284 -1.6166065 -1.8698659 -1.8602479 -1.8597666 -1.5802464 -1.7323685 -1.703463
-1.7423041 -1.625897 -1.774965 -1.7236155 -0.64761883 -1.6065382 -1.8093436 -1.691115
-1.7387016 -1.8101451 -1.8409414 -1.7677016 -1.9064394 -1.7128522 -1.746195 -1.6811786
-1.8059716 -1.6595155 -1.7052015 -1.9534605 -1.7666782 -1.8410351 -1.7712569 -1.7202432
-1.8602256 -1.8485607 0.24544406 -1.7157427 -0.068549894 -1.6167511 -1.8407377 -1.7382444
00000000: 7685 dfbf 0c3a d7bf 5002 dfbf 0f44 e9bf
00000010: 8076 99be 2536 dbbf a11e ddbf 5265 debf
00000020: 4a9a e1bf 5534 dfbf b833 debf 8c9e f0bf
00000030: a333 d7bf feec e6bf 8319 e9bf 937f edbf
00000040: b92d abbf e70f ccbf 4edc 82bf f2c6 d6bf
00000050: 8b8a 11bf 35f6 e3bf c887 e4bf 4fd4 d9bf
00000060: 03ee d4bf 2602 afbf 952b d5bf 4d93 dbbf
00000070: cf89 e6bf c605 cebf 4c29 edbf bf23 dbbf
00000080: 3bfc f1bf 1078 e0bf d768 debf 182a dabf
00000090: 7f61 1dbf 271d d3bf 9b4b dcbf 3faf e9bf
000000a0: 560c d9bf 551b d9bf 19a2 ecbf 621a e5bf
000000b0: 9773 00c0 22f7 ddbf 2530 edbf d44e d8bf
000000c0: 947b debf 2ff6 edbf 0df4 eabf b0f3 eabf
000000d0: 2d2c d1bf 4a9d e2bf fb57 e4bf 13a9 dabf
000000e0: f35b e7bf b07c d4bf b127 1a3e 4ffb e7bf
000000f0: c8fc 26be 665b cbbf 3ed2 e2bf 966b e2bf
00000100: 4749 80bf 3e6f 46bf 2020 62bf a249 69bf
00000110: 6274 a6be 3ace 70bf e344 73bf 0697 2ebf
00000120: 1046 52bf 696e 81bf b66b 53bf 8907 20bf
00000130: 39b3 51bf 0cf3 66bf beb1 54bf f4dd 81bf
00000140: f2f0 9fbe 9d52 71bf f865 ccbe 0b17 4fbf
00000150: ecc3 eebe 4778 89bf 41ab 84bf b7b6 55bf
00000160: 71f9 3bbf 23e2 a1bf 2d30 38bf 0ecf 61bf
00000170: 5373 6bbf a1fc 59bf ddfc 37bf a344 6dbf
00000180: aea3 58bf f16d 73bf 2ddc 4ebf be71 68bf
00000190: 369a d5bf f8f0 90be f8d1 41bf bc27 4dbf
000001a0: 867d 74bf 4a05 69bf e457 5dbf 7512 5ebf
000001b0: 2299 a7bf 0324 6abf 2049 48bf e0ee 5abf
000001c0: 603a 4cbf f9e9 51bf 9949 41bf f51d 63bf
000001d0: cc75 61bf 1c24 69bf 0d1d 4fbf 8ae0 6fbf
000001e0: 0fac 52bf 56bb 60bf 9974 c3be 1c45 73bf
000001f0: 7a31 1c3e b812 45bf 22aa 65bf 6e30 57bf
00000200: 7430 b3bd 4dce 80bc 1cad a8bb 91b9 00bd
00000210: ca66 a6bb 18f2 92bd e370 913c bdf5 84bd
00000220: 3e96 683d 0728 a7bd 0fc5 69bc 0be5 013c
00000230: 34d9 05bc edce 90bd 06b5 0fbd cabc d73c
00000240: d12b 82bd 00d8 75bc cb05 5d3c 67d9 bbbc
00000250: f9d4 2cbc e11d 2abc 7f9f 9fbd 99e8 803c
00000260: db4c e0bc 07b1 97bd 1f1d cd3b 3164 bd3d
00000270: 4ba7 b63c 015e 2c3b 9ca5 1f3c ebce a63c
00000280: eda9 14bc 83fa 8e3d 59b4 5cbd bc60 b23d
00000290: 9412 f5bd 1ceb 15bd 4c14 013d 46f6 b0b8
000002a0: 8301 ab3c 0e61 9bbd 6b74 963d f7f6 023d
000002b0: c9b4 85bc 2ffc 1abd 3dca 153d 6638 54bd
000002c0: b02e be3c 4582 b6ba 2360 353d a192 96bc
000002d0: b7ab 583d 76e4 863d 259b c9bd 7a96 89bd
000002e0: 4a28 3ebd bef2 693c c825 653d bec0 a5bc
000002f0: 4d69 4bbd 0c6a 493c 3bab 383c 5ed1 09bd
00000300: a76f f5bf afb2 ebbf e1ef e4bf 23ef eebf
00000310: e21f dfbd 3fae e4bf 9077 cbbf eea0 efbf
00000320: b8dc e0bf 2902 d8bf c79f ecbf 2344 e7bf
00000330: 5e86 eabf befe e6bf 50bb e1bf 6d85 d2bf
00000340: 19d2 8abf 196d e6bf 86cd 6abf 3b27 d2bf
00000350: 910c d3be e1bc e5bf cf27 e0bf e27c d3bf
00000360: 9271 edbf f6ec cebf c457 efbf 9a1c eebf
00000370: d50c eebf 8445 cabf 40be ddbf 130b dabf
00000380: d203 dfbf 651d d0bf 0e32 e3bf 6f9f dcbf
00000390: 59ca 25bf 0ba3 cdbf 9298 e7bf 7576 d8bf
000003a0: c68d debf d6b2 e7bf f8a3 ebbf 0c44 e2bf
000003b0: 3506 f4bf be3e dbbf 5183 dfbf dc30 d7bf
000003c0: 142a e7bf 016b d4bf 0b44 dabf fe0a fabf
000003d0: 8322 e2bf 0aa7 ebbf 8cb8 e2bf ee30 dcbf
000003e0: df1b eebf a39d ecbf b055 7b3e 759d dbbf
000003f0: e363 8cbd b3f1 cebf 4b9d ebbf cb7e debf

lstm.bias_hh_l1 f4 [256]
-1.8388293 -1.7741028 -1.6577344 -1.7725857 -0.45769757 -1.8082511 -1.8619019 -1.8774137
-1.8827991 -1.6362778 -1.664225 -1.8013787 -1.8264433 -1.7573869 -1.7071172 -1.817148
-1.3107325 -1.7411577 -0.9437536 -1.7447803 -0.48165372 -1.7469176 -1.6189687 -1.6280099
-1.7220381 -1.5220938 -1.6886245 -1.7210362 -1.8351718 -1.6140532 -1.829534 -1.8150777
-1.7450696 -1.6797874 -1.8308285 -1.6918716 -0.5623732 -1.6696943 -1.8823961 -1.6767179
-1.8381026 -1.7507576 -1.7403334 -1.7495311 -2.048119 -1.6649458 -1.6445779 -1.7230036
-1.7404466 -1.800553 -1.681924 -1.7303406 -1.7107587 -1.7264104 -1.8054994 -1.7863382
-1.7931572 -1.7020941 0.09711661 -1.7774862 -0.15944934 -1.6401203 -1.77577 -1.6939454
-0.96106476 -0.6242052 -0.8672286 -0.9604951 -0.18867639 -0.9202292 -1.0763204 -0.7424704
-0.8816002 -0.84912837 -0.9630995 -0.82503444 -0.9365588 -0.9191601 -0.8156497 -0.8748446
-0.3184855 -0.82261926 -0.5512583 -0.7763668 -0.287197 -0.87858045 -0.83677655 -1.0469669
-0.88331383 -1.0888522 -0.6910079 -0.8918649 -0.9348039 -0.969915 -0.7464531 -1.0010034
-0.829344 -0.8636201 -0.88074976 -0.82683897 -1.5649343 -0.4015758 -0.86042404 -0.8566339
-0.7654922 -0.8544575 -0.96199375 -1.031713 -1.4249487 -0.83134 -0.81834114 -0.81392574
-0.912119 -0.93359834 -0.89419 -0.87008184 -1.0314208 -0.7245842 -1.0014635 -0.8149641
-0.75976044 -0.8125589 -0.38446763 -0.8584306 0.024193406 -0.95090854 -0.88975954 -0.9544457
0.08373898 0.010924904 0.0022279012 0.028873095 -0.014554799 0.07278894 -0.019701753 0.060472637
-0.05222266 0.07881481 0.0121368235 -0.005163522 0.0043557673 0.07348303 0.033619113 -0.027394138
0.012930451 0.010771265 -0.0015432184 0.02726256 0.0010187487 0.00551321 0.077575885 -0.0073262975
0.024900222 0.09228281 -0.010171281 -0.09147941 -0.017986787 0.00028259843 -0.011751017 -0.018512057
0.008233592 -0.06595548 0.060253292 -0.08755107 0.07395396 0.008005148 -0.027687363 0.0022433093
-0.02408603 0.08135018 -0.074338 -0.03004243 0.00845649 0.034454975 -0.03173506 0.049323186
-0.030152548 -0.00205303 -0.047743443 0.020480573 -0.0558746 -0.06894422 0.099456646 0.069102615
0.04954581 -0.012096006 -0.02631418 0.020772457 -0.07068161 -0.017199397 -0.013105768 0.033682197
-1.7069432 -1.835966 -1.7458175 -1.6720384 -0.08624396 -1.6483771 -1.6594441 -1.7061915
-1.718607 -1.8770851 -1.7609159 -1.8280488 -1.7129517 -1.6857779 -1.745312 -1.6833111
-1.1400295 -1.8067325 -0.9419079 -1.815044 -0.50809634 -1.6153787 -1.8481563 -1.8491454
-1.8930285 -1.6531227 -1.9188598 -1.6965382 -1.7565314 -1.730541 -1.6844592 -1.8733937
-1.7743441 -1.605848 -1.6480007 -1.7599058 -0.78710717 -1.5994817 -1.6872759 -1.6806325
-1.8047616 -1.5967653 -1.8058338 -1.7383285 -2.046967 -1.7941098 -1.7822949 -1.74469
-1.7062325 -1.7910012 -1.7558948 -1.8849728 -1.7243615 -1.8562524 -1.6949925 -1.6934955
-1.7518133 -1.7606297 0.2874258 -1.6986691 0.12483604 -1.6840469 -1.7473058 -1.7189001
00000000: c25e ebbf cd15 e3bf a430 d4bf 17e4 e2bf
00000010: 5657 eabe c674 e7bf cd52 eebf 184f f0bf
00000020: 90ff f0bf 8d71 d1bf 5305 d5bf 9493 e6bf
00000030: e5c8 e9bf 0ef2 e0bf d182 dabf 4e98 e8bf
00000040: 15c6 a7bf 41de debf d699 71bf f654 dfbf
00000050: 519b f6be ff9a dfbf 5e3a cfbf a162 d0bf
00000060: bf6b dcbf f8d3 c2bf d924 d8bf ea4a dcbf
00000070: e9e6 eabf 4c99 cebf 2c2e eabf 7754 e8bf
00000080: 715e dfbf 4603 d7bf 9758 eabf 408f d8bf
00000090: b1f7 0fbf 8bb8 d5bf 5bf2 f0bf b19e d6bf
000000a0: f246 ebbf d318 e0bf 3fc3 debf a3f0 dfbf
000000b0: 6214 03c0 f21c d5bf 8781 d2bf 628b dcbf
000000c0: f4c6 debf 8578 e6bf 4949 d7bf cd7b ddbf
000000d0: 24fa dabf 04fb dcbf 9b1a e7bf bba6 e4bf
000000e0: 2d86 e5bf 38de d9bf 13e5 c63d ab84 e3bf
000000f0: b046 23be 76ef d1bf 6e4c e3bf 34d3 d8bf
00000100: 5708 76bf e9cb 1fbf b202 5ebf 02e3 75bf
00000110: 6234 41be 2494 6bbf dec4 89bf 8a12 3ebf
00000120: 8db0 61bf 7a60 59bf b08d 76bf 7535 53bf
00000130: 51c2 6fbf 144e 6bbf 6bce 50bf d1f5 5fbf
00000140: 8810 a3be 2d97 52bf 441f 0dbf f9bf 46bf
00000150: 7c0b 93be a6ea 60bf fd36 56bf 0303 86bf
00000160: db20 62bf 825f 8bbf e5e5 30bf 4251 64bf
00000170: 4f4f 6fbf 594c 78bf 8d17 3fbf e120 80bf
00000180: e34f 54bf 3516 5dbf d178 61bf b8ab 53bf
00000190: c44f c8bf 589b cdbe c044 5cbf 5c4c 5bbf
000001a0: 4cf7 43bf babd 5abf 3945 76bf 2c0f 84bf
000001b0: b864 b6bf b3d2 54bf ce7e 51bf 705d 50bf
000001c0: a180 69bf 4d00 6fbf a3e9 64bf afbd 5ebf
000001d0: 9905 84bf 5a7e 39bf f52f 80bf 7da1 50bf
000001e0: a97f 42bf dc03 50bf f1d8 c4be 1cc2 5bbf
000001f0: 4031 c63c be6e 73bf 48c7 63bf 8e56 74bf
00000200: 587f ab3d 5efe 323c fb01 123b 4587 ec3c
00000210: 4077 6ebc 5e12 953d 9265 a1bc 28b2 773d
00000220: 6ee7 55bd a969 a13d 87d9 463c c332 a9bb
00000230: d3ba 8e3b 457e 963d 32b4 093d ac69 e0bc
00000240: 3eda 533c f679 303c d145 caba bb55 df3c
00000250: 8987 853a 28a8 b43b 1be0 9e3d 7011 f0bb
00000260: 8dfb cb3c c5fe bc3d 72a5 26bc 8f59 bbbd
00000270: 0759 93bc b829 9439 5687 40bc 99a6 97bc
00000280: 30e6 063c ab13 87bd 28cc 763d fa4d b3bd
00000290: 2c75 973d 0628 033c 9cd0 e2bc 7c04 133b
000002a0: 1150 c5bc ec9a a63d 853e 98bd 8b1b f6bc
000002b0: 178d 0a3c a920 0d3d 9ffc 01bd 1c07 4a3d
000002c0: 7a02 f7bc 218c 06bb a18e 43bd e0c6 a73c
000002d0: c4dc 64bd a132 8dbd edaf cb3d ac85 8d3d
000002e0: 8cf0 4a3d 542e 46bc d690 d7bc 002b aa3c
000002f0: 85c1 90bd c0e5 8cbc 93b9 56bc 58f6 093d
00000300: 1d7d dabf ef00 ebbf f376 dfbf 5b05 d6bf
00000310: aca0 b0bd 05fe d2bf aa68 d4bf 7c64 dabf
00000320: 50fb dbbf 5344 f0bf b165 e1bf 81fd e9bf
00000330: 0042 dbbf 92c7 d7bf 6266 dfbf bd76 d7bf
00000340: 7dec 91bf 0343 e7bf e020 71bf 5d53 e8bf
00000350: 9a12 02bf bbc4 cebf 6390 ecbf ccb0 ecbf
00000360: c24e f2bf 8699 d3bf 339d f5bf 2a28 d9bf
00000370: 05d6 e0bf 5e82 ddbf 5c9c d7bf 5dcb efbf
00000380: b51d e3bf 6d8c cdbf b0f1 d2bf 9844 e1bf
00000390: db7f 49bf d1bb ccbf a8f8 d7bf f71e d7bf
000003a0: 6e02 e7bf ce62 ccbf 9025 e7bf 8c81 debf
000003b0: 8201 03c0 64a5 e5bf 3d22 e4bf 0052 dfbf
000003c0: d465 dabf 873f e5bf 29c1 e0bf ca46 f1bf
000003d0: e1b7 dcbf ae99 edbf 84f5 d8bf 76c4 d8bf
000003e0: 6b3b e0bf 505c e1bf 7929 933e fd6d d9bf
000003f0: 0aaa ff3d d98e d7bf b7a7 dfbf eb04 dcbf
