Code/698/10step_5horizon/models/lstm/10step_5horizon_MAE_84.pth (torch, 335182 bytes, 11 tensors)

lstm.weight_ih_l0 f4 [256, 85]
00000000: eca1 5f3f 2498 3abc 4839 fd3d d00b 16c0
00000010: af54 24be 2070 c93d 072c 54be 22ce 63bd
00000020: bb13 87bd 3933 62bf 6496 a1bd 1e1f c83d
00000030: 8c77 dfbf 644b fd3e 3094 1640 69da c7bf
00000040: 0c5d c73c 649b 70bf 083d 113d b02b e0bd
00000050: 2c57 84bf 1581 573d 4667 82bf d082 86bc
00000060: 563d 8fbd e18a b2bb abbf dc3d 9dc9 563f
00000070: dbae d5bc eb36 493e 14d5 3dbe 79ce b9bd
00000080: a9f9 bc3d eecd 1240 4f77 20be 8f4c 7c3f
00000090: 654c e43d 4994 a33f 2dc7 373f f647 c6bf
000000a0: 70ee f43c b136 903d 12ff ad3e c1d9 0340
000000b0: dcb8 2f3f 3fa6 043d 8e07 223c 1b1c e53c
000000c0: 1ee2 5dbe f36e f8be 9901 b8bd 3296 823d
000000d0: 3a56 edbd dac5 02bb acf6 d7bc 1924 f23c
000000e0: 2ff0 77bf 4dfc 04bf 1638 8dbe 260a 1240
000000f0: bca0 b9bd dbaa 5ebb efbb 4f40 24e3 91bf
00000100: 39f8 fe3f 6b16 1940 a8d4 53bd 2fd3 2a3f
00000110: 4ac1 b7bf 9011 993d a49c d03c 8daf 4ebf
00000120: 19e8 a1bf d116 ae3c 581a 4ac0 f0d2 003e
00000130: fcfd 1abe 6e0e 9c3d 88dc 59be be2d 393f
00000140: 6d57 e0bf 86cf 7d3f f327 2fbe 9161 4a3f
00000150: 8f70 00c0 e070 e1c1 8453 5ebd 8cdd a53c
00000160: 2e5a 82bd cb8c f6ba 2d10 e7bb 6155 583c
00000170: 2767 c53d a919 713b 760a d9bd 6ba0 7dbb
00000180: 759f a63c 99b7 be3c c88e c63d 81fb 3f3d
00000190: 23ef 423e 77fa 843b c591 2bbd df69 63bc
000001a0: 8e86 c73a 6dec 80bd 2172 3e3c b170 593d
000001b0: 2830 333c f0f4 623c b440 2cbd 47ad 17bc
000001c0: 1a8a 0dbd e4d0 c13b c367 e8bd 8442 41bb
000001d0: 1973 7e3c f082 38bc 0b40 873c 6425 55b8
000001e0: 3e1e fb3d 5dbe 0b3e 7ff5 aebc 908e 533d
000001f0: 6388 31bd f22a 8cbc 4391 113c a226 babd
00000200: b12a 353e 53bf 323e bd16 cf3c f554 32ba
00000210: 894b 37bb a1e8 e83d 7bca 24be 7fc0 94bb
00000220: 9ff9 7bb9 1a9c bbbb 0cb3 24bc cfca 59bb
00000230: d3ac 1ebb 508c 84bd 4646 a53d 044f 0d3b
00000240: ea29 05bd 85b5 8f3c dfa7 8abb b368 75bd
00000250: 6a90 843d 5c4e 9ebd abfe 21be 2755 e8bb
00000260: bceb a13d d22b 80bd da76 6d3c 9030 a93c
00000270: edd8 3fbd 2ce2 b7bc efc0 973c b378 e03c
00000280: 948f 183c 53ff a43a 65e6 5ebb a2de b63d
00000290: 3877 663d 3fec 01bd c1d2 22bd 0a53 d6bb
000002a0: ef30 b8bd b68f 503d 5d36 c3be be2c 583e
000002b0: 94b9 da3d 9713 20bd 316e 383d c614 08be
000002c0: 3ba6 38bd c57e 1f3d 43c5 01be 8cea 32bf
000002d0: cd5c adbd b48a f7bb 3fb7 5abf 9788 623f
000002e0: fc23 4c40 76d9 cdbe 9a4b a9bc 8047 61be
000002f0: 592b bd3c ec1d 91ba 3249 0ac0 693f 29bd
00000300: cbd9 90be 7937 8d3c 3dfd 0fbd 4e19 2abf
00000310: adfd 873d 37de 503f e035 853d 84d5 4d3f
00000320: 1b76 133d 4e46 a63d e340 03be d313 35bf
00000330: 9be9 a4bd 30bc 23bf 57d0 903f 02f9 ccbe
00000340: b048 a1be 6a2c aebe a53f 723d 0043 14bd
00000350: 123e 0cc0 d9b1 913f 6253 a03f 209b 8e3d
00000360: 4d67 eabb 9519 8b3c f584 ec3f 5e5a d33f
00000370: 64a7 233e 5446 bf3d dbb4 dcbc 5189 45be
00000380: 1380 6c3e 7af6 8abd 81d3 85bf 4354 1e40
00000390: 9b5b 9fbc 4065 f1bf d2c0 433d 3464 0a3e
000003a0: 6a4f 9e3e c95e 57be 63a7 633f 624d f63e
000003b0: e1e6 65bd 4eb1 efbe 7745 893f 0069 00bd
000003c0: 1a10 7bbd bb79 d9bc 3cc1 493f 6f70 f6bd
000003d0: b4f7 b2bf 66c8 8ebd f43b 8d3c b493 1a3d
000003e0: 6883 b23e 5bb7 1b3f c57d 8ebf 13fe 89be
000003f0: 94d3 38be f32c e9bf f57c eb3f 185e d840
0.8735645 -0.011388812 0.12364441 -2.344471 -0.16047929 0.09835839 -0.2071992 -0.055616505
-0.0659556 -0.8835941 -0.07890013 0.0977156 -1.7458358 0.4947158 2.3527946 -1.5613528
0.02433636 -0.9398711 0.035458595 -0.10945833 -1.0339103 0.052613337 -1.0187767 -0.016419798
-0.06994121 -0.0054486846 0.10778745 0.8390139 -0.026084354 0.19649856 -0.18538314 -0.09072585
0.092273064 2.293819 -0.15670513 0.9855432 0.111473836 1.2779628 0.71788293 -1.5490711
0.029898852 0.070416816 0.33983666 2.0601656 0.6864145 0.032385107 0.0098894965 0.027967503
-0.21668288 -0.48522148 -0.0898468 0.06376304 -0.11588712 -0.0019954355 -0.02636274 0.029558228
-0.96850866 -0.5194748 -0.27581853 2.2818694 -0.09063861 -0.003397635 3.2458456 -1.1397443
1.9919502 2.3919933 -0.051716477 0.6672849 -1.4355862 0.07474053 0.025465317 -0.8073662
-1.2648956 0.021251114 -3.157858 0.12580466 -0.1513595 0.0761994 -0.21275532 0.7233542
-1.752668 0.9914478 -0.17105083 0.79055125 -2.00687 -28.180115 -0.054278865 0.020247243
-0.06364857 -0.001881027 -0.007051489 0.01320395 0.096388154 0.0036788976 -0.105976984 -0.0038700353
0.020339707 0.023280906 0.09695202 0.046870712 0.19036536 0.004058178 -0.041887064 -0.013880222
0.0015222596 -0.06295095 0.01162389 0.053085987 0.010936774 0.013852343 -0.042053893 -0.009257621
-0.034555532 0.0059147943 -0.11347916 -0.002948911 0.015530371 -0.011261687 0.01651003 -5.081798e-05
0.122616276 0.13646837 -0.021357296 0.05164963 -0.04334296 -0.017110322 0.008884731 -0.090894
0.17692067 0.17455797 0.025279397 -0.0006802821 -0.0027968606 0.113724954 -0.16092865 -0.004539549
-0.00024030216 -0.005725396 -0.010052454 -0.0033232456 -0.0024211898 -0.06472075 0.08070044 0.002156199
-0.032510675 0.01754261 -0.0042314376 -0.059914302 0.06472857 -0.077297896 -0.15819804 -0.007090229
0.07906291 -0.06258358 0.014493668 0.02065304 -0.046837736 -0.022446714 0.018524615 0.027401304
0.009311575 0.00125883 -0.0034011838 0.089291826 0.05626604 -0.031719442 -0.03975177 -0.0065406607
-0.08993708 0.050918303 -0.38127413 0.21110818 0.106799275 -0.039081182 0.04502696 -0.13289174
-0.045080405 0.038939256 -0.12672906 -0.6988914 -0.08464966 -0.0075543765 -0.8543586 0.8848967
3.1896963 -0.40204972 -0.020665932 -0.21999931 0.023091959 -0.001107154 -2.1607175 -0.04132024
-0.28291163 0.017238365 -0.035153616 -0.6644486 0.06640182 0.8158907 0.065044165 0.80403924
0.036001306 0.08118878 -0.12817721 -0.70733374 -0.08052369 -0.63959026 1.131358 -0.40033728
-0.3150077 -0.3401826 0.059142727 -0.03619671 -2.1912885 1.13824 1.2525446 0.069631815
-0.0071534277 0.016979972 1.8478075 1.6511953 0.15981823 0.09339586 -0.026941707 -0.19290663
0.23095731 -0.06785293 -1.0455171 2.473893 -0.01945286 -1.8859024 0.04779131 0.13514787
0.30919963 -0.21032251 0.88927287 0.48105913 -0.056128386 -0.4681496 1.0724324 -0.031350136
-0.061294653 -0.026547303 0.7881048 -0.12033164 -1.3981843 -0.06971817 0.017240502 0.037738517
0.3486588 0.60826653 -1.1132132 -0.26951656 -0.1804946 -1.8216842 1.8397509 6.761486

lstm.weight_hh_l0 f4 [256, 64]
00000000: 9710 983f 9430 07c0 f915 3cc0 a75a 8b3f
00000010: dfb4 6c3f dbec 3f3d 53c3 4940 97ea 8940
00000020: 2971 973e 4a80 2dc0 adc9 7b3f 724a 10c0
00000030: f2d5 e93f e9ea 0c40 b105 0cbf 731f d03f
00000040: 0888 6d3f 4b81 1cc0 7dfa 3d3d 1a1b b2bf
00000050: 0698 ba3f 46d8 7c3f 5ccd c93f ecf7 8ebd
00000060: b4ca 78bf cda6 52c0 0fe8 5b3f cc57 95bf
00000070: 4bc3 03c0 6997 0b40 3129 2d40 2f1f b93e
00000080: 666f 67bf 2feb 35c0 d4f4 6fbe a762 13c0
00000090: 913d 923f ac7e af40 00e0 983e e232 6440
000000a0: 226c 48c0 0388 153f 1803 dbbf 6450 4440
000000b0: de54 90c0 5b52 763f b825 d93f f06a e0bf
000000c0: 4109 d0bd 825a a8bf d775 12be 3f2a 35bf
000000d0: e7fe e9bf 8e41 77bf 7375 bcbf 14b2 2ec0
000000e0: 9304 933f 3152 0d3f 1b30 c73f 86b2 7ebf
000000f0: 69c4 18c0 d16b 03bf 58f0 e73f ab4d 5bbf
00000100: 0553 033f a37d 90bf d22f 8a3f 4266 83bf
00000110: 4f92 5bc0 9768 4abf 9103 083f b190 98bd
00000120: c3fd 7d3f 66a5 4240 a71f 6fbf c553 c9bf
00000130: 9b2e b73f 2ea2 dcbe c3ba 12c0 8009 9c3f
00000140: 866e 00bf 5634 623f 4785 d63d 3ab6 d0bf
00000150: 2af7 383d 78c9 1dbf 0c05 36bf 15ca 5fbf
00000160: a358 e33f 8fbc de3e b6ee babe 1c5b 37c0
00000170: 2105 813f c20c 88bf 7cd8 22be aab5 0bc0
00000180: 3887 d63f 5e44 5040 e23b 7b3f ae87 853f
00000190: a987 f0bf 96a4 ce3e 439a d6bf d80f bebe
000001a0: 7e33 183f 33bd 07c0 2cd8 1340 f477 f6bf
000001b0: 109e dc3e e047 43bf 5d82 293f 0e83 0a3d
000001c0: fe28 83bf e757 393e 2081 61bf 77fc 64bf
000001d0: e669 95bf 0333 0540 befb a7bf 70f5 33be
000001e0: d677 b3bf 3b66 b1bf c4ee 73bf 81bc a8bf
000001f0: b3fb a4bf a4a9 283f 1f43 0f3e 4463 ccbf
00000200: c321 543f 40c7 6540 368f ad3e 60aa b13f
00000210: 83bc 5ac0 ac84 6740 847b 1ac0 dd3a cdc0
00000220: 568a b040 1300 7bbf f44a 00be 8df4 0240
00000230: 1283 66c0 fc28 0440 6c5e e23f 255f cbbf
00000240: 814c af3f 48ed de38 00a5 d3bf 401a a43f
00000250: 700a 93bf c6f7 cd40 0b32 883e bd72 8c3f
00000260: 40c9 623f f20b 163e c044 abc0 989e a840
00000270: 2515 69bf abad 37c0 aaf7 99c0 5853 a2bf
00000280: a3a4 c73f 283d 08c0 ae5c 75c0 05ee 0e3f
00000290: bdb6 ebc0 dbbe 7940 01b5 683e fcc6 7f3f
000002a0: 522d 99bf 19bd 4cbd 94ed b1bf f8fc 4940
000002b0: dfe0 03c0 1201 d0c0 283d 7f40 caea 0cc0
000002c0: 0ddd 24be 0033 37c0 7d54 e9bf 0e01 e0bf
000002d0: bde5 5940 46a8 81c0 7a19 4240 1bb4 eabf
000002e0: d635 a840 9c98 933f 66ca a23d 8340 783e
000002f0: a916 4c3f 36c4 0c40 a7bc 1ec0 6e95 00bf
00000300: 1110 03bf c07f e13f 440c 12bf 2c54 80c0
00000310: bd8f a6c0 aca8 fac0 1123 b240 ccc0 4540
00000320: b48c 8dc0 e2a0 5541 0d84 a23f 2a26 7b3f
00000330: c55c a5c0 59ab 9ebe 32e8 bbc0 7ae7 fdbf
00000340: 1025 1dc1 7343 10c0 e6a2 bcbf 2d6d ab3f
00000350: 88e1 37c1 9f51 a6c0 49c0 ca40 3ebe 34c0
00000360: 3f18 08c1 7f88 99bf 16d7 f8c0 4dd6 20c0
00000370: 1fd4 4cc0 97bf 77c0 0796 1340 9ad7 4bc1
00000380: a2a8 0741 a065 b340 e1c7 ed3b 08a6 3dc0
00000390: fea9 adc0 cb2e 2fc0 c05a eabf e300 d03f
000003a0: fbae 953e 2f78 86c0 aee6 92bf bde6 e1c0
000003b0: 7c27 5740 592c 1ac0 e4b9 e4bf 9391 62c1
000003c0: 9f8d b83e 0c65 32c1 fc68 4fc0 a52b aac0
000003d0: dfa1 2cc1 a41f d540 925f 01c1 2cef b4bf
000003e0: 1eb7 8c40 9e03 083f e7bf 49bf 9490 2fc0
000003f0: 1119 1ec1 8a9b dd40 389e d7c0 e82a 53c0
1.1880063 -2.11234 -2.938841 1.088704 0.9246349 0.046856742 3.1525466 4.3098865
0.29578522 -2.7109551 0.9835461 -2.2545438 1.8268416 2.2018378 -0.54696184 1.6259598
0.9278569 -2.4453914 0.046381462 -1.3914521 1.4577644 0.9876751 1.5765796 -0.06980881
-0.971843 -3.2914307 0.8590097 -1.1667418 -2.0587947 2.1811163 2.7056391 0.36156604
-0.90404356 -2.8424795 -0.23433238 -2.3028963 1.1425039 5.484213 0.29858398 3.5656056
-3.1316 0.5841066 -1.7110319 3.0674067 -4.51036 0.96219414 1.6964636 -1.7532635
-0.10158015 -1.3152621 -0.14302765 -0.7076759 -1.8280915 -0.96584404 -1.4723343 -2.729619
1.1485771 0.5520354 1.5561556 -0.99491155 -2.386988 -0.5133639 1.8120222 -0.85665387
0.5129855 -1.1288341 1.0795844 -1.0265582 -3.430805 -0.7906584 0.5313044 -0.07449473
0.99215335 3.0413451 -0.9340767 -1.572869 1.4311098 -0.43092483 -2.292649 1.2190399
-0.50168645 0.8836111 0.104746394 -1.6305611 0.04515759 -0.6163554 -0.7110145 -0.8741773
1.7761425 0.43503234 -0.36510247 -2.8649359 1.007969 -1.0628893 -0.15902895 -2.182963
1.6760015 3.2541728 0.9813825 1.0432031 -1.87914 0.40359944 -1.6765827 -0.37121463
0.5945357 -2.1209228 2.310069 -1.9255357 0.43089342 -0.7628155 0.66214544 0.03381639
-1.0246885 0.18099938 -0.88087654 -0.8944773 -1.1672943 2.0812385 -1.3123701 -0.17574096
-1.4020946 -1.3859323 -0.952862 -1.3182527 -1.2889313 0.6588385 0.13990448 -1.5967793
0.82864016 3.5902863 0.33898324 1.3880119 -3.4177558 3.6174726 -2.4137888 -6.4134355
5.5168867 -0.9804699 -0.12528592 2.0461762 -3.60175 2.0650015 1.7685065 -1.5888411
1.3695222 0.00010629982 -1.6534729 1.2820511 -1.148756 6.436496 0.2660068 1.0972515
0.88588333 0.14652994 -5.3521423 5.2693596 -0.9104789 -2.8699749 -4.8114824 -1.2681684
1.5597118 -2.1287327 -3.8337817 0.5583194 -7.366057 3.902274 0.22725298 0.99913
-1.1966956 -0.049985025 -1.3900628 3.156065 -2.0606 -6.5001307 3.9881077 -2.2018304
-0.16099949 -2.8624878 -1.8228909 -1.7500322 3.404647 -4.051791 3.032805 -1.8336214
5.256572 1.1530948 0.07948761 0.2424336 0.79722077 2.1994758 -2.4802644 -0.5022801
-0.5119639 1.7617111 -0.57049966 -4.010275 -5.205046 -7.83309 5.5667806 3.0898924
-4.4234257 13.351778 1.2696549 0.9810511 -5.1675744 -0.30990103 -5.872094 -1.9836266
-9.821548 -2.2541168 -1.4737213 1.3392693 -11.492561 -5.1974635 6.3359723 -2.8241115
-8.505919 -1.199478 -7.7762556 -2.51308 -3.2004468 -3.8710687 2.306032 -12.740137
8.47867 5.6061554 0.0072564934 -2.9632587 -5.427001 -2.737231 -1.8308945 1.6250271
0.29235062 -4.202171 -1.1476648 -7.0594163 3.361785 -2.4089568 -1.7869229 -14.160541
0.36045548 -11.14967 -3.2407827 -5.3178277 -10.789519 6.6601124 -8.085833 -1.413549
4.397353 0.5313052 -0.78808445 -2.7431993 -9.88112 6.9252367 -6.738064 -3.2994938

lstm.bias_ih_l0 f4 [256]
00000000: 9cfd 81bf dee2 3fbf 441f a9bf e7f4 73c0
00000010: 6f45 d93f 1c60 1ac0 05cc 5dc0 973c ee3d
00000020: e23e 673f 9ad9 7cbf 60ad 24c0 cecb f4bf
00000030: 4ff7 64be a7ea 8ebf 8cef e8bf 7d30 023f
00000040: e715 fc3f 7b0c 5fbe 00db 42bf fd28 0ac0
00000050: 129c aebf 18c4 aebf 4777 0cbf b39a cdbf
00000060: 32df 9cbf 0809 143f 1e5a 69c0 4596 0dc0
00000070: 1f13 4ec0 22ec b5be 49f6 a7bf a0db 84bf
00000080: 2041 4f40 5686 85bf c00f 1e3e d2ed f3bf
00000090: ec91 aebe f063 05c0 8303 29c0 596a 32c0
000000a0: fe8c 03c0 de18 1740 82e3 18c0 c78b 48c0
000000b0: 0d29 66be c030 8d3f f021 2a3f ef5b 3d40
000000c0: f14b 14bf 164a 19c0 ba1c 11c0 0396 0fc0
000000d0: 5a6e b5bf 1d71 15c0 4f82 8cbf cfcb b7bf
000000e0: 85fa e2bf 50b9 87be 6d9c d5bf 24a1 fcbe
000000f0: 4ace 25c0 9e87 5f3f dac4 b0be b4c1 dcbf
00000100: 1129 e3bf 4a36 c33f 4f4b 3abf 3d3a f7bf
00000110: 0c6a 1fc0 4579 98be 1de1 3bc0 cc49 2cc0
00000120: fe4b 09c0 457f 3ac0 5105 f4bf efaf f5bf
00000130: 1616 57bf 0321 a6bb 4ec8 d53e f1da 1bc0
00000140: 01fd 8c3f 6c74 6fbf ccf9 823c 63c7 1bc0
00000150: 3902 8bbf 449b d6bf 39ce b3bf 17fd 2ec0
00000160: eeef 70c0 8a7b 07c0 ec70 febf 23c2 75c0
00000170: a5fa 2c3d 814a 71bd 1ec7 28c0 d083 56c0
00000180: 4a0a 1fc0 5902 8ec0 d8e1 c7bf 8e2f 23c0
00000190: 9848 cfbf 9ab4 9dbe d4d5 e5bf b5be 0cc0
000001a0: 9c63 51c0 cee2 5a40 ef88 13c0 ef62 19c0
000001b0: 0312 81bf 758a 43c0 e5c6 92bf 67b5 fc3e
000001c0: 7dfe 43be 54fa 353d 7034 1ac0 99c0 6ebf
000001d0: 548a ffbf 1b6d 20c0 99e0 94bf 253a 25c0
000001e0: f101 45c0 16c6 02c0 a4a8 89bf a02e a0be
000001f0: bd14 fdbf 85f8 d0bf 0d9e 0fc0 449a 96be
00000200: cd1c 14bf 1503 3040 4381 9bbf e1fd 5540
00000210: 20cb 75bf f699 54bf 1f9b ba3e 3999 87bf
00000220: c2c7 5abf 94e8 c13e ea35 3540 9057 e3bf
00000230: a4e0 243f 2ad6 8abf 1f5d 6bbe c2d2 0e40
00000240: 026d b33f 81dd 0140 d7d6 5b3f 32a8 fd3c
00000250: ac87 c1be ec12 3abf d806 fb3e d529 813f
00000260: 3391 913e da4e 1740 7eb6 01bc 0eea 2440
00000270: fce3 8b3f fe13 57bf 3908 2e40 91a4 9a3f
00000280: f8b5 2fbf f514 da3f cbba 5340 216a a9bf
00000290: 0f04 0f40 e2ff 803e 0aeb d2be 90b8 0cc0
000002a0: a58e a93f f04f 553e 464e 01c0 fe0b 81bf
000002b0: 9b7c 5d40 15eb 2b40 fa1a 5cbe 0e5c 1340
000002c0: b125 d0be 76b7 ea3e 7490 ae3e e7e8 efbe
000002d0: 5233 2a3f 1aa2 e1bf 1c85 1cbf 76aa 8e3f
000002e0: ab6f 803f 0f96 8a3e 7402 08be 6294 10be
000002f0: 6ba6 a2bf ecf2 febf 9c69 e73e d29d 7fbd
00000300: ec60 17c0 57dd 2840 b436 b4bf 882c d1bf
00000310: be0b 0fc0 43a8 0fc0 e1dc 80c0 ee38 aebf
00000320: 9083 ebbf a2b9 d9bf b9da 1cc0 f885 abbf
00000330: 5cdc d3bf b3c3 9fbf 8143 2fbe f428 41bf
00000340: 7cb9 2ebf e9cd 7dbf b306 e7bf d714 14c0
00000350: ac96 26c0 1e58 12c0 268e 0bc0 8581 1e3f
00000360: fa8e 27c0 19e4 03c0 0916 9ac0 2028 2dc0
00000370: 623f 14c0 9a95 09c0 e1c3 9cbf 9db4 00c0
00000380: a3f7 8040 f5ea 57be 2711 12c0 9a46 66c0
00000390: 8f1f 9fbe bc7c e5bf 50b3 33bf 6eed 5bc0
000003a0: 7980 31c0 4e0c 0ebf 2888 d1bf a8de 9cc0
000003b0: e6dc 6abf 2721 b2be 3225 2ec0 384a 163d
000003c0: c582 d5bf 83e7 50c0 076b 18c0 170f 8bbf
000003d0: b0db ad3e 37d4 9cbf 57de f6bf 04d0 6fc0
000003e0: 4dc3 7ac0 3083 78bf 07bd debf bfba 38c0
000003f0: b44c cebf 877e a4be 6896 c4bf 2cee 0bc0
-1.015552 -0.74955547 -1.3212667 -3.8118227 1.6974314 -2.412116 -3.4655774 0.1163265
0.90330327 -0.98769534 -2.573082 -1.9124696 -0.22359966 -1.116536 -1.8198104 0.5085524
1.9694184 -0.21782105 -0.7611542 -2.1587517 -1.3641379 -1.3653593 -0.548695 -1.6062835
-1.2255614 0.5782628 -3.6461253 -2.2122967 -3.219917 -0.35531718 -1.3122035 -1.0379524
3.23835 -1.0431621 0.15435696 -1.9056952 -0.34095705 -2.0842247 -2.6408393 -2.787741
-2.0554805 2.3608928 -2.388886 -3.1335313 -0.22476597 1.1030502 0.66458035 2.9587362
-0.5792838 -2.3951468 -2.2673783 -2.243531 -1.4174302 -2.335029 -1.0977267 -1.4359072
-1.7732702 -0.2650857 -1.6688362 -0.4934169 -2.590716 0.8731631 -0.34525186 -1.7246614
-1.7746907 1.5250943 -0.7277116 -1.9314648 -2.4908476 -0.2978002 -2.9356148 -2.6920042
-2.1452632 -2.914018 -1.9064122 -1.9194316 -0.84018075 -0.0050698533 0.41754383 -2.4352381
1.1014711 -0.9353702 0.015988253 -2.4340446 -1.0860053 -1.6766133 -1.4047309 -2.7341974
-3.7646441 -2.1169152 -1.9878211 -3.8399742 0.04223122 -0.058908943 -2.6371531 -3.3517952
-2.485003 -4.4377866 -1.5615797 -2.5497775 -1.6194029 -0.3080185 -1.795588 -2.1991398
-3.2717047 3.420093 -2.3052328 -2.3966634 -1.0083622 -3.0553257 -1.1466948 0.4935715
-0.19140048 0.044428185 -2.4094505 -0.9326263 -1.9964089 -2.5066593 -1.1631042 -2.5816739
-3.0782435 -2.0433402 -1.075459 -0.31285572 -1.9771954 -1.6325842 -2.2440217 -0.2941457
-0.57856447 2.750188 -1.2148823 3.3436205 -0.9601307 -0.83047426 0.36446473 -1.0593635
-0.85461056 0.37872756 2.8314157 -1.7761097 0.64405274 -1.0846608 -0.22984742 2.2316136
1.4017642 2.0291445 0.85874695 0.03096399 -0.37798822 -0.7268512 0.4902866 1.0090891
0.2843109 2.3641877 -0.007917045 2.5767856 1.092895 -0.8401488 2.7192519 1.2081472
-0.6863704 1.7037646 3.308276 -1.3235513 2.2346227 0.25195223 -0.41194946 -2.1987648
1.3246657 0.20831275 -2.0204024 -1.0081785 3.4607303 2.6862233 -0.21494666 2.3024936
-0.40653756 0.45843095 0.34094584 -0.46857378 0.6648456 -1.7627594 -0.6114061 1.114577
1.0034078 0.2706761 -0.13282186 -0.14119104 -1.2707037 -1.9917884 0.4519776 -0.06240637
-2.3652906 2.6385095 -1.4079194 -1.6341715 -2.2350917 -2.2446449 -4.0269628 -1.3611124
-1.8399525 -1.7009776 -2.4508498 -1.3400259 -1.6551623 -1.2481598 -0.17115594 -0.75453115
-0.68251777 -0.9914232 -1.804892 -2.313772 -2.6029463 -2.2866282 -2.180551 0.6191638
-2.6181016 -2.060797 -4.81519 -2.705574 -2.3163686 -2.149756 -1.2247277 -2.0110238
4.030229 -0.21085723 -2.282297 -3.5980592 -0.31078765 -1.7928691 -0.70195484 -3.4363666
-2.7734663 -0.55487525 -1.6369677 -4.9021797 -0.91743314 -0.34790918 -2.7210202 0.036691874
-1.6680533 -3.2641304 -2.3815324 -1.086398 0.3395667 -1.2252263 -1.9286603 -3.7470713
-3.9181702 -0.97075176 -1.7401437 -2.886398 -1.6117158 -0.32127783 -1.53584 -2.1864119

lstm.bias_hh_l0 f4 [256]
00000000: 7b4c 94bf 52f6 3cbf 50c7 aabf 3dea 6ec0
00000010: 2119 ce3f 52ba 13c0 ad48 55c0 cbe1 d23d
00000020: 1239 3d3f 25c4 70bf 8060 2fc0 98ff f9bf
00000030: 3a2d 333c bd4d 93bf 48a2 d8bf 088f b43e
00000040: 871a fa3f 4a3b 9bbe 7453 45bf cef3 00c0
00000050: 6ce1 c0bf 100a b4bf a3d4 11bf 8199 babf
00000060: bac8 95bf 07f0 033f c486 6ec0 59ac 08c0
00000070: b166 4ac0 8677 ebbe 9f62 a7bf b259 73bf
00000080: 22b9 5240 3807 53bf 7637 ed3d be21 04c0
00000090: 86e5 adbe 3040 f9bf 7767 1ec0 3114 28c0
000000a0: 4190 febf 3469 1d40 0c44 19c0 01d9 3cc0
000000b0: 5a29 04be dd84 753f d4f0 163f 0f8b 3640
000000c0: 6938 24bf d62d 1bc0 849f 16c0 e954 14c0
000000d0: 5aa7 afbf db0f 17c0 b5da 8bbf 97b9 b0bf
000000e0: 5f06 debf 4a87 ebbd 213d cebf d6b5 08bf
000000f0: 9271 2cc0 a8d8 4b3f 8ed5 e6be 3a2d eabf
00000100: 2fb1 eebf 6cc8 c03f c5b0 0bbf 84fd fbbf
00000110: 1aa6 24c0 3d72 c4be e5c3 43c0 745e 35c0
00000120: eeaf 0ec0 1b44 44c0 ba3f 03c0 15c2 debf
00000130: 461b 2ebf a1db 043e 60f5 883e 0f69 18c0
00000140: 701b 773f 8015 38bf a357 6e3d 05b5 1dc0
00000150: 3b08 85bf 04af e4bf 61b7 babf cdee 31c0
00000160: eaf1 69c0 3c60 0cc0 c6e1 05c0 d3b7 77c0
00000170: 512f 51bd 1c44 143c 3487 22c0 3caa 61c0
00000180: 7659 1fc0 5dc0 8fc0 be94 d9bf 9cc8 2ec0
00000190: a055 cbbf 8677 8cbe 14eb eebf c746 1cc0
000001a0: 603d 59c0 fa29 6540 3fe1 0cc0 55a9 12c0
000001b0: 475b 8ebf fd38 4ac0 5fb5 89bf d739 333f
000001c0: cf20 24be 4e31 583e f883 0dc0 b643 7cbf
000001d0: 5726 03c0 9b3e 1fc0 734a 87bf 47ab 26c0
000001e0: 1117 3ac0 e80f 0bc0 ce25 9fbf fcbb 73be
000001f0: 773b fcbf 41c6 debf a7c9 0ec0 f493 d0be
00000200: 8542 04bf 7526 2b40 2b85 aebf 8174 5440
00000210: dd7e 85bf bcb2 2abf 0488 113e 05c8 82bf
00000220: 0ca8 70bf f03c 9d3e 44c4 3040 0e9a d8bf
00000230: 46d1 083f 3e7d 7fbf 3e80 c3be 854e 0440
00000240: f80f b83f f6ee 0240 53d8 3b3f 0166 143e
00000250: 2a37 09bf e4ac 6dbf 2ce7 073f 2863 913f
00000260: b51e 9c3e aa14 1540 3eba 9cbd 02e1 1b40
00000270: cc86 953f b85f 58bf f1fa 2e40 0b98 843f
00000280: 44bc e1be 5361 e13f 99e7 5640 7d88 bebf
00000290: ff59 1640 167c 523e 2e78 8bbe 7a54 0ec0
000002a0: 7529 ad3f 681a b73e 8c95 f8bf 6da6 96bf
000002b0: 7b86 5840 773e 2940 a027 99be 04ba 1340
000002c0: b6b4 04bf 56a8 b83e ee63 bf3e 813a a8be
000002d0: 14fc 4b3f 9674 fdbf 63c7 03bf bf9f 7a3f
000002e0: f3d9 8b3f 7e1e 063e 9adf 2dbe 2312 09be
000002f0: f918 83bf 8e2f f1bf b20e 883e 8cda 90bd
00000300: aa7b 12c0 63e6 1f40 4470 abbf 14a5 d3bf
00000310: d2d2 01c0 072d 1bc0 f2cd 83c0 3263 a2bf
00000320: b63a fdbf 0212 c7bf 0f0d 19c0 8296 9cbf
00000330: 1c1f e2bf fbd2 96bf 8676 81bc 38b9 5fbf
00000340: f61e 11bf 5043 7ebf 53c8 d4bf ffd7 11c0
00000350: dc5d 29c0 3482 0cc0 fe0f 09c0 bbcb 1c3f
00000360: 769f 26c0 02d9 ffbf 534c 9ec0 1a73 28c0
00000370: be42 11c0 bebc 04c0 2525 adbf 596b e6bf
00000380: 8865 7d40 af3b 8ebe 8d1a 0fc0 a892 61c0
00000390: 691d 8cbe 76bb eabf 74f9 45bf de19 58c0
000003a0: 1f2f 2fc0 5e02 05bf b097 cdbf 86f0 a0c0
000003b0: 4a07 7dbf 43bb b9be fcd0 2cc0 7267 573e
000003c0: f187 ecbf c3bc 50c0 8fc4 1fc0 6fd3 82bf
000003d0: dc60 0c3f 0d61 88bf 3b0d f2bf fe0b 6cc0
000003e0: 8e9f 7ac0 e6a1 74bf f398 ddbf 0d46 35c0
000003f0: 16e5 e1bf dff5 86be 7643 c5bf 2404 0fc0
-1.158584 -0.73813355 -1.3342075 -3.7330468 1.6101419 -2.308247 -3.3325608 0.10296973
0.7391521 -0.9404929 -2.740265 -1.9531126 0.010936076 -1.1508099 -1.6924524 0.35265374
1.9539346 -0.3031867 -0.77080464 -2.0148807 -1.5068793 -1.4065571 -0.5696508 -1.4578096
-1.1701882 0.5153813 -3.7269754 -2.1355193 -3.1625178 -0.45989627 -1.3076972 -0.9505874
3.2925496 -0.8243289 0.11582844 -2.0645595 -0.33964175 -1.9472713 -2.475065 -2.6262324
-1.9887773 2.459546 -2.3947783 -2.9507449 -0.129064 0.9590586 0.58961225 2.8522375
-0.64148575 -2.4246726 -2.353486 -2.3176825 -1.3722947 -2.3603427 -1.0926119 -1.3806638
-1.7345694 -0.11500414 -1.6112405 -0.5340246 -2.6944318 0.79627466 -0.45084804 -1.8295052
-1.8647822 1.5061164 -0.54566604 -1.9686742 -2.572638 -0.38368407 -3.0588315 -2.83389
-2.229488 -3.0666568 -2.0507646 -1.7402979 -0.68010366 0.12974407 0.26749706 -2.3814123
0.9652624 -0.71907806 0.058189046 -2.4641736 -1.0393137 -1.786591 -1.4587213 -2.7802002
-3.6553903 -2.1933737 -2.091905 -3.8705947 -0.051070515 0.009049442 -2.5395021 -3.5260153
-2.4898353 -4.492232 -1.6998518 -2.7309942 -1.5885506 -0.2743494 -1.866549 -2.44182
-3.394371 3.580687 -2.201248 -2.2915852 -1.1121606 -3.1597283 -1.0758475 0.7001013
-0.1602814 0.21112558 -2.2111797 -0.9854082 -2.049215 -2.4881961 -1.0569595 -2.604204
-2.9076579 -2.1728458 -1.2433412 -0.23802179 -1.9705647 -1.7404252 -2.231058 -0.4073788
-0.51664 2.6742222 -1.363439 3.3196108 -1.0429341 -0.66678977 0.14212042 -1.0217291
-0.9400642 0.30710554 2.761979 -1.6922014 0.53444326 -0.9980048 -0.3818378 2.0672925
1.4379873 2.045835 0.7337696 0.14492036 -0.535998 -0.92841935 0.53087115 1.1358385
0.30492178 2.3293862 -0.076527104 2.4356084 1.1681762 -0.84521055 2.7340662 1.03589
-0.44088948 1.7607826 3.3578856 -1.4885403 2.349243 0.20555148 -0.27240127 -2.223906
1.3528277 0.35762334 -1.9420638 -1.1769539 3.383208 2.6444376 -0.29913044 2.3082285
-0.51838243 0.3606593 0.37380928 -0.32857135 0.79681516 -1.9801204 -0.51476115 0.97900003
1.0925888 0.1309757 -0.16979828 -0.13385825 -1.0241996 -1.8842638 0.26573712 -0.070729345
-2.2887979 2.4984367 -1.3393636 -1.6534753 -2.0284925 -2.4246233 -4.11889 -1.2686522
-1.9783542 -1.555237 -2.391422 -1.2233431 -1.7665744 -1.1783136 -0.015803587 -0.87391996
-0.5668787 -0.9932146 -1.6623634 -2.2788084 -2.6463537 -2.195447 -2.141601 0.6124837
-2.6034827 -1.99881 -4.946817 -2.6320252 -2.2696986 -2.07402 -1.3526961 -1.800151
3.959322 -0.2777991 -2.2359955 -3.5245762 -0.27366188 -1.8338459 -0.7733376 -3.3765788
-2.737251 -0.5195674 -1.6061916 -5.029361 -0.9883925 -0.36275682 -2.7002554 0.21035555
-1.8478986 -3.261521 -2.496372 -1.0220774 0.54835296 -1.0654618 -1.8910288 -3.688232
-3.9159884 -0.9555954 -1.7312301 -2.8324006 -1.7648036 -0.2635946 -1.5411212 -2.2346277

lstm.weight_ih_l1 f4 [256, 64]
00000000: 61e3 fb3e 43c0 53c0 1fdd 343f 99c4 e43f
00000010: 669e 54bf b669 d4bf a310 d5be e560 7f3e
00000020: ced9 5fbf 2326 7fbf 9abf dbbf 4d92 e6c0
00000030: c79e d840 4289 9f40 85cd 47bf d6ac bdbf
00000040: 2896 8cbf 3982 36c0 11b5 0b40 7b37 0ebf
00000050: 5992 d5bf b2b2 3c40 11e7 aa3e 1190 11c0
00000060: a164 8840 e704 3dc0 4ca5 84bf eb04 a33e
00000070: 3e9d e9bf 7f6f 9d3f 683f 343f 720b 69bf
00000080: cdfe 6740 8f91 95bf 7082 c340 1787 bdbf
00000090: 2fdd ae3d d202 9340 6733 a640 95ec 11bf
000000a0: a886 c4bf 4d56 523f 7a9b 1ec0 8ba7 bebe
000000b0: d5af b2c0 84ed 0dbf fa28 abbd 13ca 2abf
000000c0: 210f bbbf 8687 76c0 f04b eebe 7ede 5fc0
000000d0: e4f4 fcbf 2f8a a2bf d401 10c0 d52f 0741
000000e0: 9c6c 8ebe 4c24 cebf 7f6d 4abf 8be0 0a3f
000000f0: b4c9 b73f 1379 b140 8a1f 2040 9730 243f
00000100: d85b 2a40 c9fe b0bf 0edf 953f 45f6 51bf
00000110: 3b6a 263f 7b5d 49be a7ad 40c0 a05a 1c40
00000120: d7ef 85c0 9118 f1bf 0985 1bc0 fada 89bf
00000130: 1bdc 84bf 7783 1b40 9ddf 0bc0 f47a 26bf
00000140: 96cf ed3e 44f8 bf3f 91e2 a93f 36a4 fabf
00000150: e931 4ec0 f2e5 b940 d5bf 96bf 781d 2840
00000160: 018b d33e ac24 2b40 ba53 103f f5d7 fe3f
00000170: ba93 7040 42e3 2f40 0042 b43f 94b2 1140
00000180: 8ff4 0cc0 c1d0 f4be 5685 f23e 7174 24c0
00000190: ac41 14c0 e339 7dc0 cb72 8540 84fb 95c0
000001a0: 8a5e 95be c17c 2bbe 6a3f dabf fcdb 0041
000001b0: b283 963f 8223 653f e8ac bd40 43e3 143f
000001c0: ab00 2dc0 30be 04c0 dad4 973f 5509 8d40
000001d0: 7cb9 de3e 68e4 e7be 6219 e5bd 49ba 413e
000001e0: 805d cebf 3128 dc3e 64c3 ecc0 0691 cbbf
000001f0: 35b3 96bf ec4c 3e3e b218 f6bf 116a aec0
00000200: 16a4 0ebe 63b0 26c0 1ce8 87be ccfb ef3e
00000210: 4340 143e 8c23 323f cbb7 60be bca5 ed3d
00000220: adb7 2c3e f654 52be 9853 c2bd 0f63 02be
00000230: 75a9 ae3e 87d7 2b3e dbf9 14be 6bb9 90be
00000240: dc69 79bf 7d0d 3abf 444b 9a3e a6d1 903e
00000250: 3b79 8d3d 4d1e 8b3e d2d6 86be 7ab3 22bf
00000260: d29b 0d3e 9be4 febe bf27 28be 7351 503e
00000270: 5b60 b8bd cef8 143f 4ecf 2abe e69c a63f
00000280: a1bf 323e 5f8b fabf c5e7 c5bd 3871 a33e
00000290: 4eea 91bf 54bc 423f e386 a5bd dc03 a9be
000002a0: 8747 d9be 1ae2 513f dace 21be ab7e c33d
000002b0: ebe5 69bf 638c 34bf 3b69 4dbe 1a47 3ac0
000002c0: 5bb1 9a3d 7281 aa3c 19da 9abe c204 adbd
000002d0: 5f7e 1fbe 5b0f 01bf ae37 c6bd eee4 9abe
000002e0: 3db3 583d e66d e2ba 3514 f83d 2ee7 52be
000002f0: 5390 99be 4af1 673f fe8a 2e3e f263 15be
00000300: f729 f33d 4466 85be 83bd dbbf fe73 f93f
00000310: 9c0c adbf 91ed 01bf 2a31 7a3e bcd0 22c0
00000320: 54fe 1b3f 8241 ce3c 73ce 2640 dffc fb3f
00000330: 0774 933c 5591 71c0 c611 363f 9b59 1bbf
00000340: 5e7f 9d3e 0c0f ffbf 7c3b a43d 0e2a b53e
00000350: d47b 05c0 bc9c 5dbf 3755 1e40 814f bf3f
00000360: 2520 01bf 4e97 c93f 6b24 173e d030 2bbf
00000370: b03b 343f 1f56 41c0 9c6f a73f d673 86bf
00000380: 1905 813e 479e 383f c6d2 6f3f e8fc 8f40
00000390: f2af 9ac0 c772 5140 16b6 de3f d0e2 b7bf
000003a0: 734a 2ebe 2083 bb3d 8fcf 3240 fae3 333f
000003b0: ec6f f8c0 c1ef 893f 2ec7 5e3f 3836 53c0
000003c0: 7261 ca3f 7d6c 5fbf d93a a2bf cc6f 4fc0
000003d0: da6e a83e b48d 713f e57d e23f 905c eebf
000003e0: baa0 a23f 5141 4040 f716 e9be 91fc 3d40
000003f0: ea0f 1c3f 90ac 9340 31a1 1a3e 1493 41c0
0.49196914 -3.3086097 0.70649904 1.7872497 -0.83054197 -1.659476 -0.41614255 0.24939306
-0.8744172 -0.99667567 -1.7167847 -7.205359 6.769382 4.985505 -0.7804797 -1.481837
-1.0983324 -2.8516982 2.1829264 -0.55553406 -1.6685287 2.9484067 0.33379415 -2.274418
4.262284 -2.9534242 -1.0362945 0.3183969 -1.8251112 1.2299651 0.7040925 -0.9103309
3.6249268 -1.1685046 6.1096725 -1.4806851 0.08538281 4.5940943 5.1937747 -0.5700162
-1.5353594 0.82162935 -2.4782395 -0.372372 -5.583964 -0.55440545 -0.08357425 -0.6671459
-1.4613992 -3.8520217 -0.4654231 -3.4979548 -1.9762235 -1.269842 -2.2501116 8.449178
-0.27817237 -1.6104827 -0.7907333 0.54248875 1.435843 5.5460296 2.501925 0.6413664
2.6618557 -1.3827754 1.1708696 -0.820164 0.65005845 -0.19664566 -3.010599 2.4430313
-4.1855273 -1.8835622 -2.4299948 -1.0769951 -1.0379671 2.429899 -2.1855233 -0.6503136
0.46447438 1.499764 1.3272268 -1.9581363 -3.2217963 5.8093195 -1.1777292 2.6267986
0.4131699 2.6741133 0.56377757 1.9909655 3.7590165 2.7482457 1.4082642 2.2765245
-2.2024267 -0.47815517 0.47367352 -2.569607 -2.3165083 -3.9566581 4.170263 -4.6869526
-0.2917369 -0.16746809 -1.7050602 8.053707 1.175894 0.89507306 5.9273567 0.58159274
-2.7031658 -2.0741081 1.1861832 4.407389 0.43500888 -0.45291448 -0.11186482 0.18918718
-1.6122284 0.42999414 -7.3988514 -1.5903633 -1.177344 0.18584031 -1.9226286 -5.4504476
-0.13929781 -2.6045158 -0.26544273 0.46871793 0.14477639 0.6958549 -0.21945111 0.11603877
0.16866942 -0.20540223 -0.094886005 -0.127331 0.3411366 0.16781436 -0.14548437 -0.28266463
-0.97427154 -0.7267683 0.30135548 0.2828495 0.069078885 0.27171555 -0.2633577 -0.6355511
0.13828972 -0.49783787 -0.16421412 0.2034357 -0.09002753 0.58192146 -0.16680643 1.3016632
0.17455913 -1.9573783 -0.09663347 0.31922317 -1.1399629 0.76068616 -0.08082368 -0.33010757
-0.42437384 0.8198563 -0.15801564 0.095456444 -0.9136645 -0.70526713 -0.20059673 -2.9105897
0.07553359 0.020813677 -0.3024452 -0.08448173 -0.1557555 -0.50414056 -0.09678589 -0.30252784
0.05290531 -0.0017275184 0.12113229 -0.20596 -0.29992923 0.9060255 0.17045209 -0.14588907
0.118732385 -0.26054585 -1.7167209 1.9488523 -1.3519473 -0.5075312 0.24432817 -2.5439901
0.6093495 0.025177721 2.6063507 1.9686545 0.017999662 -3.7744954 0.7112087 -0.606836
0.30761236 -1.9926467 0.08019158 0.35383648 -2.0856829 -0.8656728 2.473951 1.4946138
-0.50439674 1.57493 0.14759986 -0.66871357 0.70403576 -3.0208814 1.3080935 -1.05041
0.25199202 0.7211651 0.9368099 4.4996223 -4.8339777 3.2726305 1.7399318 -1.4366093
-0.17020588 0.091558695 2.7939184 0.7026974 -7.7636623 1.0776292 0.87022674 -3.3001842
1.5810988 -0.87274915 -1.2674209 -3.2411985 0.32897073 0.94356847 1.769467 -1.8621998
1.27053 3.0039866 -0.45525333 2.9685404 0.6096178 4.6148148 0.15100552 -3.024602

lstm.weight_hh_l1 f4 [256, 64]
00000000: b520 41bf cb2d 1cbe c4a9 723e 4297 02bf
00000010: bdcc 1141 bedc c53e 6206 dcbd 607d a5bd
00000020: 227a 81be a4e8 6a3e 768e b33b eb06 e63f
00000030: 8a0f 2abe 3040 603e b936 8f3e 4296 21bc
00000040: 5bac ad40 2c06 bd3e ef08 b23e dad5 abbe
00000050: 68ca 153e 3455 293f 567e 803f 079f c3be
00000060: 50e6 173e c53f ccc0 bd50 5b40 a1b4 5dbe
00000070: 03d4 abbe d9ec 873e 8ef6 d23d 79f5 da3e
00000080: 7e06 183f 3aa8 cf3d 9566 2e40 43be 27be
00000090: d7e2 e93d 4859 13bd 55a9 9740 9038 9abe
000000a0: 17cb e0be 8a22 3f3e 5669 06be 397d 81be
000000b0: a354 20bf a5fb 59c0 0da1 91be d967 7a3e
000000c0: 108e 12be c250 9a3e da6d 0cbe ee57 9b40
000000d0: 9c97 06bf f22f d33e 09bc 5ebd 2714 f23d
000000e0: ff28 99bf d96f 5540 b2ae 08bd a670 0e40
000000f0: 5c8c aa3f e293 713f 1ba1 6bbe efa0 0e40
00000100: 93bb 27c0 e001 0a3f 688a 8b3d 2f8d 00c0
00000110: 4a9e 02c0 e359 9a3e a8e5 7e3c 889c 923e
00000120: f68f 143d 96d8 0abc 9c1b 26bd 5c22 2f41
00000130: 9c43 62be 9f40 b93e 92c0 943e 65fc f9bd
00000140: 76f2 82c0 c283 a43d 34fc 6e3e 0e63 80be
00000150: 3a56 1fbd 3348 be40 aaa6 74c0 9580 66be
00000160: 9fc4 a33e 2306 d53f ec63 c53f 3892 0bbe
00000170: 8ce9 c9be 7275 753e 1d88 9f3d 0f15 49bd
00000180: bcd3 ab3e cec6 a23e 0867 1ec0 b21e c5be
00000190: 807c 283e 3440 953d 5d5f 3c40 5bfb 88bd
000001a0: 8f5a afbe fb1a 31bd 48c1 813f aa60 5dbe
000001b0: c7d8 c9bd 23ce 5340 58b1 e1be 3fb2 af3d
000001c0: 43c4 15bd 73ce 263e 8b5e 50be 0415 6bc0
000001d0: dbe0 1d40 f64b 393d 39a0 b3bd 9f9e 903e
000001e0: ed67 c040 7a67 0e40 c222 23be 393c cdbf
000001f0: 49ed 5340 8364 93bd d150 7fbe c021 3740
00000200: fdf1 a23e eb06 843e 5dd0 483e dd1e 893e
00000210: 4d63 f0bd 6374 683e 4f02 e03d 517e 943e
00000220: 54ce 58be 9479 743c 11d5 a13d b9b5 88bd
00000230: 9664 6dbe 136c 293e 4058 b93e 69f1 f3bc
00000240: 3cbd 9ebe 3c42 8d3e b0f6 9c3e 6d27 61be
00000250: 7823 213e 69f4 2e3f 982d c0be 297e 9bbe
00000260: 316c 383e f49d b5be 3448 693e 1571 aabd
00000270: d8fc b8bd 969c 463e 7cd1 883d d7fb a53e
00000280: 5ffa e03e ad37 2a3e af7f 7c3d a103 61be
00000290: ec7c 603e 74e2 96bd 67d8 a43d bb34 6cbe
000002a0: 2c42 fabd 469c 013e d70e 433c 19d0 a8be
000002b0: bd51 84be 879e b4be a1a7 9bbe 840b be3e
000002c0: b3ba 69be 591c 073d 9c48 4a3d 29c4 263d
000002d0: d4e1 fcbc ecc8 4c3e fab5 63be 8799 a43c
000002e0: 4c14 7b3e 129d 01bf b950 28bd 0ddb bc3d
000002f0: 1c2c 13be 35fd eb3d a1a6 21be 5605 03be
00000300: fc38 2ebf f8b9 9940 391c bdbd 6e1e 9840
00000310: d533 3bc0 7402 a03e bec1 9abe 9306 a3be
00000320: 0322 b3bd a80c 3d3e f9f6 833d 7f2b e9bf
00000330: cad1 053e a094 ac3e 8cd7 c63e 33ec 37bd
00000340: 9d86 5540 2599 423f 7aba 8e3e ac86 133e
00000350: 7f93 923e f489 90c0 ee93 2540 4911 a9be
00000360: da8b 263e 62ed 2940 3c48 8d3f 3722 90be
00000370: b2cd d8bd cdd4 b93e 9bd9 673e 8c23 a4be
00000380: df6f 873e 3447 4d3e bb1c 103f 00ac a9be
00000390: ed1a b33d e216 2abe 983f b43f 948a e1be
000003a0: 7ccf 4dbf dfd2 803e c51a 32c0 ab46 02be
000003b0: c828 403e d45f dcbf 54f8 0ebe 6636 663e
000003c0: 57f2 c03c 4a48 153e 26d5 18be 5b28 0440
000003d0: 1178 a7c0 67df 013f 3dd3 a7bc cfa3 163e
000003e0: de15 1d40 49dd 9fc0 5a22 cabc 545a 0fc1
000003f0: 95e7 0641 b3a1 d6bf 5e6c 3abe 6169 96bd
-0.7544053 -0.15251844 0.23697573 -0.5101205 9.112485 0.38644975 -0.10743405 -0.08080554
-0.25288492 0.22940308 0.005479629 1.7970861 -0.1660749 0.21899486 0.27971438 -0.009862484
5.4272895 0.3691877 0.3477244 -0.33561593 0.14627993 0.66145635 1.0038555 -0.38207266
0.14833951 -6.3827844 3.4268029 -0.21650936 -0.3356019 0.26547888 0.10300933 0.42765406
0.59384906 0.101395085 2.725011 -0.16381173 0.114202194 -0.035973817 4.7394204 -0.3012128
-0.43904945 0.1866552 -0.1312612 -0.2529085 -0.62629145 -3.4059842 -0.28443184 0.24453677
-0.14312005 0.30139738 -0.1371378 4.8544836 -0.5257509 0.41247517 -0.054378543 0.1182025
-1.1965636 3.3349516 -0.033369727 2.2256255 1.3324084 0.94366276 -0.23010676 2.2285726
-2.6208236 0.5390911 0.06813508 -2.0086172 -2.0409112 0.30146703 0.015557684 0.2863505
0.036270104 -0.00847449 -0.040553674 10.9458885 -0.22096103 0.36182114 0.2905317 -0.122063436
-4.0920973 0.08032943 0.23338395 -0.25075573 -0.03890059 5.9463134 -3.8226724 -0.22509988
0.31985947 1.6642498 1.5421119 -0.13629997 -0.39435995 0.23970583 0.077896334 -0.04909235
0.33559978 0.317923 -2.4750385 -0.3849998 0.16453743 0.072876364 2.9433205 -0.06688567
-0.34248778 -0.04323862 1.013711 -0.21618906 -0.098558 3.3094566 -0.44080615 0.085789196
-0.036564123 0.16289692 -0.20348565 -3.6731577 2.466849 0.045238458 -0.087707944 0.28246018
6.0126863 2.2250657 -0.15931228 -1.6034003 3.3113577 -0.071969055 -0.24933173 2.861435
0.31825247 0.25786528 0.19610734 0.2678136 -0.1173769 0.22700648 0.1093794 0.29002622
-0.21172458 0.014921565 0.07901967 -0.06675286 -0.23182902 0.16545133 0.36200142 -0.0297782
-0.3100375 0.27589595 0.30656958 -0.21987696 0.15736187 0.6834169 -0.37534785 -0.3036969
0.18010022 -0.3547207 0.2278145 -0.0832235 -0.09032601 0.1939567 0.06680581 0.324187
0.43941018 0.16622801 0.061645206 -0.2197404 0.21922654 -0.07367411 0.08049088 -0.2306699
-0.122196525 0.1265727 0.011905394 -0.32971266 -0.2584361 -0.35277197 -0.30401328 0.3711816
-0.22825126 0.03298602 0.049385652 0.040714417 -0.030869402 0.1999852 -0.22237387 0.020092739
0.24519461 -0.50630295 -0.041092608 0.09221468 -0.14372295 0.11522905 -0.1578622 -0.12795004
-0.680557 4.8039513 -0.09233899 4.7537146 -2.9250386 0.31251872 -0.3022594 -0.31840953
-0.087467216 0.18461859 0.06443591 -1.8216399 0.1306831 0.33707142 0.38836324 -0.04490299
3.3363411 0.7601493 0.27876645 0.14406842 0.28628156 -4.51684 2.587154 -0.33021
0.16264287 2.6551137 1.1037669 -0.28151104 -0.10586108 0.36295167 0.22641604 -0.3205837
0.26452538 0.20046693 0.5629384 -0.33139038 0.0874537 -0.16610292 1.4081907 -0.4405104
-0.8039472 0.25160882 -2.782884 -0.1272227 0.18765557 -1.7216744 -0.13961917 0.22481689
0.023553057 0.14578357 -0.1492506 2.064963 -5.2334065 0.5073151 -0.020486468 0.14710926
2.4544597 -4.9957623 -0.024674583 -8.959553 8.431539 -1.6768097 -0.18205401 -0.07344318

lstm.bias_ih_l1 f4 [256]
00000000: df4d f8bf b341 14bf 672c 28c0 9db2 d4bf
00000010: bc1e e1be 2083 34c0 6100 36c0 241a 65c0
00000020: 683e 37c0 ca2d 3ac0 c2f2 3bc0 623f 2ac0
00000030: b9c1 2ec0 c0ba 3bc0 b230 35c0 ee2b 39c0
00000040: a5f2 e1be 3f9f 49c0 426c 3bc0 8cb9 33c0
00000050: ee19 35c0 06a8 c4bf 2cd8 3fbf 82cb 33c0
00000060: 41db 35c0 c798 9fbf 16fa 6bbf 15d4 38c0
00000070: 7bdc 39c0 971a 31c0 bde8 38c0 9785 f1bf
00000080: cfbc 38c0 1638 38c0 1316 93bf 77ee 3dc0
00000090: 6ee4 2dc0 515c 3dc0 47dc 97bf 2fee 4ac0
000000a0: 57a7 4dc0 8f02 3ac0 c571 ebbf 0eb3 38c0
000000b0: f3b3 c0bf fcf2 83bf c146 45c0 755e 36c0
000000c0: 638e 44c0 5b8c 38c0 785b 3ac0 0524 03c0
000000d0: b538 a5bf 4a52 33c0 7469 2ec0 0c7c 33c0
000000e0: 69b6 b73e e1f1 efbf 9f25 38c0 5342 25bf
000000f0: 7ee6 01bf df5a ebbf e363 36c0 ab26 9abf
00000100: c08a 8fc0 49be a1bf 568d cbbf 0ce7 213f
00000110: 788e 2cc0 73e5 7abf bf00 73bf 97c0 80bf
00000120: 6bc8 b2bf 8427 82bf c5e2 84bf bc31 4d3f
00000130: c2a0 c3bf e680 93bf 10af b0bf 942b 77bf
00000140: 343b 11c0 9d1d 93bf f072 50bf e83d a3bf
00000150: a6ba 63bf 581c 193f 1321 8cc0 d01a a3bf
00000160: 1263 7bbf 8ff8 15bf a96e 04bf b843 6cbf
00000170: 696a 99bf 2cf1 8cbf a9ab acbf 8bad a8bf
00000180: 82d1 a0bf bc26 88bf 0730 89c0 3875 9bbf
00000190: 60fb a3bf 09fe a9bf 1154 86bf 4a6f a4bf
000001a0: 6055 a7bf 3626 84bf 6318 2cbf 7184 97bf
000001b0: b836 4ec0 b7b6 d73e 951c a7bf 2c63 7cbf
000001c0: 829b 8abf d9a4 99bf 8623 66bf 28d6 02c0
000001d0: 9b42 73be 84c4 8cbf 3c81 aabf c39b a4bf
000001e0: cc69 d13e 0f06 92bf 45b9 9abf 9c36 2ac0
000001f0: ee63 8abf d91a 5bbf 50a1 aebf 3640 63c0
00000200: ba18 d5bd fa1b 6c3e 5b52 26be de90 c9be
00000210: 77c3 433e c056 663d dff9 41bd 647a e5bd
00000220: 478b a93c bb32 6d3d e52a 1dbd 96a0 233f
00000230: 286b 2e3d 44c8 523d da7e 8d3c a3d6 9d3d
00000240: 59e0 943e 76d4 31bd a8cc 503c 7e1c d9bc
00000250: 3bad ff3c cf99 ca3e 0d85 f9be 0400 7a3d
00000260: e105 3f3d e598 9bbd d651 36be fcea d53b
00000270: 7694 33bd a45a 1f3b 3e61 903d 5e9d 96bc
00000280: 7320 82bc 1e7a 7cbd 253a c6be d5c9 803d
00000290: 2bdc 00bd 860f 30bc 092d 8c3e 1a76 1e3c
000002a0: 2e45 7cbd 2cf6 c43d 269c c83c 4cb8 c1bb
000002b0: aace d7bd e86d 633f 84b9 a0bd e8f5 f73b
000002c0: b80d 3bbd e38e 54b9 41f8 9ebd eef9 a33d
000002d0: 46ad 43be 9502 8b3d fca1 153d d717 51bd
000002e0: 348f 37be f4ea 313f fc53 d23d 1faf bfbe
000002f0: 726e 963e ab5e 10bf e50b 333d 90b1 c03e
00000300: dc68 afbf 753f 8fbf bd57 29c0 2f16 6ebe
00000310: 6fc8 13c0 c7c4 34c0 8d18 35c0 7374 63c0
00000320: dc13 30c0 9d71 39c0 9dea 34c0 8d48 0e3f
00000330: f9b1 2fc0 5dee 31c0 7883 31c0 92b6 3fc0
00000340: bfda 1abf 529e 4cc0 5189 3dc0 ff34 2ec0
00000350: 986d 31c0 061c f43f 1f76 fabf 8de5 3bc0
00000360: 0154 3ec0 0339 c6bf 66ae 06bf ed68 33c0
00000370: 7d62 33c0 1685 33c0 c5b2 34c0 9a61 eebf
00000380: 9049 40c0 88ba 3dc0 fbe2 eebf 2d82 36c0
00000390: 1205 2fc0 a3e9 33c0 2c26 2fbf 7ef7 45c0
000003a0: eb02 55c0 ecf6 39c0 e0c2 dabf ec53 32c0
000003b0: 1231 cebf 32fa 18c0 599b 4bc0 3991 3fc0
000003c0: 724d 3fc0 996d 36c0 6229 3ac0 5e85 c0bf
000003d0: c8d0 52bf 0c0d 37c0 73a5 2bc0 ffe5 38c0
000003e0: f5ef 87bf 0242 00c0 3e1c 3ac0 66dc b0bf
000003f0: dd8b f2be 7414 f2bf 2920 30c0 beef 2fc0
-1.9398764 -0.5791275 -2.62771 -1.6617008 -0.4396876 -2.8205032 -2.8437731 -3.5797205
-2.863184 -2.9090447 -2.9366918 -2.6601186 -2.730574 -2.9332733 -2.8310971 -2.8933063
-0.44130436 -3.1503446 -2.9284825 -2.8082 -2.8297076 -1.5363777 -0.7493923 -2.8092961
-2.8415072 -1.2468499 -0.92178476 -2.8879445 -2.904082 -2.767248 -2.8892052 -1.8868893
-2.886524 -2.8784232 -1.1491112 -2.9676797 -2.7170672 -2.9587595 -1.1864098 -3.1707876
-3.2133386 -2.9064062 -1.8394095 -2.8859286 -1.5054916 -1.0308528 -3.0824435 -2.8495152
-3.0711906 -2.8835666 -2.9118328 -2.0490735 -1.2907931 -2.8018975 -2.7251863 -2.8044462
0.35881355 -1.874569 -2.8772962 -0.6455433 -0.5074233 -1.8387107 -2.8498466 -1.204305
-4.4856873 -1.2636195 -1.5902507 0.63243175 -2.6961956 -0.9800636 -0.94923013 -1.0058774
-1.3967413 -1.0168309 -1.0381705 0.80154014 -1.5283434 -1.1523712 -1.3803425 -0.9655087
-2.2692385 -1.1493412 -0.8142538 -1.2753267 -0.8895668 0.59808874 -4.3790374 -1.2742558
-0.98198044 -0.58582395 -0.51731354 -0.9229083 -1.1985599 -1.10111 -1.3489887 -1.3177961
-1.2563937 -1.0636821 -4.2871127 -1.2145147 -1.2811089 -1.328065 -1.0494405 -1.2846463
-1.3072929 -1.0324161 -0.6722471 -1.1837293 -3.2220898 0.42131588 -1.3055598 -0.98588824
-1.0828707 -1.2003433 -0.89897954 -2.044321 -0.23755877 -1.0997472 -1.3320689 -1.2860035
0.4090103 -1.1408099 -1.208779 -2.659583 -1.0811746 -0.8558784 -1.3642979 -3.5507941
-0.10405107 0.23057547 -0.16242354 -0.39368337 0.19117533 0.056235075 -0.047357436 -0.11204985
0.020696295 0.05790971 -0.038370986 0.6391691 0.04258266 0.05146052 0.017272402 0.07706954
0.29077414 -0.04341551 0.012744106 -0.026502844 0.031210532 0.39570472 -0.48734322 0.06103517
0.046636466 -0.07597522 -0.17804655 0.0065282565 -0.043842755 0.00243155 0.070497975 -0.018385585
-0.015884614 -0.061639898 -0.38716236 0.062884964 -0.03145997 -0.010745889 0.2737811 0.009671712
-0.061589412 0.09617266 0.02448852 -0.0059118625 -0.10537465 0.8883958 -0.07847884 0.007567156
-0.04566738 -0.00020271125 -0.077621944 0.08006655 -0.19109067 0.06787602 0.036531433 -0.051048126
-0.17925721 0.69499135 0.10269925 -0.37438294 0.29381138 -0.5639445 0.043712515 0.3763547
-1.3703876 -1.119124 -2.6459801 -0.2325065 -2.3091085 -2.8245103 -2.8296235 -3.5539825
-2.7512121 -2.8975594 -2.8268197 0.55579454 -2.7452376 -2.7801735 -2.7736492 -2.9955182
-0.6049003 -3.197163 -2.9615061 -2.7219846 -2.772314 1.9071052 -1.9567298 -2.9358857
-2.9738772 -1.5486149 -0.5260986 -2.8032792 -2.8028862 -2.804998 -2.8234112 -1.8623536
-3.00449 -2.96451 -1.8663019 -2.8516953 -2.7346845 -2.811135 -0.6841762 -3.0932307
-3.328303 -2.905696 -1.7090721 -2.7863722 -1.6108725 -2.3902707 -3.1813567 -2.9932387
-2.989102 -2.8504393 -2.9087758 -1.50407 -0.82349825 -2.8601713 -2.6819732 -2.8890378
-1.0620104 -2.0040288 -2.9079738 -1.381726 -0.47372332 -1.8912492 -2.751963 -2.7490077

lstm.bias_hh_l1 f4 [256]
00000000: d117 e8bf 49a5 18bf ff4b 1fc0 0b9a cebf
00000010: c607 c0be 7420 42c0 4103 3ec0 ae36 67c0
00000020: 0e98 38c0 7a95 3ec0 be5c 39c0 7ab0 29c0
00000030: dbad 36c0 1ef1 38c0 7ecc 33c0 4c80 39c0
00000040: 13fa fdbe 577b 52c0 808e 3bc0 9437 37c0
00000050: 46cc 40c0 fcee b1bf 6ee5 64bf 20d0 39c0
00000060: bf44 37c0 0dbd b0bf ee4c 64bf 6dbc 3ec0
00000070: 61b1 34c0 df26 3fc0 a79c 30c0 1be9 e6bf
00000080: 796b 38c0 ec5a 30c0 ed95 91bf e7b6 35c0
00000090: c2a8 3ac0 15b3 38c0 7568 8abf 7dff 48c0
000000a0: a5d0 5bc0 1787 36c0 0bf8 ddbf c88e 40c0
000000b0: d7bd bfbf 9058 92bf 6546 43c0 0f8e 36c0
000000c0: 1396 36c0 335b 31c0 269d 32c0 df1e f7bf
000000d0: 81fb a9bf e844 3ec0 a475 33c0 465a 36c0
000000e0: 80e1 843e b110 f8bf 370a 39c0 f951 45bf
000000f0: 0eae 06bf fb7c d6bf 71e1 2cc0 91d1 acbf
00000100: fe36 8ac0 5790 b2bf 46c8 c5bf ca4a 263f
00000110: 4224 36c0 192f 4ebf 276b 7cbf 3fc9 89bf
00000120: 1dc3 c2bf a44d 66bf a33f 9bbf b8f6 183f
00000130: 4ad9 c4bf f2fe 8fbf 2059 a9bf 82a4 69bf
00000140: 6e3f 0cc0 99d4 84bf b003 64bf 4ce7 99bf
00000150: dc6e 6fbf 584f ff3e 25f6 8fc0 1ef4 a3bf
00000160: 14b7 5dbf 05f2 09bf 778d f6be 1ec8 81bf
00000170: fba6 9dbf fc25 73bf fdae aabf 4b14 98bf
00000180: a46a a0bf 7064 79bf 87de 89c0 3a80 a3bf
00000190: bafc abbf c136 abbf f0b4 7fbf aae9 b1bf
000001a0: 94c8 b2bf 88a7 62bf 572a 1ebf b1f2 87bf
000001b0: 5a6f 4ec0 2cfe 083f 29b3 a8bf 7466 89bf
000001c0: 514b 86bf 6935 9dbf 0415 55bf 10ac 0ec0
000001d0: eeee b5bd c4fa 93bf 9c7a a0bf 9989 8abf
000001e0: 8c1a f33e 92ef 7abf 959e 95bf b850 30c0
000001f0: 2c30 a2bf 44df 84bf 921b a7bf 8ad8 61c0
00000200: d386 fbbd b6ba f63d b6bd 8fbd 32ac e5be
00000210: a0df b03e e340 99bd 37be 713d 8c25 1cbd
00000220: f950 6f3c c114 54bd cb56 373d 8b3c 003f
00000230: b1e0 8fbb 9e05 80bd 09f9 14bd 53d5 d5bd
00000240: 891d 8d3e 2c44 4fbd 562c cebc 8508 b33d
00000250: 3858 c3bc a1bf 8f3e 6943 b5be 1517 fa3b
00000260: b5ed 75bd c915 fc3d 2159 aabc 76d4 963c
00000270: 003d 103d 6219 18bc 6259 7cbd 52b4 0cbe
00000280: 4c38 50bc ec0e 193d 17fd acbe 72df acbd
00000290: a172 ea3c d10b d6bc 19b8 113e d7fd 97bc
000002a0: 9862 e83d ce3f b5bd 78b2 853d 0714 353b
000002b0: 5789 01be 881b 8b3f a3e9 c7bc 0368 20bc
000002c0: 4c3c 803c eefe 3f3c ab1c 973d 54d5 c73d
000002d0: b4a4 64be a351 d8bd 0b40 a7bb 0b00 623d
000002e0: 89c7 adbe 1e65 333f 12ee d4bd 11a2 b4be
000002f0: de01 823e 784a f0be 42a1 8ebd 9e94 763e
00000300: 346d a2bf ae28 83bf 4fa4 29c0 8c67 9ebe
00000310: 2b10 11c0 7963 3bc0 a7a9 41c0 972b 6bc0
00000320: d859 2dc0 2167 3ac0 a399 39c0 9e13 dd3e
00000330: d39f 2bc0 cf47 32c0 4e83 35c0 02c8 3ac0
00000340: 9b75 45bf 3cf2 49c0 43d6 32c0 15f4 30c0
00000350: 8aad 3fc0 d3ff fc3f a9f5 f4bf 6566 40c0
00000360: c9ad 3ec0 e1d1 d7bf 1609 1abf f343 36c0
00000370: 491b 34c0 bece 38c0 b94c 2fc0 c018 e0bf
00000380: 2c3a 3fc0 121e 3ec0 19be e9bf e3fc 32c0
00000390: 348f 36c0 0de6 3fc0 b874 2abf 669e 43c0
000003a0: 5751 55c0 ce25 37c0 4c54 debf 1842 32c0
000003b0: d637 cebf e27b 0ec0 2dbb 41c0 6f6c 3bc0
000003c0: 3079 37c0 bb7f 32c0 0a10 35c0 c01d c4bf
000003d0: 3c8d 55bf 769f 32c0 4354 37c0 cb84 34c0
000003e0: 4e48 80bf 0a08 f7bf f8cd 38c0 ce97 a6bf
000003f0: 8ff8 0bbf 321c fbbf e100 39c0 866f 3ac0
-1.8132268 -0.59627205 -2.4890134 -1.614076 -0.3750593 -3.0332308 -2.9689486 -3.6127124
-2.8842807 -2.9778733 -2.8962855 -2.6513963 -2.8543613 -2.8897166 -2.8093562 -2.8984556
-0.49604854 -3.288778 -2.9305725 -2.8627672 -3.0124679 -1.3901057 -0.8941258 -2.903328
-2.863571 -1.3807694 -0.89179885 -2.9802506 -2.8233263 -2.9867475 -2.7595613 -1.8039888
-2.8815596 -2.7555494 -1.1373879 -2.8392885 -2.9165502 -2.8859303 -1.0813128 -3.1405938
-3.4346097 -2.8519952 -1.7341322 -3.0087147 -1.497981 -1.1433277 -3.0511715 -2.8524206
-2.8529098 -2.7711914 -2.7908416 -1.9306296 -1.3279878 -2.9729557 -2.8040552 -2.8492599
0.25953293 -1.9380094 -2.8912485 -0.77078205 -0.52609336 -1.6756891 -2.7012599 -1.3501455
-4.319213 -1.3950299 -1.5451744 0.6495787 -2.845963 -0.80540615 -0.98601 -1.076454
-1.5215794 -0.8996222 -1.2128795 0.5975146 -1.5378811 -1.1249678 -1.3230324 -0.91266644
-2.1913714 -1.037738 -0.89068127 -1.2023711 -0.93528533 0.49865222 -4.498797 -1.2808874
-0.8660748 -0.5388492 -0.48154804 -1.0139196 -1.2316583 -0.94979835 -1.3334652 -1.1881193
-1.2532544 -0.9741888 -4.308414 -1.2773507 -1.3436501 -1.3376085 -0.99885464 -1.3899434
-1.3967462 -0.8853688 -0.61783355 -1.0620939 -3.2255464 0.53512836 -1.3179675 -1.0734391
-1.0491735 -1.2281924 -0.8323519 -2.2292519 -0.08883463 -1.1560903 -1.2537417 -1.0823241
0.4748119 -0.98021805 -1.168902 -2.7549267 -1.2670951 -1.0380635 -1.3055289 -3.5288415
-0.12281575 0.12047331 -0.07018606 -0.44857937 0.34545612 -0.07483079 0.059019294 -0.038121745
0.014606708 -0.051777605 0.044760507 0.5009238 -0.004390799 -0.062510714 -0.03637031 -0.10441079
0.27561596 -0.050602123 -0.025167625 0.08741859 -0.023845777 0.2807589 -0.35402992 0.007632146
-0.06004115 0.12308843 -0.020794453 0.018411856 0.035214424 -0.0092833955 -0.06160868 -0.13740662
-0.012708735 0.037367746 -0.33786842 -0.08441056 0.028619112 -0.026128681 0.14230384 -0.018553657
0.1134693 -0.088500604 0.06528181 0.0027630345 -0.12650047 1.0867777 -0.024403399 -0.009790423
0.015653752 0.011718495 0.07378515 0.09757486 -0.22328454 -0.10562446 -0.00510407 0.055175822
-0.33941296 0.7007617 -0.10396971 -0.35279897 0.2539205 -0.46931815 -0.06964351 0.2408013
-1.2689576 -1.024679 -2.6506536 -0.30938375 -2.2666118 -2.9279463 -3.0259798 -3.6745355
-2.7086086 -2.9125445 -2.9000022 0.4317903 -2.68163 -2.7856328 -2.8361392 -2.9184575
-0.77132577 -3.1554098 -2.7943275 -2.7648976 -2.994967 1.9765571 -1.913747 -3.0062497
-2.979357 -1.6860925 -0.60170114 -2.8478973 -2.8141654 -2.8876185 -2.7390578 -1.7507553
-2.9879255 -2.9705853 -1.8261138 -2.796685 -2.8524904 -2.9984162 -0.6658435 -3.0565429
-3.3330896 -2.8616824 -1.7369475 -2.785284 -1.611079 -2.2263112 -3.0270493 -2.9284933
-2.8667717 -2.789046 -2.829104 -1.5321579 -0.8341863 -2.7909827 -2.864518 -2.820605
-1.0022066 -1.9299328 -2.8875713 -1.3015077 -0.54676145 -1.961798 -2.8906786 -2.9130569
