Code/698/10step_5horizon/models/lstm/10step_5horizon_RMSE_84_two.pth (torch, 335058 bytes, 11 tensors)

lstm.weight_ih_l0 f4 [256, 85]
-0.0044656503 0.21990255 -0.037817582 0.11950071 0.07159768 0.20834626 0.51973194 -0.0746511
0.22899634 -0.256346 -0.12362194 -0.27294955 0.14760077 -0.17225984 0.10723826 0.014288196
-0.36251935 0.12887031 0.010762616 0.05959697 -0.34343722 -0.028057227 0.07333207 0.102520496
0.22015296 0.47593582 -0.1763145 0.34598345 0.11287716 0.016393466 0.10843012 0.009699537
0.13697872 0.15033972 0.2059195 -0.046416126 0.09637405 0.02305428 0.1294207 0.017854769
-0.26564816 -0.06523588 -0.08482635 -0.051228594 0.03780129 -0.11220568 0.011164107 0.41212755
0.104722776 -0.10134188 -0.0016221245 -0.20734346 -0.05120332 0.1618318 -0.004059406 -0.00475219
-0.07093062 -0.20772927 0.002253804 -0.06568853 0.20959803 0.17750777 0.05400579 -0.052201327
-0.07638126 -0.16555437 -0.21739167 0.02003409 0.049116258 -0.23974067 0.18842648 0.038016986
0.22855297 0.14374699 -0.40033415 -0.056119595 0.1183097 -0.22799978 0.3268965 0.011058135
-0.08348492 0.10608055 -0.18973246 -0.17434879 0.20773168 3.7629526 -0.1258199 -0.046602976
-0.41785908 0.35017994 1.1693989 0.4237394 0.2816527 -0.029449502 -0.13304721 0.65182185
0.37077364 -0.67740154 -0.7544596 -0.029182404 0.052172888 -0.21907108 0.15748551 -0.46980128
0.1979577 0.017134553 -0.22046886 -0.14068867 -0.17998603 -0.23098765 -0.076271474 -0.2005079
-0.6446205 -0.13861038 -0.3437785 -0.20170435 -0.07724106 0.04580742 -0.2934274 -0.06738422
-0.27069438 0.12964408 -0.03939337 0.21364823 -0.25046283 -0.9969927 -0.737204 0.26893508
-0.16730464 0.053461343 0.19206682 -0.3295783 -0.41515684 0.209705 0.39877793 0.059075553
-0.13083957 1.0346307 0.28420877 -0.014747294 0.4600502 -0.32539645 0.085371196 0.048394293
0.06642839 0.2075077 0.11263528 -0.09106908 -0.13245665 0.037365 -0.34723383 0.12103357
0.12451661 0.16673796 0.85148704 0.4174618 -0.16992702 0.048588466 -0.22624366 -0.085593104
-0.032426454 0.36612007 0.46472323 0.101720676 0.26855487 -0.02665255 0.08650661 0.034330007
-0.32932898 -0.014933668 0.9216103 0.12127932 0.098665565 0.1804074 -0.089806035 -0.13955788
0.23753528 -0.021249898 -0.2603798 -0.22225277 0.15545124 0.10931519 -0.26626965 0.20429015
0.14230849 0.15548274 -0.16432881 0.24023986 -0.105184235 -0.07609669 0.10688503 -0.237971
0.15824454 0.0028474159 0.09889017 0.16885015 0.023262316 0.22089751 0.37106362 0.071643524
-0.4425942 0.17648101 0.051976364 0.16157459 -0.06243007 -0.055686183 0.0012066609 0.049811117
0.11643206 0.09934672 -0.2695412 0.1721506 0.3338824 -0.39404997 -0.0022779768 -0.010336893
-0.17882065 0.4306891 0.2933551 -0.1114476 0.018176883 -0.0819501 0.08582896 0.19910903
0.35640746 -0.01349189 0.22114283 -0.014967711 0.00878047 -0.13696814 0.12212704 -0.09475473
-0.19740829 -0.22312056 0.05719297 -0.0054981387 -0.077053025 0.059394594 -0.14233208 -0.030758487
0.032591205 0.10417875 0.21798976 -0.34598088 -0.20697974 0.5137111 0.38654047 0.0014721937
0.006359065 0.15955843 -0.01412585 0.048509993 -0.2269785 -0.1499601 -0.2602601 -0.35282284
00000000: 9754 92bb 222e 613e 9ce6 1abd cabc f43d
00000010: cea1 923d b958 553e 270d 053f ade2 98bd
00000020: 047e 6a3e c83f 83be 802d fdbd 0bc0 8bbe
00000030: a824 173e e264 30be bc9f db3d 0a19 6a3c
00000040: 239c b9be 94f6 033e af55 303c f41b 743d
00000050: 01d7 afbe 45d8 e5bc 202f 963d 44f6 d13d
00000060: c76f 613e dcad f33e ca8b 34be be24 b13e
00000070: 242c e73d 974b 863c 9c10 de3d cfea 1e3c
00000080: 2644 0c3e a8f2 193e 90dc 523e d61e 3ebd
00000090: c25f c53d 54dc bc3c dc86 043e 2a44 923c
000000a0: 0903 88be 649a 85bd 70b9 adbd 13d5 51bd
000000b0: 87d5 1a3d 17cc e5bd a9e9 363c 6202 d33e
000000c0: e578 d63d 558c cfbd 779d d4ba d851 54be
000000d0: 93ba 51bd 3cb7 253e c404 85bb 42b8 9bbb
000000e0: 1344 91bd fbb6 54be 8eb4 133b b587 86bd
000000f0: dea0 563e 99c4 353e 2d35 5d3d 0fd1 55bd
00000100: c76d 9cbd 1687 29be ec9b 5ebe 881e a43c
00000110: 212e 493d 947e 75be dff2 403e b3b7 1b3d
00000120: ca09 6a3e 6932 133e 99f8 ccbe a9dd 65bd
00000130: 5b4c f23d c678 69be fa5e a73e 2e2d 353c
00000140: 24fa aabd c240 d93d 3a49 42be 7d88 32be
00000150: 9db7 543e 37d4 7040 efd6 00be c3e2 3ebd
00000160: a0f1 d5be c94a b33e ddae 953f 5ff4 d83e
00000170: c834 903e 1540 f1bc 873d 08be ccdd 263f
00000180: 0bd6 bd3e 306a 2dbf 4424 41bf f00f efbc
00000190: 3db3 553d 2b54 60be e243 213e cb89 f0be
000001a0: 6cb5 4a3e c35d 8c3c 97c2 61be b110 10be
000001b0: 424e 38be 0788 6cbe 3834 9cbd f151 4dbe
000001c0: d905 25bf e1ef 0dbe bc03 b0be 968b 4ebe
000001d0: 9030 9ebd 90a0 3b3d 1e3c 96be bd00 8abd
000001e0: 7498 8abe 6bc1 043e f15a 21bd 9ac6 5a3e
000001f0: aa3c 80be ea3a 7fbf 67b9 3cbf dcb1 893e
00000200: e851 2bbe 48fa 5a3d 2aad 443e 7dbe a8be
00000210: 708f d4be e8bc 563e 9f2c cc3e 35f9 713d
00000220: cffa 05be c76e 843f d083 913e a29e 71bc
00000230: b38b eb3e 5d9a a6be 18d7 ae3d 1839 463d
00000240: 9c0b 883d e67c 543e 53ad e63d 6d82 babd
00000250: b7a2 07be 0b0c 193d a2c8 b1be 73e0 f73d
00000260: 9002 ff3d 5bbd 2a3e 0efb 593f 8ebd d53e
00000270: 5901 2ebe b304 473d 6bac 67be 704b afbd
00000280: 9ad1 04bd 1774 bb3e 34f0 ed3e ee52 d03d
00000290: 0680 893e 7356 dabc 612a b13d 9f9d 0c3d
000002a0: cf9d a8be 58ac 74bc a7ee 6b3f 4b61 f83d
000002b0: 2c11 ca3d b8bc 383e 3aec b7bd 43e8 0ebe
000002c0: 733c 733e 4414 aebc 8050 85be 3b96 63be
000002d0: 9c2e 1f3e a4e0 df3d 7f54 88be 7031 513e
000002e0: 51b9 113e de36 1f3e d045 28be 7001 763e
000002f0: d56a d7bd 95d8 9bbd 8ae6 da3d abae 73be
00000300: db0a 223e b69b 3a3b ee86 ca3d 0ee7 2c3e
00000310: 9d90 be3c f532 623e 0dfc bd3e d7b9 923d
00000320: b59b e2be 70b7 343e 2be5 543d cf73 253e
00000330: acb6 7fbd 3217 64bd d228 9e3a be06 4c3d
00000340: ef73 ee3d 4b76 cb3d 4e01 8abe 3f48 303e
00000350: a2f2 aa3e ebc0 c9be 1c4a 15bb 125c 29bc
00000360: c31c 37be 4883 dc3e a432 963e a43e e4bd
00000370: b0e7 943c 74d5 a7bd 18c7 af3d 3de3 4b3e
00000380: 0a7b b63e 170d 5dbc 4473 623e 213b 75bc
00000390: f6db 0f3c 6041 0cbe be1d fa3d c50e c2bd
000003a0: 6625 4abe b779 64be 2d43 6a3d bb29 b4bb
000003b0: facd 9dbd bf47 733d 80bf 11be 39f9 fbbc
000003c0: 5b7e 053d ab5b d53d b538 5f3e 6824 b1be
000003d0: 7ff2 53be 9282 033f a2e8 c53e a0f6 c03a
000003e0: b45f d03b 4963 233e 1c70 67bc 6ab2 463d
000003f0: 0d6d 68be 248f 19be d040 85be 32a5 b4be

lstm.weight_hh_l0 f4 [256, 64]
0.05705001 -0.17544436 0.2636204 -0.0122284405 0.46994865 -0.021444231 -0.07142438 0.03130343
0.03492081 -0.01640455 -0.21102725 0.24140094 0.7954605 0.51818466 -0.54499763 -0.51562905
1.522349 -0.17602924 -0.012186523 -0.0813386 -0.232254 -0.35541284 0.4852698 0.09908972
-0.017129594 -0.040232904 0.17346045 0.14995085 0.7644101 0.083174706 0.10720556 -0.3174954
-0.18351585 0.21442665 0.20436494 -0.23869863 -0.024248585 -0.044539075 -0.11905464 -0.6230501
-0.26901504 -0.07515439 -0.47324896 -0.24148002 0.6859268 0.13172528 -0.14039934 0.0008091906
-0.076874174 -0.72130406 0.73281896 0.032585703 -0.0077375374 -0.32903922 -0.2663899 0.55706084
-0.4273608 -0.32110992 0.16761264 0.098770596 0.39716566 -0.26387876 0.38967144 -0.016720926
0.10837089 -0.13624312 -0.1826544 0.06982521 0.12382108 -0.3603293 0.094799906 -0.4039544
0.09692933 0.022264348 0.109941244 0.028518736 0.05049079 -0.54005665 0.5843756 -0.3904673
2.2812247 0.06997036 0.06765603 -0.06465812 0.07291846 0.36983877 -0.98506397 0.09650612
0.16808532 -0.016655892 -0.4495462 -0.9128941 0.30864725 -0.27531645 -0.21434838 0.349822
-0.16543402 -0.20333676 -0.03709271 0.13417605 -0.021832045 0.047820948 -0.21525908 0.37884727
0.13819532 0.2430542 0.45616144 -0.0031715957 -0.82305527 -0.15826826 0.14069568 0.7112066
-0.35518673 0.47493374 0.63786477 -0.14195779 0.30921555 0.41818285 0.06537048 0.20306465
-0.43121618 0.6564291 0.5034462 -0.9855415 -0.087685555 0.4583544 -0.36992365 -0.07412168
-0.019038215 -0.160997 0.19473182 -0.16749544 0.38273484 -0.05611539 0.13627633 0.24613503
-0.15246083 -0.076804794 0.14445283 0.5008683 0.566986 0.39046142 -0.7613979 -0.36680102
1.452048 -0.030876365 0.09312511 -0.00818719 -0.23676464 -0.58532345 0.3757082 0.1453222
0.09407578 0.22125116 -0.056817196 -0.06305861 1.088635 -0.18503216 0.15712036 0.4921125
-0.08080686 0.19784169 0.26923501 -0.17994031 0.03008415 0.050636105 -0.33559227 -0.42170444
-0.30990428 -0.07383232 -0.24421617 0.37693685 0.5195504 0.088266194 -0.14675073 -0.26220968
-0.12628841 -0.61401635 0.55540115 0.16114566 -0.03830903 -0.1562042 -0.371157 0.20886032
-0.3716865 0.23249666 0.1956042 0.29053536 0.16543801 -0.22232097 0.28044972 0.0999483
-0.027348856 0.10288113 0.031269915 0.2329566 0.19950855 0.09659521 0.17365988 0.21076468
-0.088863544 -0.017406372 -0.27408287 0.44272277 0.56187886 0.36277923 -0.5162305 -0.4329953
1.313205 -0.12771717 -0.21919176 -0.18979397 0.06462046 -0.519815 0.23610152 0.21082686
-0.05250183 0.43226135 0.18081242 -0.035236705 0.5643557 0.018794268 0.09444347 -0.13910387
-0.15314089 0.3218503 0.19701716 -0.33276558 -0.2431607 0.15928489 0.10163175 -0.36371484
-0.028340157 0.10750764 -0.32149044 0.1503897 -0.64439726 -0.100306936 -0.09719395 -0.2337039
-0.005435721 -0.65304756 0.573125 -0.0067889364 -0.09499981 -0.10842272 0.018776653 0.314799
-0.25265807 0.1996165 0.22704306 0.15858583 0.35700503 -0.29322237 0.33454183 0.108087316
00000000: 45ad 693d b0a7 33be 41f9 863e cc59 48bc
00000010: 1c9d f03e d0ab afbc f246 92bd 0738 003d
00000020: 2009 0f3d d662 86bc 8717 58be cf31 773e
00000030: 4da3 4b3f c0a7 043f f784 0bbf 4400 04bf
00000040: 55dc c23f 0241 34be fba9 47bc da94 a6bd
00000050: fed3 6dbe acf8 b5be 4975 f83e 8def ca3d
00000060: 5d53 8cbc 42cb 24bd 9e9f 313e b78c 193e
00000070: 61b0 433f 8057 aa3d 978e db3d c28e a2be
00000080: 94eb 3bbe a992 5b3e 0b45 513e 6a6d 74be
00000090: f8a4 c6bc 9b6e 36bd ebd2 f3bd 3680 1fbf
000000a0: 57bc 89be 8bea 99bd b04d f2be 8a46 77be
000000b0: e698 2f3f fee2 063e d8c4 0fbe dd1f 543a
000000c0: 3570 9dbd 62a7 38bf 069a 3b3f 9678 053d
000000d0: 2b8b fdbb d477 a8be 4264 88be 8a9b 0e3f
000000e0: 09cf dabe 8568 a4be a6a2 2b3e 3d48 ca3d
000000f0: 4c59 cb3e 1e1b 87be 0483 c73e 53fa 88bc
00000100: 8ff1 dd3d 5183 0bbe c109 3bbe 8500 8f3d
00000110: e895 fd3d 157d b8be 7426 c23d 1cd3 cebe
00000120: e282 c63d b963 b63c e028 e13d 20a0 e93c
00000130: 6ecf 4e3d 2741 0abf a499 153f 54eb c7be
00000140: 96ff 1140 9f4c 8f3d 3f8f 8a3d 7a6b 84bd
00000150: 4656 953d 825b bd3e 272d 7cbf 00a5 c53d
00000160: 8f1e 2c3e f071 88bc eb2a e6be 6eb3 69bf
00000170: 0307 9e3e 47f6 8cbe 247e 5bbe df1b b33e
00000180: 8967 29be 8337 50be 87ee 17bd 7265 093e
00000190: 1ed9 b2bc e6df 433d e06c 5cbe 45f8 c13e
000001a0: 1383 0d3e 33e3 783e fe8d e93e 8cda 4fbb
000001b0: c0b3 52bf 1311 22be 8712 103e a311 363f
000001c0: 09db b5be 842a f33e 1b4b 233f 625d 11be
000001d0: 8051 9e3e 101c d63e f5e0 853d 2ef0 4f3e
000001e0: 5ec8 dcbe bd0b 283f dae1 003f 734c 7cbf
000001f0: 7c94 b3bd 6ead ea3e a266 bdbe 1bcd 97bd
00000200: 08f6 9bbc 66dc 24be c767 473e ed83 2bbe
00000210: d2f5 c33e 40d9 65bd 068c 0b3e d20a 7c3e
00000220: b11e 1cbe d54b 9dbd 71eb 133e e838 003f
00000230: ff25 113f 8fea c73e f9ea 42bf 58cd bbbe
00000240: b5dc b93f 6ef0 fcbc 61b8 be3d 9023 06bc
00000250: 6e72 72be c2d7 15bf d35c c03e 58cf 143e
00000260: cdaa c03d aa8f 623e 26b9 68bd df24 81bd
00000270: 6458 8b3f 1279 3dbe 29e4 203e 2bf6 fb3e
00000280: 117e a5bd 0397 4a3e 2cd9 893e 4642 38be
00000290: 0973 f63c ce67 4f3d c0d2 abbe a5e9 d7be
000002a0: c6ab 9ebe 6635 97bd ce13 7abe defd c03e
000002b0: 4101 053f e8c4 b43d d345 16be 5940 86be
000002c0: c051 01be 2d30 1dbf c52e 0e3f 5e03 253e
000002d0: eee9 1cbd fef3 1fbe 4a08 bebe 7bdf 553e
000002e0: b14d bebe 9b13 6e3e 784c 483e 0dc1 943e
000002f0: 9568 293e 1ca8 63be 1b97 8f3e b2b1 cc3d
00000300: b50a e0bc 58b3 d23d e214 003d 2d8c 6e3e
00000310: f84b 4c3e b6d3 c53d e5d3 313e b2d2 573e
00000320: 17fe b5bd cf97 8ebc 9754 8cbe 8fac e23e
00000330: 4bd7 0f3f 33be b93e af27 04bf 8fb1 ddbe
00000340: 1a17 a83f 4ac8 02be ce73 60be 5a59 42be
00000350: bb57 843d 9912 05bf 99c4 713e ffe2 573e
00000360: 290c 57bd 5c51 dd3e e426 393e 5d54 10bd
00000370: 9d79 103f 70f6 993c 946b c13d 3f71 0ebe
00000380: f7d0 1cbe 90c9 a43e debe 493e 4060 aabe
00000390: 1eff 78be 941b 233e 4f24 d03d d538 babe
000003a0: 9e29 e8bc f72c dc3d 659a a4be c2ff 193e
000003b0: 38f7 24bf b96d cdbd 9f0d c7bd 1350 6fbe
000003c0: 221e b2bb 202e 27bf 52b8 123f ba75 debb
000003d0: 438f c2bd bb0c debd 7fd1 993c 562d a13e
000003e0: 665c 81be 4568 4c3e fa7d 683e 5364 223e
000003f0: 5dc9 b63e 3e21 96be 1149 ab3e e25c dd3d

lstm.bias_ih_l0 f4 [256]
-2.207967 -0.61403066 -1.7918607 -1.4262774 -0.8135327 -0.400371 -1.8377305 -2.1758492
-2.308605 2.0371969 -1.9219986 0.16049963 -0.6822549 -1.341788 -1.2812588 -1.1738466
1.5162184 -1.828574 -1.7427386 -1.7422316 -1.9701557 -1.0572942 -1.5560645 -1.4663192
-1.401499 0.6618254 -0.41054788 -1.0420463 -0.20396858 -1.0061798 -1.6705778 0.96864176
-0.8348925 0.053976357 -1.9946859 -1.4348656 -1.8444533 -1.9764638 -1.4988481 -1.0304056
-1.7588842 -1.9015859 0.003908992 0.200546 2.1888902 -1.4096003 -1.7222084 -1.7266408
-1.1950438 -0.37301442 -0.6171219 -1.6317497 -1.4321418 -0.69676477 -1.4805037 -0.8006503
-0.7573401 2.3551307 -1.3475701 -0.99094695 -0.9631164 -1.3134848 -1.9255445 -1.6886926
-1.2151431 -1.8667222 -1.3467643 -0.85856086 -1.7405211 -1.9793533 -0.99169296 -1.6153508
-1.0282227 -2.136225 -1.4420086 -2.1191425 -0.99360275 -1.1961557 -0.24939534 -2.0885336
0.13784352 -1.0479742 -1.0066253 -1.3493755 -1.1702442 -1.2873495 -1.4087168 -1.0457796
-1.6869553 -0.5754499 -1.2471119 -1.524504 -1.4462434 -1.8574462 -0.89507574 1.6293837
-2.138109 -2.8380153 -0.66827327 -1.4147984 -1.1814327 -0.9961818 -1.668689 -0.7591351
-1.0296057 -1.450437 -1.3150787 -1.3630103 -1.4336406 -1.3666449 -1.4800011 -1.1907881
-1.6740329 -0.9288953 -1.5660965 -1.2728935 -1.8743796 -1.8382914 -1.6949143 -1.8249516
-1.8045357 -0.97521466 -0.9813861 -1.9987553 -2.1492114 -1.3820659 -1.8788309 -1.3557286
-0.09382478 -0.5890339 -0.017875934 0.18968152 -0.7583833 -0.52016693 0.009492292 -0.07806197
0.052216355 -0.25617394 0.2540364 -0.6152535 -0.9181179 -0.23936158 0.59230113 0.019162131
-2.1813717 0.22232914 -0.038494557 -0.39230987 -0.2123466 0.8130655 -0.23665729 -0.1477558
0.5131617 -0.34314883 0.095932536 0.763886 -1.2312875 0.41429088 0.25669497 -0.2296975
0.70087457 -0.8973157 0.06402857 0.042787585 0.19197199 -0.101800635 0.653652 1.324463
0.16820957 -0.66851306 0.73472023 -0.32287094 0.30738926 0.31129363 0.383656 0.05740661
0.62674713 0.9182568 -0.89042956 0.35307765 0.61064297 0.31227 0.8001224 -1.3508791
0.5519456 -0.3257726 0.07714874 -0.6724502 -1.343017 0.66001487 -0.45985362 -0.5035273
-2.1025343 -1.2979734 -1.866709 -1.661406 -1.3583854 -1.3140516 -1.8267165 -2.2955732
-2.0669863 1.4444724 -1.71244 -1.067242 -2.3182805 -1.9296694 -1.0535034 -1.5351726
-0.46753487 -2.1870933 -2.063956 -2.0896387 -1.8629948 -1.6023992 -2.263673 -2.0242064
-1.9350377 0.043300584 -2.05661 -1.3025367 -0.59439534 -1.755595 -1.4945523 0.5940784
-0.96531653 -0.8908566 -1.4904457 -1.5793736 -2.0586076 -1.9395852 -1.7737571 -1.5373454
-1.9506097 -1.8745519 -1.7754661 0.58122957 2.479742 -1.6062261 -1.5393559 -1.7586161
-1.8578175 -1.7609305 -1.7744718 -1.8223726 -1.6420012 -2.0801303 -1.802728 -1.5370544
-1.7644216 1.7998687 -1.4290779 -1.651466 -1.6934915 -1.995694 -2.2011943 -1.5736802
00000000: 554f 0dc0 1d31 1dbf b15b e5bf 4290 b6bf
00000010: ae43 50bf 6dfd ccbe c13a ebbf 1d41 0bc0
00000020: 2fc0 13c0 6f61 0240 0d04 f6bf 045a 243e
00000030: 42a8 2ebf b6bf abbf 4a00 a4bf 9b40 96bf
00000040: 7213 c23f b60e eabf 0f12 dfbf 7201 dfbf
00000050: 102e fcbf 6b55 87bf 1f2d c7bf 59b0 bbbf
00000060: 5264 b3bf 646d 293f 5533 d2be c661 85bf
00000070: 24dd 50be 80ca 80bf 7ed5 d5bf e8f8 773f
00000080: 84bb 55bf 5016 5d3d de51 ffbf ada9 b7bf
00000090: 0c17 ecbf c4fc fcbf 41da bfbf 55e4 83bf
000000a0: 1e23 e1bf 2b67 f3bf 0017 803b ee5b 4d3e
000000b0: c716 0c40 c86d b4bf 5371 dcbf 9102 ddbf
000000c0: 32f7 98bf bffb bebe b3fb 1dbf 2ddd d0bf
000000d0: 6c50 b7bf 2d5f 32bf 2581 bdbf 6bf7 4cbf
000000e0: 0ae1 41bf 76ba 1640 2d7d acbf b3ae 7dbf
000000f0: cc8e 76bf 4520 a8bf 3e78 f6bf 1427 d8bf
00000100: cf89 9bbf c1f0 eebf c662 acbf a5ca 5bbf
00000110: 65c9 debf 735b fdbf 97df 7dbf d1c3 cebf
00000120: cd9c 83bf e9b7 08c0 bd93 b8bf 08a0 07c0
00000130: c05c 7ebf a11b 99bf 7e61 7fbe 89aa 05c0
00000140: da26 0d3e 0524 86bf 19d9 80bf 56b8 acbf
00000150: 90ca 95bf dec7 a4bf d550 b4bf 1bdc 85bf
00000160: 27ee d7bf af50 13bf 5da1 9fbf f222 c3bf
00000170: 811e b9bf ccc0 edbf af23 65bf a58f d03f
00000180: c7d6 08c0 0ba2 35c0 f513 2bbf 1d18 b5bf
00000190: 3039 97bf c505 7fbf 9a97 d5bf ae56 42bf
000001a0: 1fca 83bf eba7 b9bf 8054 a8bf 1f77 aebf
000001b0: 8981 b7bf 38ee aebf ad70 bdbf bf6b 98bf
000001c0: b646 d6bf 15cc 6dbf da75 c8bf 2dee a2bf
000001d0: aceb efbf 224d ebbf f4f2 d8bf 0498 e9bf
000001e0: 07fb e6bf aba7 79bf 1f3c 7bbf 37d7 ffbf
000001f0: ae8c 09c0 89e7 b0bf 887d f0bf 8488 adbf
00000200: 3527 c0bd edca 16bf 8d70 92bc df3b 423e
00000210: 6825 42bf a929 05bf 8f85 1b3c f4de 9fbd
00000220: d1e0 553d 3b29 83be 0f11 823e 4181 1dbf
00000230: c609 6bbf 341b 75be 0ca1 173f e7f9 9c3c
00000240: 989b 0bc0 40aa 633e 78ac 1dbd d7dc c8be
00000250: 6371 59be 1025 503f 4a56 72be 4c4d 17be
00000260: 915e 033f 34b1 afbe 4778 c43d 088e 433f
00000270: d49a 9dbf ef1d d43e 866d 833e d235 6bbe
00000280: 846c 333f 7bb6 65bf 6921 833d 0942 2f3d
00000290: 4e94 443e da7c d0bd bd55 273f 0188 a93f
000002a0: 213f 2c3e ac23 2bbf a016 3c3f 574f a5be
000002b0: 2062 9d3e e161 9f3e 8f6e c43e 3223 6b3d
000002c0: 8072 203f e112 6b3f 31f3 63bf 98c6 b43e
000002d0: 1953 1c3f dae1 9f3e d2d4 4c3f 9be9 acbf
000002e0: 4f4c 0d3f abcb a6be 2900 9e3d b225 2cbf
000002f0: fbe7 abbf bcf6 283f ef71 ebbe 2ae7 00bf
00000300: ec8f 06c0 fe23 a6bf 52f0 eebf f4a8 d4bf
00000310: 93df adbf d832 a8bf d9d1 e9bf acea 12c0
00000320: 8149 04c0 79e4 b83f 3c31 dbbf 639b 88bf
00000330: b55e 14c0 68ff f6bf 33d9 86bf 8980 c4bf
00000340: bb60 efbe 56f9 0bc0 db17 04c0 a4bc 05c0
00000350: 9d76 eebf 6b1b cdbf 05e0 10c0 998c 01c0
00000360: 51af f7bf f45b 313d 809f 03c0 86b9 a6bf
00000370: 4b2a 18bf 56b7 e0bf 7d4d bfbf 8615 183f
00000380: fc1e 77bf 2e0f 64bf edc6 bebf ea28 cabf
00000390: 3ac0 03c0 5444 f8bf 790a e3bf bcc7 c4bf
000003a0: 94ad f9bf 51f1 efbf 7942 e3bf 76cb 143f
000003b0: 18b4 1e40 d198 cdbf 9d09 c5bf 551a e1bf
000003c0: f7cc edbf 2c66 e1bf e421 e3bf 8143 e9bf
000003d0: 182d d2bf db20 05c0 cbbf e6bf 33be c4bf
000003e0: 91d8 e1bf 1962 e63f 06ec b6bf 3d63 d3bf
000003f0: 54c4 d8bf e772 ffbf 5ee0 0cc0 5a6e c9bf

lstm.bias_hh_l0 f4 [256]
-2.3394778 -0.77455956 -1.779538 -1.6129491 -0.8069645 -0.24974509 -1.9518763 -1.9941432
-2.3935683 2.011145 -1.820628 0.022080429 -0.6878511 -1.1952717 -1.4334748 -1.3404392
1.5374491 -1.9031541 -1.8750314 -1.7713466 -1.8842697 -1.1335732 -1.597763 -1.621128
-1.4019327 0.49884886 -0.5246317 -1.0807095 -0.29397374 -0.87195724 -1.6021721 0.8432889
-0.78195906 -0.020708201 -1.9222965 -1.219175 -1.9399369 -1.9853 -1.5841938 -1.0575131
-1.9378271 -1.9814821 0.10376627 0.21895555 2.1759894 -1.5176587 -1.7146217 -1.827974
-1.3260286 -0.3850396 -0.6419255 -1.702751 -1.486675 -0.8665809 -1.3191301 -0.79509336
-0.6875771 2.3592248 -1.5586022 -0.8004645 -1.012855 -1.4165183 -1.8779216 -1.7462821
-1.0775859 -1.7775687 -1.2839606 -0.9895149 -1.8258451 -1.9324663 -1.120974 -1.584952
-1.0583696 -2.1384761 -1.226139 -2.0434666 -1.0873855 -1.0516437 -0.35197756 -2.222613
0.18455374 -0.9965238 -1.1268747 -1.5035267 -1.1386583 -1.0964141 -1.401348 -0.9483242
-1.6024567 -0.73095864 -1.3940734 -1.5164783 -1.4985522 -1.9735117 -0.9595315 1.39389
-2.1126573 -2.6604207 -0.844722 -1.2560405 -1.0617213 -1.2062417 -1.8599422 -0.8209268
-1.0632721 -1.5007159 -1.4183884 -1.3692018 -1.3783771 -1.2487481 -1.3741192 -1.1409453
-1.5642581 -0.9963569 -1.5402522 -1.4744517 -1.7952614 -1.7817137 -1.7348204 -1.6503766
-1.6907192 -0.9837327 -1.0007645 -1.9224839 -2.052534 -1.3997873 -1.7834902 -1.3488061
-0.032193433 -0.8088148 -0.024116574 0.10940277 -0.97910225 -0.46336257 0.16173616 -0.09560196
-0.054012526 -0.19672336 0.43326738 -0.62397593 -0.8366848 -0.43751284 0.69616127 0.15821236
-2.1132097 0.23300117 -0.04901639 -0.28572991 -0.08558925 0.9255285 -0.28606552 -0.22947046
0.46253195 -0.43086457 -0.022582503 0.9383222 -1.3444057 0.48245957 0.23794076 -0.30369246
0.8777696 -1.0665479 0.062756024 -0.027620055 0.02630597 -0.24389488 0.8610191 1.322167
0.028282128 -0.629446 0.6734061 -0.2645419 0.22515398 0.18131533 0.3098264 0.054338694
0.64060235 0.8741719 -0.93239766 0.38201702 0.77159077 0.30980116 0.7470832 -1.4937719
0.69426996 -0.37716028 0.15493158 -0.5311166 -1.4569808 0.5173003 -0.6597764 -0.32185996
-2.1588764 -1.4314556 -1.7687356 -1.5457833 -1.4743501 -1.4795973 -1.9006449 -2.2409549
-2.0560129 1.4217409 -1.8158514 -0.9154526 -2.3062432 -1.8572633 -0.91043824 -1.7360982
-0.4881704 -2.1624699 -1.8740492 -1.9994882 -1.7729412 -1.715752 -2.3117874 -2.1088219
-1.7654701 0.162471 -1.8487254 -1.4340804 -0.5884227 -1.6217985 -1.6114479 0.63660717
-0.95711935 -0.86668324 -1.4208697 -1.7402489 -1.9728125 -1.8795018 -1.7264062 -1.6587825
-1.9598286 -1.823762 -1.7721812 0.46313483 2.4540467 -1.529018 -1.7533103 -1.5622171
-1.7762276 -1.5881476 -1.744133 -1.797938 -1.4893034 -2.1066997 -1.9085318 -1.4252793
-1.6018528 1.8150045 -1.4001882 -1.704913 -1.7688911 -1.9970822 -2.3259602 -1.5345678
00000000: 01ba 15c0 8949 46bf e7c7 e3bf 1e75 cebf
00000010: 3a95 4ebf 2dbd 7fbe 15d7 f9bf 1640 ffbf
00000020: 3930 19c0 9ab6 0040 570a e9bf 04e2 b43c
00000030: 0217 30bf aafe 98bf 1a7c b7bf 8393 abbf
00000040: 22cb c43f 8e9a f3bf 0701 f0bf 7cbb e2bf
00000050: c02f f1bf ed18 91bf 7f83 ccbf 1f81 cfbf
00000060: 8872 b3bf 1e69 ff3e 434e 06bf b054 8abf
00000070: ba83 96be 9738 5fbf fa13 cdbf c8e1 573f
00000080: 782e 48bf 3fa4 a9bc d00d f6bf ed0d 9cbf
00000090: da4f f8bf 4f1e febf ddc6 cabf 975c 87bf
000000a0: b80a f8bf 35a1 fdbf 6983 d43d e235 603e
000000b0: 6943 0b40 a442 c2bf b978 dbbf 0dfb e9bf
000000c0: 4ebb a9bf e923 c5be 3b55 24bf bff3 d9bf
000000d0: 5e4b bebf 3fd8 5dbf 41d9 a8bf 3d8b 4bbf
000000e0: 0e05 30bf 8afd 1640 4780 c7bf 3eeb 4cbf
000000f0: 3ca5 81bf 7950 b5bf bc5f f0bf 2c86 dfbf
00000100: 56ee 89bf 5f87 e3bf d258 a4bf d950 7dbf
00000110: 4bb5 e9bf 0e5b f7bf 137c 8fbf b5df cabf
00000120: a878 87bf cbdc 08c0 1ff2 9cbf 28c8 02c0
00000130: 732f 8bbf 439c 86bf 6736 b4be 4b3f 0ec0
00000140: a8fb 3c3e 2f1c 7fbf 6e3d 90bf 9073 c0bf
00000150: 8ebf 91bf 4c57 8cbf 5f5f b3bf 60c5 72bf
00000160: 4d1d cdbf 1b20 3bbf ff70 b2bf f61b c2bf
00000170: 8fd0 bfbf 089c fcbf dba3 75bf fd6a b23f
00000180: c735 07c0 5544 2ac0 b33f 58bf efc5 a0bf
00000190: 7ce6 87bf 2166 9abf 9612 eebf 4228 52bf
000001a0: 4d19 88bf 7517 c0bf c08d b5bf 0142 afbf
000001b0: a96e b0bf fad6 9fbf 23e3 afbf 7f0a 92bf
000001c0: 9c39 c8bf 3f11 7fbf fc26 c5bf d5ba bcbf
000001d0: 20cb e5bf 320f e4bf 980e debf 8a3f d3bf
000001e0: 7d69 d8bf e8d5 7bbf 0d19 80bf f413 f6bf
000001f0: b85c 03c0 3b2c b3bf 6849 e4bf aea5 acbf
00000200: 43dd 03bd 7d0e 4fbf 1f90 c5bc 8f0e e03d
00000210: 72a6 7abf dc3d edbe 2a9e 253e f6ca c3bd
00000220: 3d3c 5dbd d971 49be 39d5 dd3e e3bc 1fbf
00000230: fa30 56bf af01 e0be a037 323f 6c02 223e
00000240: d43e 07c0 dc97 6e3e 69c5 48bd 314b 92be
00000250: 6b49 afbd 70ef 6c3f 2e77 92be 4efa 6abe
00000260: fdd0 ec3e 489a dcbe f1fe b8bc e235 703f
00000270: 7c15 acbf f104 f73e bea6 733e 947d 9bbe
00000280: 82b5 603f a484 88bf 3b86 803d 7443 e2bc
00000290: 9e7f d73c 94bf 79be bf6b 5c3f c53c a93f
000002a0: ecaf e73c 6023 21bf 5864 2c3f 0972 87be
000002b0: c48e 663e baaa 393e 91a1 9e3e 4092 5e3d
000002c0: 84fe 233f bbc9 5f3f 9db1 6ebf bc97 c33e
000002d0: f986 453f 429e 9e3e d840 3f3f eb33 bfbf
000002e0: adbb 313f 271b c1be 62a6 1e3e 42f7 07bf
000002f0: 597e babf cb6d 043f 1be7 28bf d4ca a4be
00000300: 082b 0ac0 f039 b7bf ee65 e2bf 3adc c5bf
00000310: 81b7 bcbf 7263 bdbf 5548 f3bf ce6b 0fc0
00000320: b795 03c0 9bfb b53f d26d e8bf 1a5b 6abf
00000330: 7d99 13c0 ceba edbf 7b12 69bf 7738 debf
00000340: 78f1 f9be e865 0ac0 d8e0 efbf 3bef ffbf
00000350: bdef e2bf c39d dbbf 53f4 13c0 f0f6 06c0
00000360: edfa e1bf cc5e 263e 09a3 ecbf f28f b7bf
00000370: dfa2 16bf 1897 cfbf ed43 cebf b0f8 223f
00000380: c605 75bf f4de 5dbf 0fdf b5bf 7ac0 debf
00000390: 1f85 fcbf 8493 f0bf e1fa dcbf fc52 d4bf
000003a0: aadb fabf 0971 e9bf d5d6 e2bf 0220 ed3e
000003b0: 1a0f 1d40 ddb6 c3bf 796c e0bf bbf6 c7bf
000003c0: 6d5b e3bf 6c48 cbbf c03f dfbf d522 e6bf
000003d0: 7ea1 bebf 2bd4 06c0 c54a f4bf 8d6f b6bf
000003e0: 8309 cdbf 1152 e83f 5e39 b3bf 973a dabf
000003f0: 066b e2bf 64a0 ffbf 88dc 14c0 b86c c4bf

lstm.weight_ih_l1 f4 [256, 64]
-0.04504456 -0.38371468 0.11721769 -0.25534263 0.12602247 -0.077379405 0.116217956 0.016308283
-0.12809873 -0.13140617 -0.24025717 0.33654928 0.78862476 0.7024323 -0.43673393 -0.30763528
1.6817273 -0.14863311 0.27659392 -0.045986675 -0.15763988 -0.4132399 0.035224926 0.08566744
-0.07734309 0.5146901 0.12045175 -0.09540091 0.495435 0.20461991 -0.002205786 0.14449643
-0.085609265 0.09670327 0.07857593 -0.16488212 -0.022083916 0.009914287 0.005983555 -0.32815838
-0.1463053 -0.18609065 -0.5064088 0.3483347 -0.045915857 -0.13518062 -0.057580613 0.086222164
-0.055876743 -0.5507832 0.59968805 -0.02074677 -0.2445798 -0.045287605 -0.08685969 0.31703958
-0.26201507 0.28398454 0.03253259 0.24337141 0.3207047 -0.3022217 0.09895079 0.03887866
-0.032829463 -0.044122383 0.13584965 0.044549145 0.28989094 -0.2602546 -0.097825 0.13057947
0.16598482 0.48824564 -0.032090917 0.32382792 0.2714188 0.501101 -0.41480634 -0.15206446
1.8163773 -0.16040154 0.11612491 -0.18928841 -0.0051635024 -0.64621204 0.3385073 -0.25968015
0.095582224 0.5487217 0.05693588 -0.0029304794 0.9049679 0.15940775 0.05402669 0.31305775
-0.24645661 0.04064349 0.11469038 -0.0693558 -0.011226253 0.114739984 -0.0921734 -0.40747082
-0.22783291 0.05564923 -0.2307383 0.1813836 -0.0749318 0.07265051 -0.1511761 -0.117693536
-0.29534987 -0.34809092 0.6317318 0.0758441 -0.015218086 -0.09982553 -0.31919742 0.15516265
-0.23043823 0.09581373 0.17697337 0.21733321 0.31488642 -0.0311593 0.21184438 0.070858814
-0.050223652 -0.1414282 0.2857639 -0.14220579 0.03217449 -0.2377616 -0.035076227 0.12677164
-0.07646495 -0.110214114 -0.14405796 0.488873 0.13892056 0.49458855 -0.52195466 -0.31238577
1.5761346 -0.18474841 0.074171424 -0.061585896 0.13589515 -0.41800278 0.07677554 -0.09576875
0.019329367 0.4560519 0.26723248 -0.15839979 0.71188974 0.3760807 0.183085 0.08492554
-0.2800841 0.31378067 0.018586243 -0.18709777 -0.09447053 0.05985922 -0.050863408 -0.5961569
-0.1574762 -0.21086422 -0.43387982 0.38454068 -0.0016296612 0.078249075 -0.21282813 0.06732793
-0.06448521 -0.40275156 0.45864972 0.03877779 0.01510905 -0.31399095 -0.32393014 0.196494
-0.3671207 0.29084432 0.11200339 0.35408917 0.38784358 -0.33761635 0.26561162 -0.03537918
0.054569148 -0.12528661 0.115209006 0.063608885 0.06931319 0.049738433 0.06951 0.08459832
0.058281843 0.19593559 -0.11223397 0.326996 0.54486614 0.41397595 -0.41776055 -0.36970332
1.2532811 -0.25592875 0.063245125 -0.040850583 -0.034561753 -0.32755086 0.44479457 0.29462686
0.11223809 0.33365852 0.2502354 0.124531165 0.7108514 0.24668926 0.01729646 -0.22347292
-0.10318954 0.15527481 0.2830478 -0.3291141 -0.062339693 -0.035580378 0.01746293 -0.43042663
-0.16832931 0.17085491 -0.24589168 0.0011019597 0.111371964 0.0032906635 -0.18496895 -0.28632808
-0.07028054 -0.36376947 0.53679407 -0.038860884 -0.19656153 -0.3348395 -0.17213957 0.38254723
-0.3966007 0.17573717 0.3322211 0.35904756 0.30234602 -0.36606905 0.32052153 -0.1500555
00000000: a580 38bd 4076 c4be d40f f03d 45bc 82be
00000010: 090c 013e 1879 9ebd ae03 ee3d f398 853c
00000020: 502c 03be 578f 06be fa05 76be 3050 ac3e
00000030: 50e3 493f 9ad2 333f 979b dfbe 5f82 9dbe
00000040: d742 d73f 4733 18be b89d 8d3e 865c 3cbd
00000050: 596c 21be 2e94 d3be 0348 103d 6972 af3d
00000060: 0e66 9ebd bbc2 033f 68af f63d 8d61 c3bd
00000070: a8a9 fd3e e287 513e f38e 10bb dff6 133e
00000080: e953 afbd 5d0c c63d 6bec a03d dcd6 28be
00000090: 54e9 b4bc 896f 223c b311 c43b 6004 a8be
000000a0: 0ed1 15be 8c8e 3ebe 02a4 01bf ed58 b23e
000000b0: 4412 3cbd ca6c 0abe a6d9 6bbd 3f95 b03d
000000c0: 03df 64bd 2100 0dbf 2885 193f 21f5 a9bc
000000d0: 2173 7abe 7f7f 39bd 7ee3 b1bd 0353 a23e
000000e0: d726 86be 6c66 913e e540 053d 5b36 793e
000000f0: 6833 a43e cdbc 9abe b6a6 ca3d 3b3f 1f3d
00000100: 3078 06bd acb9 34bd 2c1c 0b3e 2a79 363d
00000110: 966c 943e 1740 85be 7958 c8bd a0b6 053e
00000120: edf7 293e 55fb f93e c471 03bd c6cc a53e
00000130: 68f7 8a3e 2848 003f 7f61 d4be c9b6 1bbe
00000140: 0d7f e83f 4d40 24be e6d2 ed3d d2d4 41be
00000150: 9932 a9bb 276e 25bf d450 ad3e ccf4 84be
00000160: 9dc0 c33d 0679 0c3f 9935 693d 490d 40bb
00000170: faab 673f c93b 233e 174b 5d3d 1b49 a03e
00000180: 1f5f 7cbe ca79 263d cae2 ea3d 6a0a 8ebd
00000190: 51ee 37bc ccfc ea3d 68c5 bcbd 04a0 d0be
000001a0: 084d 69be 72f0 633d a946 6cbe 9fbc 393e
000001b0: d875 99bd cac9 943d e8cd 1abe 4f09 f1bd
000001c0: 1938 97be f938 b2be 2db9 213f 2754 9b3d
000001d0: 4755 79bc 5471 ccbd d86d a3be f5e2 1e3e
000001e0: 00f8 6bbe fd39 c43d 8238 353e 998c 5e3e
000001f0: cb38 a13e ca41 ffbc bced 583e 6d1e 913d
00000200: 51b7 4dbd 8ed2 10be a54f 923e 659e 11be
00000210: 66c9 033d c777 73be 17ac 0fbd 6dd0 013e
00000220: a899 9cbd f0b7 e1bd ee83 13be 904d fa3e
00000230: 3141 0e3e b63a fd3e d29e 05bf 07f1 9fbe
00000240: c7be c93f b02e 3dbe 30e7 973d 7e41 7cbd
00000250: 1928 0b3e 7604 d6be 7f3c 9d3d 6822 c4bd
00000260: 9f58 9e3c a27f e93e b2d2 883e 8e33 22be
00000270: 683e 363f a68d c03e a27a 3b3e 71ed ad3d
00000280: 2f67 8fbe dca7 a03e 2d42 983c 8f96 3fbe
00000290: c479 c1bd f12e 753d 2656 50bd bd9d 18bf
000002a0: 7141 21be caec 57be 7f25 debe 84e2 c43e
000002b0: 5b9a d5ba 0d41 a03d 9eef 59be 3ae3 893d
000002c0: d210 84bd 7435 cebe 23d4 ea3e 76d5 1e3d
000002d0: f38b 773c 6cc3 a0be 2cda a5be b935 493e
000002e0: 3ff7 bbbe 8ce9 943e 0962 e53d 2d4b b53e
000002f0: 6f93 c63e 0ddc acbe 3ffe 873e c2e9 10bd
00000300: e683 5f3d 224b 00be b3f2 eb3d 6045 823d
00000310: 13f4 8d3d 87ba 4b3d 425b 8e3d e241 ad3d
00000320: f1b8 6e3d 57a3 483e ecda e5bd 056c a73e
00000330: 597c 0b3f a8f4 d33e b6e4 d5be c149 bdbe
00000340: 846b a03f 1809 83be a986 813d f152 27bd
00000350: a090 0dbd bfb4 a7be 1dbc e33e 55d9 963e
00000360: 15dd e53d 4ad5 aa3e db1e 803e 320a ff3d
00000370: 5bfa 353f 1c9c 7c3e 4eb1 8d3c 16d6 64be
00000380: 0a55 d3bd 5c00 1f3e a4eb 903e a581 a8be
00000390: e857 7fbd bbbc 11bd 6b0e 8f3c e160 dcbe
000003a0: 855e 2cbe 97f4 2e3e 07cb 7bbe a26f 903a
000003b0: fc16 e43d 2ca8 573b 8068 3dbe 9899 92be
000003c0: 3eef 8fbd fe3f babe 566b 093f 972c 1fbd
000003d0: 6d47 49be 1570 abbe 5b45 30be 3bdd c33e
000003e0: 3f0f cbbe 72f4 333e e218 aa3e 15d5 b73e
000003f0: 19cd 9a3e 676d bbbe 661b a43e 26a8 19be

lstm.weight_hh_l1 f4 [256, 64]
-0.02293506 0.15715802 0.098066084 0.25051606 -0.31422535 0.03096814 0.063811444 0.038743347
0.01636218 0.16829228 -0.1778528 0.15857679 -0.091187306 -0.22743188 -0.06128506 0.35300833
-0.2977902 -0.20359707 0.054412585 -0.14020488 -0.32322502 0.36166605 0.014076453 0.13129348
0.06940255 -0.0722104 0.04549572 0.03659392 -0.25907597 -0.12861797 -0.012877028 -0.23045582
-0.024219584 0.12649423 0.21743266 0.2313951 0.17444743 -0.27951935 -0.021783866 -0.18637393
0.030311633 0.09296472 0.2187432 0.15168993 0.04405425 -0.44828317 -0.105892874 -0.17284526
-0.026408758 0.5258319 0.19217987 -0.0891008 -0.27637482 0.19467914 0.26003546 -0.17144844
0.28951272 -0.22824912 -0.14058878 0.04207372 0.16711216 -0.13878353 0.052669387 -0.2244069
-0.03471212 0.11043458 -0.018289724 0.1518468 -0.03758291 -0.053947896 0.14379288 -0.10511421
0.06094276 0.21447235 -0.18271472 0.2356544 -0.12365784 -0.24803865 -0.022297176 0.109284416
-0.15991731 -0.15798062 -0.14589179 0.017045068 -0.25973377 -0.12087095 -0.074314676 0.42078966
-0.3572769 -0.15925269 0.22994792 0.06502787 -0.07484281 -0.04163566 -0.10331061 -0.13712639
-0.0007633126 0.33605313 -0.026221836 0.09922318 0.023644043 -0.20410712 0.10630841 0.0025379984
0.16269837 -0.049542677 0.0013136528 0.31672505 0.23385446 -0.21160707 0.25085276 -0.076074
-0.07271315 -0.06579217 -0.12157626 0.028622549 -0.2823661 0.22998476 0.3004499 -0.38507202
0.39871156 -0.22411157 -0.17514476 -0.24091046 0.19556195 -0.06883402 -0.061222427 -0.34287822
-0.054831136 0.034850985 0.1386994 0.12813881 -0.31569186 0.065675154 -0.060016632 -0.04888634
-0.009599281 0.008946187 -0.17577666 -0.07155409 -0.036935437 -0.21672678 -0.06983009 0.35768476
-0.4213785 -0.27594262 -0.028219942 -0.14125104 -0.36131692 0.3352744 0.1645487 0.30074605
-0.062311128 -0.033426333 0.1125103 0.122250006 -0.29101735 -0.015266233 -0.11543507 -0.26456478
0.0051087234 0.15820771 0.076968856 0.023952436 0.15605853 -0.114499204 0.025700018 -0.0074889837
-0.11200528 -0.0038176074 0.04378431 0.19921996 0.024849448 -0.25850895 -0.2819899 0.04297974
0.013607338 0.18003727 0.041427583 0.042535737 -0.25898835 0.07268867 0.2702053 -0.2879168
0.3398962 -0.0901952 -0.22956125 -0.14652458 0.3298839 -0.038909 0.16476978 -0.35312623
0.15218861 0.28795758 0.19441207 0.063022316 -0.25563607 0.22914068 -0.02222185 -0.22589491
0.08139991 0.15243372 -0.09965389 -0.018040426 -0.15618125 -0.24799214 -0.018290518 0.15515782
-0.49772343 -0.12554343 -0.010399432 -0.1447232 -0.505617 -0.091870986 0.21606685 0.36301267
-0.67143965 -0.0654579 0.035540223 0.06935953 -0.41888013 -0.040321272 -0.25471804 -0.026595278
0.016972879 0.2352328 0.38916653 0.06943791 -0.100254975 -0.15826307 0.1027887 -0.42700946
-0.16646303 -0.36789787 0.07683048 0.3080335 -0.026004162 -0.40485123 0.13357754 -0.31399706
-0.062552914 -0.16702466 -0.09516946 0.25642762 -0.19501458 -0.05976843 0.5089633 -0.30364215
0.515401 0.041035872 0.13159618 0.014130799 0.27286854 -0.13654026 0.014639814 -0.13961598
00000000: 4fe2 bbbc 08ee 203e dfd6 c83d a443 803e
00000010: 25e2 a0be e6b0 fd3c 93af 823d 58b1 1e3d
00000020: fa09 863c d054 2c3e 0b1f 36be f461 223e
00000030: 69c0 babd e7e3 68be 0b06 7bbd 82bd b43e
00000040: f577 98be c07b 50be bbdf 5e3d de91 0fbe
00000050: c07d a5be 4b2c b93e eca0 663c cc71 063e
00000060: ed22 8e3d 0ce3 93bd b859 3a3d 82e3 153d
00000070: 9ba5 84be 6eb4 03be 2cfa 52bc 9cfc 6bbe
00000080: 2668 c6bc b487 013e aba6 5e3e d6f2 6c3e
00000090: 59a2 323e 291d 8fbe 1474 b2bc cfd8 3ebe
000000a0: 1a50 f83c 4a64 be3d 38fe 5f3e 9b54 1b3e
000000b0: 3b72 343d 5f85 e5be 5dde d8bd 59fe 30be
000000c0: 2e57 d8bc eb9c 063f cdca 443e 7b7a b6bd
000000d0: 0081 8dbe f859 473e 5e23 853e 2e90 2fbe
000000e0: 033b 943e 23ba 69be 81f6 0fbe 7e55 2c3d
000000f0: 731f 2b3e 451d 0ebe dbbb 573d ecca 65be
00000100: 4c2e 0ebd 862b e23d 55d4 95bc ba7d 1b3e
00000110: 8af0 19bd 78f8 5cbd 713e 133e 1e46 d7bd
00000120: 1e9f 793d a49e 5b3e 9119 3bbe 634f 713e
00000130: 5240 fdbd d8fd 7dbe 91a8 b6bc 82d0 df3d
00000140: 5dc1 23be acc5 21be a864 15be 19a2 8b3c
00000150: d3fb 84be 308b f7bd 4b32 98bd be71 d73e
00000160: ffec b6be 2313 23be 7877 6b3e 552d 853d
00000170: 3047 99bd 278a 2abd 8394 d3bd dc6a 0cbe
00000180: 0b19 48ba 280f ac3e 2dcf d6bc 8635 cb3d
00000190: 27b1 c13c 7501 51be 39b8 d93d 8c54 263b
000001a0: 679a 263e 43ed 4abd e02e ac3a c929 a23e
000001b0: 8b77 6f3e 86af 58be c66f 803e afcc 9bbd
000001c0: a2ea 94bd 0cbe 86bd f9fc f8bd d679 ea3c
000001d0: 4a92 90be 2081 6b3e 92d4 993e 2928 c5be
000001e0: ec23 cc3e 817d 65be 2659 33be 3bb1 76be
000001f0: 6441 483e daf8 8cbd 5ec4 7abd bc8d afbe
00000200: 9d96 60bd e8bf 0e3d 3707 0e3e d236 033e
00000210: 5da2 a1be b280 863d 00d4 75bd 0b3d 48bd
00000220: 4d46 1dbc 0793 123c ccfe 33be f38a 92bd
00000230: 9d49 17bd a0ed 5dbe 1403 8fbd 7522 b73e
00000240: ecbe d7be 5a48 8dbe 822d e7bc 1da4 10be
00000250: 88fe b8be 16a9 ab3e 747f 283e 63fb 993e
00000260: f439 7fbd 0dea 08bd cd6b e63d 365e fa3d
00000270: 3a00 95be 391f 7abc 3969 ecbd 0975 87be
00000280: 1467 a73b 3401 223e d9a1 9d3d e637 c43c
00000290: cfcd 1f3e 8f7e eabd d888 d23c 2666 f5bb
000002a0: 0663 e5bd d330 7abb 2d57 333d 5100 4c3e
000002b0: 1291 cb3c 495b 84be fb60 90be 860b 303d
000002c0: 50f1 5e3c b15b 383e f8af 293d f439 2e3d
000002d0: 1f9a 84be ccdd 943d 5958 8a3e d569 93be
000002e0: e006 ae3e 43b8 b8bd 1b12 6bbe 8a0a 16be
000002f0: 8be6 a83e 0b5f 1fbd 69b9 283e f6cc b4be
00000300: 55d7 1b3e 2d6f 933e f513 473e d811 813d
00000310: bbe2 82be dba3 6a3e 990a b6bc ff50 67be
00000320: ffb4 a63d 9617 1c3e 5717 ccbd 84c9 93bc
00000330: faed 1fbe a7f1 7dbe ffd5 95bc b1e1 1e3e
00000340: 9bd5 febe 758e 00be 6162 2abc 5232 14be
00000350: 1e70 01bf db26 bcbd a140 5d3e ccdc b93e
00000360: 78e3 2bbf cb0e 86bd a092 113d 5f0c 8e3d
00000370: 7577 d6be eb27 25bd 676a 82be 57de d9bc
00000380: b50a 8b3c dee0 703e d640 c73e 7735 8e3d
00000390: 7b52 cdbd b70f 22be e282 d23d fca0 dabe
000003a0: 4975 2abe 1c5d bcbe 4c59 9d3d 91b6 9d3e
000003b0: ae06 d5bc a948 cfbe 8dc8 083e 39c4 a0be
000003c0: be1b 80bd 8308 2bbe 35e8 c2bd 7b4a 833e
000003d0: e7b1 47be becf 74bd 6b4b 023f fc76 9bbe
000003e0: 52f1 033f 3b15 283d 26c1 063e de84 673c
000003f0: 6db5 8b3e 36d1 0bbe d5db 6f3c 7ef7 0ebe

lstm.bias_ih_l1 f4 [256]
-1.7910256 -1.9929426 -1.7319086 -2.0169983 -1.8271866 -1.9500008 -2.0932164 -1.7903348
-1.868057 -1.7568866 -2.0148456 -1.8510975 -1.4434729 -1.7859035 -1.855248 -1.1351624
-0.63622314 -1.9812078 -2.0440884 -2.0213 -1.8517605 -1.458851 -2.067683 -2.0888505
-0.46307102 -1.8257729 -2.0932992 -0.63953525 -1.9080882 -1.0583223 -1.0325419 -1.9585897
-1.8845779 -2.0235586 -1.6413319 -2.0011046 -1.306068 -2.0768964 -2.0391986 -1.9211334
-1.8867202 -1.021775 -2.0940888 -1.7324334 -1.9153583 -0.6556106 -1.1272215 -1.6351211
-2.1160312 -0.23932622 -2.026799 -1.8956407 -1.9761231 -0.9238325 -1.8614988 -1.9870806
-2.0193927 -1.8565284 -1.8589933 -1.8910015 -2.005837 -1.9867837 -1.2989547 -1.8967985
-1.2966721 -0.85683084 -1.4142324 -0.85611856 -1.1152645 -1.0004495 -0.8963347 -0.8739645
-0.9634896 -1.3836689 -0.90898883 -0.9615629 -1.4797717 -1.1465981 -0.8238713 -0.98427236
0.14170966 -1.0159565 -1.1207526 -0.85374904 -0.90128773 -0.58597004 -0.85287315 -1.2202538
-0.28018722 -0.91457605 -1.010316 -0.6863528 -0.8568653 -1.7132199 -0.4944347 -1.0372021
-1.0302761 -0.9129314 -0.12043133 -0.9253482 -0.52320886 -1.0227423 -0.9944781 -0.9058831
-0.8361844 -0.053353094 -0.8855178 -1.0328262 -0.78691083 -2.0891302 -0.26973966 -1.4185766
-0.9642552 -0.22786176 -0.93247414 -0.8286344 -0.84370786 -0.86441404 -0.96561414 -1.1180081
-1.3933233 -1.1237117 -0.9440731 -0.96557045 -1.0835932 -1.1069623 -1.627701 -1.0906262
-0.0011110791 -0.0021323117 0.07781893 -0.04778771 -0.096484505 -0.060075443 0.08849899 0.027577845
0.05230859 0.063630655 -0.08541837 0.06141937 0.011056648 -0.060407866 0.0068723317 0.015473754
-0.20968153 -0.015713122 0.040533487 -0.0031351468 0.06598179 0.07074541 0.012042793 0.07470718
-0.10851743 0.07899922 -0.08181135 -0.1472037 0.05750651 0.0076111546 0.037451442 -0.046326697
-0.0144814905 0.03792782 0.14978309 0.008077102 -0.02339689 -0.042253252 -0.007449684 -0.1021281
0.016645836 -0.0989026 0.009266825 0.07496464 0.053850934 -0.15079308 0.15120563 -0.092467576
-0.06544908 0.030257653 -0.12980391 0.021822829 0.052794486 -0.18063134 -0.024015699 0.033300277
0.07289242 0.05835041 0.0009489318 -0.008008296 -0.025366835 -0.02445521 0.042812422 0.061407655
-1.7578833 -2.026494 -1.5945122 -2.0810618 -1.7036488 -1.8670092 -1.9599557 -1.8851405
-1.9473366 -1.6688821 -1.9149333 -1.8458848 -1.3540522 -1.8557862 -1.8158774 -1.1175861
-0.19883978 -1.9577383 -1.8933288 -1.8696722 -1.9299039 -1.2365412 -1.9553806 -2.1452827
-0.56905097 -1.9243319 -1.832791 -0.50021535 -1.8536314 -1.171108 -1.0437526 -1.8588755
-1.9209297 -1.9266304 -1.8283333 -2.0058792 -1.2362887 -1.8615992 -1.9040422 -1.9072618
-1.9212495 -1.0385308 -2.0613844 -1.701377 -1.968198 -0.62998134 -0.43358412 -1.5614672
-1.9281139 0.15105039 -1.8418356 -2.1179397 -2.0179298 -0.8603257 -1.9102607 -1.9513892
-2.1658845 -1.7891897 -1.8271791 -1.9171629 -1.8563968 -1.8911252 -1.3411189 -1.9957582
00000000: 5440 e5bf be18 ffbf 2eaf ddbf 8016 01c0
00000010: 40e1 e9bf a099 f9bf 42f7 05c0 b129 e5bf
00000020: 7e1c efbf a9e1 e0bf 3bf3 00c0 c3f0 ecbf
00000030: b8c3 b8bf 7c98 e4bf c478 edbf 004d 91bf
00000040: 85df 22bf 3898 fdbf 58d2 02c0 fb5c 01c0
00000050: 7d06 edbf a1bb babf eb54 04c0 baaf 05c0
00000060: a517 edbe edb2 e9bf 9df8 05c0 95b8 23bf
00000070: 3c3c f4bf 1b77 87bf 552a 84bf 11b3 fabf
00000080: d939 f1bf fc81 01c0 2a17 d2bf 1912 00c0
00000090: 3c2d a7bf dfeb 04c0 3b82 02c0 b3e7 f5bf
000000a0: 0c80 f1bf 86c9 82bf 8d05 06c0 61c0 ddbf
000000b0: 762a f5bf 19d6 27bf cb48 90bf a64b d1bf
000000c0: 0e6d 07c0 ef11 75be 13b7 01c0 5ba4 f2bf
000000d0: 9af1 fcbf 4980 6cbf 9845 eebf a858 febf
000000e0: bb3d 01c0 b9a2 edbf 7ef3 edbf 560c f2bf
000000f0: a25f 00c0 ee4e febf 2644 a6bf 4bca f2bf
00000100: 5af9 a5bf 4459 5bbf 9105 b5bf 962a 5bbf
00000110: fdc0 8ebf bb0e 80bf 3176 65bf 23bc 5fbf
00000120: 41a7 76bf 101c b1bf 7eb3 68bf fc28 76bf
00000130: 2969 bdbf bac3 92bf 3be9 52bf 46f9 7bbf
00000140: 561c 113e dd0a 82bf d274 8fbf 4c8f 5abf
00000150: cbba 66bf 2202 16bf e555 5abf 4731 9cbf
00000160: b374 8fbe a821 6abf 0952 81bf d1b4 2fbf
00000170: 865b 5bbf ca4a dbbf 8c26 fdbe 0ac3 84bf
00000180: 16e0 83bf dfb5 69bf b3a4 f6bd 9fe3 6cbf
00000190: 04f1 05bf 38e9 82bf 1e96 7ebf f4e7 67bf
000001a0: 2e10 56bf c688 5abd 4bb1 62bf a633 84bf
000001b0: fd72 49bf 4fb4 05c0 511b 8abe eb93 b5bf
000001c0: 6ed9 76bf 9854 69be a0b6 6ebf 6221 54bf
000001d0: 3dfd 57bf 3d4a 5dbf 7d32 77bf e41a 8fbf
000001e0: 6b58 b2bf c9d5 8fbf c6ae 71bf a02f 77bf
000001f0: 2fb3 8abf f1b0 8dbf 8258 d0bf a499 8bbf
00000200: a1a1 91ba 41be 0bbb 885f 9f3d 0cbd 43bd
00000210: ab99 c5bd ab11 76bd f53e b53d efea e13c
00000220: 8841 563d ca50 823d d4ef aebd e192 7b3d
00000230: f126 353c 3d6e 77bd 4c31 e13b a185 7d3c
00000240: c1b6 56be ceb8 80bc 7106 263d 0977 4dbb
00000250: 7621 873d f8e2 903d 234f 453c 1400 993d
00000260: 633e debd 58ca a13d b68c a7bd 91bc 16be
00000270: f28b 6b3d fe66 f93b af66 193d 10c1 3dbd
00000280: c643 6dbc 345a 1b3d bd60 193e d255 043c
00000290: d6aa bfbc bf11 2dbd 7b1c f4bb 8a28 d1bd
000002a0: d95c 883c 728d cabd e2d3 173c 1087 993d
000002b0: cc92 5c3d 8069 1abe a6d5 1a3e a45f bdbd
000002c0: 2b0a 86bd e6de f73c 51eb 04be cac5 b23c
000002d0: 083f 583d 6cf7 38be 92bc c4bc df65 083d
000002e0: 9f48 953d d700 6f3d bcc1 783a 3a35 03bc
000002f0: 1cce cfbc 4b56 c8bc 145c 2f3d 9886 7b3d
00000300: 5202 e1bf 14b2 01c0 fa18 ccbf 1e30 05c0
00000310: 2a11 dabf 28fa eebf d4df fabf 494c f1bf
00000320: 5342 f9bf ee9d d5bf 891c f5bf f445 ecbf
00000330: 9551 adbf 678a edbf ac6e e8bf 100d 8fbf
00000340: a89c 4bbe 2b97 fabf 9958 f2bf 6b51 efbf
00000350: 1707 f7bf fb46 9ebf e949 fabf 504c 09c0
00000360: 53ad 11bf 8250 f6bf e598 eabf 1d0e 00bf
00000370: cb43 edbf dee6 95bf af99 85bf a2ef edbf
00000380: 06e1 f5bf d39b f6bf d306 eabf 5360 00c0
00000390: b53e 9ebf e248 eebf a8b7 f3bf 2821 f4bf
000003a0: 81eb f5bf 94ee 84bf b9ed 03c0 b9c6 d9bf
000003b0: e9ed fbbf 7546 21bf bdfe ddbe 28de c7bf
000003c0: 70cc f6bf f4ac 1a3e 45c1 ebbf 538c 07c0
000003d0: c325 01c0 4e3e 5cbf 6c83 f4bf 1fc7 f9bf
000003e0: da9d 0ac0 2b04 e5bf 01e1 e9bf 9865 f5bf
000003f0: 699e edbf 6410 f2bf c9a9 abbf 0175 ffbf

lstm.bias_hh_l1 f4 [256]
-1.7832062 -1.8648465 -1.7156577 -2.020226 -1.7669461 -1.9938493 -1.8535894 -1.9908458
-1.9286535 -1.7858104 -1.8918484 -1.7986909 -1.197429 -1.7438397 -1.9062941 -1.1910565
-0.56093186 -1.8492918 -2.0569634 -1.9236882 -2.021926 -1.4990381 -2.0182364 -2.082551
-0.53063667 -1.9465255 -2.0816505 -0.59970444 -1.8819077 -1.1333996 -0.9907405 -2.0077693
-1.8969954 -2.0537562 -1.7866836 -2.0819418 -1.3115134 -1.9289739 -2.0299635 -1.8958393
-2.0957599 -0.8719124 -1.9641808 -1.539534 -1.8629899 -0.79021996 -1.2137946 -1.7971985
-1.9292891 -0.28917497 -2.1643426 -1.895435 -1.9155254 -0.83431166 -2.0321996 -1.9199495
-2.0388384 -1.7681454 -1.8118598 -1.9814842 -1.8554528 -2.0937579 -1.2597666 -1.8886107
-1.2167695 -0.8231703 -1.4864792 -0.9150505 -1.2613822 -0.9792857 -0.90704125 -0.7492872
-0.9460327 -1.34146 -0.8831403 -1.0731772 -1.3257049 -1.2130721 -0.90498286 -0.98934853
0.0941747 -0.990252 -1.1691945 -0.9347266 -0.88911813 -0.7931099 -0.8765345 -1.0293969
-0.37813595 -0.87147725 -0.8619179 -0.545471 -0.99864984 -1.699084 -0.6138774 -0.8855566
-0.8858066 -1.0858837 -0.31099564 -0.728288 -0.44601414 -1.0079525 -0.92911637 -0.9347755
-0.7733464 -0.0063833906 -0.8960263 -1.2186816 -0.8679891 -1.9865667 -0.19361427 -1.4575783
-0.88507867 -0.21931079 -0.8499671 -0.863281 -0.8578425 -0.95296067 -0.90407723 -0.9860414
-1.3559941 -1.1029519 -0.973735 -0.8890631 -1.0858098 -0.9573411 -1.4944732 -0.9432399
-0.06274359 0.024380479 -0.08851134 0.07890656 0.0056234286 0.049174715 -0.0762765 -0.006813382
0.006060363 -0.026612166 0.06724432 -0.11347855 0.04258299 0.06126518 -0.06959 0.0697582
-0.003006997 0.03768096 -0.05880299 0.027354715 -0.10835859 -0.063730136 0.059206437 -0.016480604
-0.0710083 -0.05538102 0.06006302 -0.088822424 -0.12691112 0.1072476 -0.037117522 0.08690147
-0.051244497 -0.05585833 0.014119372 -0.024873748 -0.06972504 0.008954626 0.087100096 0.0727001
-0.052992444 -0.08421828 -0.018364713 0.06724297 -0.007626518 -0.0024446624 0.18801716 0.021357954
0.02698564 -0.023171004 0.07624809 -0.030300904 -0.091996655 -0.0402912 0.07793201 -0.015205994
-0.021471001 0.05568246 0.043773748 0.026922315 0.022129338 0.029494746 0.117028 -0.035391927
-1.713162 -1.9964674 -1.706809 -1.9918793 -1.8210051 -1.9069874 -1.8589871 -1.8230823
-1.9622508 -1.6903267 -1.8921412 -1.978678 -1.2137552 -1.7733847 -1.8370566 -1.2003744
-0.29047924 -1.9035186 -1.9637188 -1.9082152 -2.03489 -1.364803 -1.8490969 -2.0253458
-0.78072053 -1.718425 -1.9509681 -0.62031823 -1.8963462 -1.1233106 -1.0641768 -1.8097129
-1.891645 -1.9104351 -1.7354237 -1.9663951 -1.2665719 -1.8434427 -1.8337035 -1.953511
-1.9817933 -1.0088184 -1.9635997 -1.7339875 -1.9311925 -0.7575329 -0.45367286 -1.7184539
-2.0507317 0.027317703 -1.8161095 -1.9314384 -1.9057981 -0.8859695 -1.9392605 -1.845826
-2.0815473 -1.9225007 -1.6721174 -1.881526 -1.9935185 -1.8402898 -1.3911887 -1.8905977
00000000: 1a40 e4bf 4ab3 eebf ac9a dbbf 624b 01c0
00000010: 4a2b e2bf 7436 ffbf 6b42 edbf 09d4 febf
00000020: 1ede f6bf 6f95 e4bf 1728 f2bf 813b e6bf
00000030: 5a45 99bf 2436 dfbf 7201 f4bf 8a74 98bf
00000040: 3b99 0fbf 98b5 ecbf 4aa5 03c0 6a3b f6bf
00000050: 3c67 01c0 7be0 bfbf c92a 01c0 8448 05c0
00000060: ced7 07bf bf27 f9bf c339 05c0 3b86 19bf
00000070: 5ae2 f0bf 3d13 91bf 2ba1 7dbf 4b7f 00c0
00000080: bfd0 f2bf be70 03c0 0cb2 e4bf 893e 05c0
00000090: acdf a7bf 9ee8 f6bf ecea 01c0 ddaa f2bf
000000a0: ee20 06c0 a735 5fbf 476a fbbf 730f c5bf
000000b0: 7476 eebf db4b 4abf 9f5d 9bbf 9a0a e6bf
000000c0: f2f2 f6bf be0e 94be 9784 0ac0 9d9d f2bf
000000d0: f02f f5bf 7395 55bf 8f0f 02c0 e8c0 f5bf
000000e0: 547c 02c0 9752 e2bf 06eb e7bf 46a1 fdbf
000000f0: 7a7f edbf 2100 06c0 0840 a1bf ffbd f1bf
00000100: 1abf 9bbf 4abb 52bf f344 bebf c040 6abf
00000110: f974 a1bf 78b2 7abf db33 68bf 49d1 3fbf
00000120: 332f 72bf f6b4 abbf 7c15 62bf df5d 89bf
00000130: b3b0 a9bf f245 9bbf f5ac 67bf f245 7dbf
00000140: aade c03d 2881 7dbf 2aa8 95bf 3e4a 6fbf
00000150: 3f9d 63bf 4009 4bbf 9164 60bf 47c3 83bf
00000160: 099b c1be 2219 5fbf a7a6 5cbf fda3 0bbf
00000170: 84a7 7fbf 967b d9bf 1227 1dbf d6b3 62bf
00000180: 39c4 62bf 3dfe 8abf d23a 9fbe 1571 3abf
00000190: f75b e4be 9604 81bf 92da 6dbf 724d 6fbf
000001a0: 08fa 45bf c32b d1bb fb61 65bf c2fd 9bbf
000001b0: 8934 5ebf d147 febf d242 46be ed91 babf
000001c0: 8494 62bf 0293 60be 7297 59bf fcff 5cbf
000001d0: 919b 5bbf 3bf5 73bf 9b71 67bf 366d 7cbf
000001e0: 3791 adbf 872d 8dbf b246 79bf a499 63bf
000001f0: d1fb 8abf 4e14 75bf e64a bfbf 2c78 71bf
00000200: b67f 80bd 92b9 c73c 6f45 b5bd c399 a13d
00000210: bd44 b83b 6d6b 493d db36 9cbd ca42 dfbb
00000220: 0296 c63b c201 dabc 64b7 893d 7167 e8bd
00000230: 806b 2e3d 33f1 7a3d 3485 8ebd 63dd 8e3d
00000240: 0a11 45bb 5a57 1a3d 67db 70bd ff16 e03c
00000250: 1ceb ddbd f284 82bd 7382 723d 5502 87bc
00000260: cd6c 91bd 35d7 62bd a404 763d 88e8 b5bd
00000270: fdf4 01be a1a4 db3d 8b08 18bd 66f9 b13d
00000280: c0e5 51bd b4cb 64bd f054 673c 08c4 cbbc
00000290: 00cc 8ebd 6cb6 123c 8961 b23d cae3 943d
000002a0: 9b0e 59bd a27a acbd 9871 96bc afb6 893d
000002b0: dfe7 f9bb a136 20bb 9287 403e e0f6 ae3c
000002c0: fd10 dd3c 1ed1 bdbc f527 9c3d 9a39 f8bc
000002d0: be68 bcbd 6308 25bd d19a 9f3d 9022 79bc
000002e0: f4e3 afbc 4b13 643d 1a4c 333d 308c dc3c
000002f0: 9648 b53c f79e f13c 60ac ef3d 20f7 10bd
00000300: e448 dbbf 3e8c ffbf b878 dabf e7f5 febf
00000310: b216 e9bf 2a18 f4bf 4af3 edbf c35a e9bf
00000320: 092b fbbf a05c d8bf af31 f2bf 5245 fdbf
00000330: 555c 9bbf 45fe e2bf ac24 ebbf dea5 99bf
00000340: b2b9 94be 7fa6 f3bf 235b fbbf 6540 f4bf
00000350: a33b 02c0 ddb1 aebf 35af ecbf 449f 01c0
00000360: 4ddd 47bf 5af5 dbbf 53b9 f9bf 2dcd 1ebf
00000370: 79bb f2bf a4c8 8fbf f236 88bf aca4 e7bf
00000380: 6c21 f2bf 2389 f4bf 5d22 debf d6b2 fbbf
00000390: 071f a2bf eef5 ebbf ccb6 eabf a60c fabf
000003a0: 67ab fdbf f620 81bf 3c57 fbbf 4df3 ddbf
000003b0: 5131 f7bf aded 41bf cf47 e8be 4cf6 dbbf
000003c0: 303f 03c0 60c9 df3c 4776 e8bf 6039 f7bf
000003d0: 31f1 f3bf e6ce 62bf b039 f8bf 0744 ecbf
000003e0: 1238 05c0 8114 f6bf f107 d6bf d8d5 f0bf
000003f0: 9d2b ffbf 9e8e ebbf 7912 b2bf 1bff f1bf
