Code/698/10step_5horizon/models/lstm/10step_5horizon_RMSE_8.pth (torch, 219707 bytes, 11 tensors)

lstm.weight_ih_l0 f4 [256, 9]
00000000: 1e7c 66bc e55e 28be 474f 173d ad0e 953e
00000010: c206 0c3d 0062 92bd a2fd 2abd 4ddb d73e
00000020: eba9 a23e 439a b73f 2540 8bbd 9503 90be
00000030: fd24 a63c 2db1 92be b6f0 07be 313a 73be
00000040: 4700 c83d d9d1 613d 97b8 06bf 3870 f43d
00000050: 46bb 9ebd c416 a33d d845 253e 3362 31bd
00000060: 1b81 c93c e223 8c3b 3ae2 43bd b77b 0f3e
00000070: 9e2c aabd 525d 54bd 72fe 8e3e 20bd 4bbd
00000080: b720 84be 7254 e13d da49 9e3e 6a5f bc3d
00000090: c3a6 703e 2a5d 83be f85d d93d 9872 803e
000000a0: 2622 4f3c 514d 6dbe b391 b9bc e1eb 593e
000000b0: 167d 493e 7097 313f 3ffc 74be 5dab b73d
000000c0: f0e7 f53e 4e29 7dbd 95ee 36be 271c a1bd
000000d0: 30ee 853e 18eb 81bb 9f91 363f 6bad b4be
000000e0: 9081 a53c 173b 043f a8a0 48be 82d3 03bf
000000f0: 0e7e 023e bfe7 553e 5896 bc3e 446e 063f
00000100: 9c00 17be 4454 04bd c345 713e dbe1 25bd
00000110: 3038 a4be 24c4 453e a3eb ff3d f523 783e
00000120: d565 193f b3a1 8bbd 859e 203e 5429 323f
00000130: 3074 9fbd e47b 01bf d2cd 3f3e 46c2 723e
00000140: 6656 de3e 4b1b ba3e 12ac 2fbe 2b7f 0d3e
00000150: d380 7f3d 3403 57be 5f95 d5be 7179 143c
00000160: 4c20 5a3e 95e9 2fbe 7d18 8a3d 5f3f 01bf
00000170: 96a2 20bf 4505 283e 373f d43e 4462 86bf
00000180: 5770 e83c 1a80 d3bd 5fc8 353f 1c1c de3e
00000190: 7c89 d2bd bd36 d53e 84fe 9c3e 9c84 babe
000001a0: abfa 1dbf f8e8 803e 6aef 1f3f 0113 eb3e
000001b0: a258 893f 5746 8bbe 6fe8 47be de13 14be
000001c0: 0bfb edbe 8d5e b7bc 091b 523e 05e7 853e
000001d0: da87 b63e 753c ea3e 83fe 68be c11c c33e
000001e0: 5e78 943e 2d71 2dbf 0612 3abf 8822 7d3e
000001f0: 7a8d ff3e 9354 b9bc 3930 553e 0187 ed3e
00000200: f30f 633e 69d9 2b3e 678c 52bf 2b4a d4be
00000210: 874a 0a3e 68e3 f63e eeb7 37bd c32f 54bf
00000220: c271 05bc e9bf 66bd 292b 0d3e bbbe bf3b
00000230: 4098 babd 0637 88bd dced 573e 806c c5bd
00000240: 2297 72be cead bd3a eca1 fc3c d496 fb3c
00000250: bf9d 30bd dc66 02be 5a71 c23d f6bc e4bc
00000260: 3fda 823d 20d3 1d3f 2cb2 d2bd 94d7 5c3d
00000270: 6d1b 573f 2229 6b3e 45c2 17bf 1a84 bb3e
00000280: 2171 143e c7ea e93e 55ad 3d3f 110b 8dbe
00000290: 4ccf 1b3d 3a4c 853e b95c 193e 776a 18be
000002a0: 9083 e63b 7c3d 6e3e 2688 94bb 929f 9c3e
000002b0: d9bd a9bc 396c bebc 48fb 883c cb77 cbbe
000002c0: d981 36bf 3e70 65be 2b6e c53e 40ff b6be
000002d0: 5d40 573e 631e d2be 7b83 e93d 7eb1 063e
000002e0: fd72 23be 71ab 263e ca50 6f3e b4a3 d63e
000002f0: c41f 243f 583c 513f 6aff afbe 618f 9cbd
00000300: 5a78 1c3f 8fb5 ccbd e7be 64bf 82ed 593e
00000310: fb58 933e 28e1 973e fabd 8a3f 7cb8 8bbd
00000320: 2950 4e3e 81e0 25be b938 93be 7438 c7bd
00000330: e85a 463e a654 3ebd 4749 09be 35d1 1e3f
00000340: 00fa c0bd 1de8 283e 49fb 0c3f 1254 893e
00000350: d574 9abe a009 933e 18da 663e b23f d43e
00000360: d321 553f d76d 5ebe acd1 97bd 8ad3 183f
00000370: b6f4 87bc 79fe 8abe 2b46 473e 4f62 0e3f
00000380: 4ac4 4f3e 071e c1be 9dfe 39be 3f2f 2a3d
00000390: 70c8 1e3e f852 dcbd 212c 14bd 50e6 1f3e
000003a0: a9b7 3a3e 19ec ff3d 0be3 893f 8919 e6be
000003b0: 39af 89be 1231 083f e2f2 d33d 7fb2 e5bd
000003c0: 55c4 983e f0b4 e93e 32c7 dd3e 6b3e 213e
000003d0: 5b9c e4be 7f5a d9be 6623 0dbf 7dda 0cbd
000003e0: dc32 38bf 1e14 e13d 3852 08bf 3cd5 7d3e
000003f0: cb15 933e 1ffd 8cbe 230d 9e3b f8fc b63e
-0.014067678 -0.1644245 0.03694084 0.2911276 0.034186132 -0.07147598 -0.04174579 0.421595
0.31770262 1.4343952 -0.06799344 -0.28127733 0.02028131 -0.286508 -0.13275418 -0.23752667
0.09765678 0.055131767 -0.5262541 0.119354665 -0.07750563 0.079633266 0.16139925 -0.04330654
0.024597695 0.0042767385 -0.04782317 0.14012037 -0.08309291 -0.05184681 0.279285 -0.04974091
-0.2580621 0.11002435 0.3091572 0.09197886 0.23501115 -0.25657016 0.10613626 0.25087428
0.012642419 -0.23174025 -0.022652483 0.21281387 0.19676623 0.693717 -0.23924349 0.08968232
0.48028517 -0.06180697 -0.1786445 -0.07866698 0.26158285 -0.003964793 0.7131595 -0.35288557
0.020203382 0.51652664 -0.19592535 -0.5149461 0.12743399 0.20889185 0.36833453 0.52512
-0.14746326 -0.032306924 0.23561768 -0.040498596 -0.32074118 0.19313103 0.12496116 0.24232467
0.5992101 -0.06817951 0.1568547 0.6959431 -0.07785833 -0.5057967 0.18730858 0.23706922
0.43425292 0.36348948 -0.17155483 0.13818042 0.062378716 -0.20997316 -0.41715524 0.009062157
0.21301383 -0.17178948 0.06742952 -0.5048732 -0.62748086 0.1640826 0.4145448 -1.0498738
0.02837388 -0.10327168 0.7100887 0.4338082 -0.10280129 0.41643324 0.3066293 -0.36429298
-0.61710614 0.2517774 0.6247469 0.45912936 1.0730174 -0.27202103 -0.1952226 -0.14460704
-0.46480593 -0.022383953 0.20518126 0.26152816 0.35650522 0.4574925 -0.22753339 0.38107875
0.28998083 -0.6775082 -0.7268375 0.24720204 0.49912626 -0.022623336 0.20819177 0.46392062
0.22174053 0.16782154 -0.82245487 -0.41462836 0.13504992 0.48220372 -0.044853143 -0.8288538
-0.008144798 -0.056335364 0.13785996 0.0058515943 -0.09111071 -0.0665112 0.2108683 -0.09639835
-0.23690465 0.0014471353 0.03083893 0.030711569 -0.04311919 -0.1273455 0.09494276 -0.027922135
0.063892834 0.61650276 -0.1028789 0.05391653 0.84026223 0.2296491 -0.59280807 0.36624223
0.1449628 0.45686933 0.7409261 -0.27547505 0.03803949 0.2603472 0.14976777 -0.14884363
0.0070347264 0.23265642 -0.0045328317 0.30590492 -0.02072041 -0.023244964 0.016721383 -0.39739832
-0.7129188 -0.22406098 0.38560614 -0.35741615 0.21020646 -0.41038808 0.11402031 0.13153645
-0.15961833 0.16276337 0.23370662 0.4192177 0.6411097 0.817327 -0.34374553 -0.07644535
0.6112114 -0.09995567 -0.89353794 0.21282008 0.28778824 0.29663968 1.0839226 -0.06822297
0.20147766 -0.16198923 -0.28754213 -0.097275645 0.19370615 -0.046467446 -0.1340686 0.62037975
-0.09422684 0.16494794 0.5507093 0.26821953 -0.3016726 0.2871828 0.22544134 0.41454846
0.83254737 -0.21721588 -0.074130386 0.59697783 -0.01659618 -0.27147272 0.1946036 0.55618757
0.20289722 -0.37718222 -0.18163534 0.041548964 0.15506148 -0.107580125 -0.036174897 0.15615201
0.18234123 0.12496204 1.0772413 -0.44941357 -0.26891497 0.53199875 0.103490606 -0.11215686
0.2983729 0.45645857 0.43316036 0.15746467 -0.4465054 -0.42451856 -0.5513214 -0.034388054
-0.71952605 0.10990165 -0.53250456 0.24788374 0.28727564 -0.27536866 0.0048233434 0.35739875

lstm.weight_hh_l0 f4 [256, 64]
00000000: 8692 91bd d373 523e 3ec5 713d 7f26 3ebc
00000010: e579 13be 4738 863d 573f 75be bc5a 1e3e
00000020: 54c1 9d3d d146 1dbe f261 483e 83f6 133e
00000030: 25c7 e03d 4989 84bd 1955 563e 16c4 dc3d
00000040: dad5 9ebd 4e3f 02be 8695 ca3d f49d 283e
00000050: 95b7 29be 22a8 893d aed7 f7bb aea9 bcbd
00000060: 1852 e83d d766 26bd 390c 99be 80b7 c43b
00000070: c6cf 283e 5c00 48bd 1e31 81bd e114 6cbd
00000080: 7d03 2fbe 06c8 51bd 9476 c7bd 1a8d 43bc
00000090: 5909 d53d 5632 43be 4840 d73b 11ab 5bbc
000000a0: ce9d a83c 384e 24bb 7a57 edbd a2f2 923d
000000b0: 085d d93d 4039 2d3d d521 cd3d 9f0a 873e
000000c0: cd70 25bd 35a9 873d 7917 4e3e 4fcf 4a3b
000000d0: a543 01be 4646 bcbc 967d 6abc 6f89 d4bd
000000e0: f488 c1bd 6942 03bd 9b04 863d b30d 533e
000000f0: 63d5 5b3d 241e 2fbd 2488 fe3d 5006 283e
00000100: e0e0 87bd 41fb dabd 0e21 9a3d 26e7 bb3d
00000110: f580 123d 1656 e7be c609 c83e 746e 4a3e
00000120: fdae 93be c793 523e 7c70 f23e 287e dbbd
00000130: 00dd a33d 5a28 6c3d a811 14be 37be 00be
00000140: becd aebd df7a 233e 20d0 5e3e 2aee f6bc
00000150: 0b89 e73d b4a1 05be 16ae c03e bca5 b43e
00000160: 1ce4 8b3e ffb3 e13d 3c03 3abd 9a70 adbe
00000170: b414 9e3d 8b81 4dbc 13ed e73d f46e 7cbe
00000180: 42b5 183e c311 223d 171a ef3d 297e a43e
00000190: faa8 6bbe 213e eb3e cae3 b0be 4101 fc3c
000001a0: ab5c 8dbe dc58 763e bd1f 39be 8480 8fbc
000001b0: a545 7fbe d4c7 5fbd ae2c 333e 6e5d 063f
000001c0: ee73 57be 17b8 cfbd 68d0 73be 854c 74bb
000001d0: bbbe 233e 3774 02bd 95d6 833d c39a 143e
000001e0: 59a3 e93d 6053 853e 319f 8b3e fb34 61be
000001f0: eb28 493d d7a3 84bd 5bf4 11be 5f44 30be
00000200: b688 9fbd b9dd 8dbb 2ab9 0b3e e9c2 40be
00000210: 619a d53d 0afc 023e 97ee 993d c598 913d
00000220: 8400 353e d983 dfbd 3d68 f03d e1b6 8d3a
00000230: 1616 33bd 1ceb bc3c 551b 7f3d 1de1 dcbd
00000240: 1d1a a33d 82c8 6ebe 051e 4fbe 10db 483d
00000250: e708 8fbe 4115 e93d a7d8 cd3d 7fbc 19be
00000260: 5edc f2bd 6528 b63d 2b26 adbd 183b 73be
00000270: 35cb 06bb b71c d4bd c7b2 763d 1fff 093d
00000280: 4a12 23be bb20 843d a2a7 b7bc 8376 3fbd
00000290: 97d2 643e 284d 9cbc 0daa c33d a156 693c
000002a0: cdd7 1b3e 9761 5e3e 20a9 1c3e 4ad2 a5bd
000002b0: f8bd 4a3e 8f12 843e e43b c73d ca9e 733e
000002c0: a066 8f3c 6287 df3b 6be4 dabd c14c 863d
000002d0: 5cc3 3bbc 8fde 313d 33c1 b8bb 1b21 1bbd
000002e0: 5bf0 6a3d cafd e4bd 6450 2bbc 89e6 703d
000002f0: 81ed 63bd 6bbc 33bd f7b7 dbbc e02e ee3d
00000300: 3648 1bbe 71a0 d13c 792c 22be 7c6a a2bd
00000310: a1bb 003d 54e2 10bd 2918 4abe c0f0 b03c
00000320: c4df 2a3e 1eb0 e9bd f92b 7f3e 0d86 293e
00000330: c023 c63d 6196 393d dde6 f0bd 91ed 043e
00000340: 0cfc 8c3d 8a6e 08bc e1cf fb3d 21e9 ce3c
00000350: 0655 b6be dbc2 3c3d f214 583e efe7 e1bc
00000360: 2fe9 56be 6c2e 2ebb 0d03 02be 21e5 2fbd
00000370: 7ff0 863d 3c64 bd3d 1eef b3bd 6cad 7f3b
00000380: d1e0 5ebd d211 3c3d 61ff c0bb 9295 b63d
00000390: 8494 b13d 0394 3ebe f17b d83b 5e20 a23d
000003a0: c2d4 153d bd26 d9bc de46 013d 704d b9bc
000003b0: eab9 ff3d ce9e 353e 96e7 f4bc 7330 b63e
000003c0: 7cb4 94bd 98e2 903d 3b5f ab3d 9ee6 43bc
000003d0: 0d41 bbbc c520 33bc b8bd ac3c 69a0 a2bd
000003e0: 47c6 3ebd ad3d 1a3c 5289 0e3e cb57 06bd
000003f0: f803 d33d 600d db3d b87c 7f3d 7f02 603d
-0.07108025 0.20551996 0.059025995 -0.011605858 -0.14401968 0.06553703 -0.23949943 0.154643
0.0770289 -0.15359046 0.19568613 0.14449506 0.10975484 -0.064714976 0.209309 0.10779588
-0.07755633 -0.12719461 0.098918006 0.16466504 -0.16573937 0.06721522 -0.007563553 -0.09212051
0.11343783 -0.04062542 -0.29892138 0.00600332 0.1648551 -0.048828468 -0.063081965 -0.0576371
-0.17091174 -0.051216148 -0.09739414 -0.011935497 0.104021735 -0.1906217 0.006568942 -0.013407485
0.02058306 -0.0025071036 -0.115889505 0.07175185 0.106134474 0.042290926 0.100162186 0.2637529
-0.04039078 0.066240706 0.20126142 0.003094632 -0.1262346 -0.022982728 -0.014312169 -0.10377776
-0.0944995 -0.032045756 0.06543847 0.20610695 0.0536703 -0.042753354 0.124283105 0.16408658
-0.066346884 -0.10692454 0.07525836 0.091749474 0.035767514 -0.45182866 0.39069957 0.19768697
-0.28844443 0.20564185 0.47351444 -0.10717422 0.08001137 0.05765567 -0.1445986 -0.12572561
-0.08535336 0.1596484 0.21759081 -0.030142862 0.11305436 -0.13049966 0.37632817 0.35282695
0.2732247 0.1102066 -0.04541324 -0.3387497 0.077187926 -0.0125430925 0.11324515 -0.246517
0.14912894 0.03956772 0.11674898 0.32127503 -0.23013678 0.45945838 -0.3454879 0.030762317
-0.27609763 0.24057335 -0.18078513 -0.017517336 -0.24928911 -0.05463393 0.17497513 0.5248631
-0.21040317 -0.10142534 -0.2380997 -0.0037277055 0.15990727 -0.031849112 0.06437413 0.14512162
0.11408109 0.26040173 0.2726989 -0.21992867 0.049111288 -0.064765625 -0.1425337 -0.17213582
-0.077897474 -0.00432941 0.13644853 -0.18824352 0.10429836 0.12791458 0.075162105 0.071092166
0.17675978 -0.1091382 0.11738632 0.0010811948 -0.043722235 0.023061328 0.062281925 -0.107851245
0.07963965 -0.23318675 -0.20226295 0.04903704 -0.2793648 0.11381007 0.10051089 -0.15013312
-0.11858438 0.088944234 -0.084545456 -0.23753011 -0.0020567898 -0.103570394 0.06022909 0.033690568
-0.15924945 0.06451555 -0.0224188 -0.04674388 0.22345959 -0.01907976 0.09553919 0.014241845
0.1521904 0.21716915 0.15298891 -0.0809675 0.1979903 0.2579541 0.0972822 0.23791042
0.01750499 0.006821559 -0.106880985 0.065576084 -0.0114601515 0.04342514 -0.0056382655 -0.03787337
0.057358127 -0.11181219 -0.010456178 0.058813605 -0.055646423 -0.04388086 -0.02682112 0.116300344
-0.15164265 0.0255892 -0.15837277 -0.079304665 0.031428937 -0.035372093 -0.19735779 0.021599174
0.16686922 -0.11410545 0.24919118 0.16555043 0.096747875 0.045309428 -0.11762784 0.1298125
0.068840116 -0.008327136 0.12295509 0.025257649 -0.35611743 0.046084266 0.2110174 -0.027576415
-0.2098739 -0.0026577963 -0.12696476 -0.042943124 0.0658884 0.09247634 -0.08785842 0.003901328
-0.05441362 0.045915432 -0.0058898185 0.08915247 0.08670905 -0.1861115 0.006606572 0.0791633
0.036579855 -0.02650773 0.031561725 -0.022619933 0.12486632 0.1773636 -0.029895585 0.3558384
-0.07260987 0.07074469 0.08367773 -0.011956839 -0.022858167 -0.010933106 0.021086559 -0.07940752
-0.04657581 0.009414119 0.13919571 -0.03279857 0.10303491 0.106959105 0.0623748 0.05468988

lstm.bias_ih_l0 f4 [256]
00000000: 16b3 eabf c524 343e 058d 00c0 878d f9bf
00000010: f0ab 05c0 feaf a5bf 512f c8bf 6ac5 e7bf
00000020: 1df2 d0bf 9638 d2bf 6342 afbf 3423 c4bf
00000030: 676f 28be 27b6 c4bf 124f afbf 8f80 04c0
00000040: 48ca fabf d24c e1bf 7dd1 afbf b518 debf
00000050: 1d92 033d 9991 adbf ca80 77bf e800 e0bf
00000060: 06fe a6bf 7f1f d3bf 830a 3e3d 3f11 2dbf
00000070: 9623 debf 67c5 f1bf 6a3d 06c0 271f d0bf
00000080: c4ac f3bf eda5 efbf e51e fdbf d6f8 a7bf
00000090: d83d eebf ca9d 9abf 2b65 b5bf 7748 e5bf
000000a0: 683e 86be 3559 acbf 5dbd c4bf 7826 05c0
000000b0: 9988 b3bf 6daf 453f dd8e 81bf 722c 03bf
000000c0: 6585 02c0 bcab 05c0 f9a6 32bf 6f54 e2bf
000000d0: 0424 ebbf d3c2 04c0 ebb3 f6bf db75 02c0
000000e0: cfca 06c0 2ae5 f9bf 769c a6bf c5a3 f2bf
000000f0: 7353 f6bf 9bc3 f8bf 84ce 8cbf ce70 93bf
00000100: c5a0 83bf 7fc2 2e3e 0458 8ebf 6a65 81bf
00000110: e9be 8dbf d803 38bf c054 88bf 3034 78bf
00000120: 16b1 84bf 2cdb 4fbf a6de 58bf b72e 82bf
00000130: 8abe ebbe dd58 82bf 6d01 6abf b682 8cbf
00000140: 9eb6 86bf e141 a9bf b703 08bf aaf8 8ebf
00000150: 83c1 9bbe b2ca 7dbf 225b cbbe 8713 88bf
00000160: e578 6bbf 5eb3 7bbf 0f2b 61be 45de 22bf
00000170: b80f 57bf 3cab 48bf 8e9d 95bf 9ea8 8abf
00000180: 8f69 81bf 74d8 5dbf 3dd6 94bf cae1 35bf
00000190: d664 7fbf 9efa 84bf 9f58 8bbf 7a2a 77bf
000001a0: 7855 683d d306 80bf 2b40 56bf f5d5 86bf
000001b0: 88af 8fbf 4330 8a3d 9aa3 bcbe cc3c fdbe
000001c0: cf0f 8abf 842c 80bf 0742 a2be 7963 8cbf
000001d0: 058f 8cbf 3928 79bf d65c 88bf f9b9 86bf
000001e0: cf43 95bf d396 8dbf 9dc6 a3be c5e3 9bbf
000001f0: 19d0 82bf 14cb 97bf 67be e9be 3271 c5be
00000200: 70e5 c0bd 8ea6 23bd 3364 4abd 419f 92bd
00000210: 42ee 44bd c0a1 c9bb 375f 2fbd 322c 583d
00000220: cb31 ce3d 6e67 b1bd 7827 f4bc b724 f63d
00000230: 17ca 9cbd fcba e6bd 1859 03bd 8b30 223d
00000240: a0bc c53d 6b67 c4bc dfa4 edbd a75d 813c
00000250: 8235 803e a827 2d3e bd53 113c 639a fa3b
00000260: 3164 81bd 7b1a 29be 7bff 483e fe46 28be
00000270: 7dca 063e 8190 32be ad85 7a3b 5668 03bc
00000280: c28a adbd 46b7 563c 3a05 4cbd 94f6 8abd
00000290: 87cb 5ebd ac33 e33c 6142 86bc 9b34 c13c
000002a0: 7fd1 b43d 3f49 d93d 35aa 4bbe 9538 913d
000002b0: f35f 60bb a6fb 2ebe 63c4 39bd 7cfc 07be
000002c0: 4383 7abd 18e4 b1bb 0887 103c 5648 3c3d
000002d0: 24f4 61bd fc84 1dbd d219 e63d 362b 8cbc
000002e0: f518 b7bd 9e93 d93d e07d 1a3e 4af1 a13d
000002f0: 7b9b b9bc d5e4 2c3c 7c33 75bd 4db3 193e
00000300: 4d52 eebf 4202 643e fc58 f5bf 86ce fbbf
00000310: 6125 03c0 12fa adbf ad23 bebf 8fd4 d8bf
00000320: 2593 dfbf 9a9d ecbf 3d66 b3bf 8399 b5bf
00000330: 43c7 a1be e9ab d2bf 3754 c2bf 7ed3 fabf
00000340: 19eb 00c0 807b c9bf d334 c2bf 1500 cbbf
00000350: 0e77 6b3c 442b ccbf d9f7 6bbf c204 cebf
00000360: c85b b1bf 3017 ddbf e6dc 853e b02a 3bbf
00000370: 213b f2bf c2f6 efbf 69be fdbf 75fd bcbf
00000380: b6ca 03c0 3ed1 f2bf a72f f8bf 3390 a5bf
00000390: 2692 f9bf f458 a3bf 7c84 a6bf d349 f3bf
000003a0: 13b0 80bd 9b3b abbf 85a0 c7bf 2060 01c0
000003b0: cbb2 d0bf bdf2 8f3f 1317 74bf ebe9 fdbe
000003c0: fbb0 00c0 b996 f5bf 8eb6 1bbf fb97 ebbf
000003d0: 2b1c f1bf 3a90 f7bf 74a3 ffbf 968c 09c0
000003e0: 752f 03c0 9c39 ecbf 2a58 43bf a819 fbbf
000003f0: 52e6 f8bf 713d 02c0 6687 76bf eccb 75bf
-1.8335903 0.17592151 -2.0086071 -1.9496316 -2.0886192 -1.2944334 -1.563944 -1.8107121
-1.6323887 -1.6423519 -1.3692135 -1.5323243 -0.16448747 -1.5368088 -1.3696005 -2.0703466
-1.9592981 -1.7601569 -1.3735806 -1.735129 0.032121766 -1.3560058 -0.9668089 -1.7500277
-1.3046272 -1.6493987 0.046396744 -0.6760444 -1.735461 -1.8888367 -2.0974984 -1.6259507
-1.9037099 -1.8722512 -1.9775053 -1.3122814 -1.8612623 -1.2079403 -1.4171499 -1.791274
-0.26219487 -1.3464724 -1.5370289 -2.080473 -1.4026061 0.77220803 -1.0121723 -0.51239693
-2.0393918 -2.0886068 -0.6978603 -1.7682017 -1.8370366 -2.0743911 -1.9273657 -2.0384433
-2.1061285 -1.952306 -1.3016498 -1.8956228 -1.9244217 -1.9434694 -1.1000524 -1.15188
-1.0283438 0.17066382 -1.112061 -1.0109074 -1.1073886 -0.71880865 -1.0650864 -0.9695463
-1.0366542 -0.81193805 -0.84714735 -1.0170506 -0.46043807 -1.0183369 -0.91408426 -1.097739
-1.052448 -1.322323 -0.5313067 -1.1169636 -0.30421075 -0.99137414 -0.39717966 -1.0630959
-0.91981345 -0.9832057 -0.21989082 -0.63620406 -0.8400836 -0.7838628 -1.1688707 -1.0832708
-1.0110339 -0.86658406 -1.162788 -0.7104765 -0.9976324 -1.0388982 -1.088642 -0.9654919
0.056722134 -1.0002083 -0.8369166 -1.0534045 -1.1225443 0.067474864 -0.36843568 -0.49460447
-1.0786074 -1.0013585 -0.31691 -1.0967857 -1.0981146 -0.97327 -1.0653331 -1.0525504
-1.1661319 -1.1061653 -0.31987467 -1.2178885 -1.0219756 -1.185885 -0.45653078 -0.38562924
-0.09418762 -0.03995376 -0.049411964 -0.071592815 -0.048078783 -0.0061533153 -0.042815413 0.052776523
0.10068091 -0.08662306 -0.029803976 0.120187216 -0.07655733 -0.11266133 -0.03206739 0.039597075
0.09655118 -0.023975095 -0.11603712 0.015791727 0.25040823 0.16909659 0.008870062 0.007647799
-0.06317938 -0.16514008 0.19628708 -0.16433331 0.1316318 -0.17437936 0.003822665 -0.008020481
-0.084737316 0.013105219 -0.049809672 -0.06785312 -0.054393318 0.0277346 -0.016389074 0.023584655
0.08829021 0.10609674 -0.19889148 0.0709087 -0.0034236878 -0.17088184 -0.045353305 -0.13279909
-0.061160337 -0.005428802 0.008821256 0.045967422 -0.05516447 -0.038456902 0.112353936 -0.017110448
-0.08940307 0.10623859 0.1508708 0.0790735 -0.022657147 0.010552605 -0.059863552 0.15009804
-1.8618866 0.22266486 -1.9167781 -1.9672401 -2.0491564 -1.359194 -1.4854637 -1.6939868
-1.746678 -1.8485596 -1.4015576 -1.4187473 -0.31597337 -1.6458713 -1.518195 -1.9595792
-2.0143492 -1.5740814 -1.5172371 -1.58594 0.014371647 -1.5950704 -0.9217506 -1.6095202
-1.3856134 -1.7272701 0.26145095 -0.7311201 -1.8924295 -1.874718 -1.9823734 -1.4764849
-2.0592475 -1.8970106 -1.9389542 -1.2934631 -1.9497726 -1.2761521 -1.3009181 -1.9006904
-0.062835835 -1.3377565 -1.5595862 -2.021492 -1.6304563 1.1245953 -0.9534771 -0.49592528
-2.010802 -1.9186622 -0.6082543 -1.8405756 -1.8836721 -1.934089 -1.9971757 -2.1492057
-2.0497715 -1.8455081 -0.763064 -1.9617205 -1.9445288 -2.035 -0.9630035 -0.96014285

lstm.bias_hh_l0 f4 [256]
00000000: 30fb f8bf d1af 1d3d e3b4 04c0 7b18 f7bf
00000010: 6e38 f8bf c206 b8bf 4b64 c5bf e4ee ebbf
00000020: a1da ecbf 9ab4 dcbf 17f6 b0bf c8c5 cdbf
00000030: 91a2 7abe 430a cfbf 8a77 b9bf af97 f2bf
00000040: f42a 02c0 3c3f dfbf 6dfd c3bf 85d6 e1bf
00000050: adf8 6dbd 2362 c9bf ac77 6cbf f2ed eabf
00000060: 14f4 a0bf 2d9e ebbf d204 963d f190 25bf
00000070: 0cac dfbf 574c e7bf 5d10 01c0 0d2f c8bf
00000080: 2a7e f8bf db5e 00c0 03fe f8bf 9a15 a5bf
00000090: f46f fabf dc63 9abf 0b05 c3bf 91d6 edbf
000000a0: 7403 9abe 2f0c b0bf 2dba ccbf 5938 f8bf
000000b0: 9511 cebf 1113 483f 79c5 8bbf 2e25 e6be
000000c0: cde1 f8bf 4e82 05c0 9b4f 37bf 63d2 d9bf
000000d0: f874 f3bf 72ca f4bf 15ac ffbf 94ef f9bf
000000e0: 723a fcbf ce1e f6bf a29e a7bf c20e fcbf
000000f0: b18c febf 3d60 00c0 4a60 8cbf c0fe 93bf
00000100: a0fb 73bf 117e 293e 6466 78bf 1b0a 7bbf
00000110: 4598 86bf 0cbc 2dbf 74d3 80bf 035e 85bf
00000120: a464 90bf 9c91 5fbf e6e3 79bf ae98 92bf
00000130: c0fb 02bf 92ad 5fbf f181 79bf 066f 8abf
00000140: 0aba 86bf 63a5 8fbf b74d 10bf ce14 7abf
00000150: 4119 82be 14e4 99bf 84fe 6fbe 579d 92bf
00000160: a7fa 64bf f42b 89bf b336 43be ef8f 1bbf
00000170: aa47 41bf 3eb9 72bf 78c3 86bf 8ecb 91bf
00000180: 5065 90bf 12b1 60bf 7591 7abf 4630 48bf
00000190: 546c 71bf 06ca 8ebf c9d4 86bf 336d 96bf
000001a0: 620b 49bc ec66 76bf ab2a 4ebf 89c6 8dbf
000001b0: 1e20 a1bf d676 113c 5c53 4ebe f6cf fbbe
000001c0: 0256 85bf 6ddc 76bf 0def 8fbe 7d5e 73bf
000001d0: 0f82 8abf 183d 85bf a184 7fbf 6d21 88bf
000001e0: d027 78bf 4bc6 7ebf 4e8d 7cbe 25e0 92bf
000001f0: a0f8 84bf e2d1 94bf 4b4e 96be 46dd d0be
00000200: 38b4 c7bd 7dda 8c3c 1224 7e3c e1b2 31bd
00000210: 4c2a 99bd 3c0e fc3d d9c6 14be 9fcc 283e
00000220: a732 423d 0d38 df38 5735 d13d ef73 913d
00000230: 4970 1bbe ff00 7d3d 0f2d 8bbc 54d3 7cbd
00000240: dc49 b3bd 47a0 09be 89ff bebc 5fff 5c3d
00000250: e813 153d 3990 48bc 90cf 22be 9c40 a4bd
00000260: 50bc d5bd d03c 8b3c 62a0 a43d c3fb d5bc
00000270: 4f46 9c3d 75f8 e33c 0624 c93c cc79 003e
00000280: 8a9e 30bd 866e f73d 166f a73a 385c d0bd
00000290: ceba f8bd 6e56 e1bd 5a95 073e ba09 fa3d
000002a0: 89c9 26bd 7c55 ca3d f883 7cbd 7b19 6abd
000002b0: 139f a73d 6c9a e1bd 0f94 0c3e c0cb acbd
000002c0: a929 e23d 8753 8a3d 49d0 bd3d b37a 183e
000002d0: 7ab2 823c fe59 83bd 85d1 59bc c584 a63d
000002e0: 21be d73d e326 4a3d e883 143d 30e0 36bc
000002f0: bfb5 e13c bd0c 5f3c b8e6 3c3d 4c97 77bd
00000300: cdb1 ebbf 7145 123e fca8 f0bf e1d5 febf
00000310: 958a 07c0 0a68 adbf e1de c9bf 8583 d7bf
00000320: d5be dcbf 2038 e8bf 1bf4 acbf 918c d2bf
00000330: 0b57 8ebe 4933 d0bf 7386 c8bf 92c0 00c0
00000340: faeb 04c0 7034 d2bf b112 a8bf 8720 dbbf
00000350: 21c7 f63d 5c21 cbbf 9722 6abf f625 e9bf
00000360: a4a2 b0bf ce99 e2bf 7750 de3d 58da 30bf
00000370: 97db f3bf 34ca f1bf cb7d fbbf 1d96 bfbf
00000380: dcdc febf e1be febf c786 f6bf 8d3a b1bf
00000390: fa15 f8bf 60e6 a3bf ac3b adbf 5bbe f9bf
000003a0: 504d a9bd 633f b0bf e7cf d1bf 5fbc 00c0
000003b0: 1794 b8bf 7b63 923f 6a11 86bf 2375 f1be
000003c0: 00a7 febf 7131 f3bf 7c75 0cbf ad08 e9bf
000003d0: c703 e5bf 3eaa f8bf 90a1 f5bf 7f54 f7bf
000003e0: 4152 00c0 6cc0 dabf 3443 48bf 7867 e7bf
000003f0: a036 03c0 6a5e f9bf 9ef5 53bf bef3 57bf
-1.9451656 0.03849775 -2.0735404 -1.9304346 -1.9392221 -1.4377062 -1.5421232 -1.8432279
-1.850422 -1.7242615 -1.3825101 -1.6075983 -0.24476077 -1.6175007 -1.4489605 -1.895254
-2.0338717 -1.7441173 -1.5311714 -1.7643591 -0.058098484 -1.5733074 -0.92370105 -1.8353865
-1.2574487 -1.8407646 0.07325138 -0.6467429 -1.747438 -1.8070172 -2.0166237 -1.5639359
-1.9413502 -2.0057895 -1.9452518 -1.2897217 -1.9565415 -1.2061725 -1.5235914 -1.8581105
-0.3008076 -1.3753718 -1.5994316 -1.9392196 -1.6099116 0.78154093 -1.0919639 -0.4495024
-1.9443909 -2.0860782 -0.71605843 -1.701733 -1.9020071 -1.9124281 -1.997439 -1.9526238
-1.9705336 -1.9228151 -1.3095286 -1.9692004 -1.9886686 -2.005874 -1.0966885 -1.1562119
-0.95305824 0.16551997 -0.97031236 -0.98062295 -1.0515219 -0.6786506 -1.006453 -1.0419315
-1.1280713 -0.8733156 -0.9761337 -1.1452844 -0.5116539 -0.8737422 -0.974639 -1.0815132
-1.0525525 -1.1222347 -0.56368583 -0.97687995 -0.25409892 -1.2022729 -0.23436934 -1.1454266
-0.89444965 -1.0716538 -0.19063835 -0.607665 -0.75499976 -0.9481391 -1.0528402 -1.1390245
-1.1280918 -0.8777019 -0.978782 -0.7819866 -0.9430592 -1.1155403 -1.0533687 -1.1752075
-0.01227078 -0.96250796 -0.80533856 -1.1076213 -1.2587926 0.00887843 -0.20148987 -0.491821
-1.0416873 -0.96430093 -0.2811207 -0.9506605 -1.0820941 -1.0409269 -0.9981175 -1.0635201
-0.9693575 -0.9952132 -0.24663278 -1.1474653 -1.0388374 -1.1626551 -0.29356608 -0.40793818
-0.09751171 0.017194027 0.0155115295 -0.043383483 -0.074787706 0.123074025 -0.1452898 0.16484307
0.047411587 0.00010643909 0.10215252 0.07102191 -0.15179552 0.061768528 -0.016989259 -0.061724976
-0.08754322 -0.13440047 -0.023315208 0.05395448 0.036395937 -0.012241417 -0.15899491 -0.08020136
-0.104363084 0.016996771 0.08038403 -0.026121026 0.07630598 0.027828434 0.02455331 0.12546462
-0.043119945 0.120816275 0.0012774195 -0.10173839 -0.12145005 -0.11002813 0.13240567 0.122088864
-0.040719543 0.09879586 -0.061649293 -0.057153206 0.08184638 -0.11015782 0.13728355 -0.084373
0.11043102 0.06754213 0.09268243 0.14890556 0.015954245 -0.06413649 -0.013294582 0.081307925
0.10534311 0.04935349 0.036258608 -0.011161849 0.027552484 0.013613877 0.046118468 -0.060447022
-1.8413635 0.14284302 -1.880157 -1.9909021 -2.1178334 -1.3547375 -1.5771142 -1.6837012
-1.7245737 -1.8142128 -1.3511995 -1.6449147 -0.27800784 -1.6265651 -1.5666031 -2.0117536
-2.0769029 -1.6422253 -1.3130704 -1.7119302 0.120496996 -1.5869555 -0.9145903 -1.821471
-1.3799634 -1.7703187 0.10855191 -0.69083166 -1.9051389 -1.8889832 -1.9647764 -1.4967686
-1.9911151 -1.9902002 -1.9259881 -1.3845993 -1.9381707 -1.280468 -1.3533835 -1.9511217
-0.08266699 -1.3769344 -1.6391572 -2.0114973 -1.4420193 1.1436609 -1.0474064 -0.4715968
-1.9894714 -1.8999463 -0.54866767 -1.8205773 -1.7891778 -1.9426954 -1.918993 -1.9322661
-2.0050204 -1.7089972 -0.78227544 -1.8078451 -2.050209 -1.9481938 -0.8279666 -0.84356296

lstm.weight_ih_l1 f4 [256, 64]
00000000: 7da4 dcbc 7bbc ab3d 4d72 dbbd f5ca 8b3c
00000010: e687 963d d984 873c fa7b aebd 625f f9bc
00000020: 4d8f 77bc b31b 923b 8abe bbbd 4649 44be
00000030: 79d9 0a3d 3a4b 21bd 11e1 fb3d 7dbd 1dbd
00000040: 51bc 1d3b ac09 c23c 3d8a 063d 4401 14be
00000050: 7f1e 98be 58c7 2a3b f170 ff3d 12cc 993d
00000060: 8b06 99bd baff 383c 3e9c 81be db57 4d3e
00000070: e6fc c0bd 2555 1dbc 056e 67bd a573 f53d
00000080: 5dc3 b83d 0b87 783c c80c 6bbd 9f43 07bd
00000090: 808e 553e d54f 3cbe 2f6d e8bc 22ca 51be
000000a0: e269 933e 2084 4a3d 3775 093e 3805 83bd
000000b0: 9cc4 b4ba 3883 9c3e 3915 8b3d 9759 003e
000000c0: 76d8 4e3d e111 83bc fde7 563e 7afa 86bb
000000d0: c326 2d3e eea3 d73d cfff 053e af32 6cbd
000000e0: 2f50 133d f47a 15be 2d66 0e3d d487 553c
000000f0: f0ab 3f3d 79cb 9d3d 6a62 e93d 4326 5a3b
00000100: 3e1e ba3d 78b8 9b3e 3635 18be c2c7 00be
00000110: 2093 44bb 0d69 2bbe d86e bf3e 07b5 413e
00000120: 6bb7 e83b 3201 903c 145e 5bbe 1cfb f7bd
00000130: 573c fb3e 8370 94bc ab3d 79bd baee 9bbd
00000140: aca3 523d c9c9 06bd 6aac 1e3d 159d 03bd
00000150: 09e8 39bf a4c3 41be a343 a63e 669a 38be
00000160: 9f34 513e acb2 b93d f55f b6be e1aa 373f
00000170: a8ce af3d 316e 973d 4955 2dbe 6405 0bbe
00000180: bca5 8cbe cd78 1d3e 8520 1d3d 4e48 eb3e
00000190: 2456 7abd ad2e b33d 1d5b cdbe 3805 673d
000001a0: 075e c73e 41f2 d2be edb8 cf3e 21f8 12be
000001b0: 91d0 953d e068 34be 59c6 b03e 4d3c 01be
000001c0: 8563 933d 1af7 9abb d483 de3e 8c74 08be
000001d0: 995d d13d d706 5bbe d893 05be 8cd3 a8bd
000001e0: dcf4 0fbe 842a 70bd 4501 9bbe 7050 283c
000001f0: a78d 033d 9896 8ebd 6fa2 073e 7bf2 a83e
00000200: b80a 4c3d da77 e23e de23 dabc 5ec2 cdbb
00000210: 3df3 3c3e e2cf 8cbd 5907 1d3e ce22 17bd
00000220: d29c eebd faf0 373e 3564 1dbb 2f25 c1bc
00000230: 6076 af3e 5eae 12bd fbf3 87bd 3b4f 15be
00000240: 1486 1cbd cf86 a8bd bf27 60bc 0331 e5bd
00000250: 83b8 92be 5c99 56bd d4e8 473e ee78 443d
00000260: 0f8f b73e 1726 853b ca6d cebe 125e a43d
00000270: 4349 2fbd d6a3 37bd d7a6 66bd 58d0 89be
00000280: e0aa 21bd 7168 c93d bed7 9fbd fb73 c43e
00000290: ac88 82bd 0c11 b33c 9e51 7fbd 93e4 3cbd
000002a0: d137 2c3d 7688 a0be a560 013e 2e89 af3d
000002b0: e7d2 2bbe b2f6 973d ad1c b43e 5465 433e
000002c0: 6ce3 55bc 86e2 cbbd 9282 133f c759 163e
000002d0: 04b8 e7bd a22a 04be 0af4 2cbd 51e8 cb3d
000002e0: a641 ad3d d07b 103e 6779 cd3e ff9b 4abd
000002f0: c70e e73d 9453 01bd eece 983e a1d7 a83d
00000300: 8134 95bc 5219 033f 4526 a13d 7808 06be
00000310: 9bed 2a3e e273 c23c c76d 13be ddd1 cdbd
00000320: 03d1 0a3e 17c8 4f3d 6967 993c 7d04 883b
00000330: a560 803e 3ef4 573e 8222 60bd 4769 86bd
00000340: dafd acbd bc67 45bd 0839 39bd 79e3 1cbd
00000350: 0eb5 babe 72b7 4c3e e6db 9a3e 9c7e be3d
00000360: ccbb 1b3e 3d44 263d 5e15 cebe 1bd8 24be
00000370: 7546 943d 0b5f b33d d2d2 17bc 412b 913d
00000380: 2b8b 86bd b9f2 0f3d dbc7 19be e3ed 48bd
00000390: d04e e43c 326a 4dbd 64a1 573e 8754 cbbd
000003a0: a097 d03d 3617 b0be 62e8 ec3d 8fd4 393d
000003b0: 4264 533d b3d6 8e3e 6290 9b3e 4a32 9e3e
000003c0: ce0c d9bc 1077 db3d e7cc 363f a4db eb3d
000003d0: 03b8 28bb 96e1 babc f57c ba3d 1a18 6f3d
000003e0: 90be bebd 6c6e 303d 93f5 783e 53f6 8fbd
000003f0: d452 ccbc 5464 e6bc b5ec ad3e cec0 903e
-0.026933903 0.08385559 -0.107151605 0.01706455 0.07350139 0.016542839 -0.085197404 -0.03044099
-0.015109849 0.0044588684 -0.09167202 -0.19168577 0.033898804 -0.039378382 0.122987874 -0.03851079
0.0024068544 0.023686253 0.032846678 -0.14453608 -0.29710767 0.002605876 0.12472714 0.075096264
-0.07471951 0.011291439 -0.25314516 0.20053045 -0.094232365 -0.00960282 -0.056501407 0.11984948
0.090216376 0.0151689155 -0.057385236 -0.033023473 0.2085514 -0.18389829 -0.028372375 -0.20487264
0.2879172 0.04944241 0.1342362 -0.0639748 -0.0013791504 0.30568862 0.06791157 0.12534176
0.050499402 -0.015999736 0.20986934 -0.0041192146 0.16909318 0.10529314 0.13085864 -0.057665523
0.03596514 -0.14597684 0.03476541 0.013032872 0.04679483 0.07704825 0.11395724 0.0033286966
0.090877995 0.30414176 -0.14864048 -0.12576202 -0.002999492 -0.16739292 0.37389255 0.18916713
0.0071019433 0.017578695 -0.21422607 -0.12108442 0.49069473 -0.018120056 -0.060849827 -0.07613893
0.05142562 -0.03290728 0.038738646 -0.032132227 -0.7261968 -0.18922287 0.32473478 -0.18027648
0.2043023 0.09067282 -0.35620084 0.71745116 0.085843384 0.07394064 -0.16927065 -0.13576275
-0.27470195 0.15378113 0.03836109 0.45953602 -0.061117306 0.08749137 -0.40108576 0.05640146
0.38938925 -0.4120045 0.40570775 -0.14352466 0.073151715 -0.17618132 0.34526327 -0.12620659
0.07196716 -0.004729164 0.43459952 -0.13325709 0.102229305 -0.21389328 -0.13044679 -0.08243474
-0.1405825 -0.058634296 -0.30274406 0.010273084 0.032117512 -0.06962317 0.13245557 0.32997498
0.04981491 0.44232064 -0.026628431 -0.006279274 0.18452163 -0.06875588 0.15334834 -0.036898427
-0.11651005 0.17963019 -0.0024016027 -0.0235773 0.3427 -0.03581082 -0.066383325 -0.14581005
-0.038213804 -0.08228838 -0.013681351 -0.11190989 -0.28656396 -0.05239235 0.1952241 0.04796689
0.35851333 0.0040633786 -0.40318137 0.08025755 -0.042794477 -0.04483398 -0.056311455 -0.26916766
-0.0394696 0.09834374 -0.078048214 0.38369736 -0.06373724 0.021858715 -0.062333696 -0.046116423
0.04204542 -0.3135411 0.12634523 0.08571087 -0.16779672 0.074201 0.35178128 0.19081622
-0.01305471 -0.09955315 0.5762111 0.14682685 -0.11314395 -0.12906888 -0.04222492 0.0995642
0.08459787 0.1410973 0.40131685 -0.049465176 0.112821154 -0.031573847 0.29845375 0.08244253
-0.018213512 0.5121051 0.078686275 -0.13089168 0.16692202 0.023736898 -0.14397345 -0.10049794
0.13556294 0.05072793 0.018726068 0.0041509257 0.25073734 0.21089265 -0.05472041 -0.06563049
-0.08446856 -0.048194632 -0.045220405 -0.038302872 -0.3646626 0.19991854 0.30245894 0.093014926
0.15208358 0.04059242 -0.40250677 -0.16098063 0.07240001 0.087583624 -0.009266572 0.07088328
-0.06569513 0.035143588 -0.15017645 -0.04905499 0.027869612 -0.050150104 0.2105766 -0.09928232
0.1018517 -0.3439271 0.11567761 0.045368727 0.051609285 0.27898178 0.30383593 0.30897743
-0.026495364 0.10716069 0.71406406 0.115165025 -0.0025744445 -0.022812646 0.09105865 0.058372594
-0.09313691 0.043074057 0.24312429 -0.070294045 -0.02494184 -0.028124012 0.33969656 0.28272098

lstm.weight_hh_l1 f4 [256, 64]
00000000: 8f59 07bc 4c91 82bc f346 123e 9d1f adbd
00000010: af6d cabd c7e9 e13d 85c4 afbd fdae 033b
00000020: 7390 453d 96c0 743e 74e0 943d 903b 323c
00000030: e80c afbd c2be a0be 5880 ee3a f38a a8bd
00000040: c866 e33d 911a f4bd c925 bb3d f65e 9bbd
00000050: 8b05 aa3d a62c f03d 8d30 363e 3e94 9f3d
00000060: bb4e 6e3d b351 85bd 40b7 3d3e 029c 9e3d
00000070: 44eb 163e f500 863d 86f5 863c e7bd 3ebd
00000080: d633 0c3d dadf 33bd 1cc7 133d 4243 23be
00000090: 1ef6 36be dcd0 083e 9c9e ea3d 8af5 123c
000000a0: 37f4 66bc 331f 17be 005d 92bd 1efd 2b3c
000000b0: 8268 54bd 5874 533e b7a1 a1bd 4079 12bd
000000c0: 5971 3c3d b31e 74bd ead1 873d 6136 de3c
000000d0: 51a0 9cbd f7c5 3b3c 6dcd 5d3e 4d2d 09be
000000e0: 5c4f 8abd 71ec 613e 6987 fa3b 7639 5d3e
000000f0: e09b 6cbd ff80 9ebd ce25 35bd c036 353e
00000100: 910c 783e 5146 3abe 0ea7 743c f6a4 5cbe
00000110: fdd2 1dbe a590 563e f81a 8a3c b3c3 d93e
00000120: d0d7 53be c10f 923e 8ebd 003c 5d47 e43d
00000130: b0b1 4d3f dbef b5be 7739 7dbf 0276 57bd
00000140: 0b69 78be 4ef6 33bc e6c6 133e 4885 d0bd
00000150: bb72 27be a848 dc3e 35fa 00be 4935 733e
00000160: 5dd6 4f3e c259 95bc 9ced bf3e 7b03 063e
00000170: bc4c 973e 81ea b33e d866 55bd e714 d53e
00000180: 1207 4ebe ca1a 8b3e f9a6 053c e378 4ebe
00000190: a42b cabe 1720 53bb 1511 f73e 7e1a 92bb
000001a0: ccef 7b3e 2d3f a0be 61ca a63d 1107 82be
000001b0: af23 debe 7141 8d3e 2f84 29be 3abe 8e3d
000001c0: d594 0dbe 8e99 1ebe df3c b13d a84e 033d
000001d0: e5cd 4abe e7dc 72be 1b4d 953d 2dbc febd
000001e0: ab5e c9be b2a6 c53f 7641 003b 2303 193f
000001f0: 76a1 f13e 53f2 283e 4799 24be 6701 a93d
00000200: 87b1 413e 64f0 aebd 3e2f 783d b9f6 0bbc
00000210: 1179 3abc 6386 8bbd 86d3 6dbe 840b a0bd
00000220: 7e34 883e 2124 df3d bafe 8cbd 9001 06bf
00000230: b743 07bf d8d4 833d 9d6b 1a3f 983a c0be
00000240: 0232 9cbe 90ca 983c ba05 193e 46ca 42bc
00000250: 3b5c e93e f292 dbbd bc81 42be af37 32bf
00000260: 3f54 283e 984c cabb 624c e9be 0240 b93d
00000270: 1535 03bc 2911 8e3e 4127 0dbf 6ca9 9dbe
00000280: e996 66be 25a5 c43d 68f6 383e 8c1f 123e
00000290: 1b99 8b3b 16dc 0b3f 18d2 11be b6b3 4f3e
000002a0: 2550 2fbf 3998 503c 5542 07be 23eb 8bbd
000002b0: f324 593e 43d1 e33c 9c6c e83d 2515 743d
000002c0: 8996 4bbe ae21 7b3e ff28 2cbe 0cd8 2fbe
000002d0: e846 8cbc 288a b63e e8a8 5bbe 7c6a 853e
000002e0: 109b 98bc 91e3 dbbe b177 8e3d d496 ef3d
000002f0: 0926 a33e 1dcb 953d bb72 a6be c01a 86be
00000300: df01 92bc 3ef4 753d a87e 883e fc4b 72bd
00000310: c9eb bc3c d605 803d b05b 07bf c89b 383e
00000320: 5b2a 6dbe f00e e2be 8365 3e3c 72c2 b3be
00000330: 4422 35bf 1f5e ae3b 8acb 073f 0c06 3ebe
00000340: b1c4 29bf 9073 753e 1c2d 9f3e 2a0e 7abe
00000350: 2eca 3b3e 49c4 38be 5be5 1ebf 08f6 d4be
00000360: 994c 9d3d 563a dc3d 8766 bbbe 9701 b13e
00000370: d24d 28be 73ff 803e fe9f 85be 5bef d6be
00000380: 60c5 cd3e 854a 3abe 085e dd3d 85c4 b43e
00000390: 2171 553e c213 eb3e 7fbe 98be 3901 ebbc
000003a0: 0cfe 23bf 55c0 803e 400f 44be fffc bdbe
000003b0: a97d 923e 9e1b 91be cd9a e83d 6338 92bd
000003c0: f044 c3be 9de2 7b3e a002 8d3d 217d f2bd
000003d0: ec3d 8d3d 31c9 d43e 2807 48bf 3f96 ba3d
000003e0: 4d85 bcbe 9ba8 5abe 9402 fb3d ca31 7cbe
000003f0: 70ab 6e3e c585 ee3d c4bc 41be 55cc bb3b
-0.0082610985 -0.015938424 0.14284877 -0.084532954 -0.09884202 0.110309176 -0.08582405 0.0020093315
0.04823346 0.2390159 0.072693735 0.010878459 -0.085473835 -0.31395537 0.0018196208 -0.082296275
0.11103588 -0.1191913 0.09138066 -0.07586472 0.083018385 0.11727266 0.17791958 0.07791947
0.058180552 -0.065097235 0.18526936 0.077446 0.14738184 0.06543151 0.016474497 -0.046567824
0.034229122 -0.043914653 0.036078557 -0.15943626 -0.17867324 0.13360924 0.114560336 0.008969674
-0.014096311 -0.14757995 -0.071466446 0.01049736 -0.05185748 0.2064985 -0.07892173 -0.035760164
0.046006534 -0.05959959 0.06631835 0.02712554 -0.076477654 0.011460773 0.21660395 -0.13396187
-0.06753418 0.22062851 0.0076455367 0.21603951 -0.05776584 -0.07739448 -0.044225506 0.17696667
0.24223544 -0.18190886 0.014932407 -0.21547303 -0.15412517 0.20953615 0.016858563 0.4253212
-0.20687795 0.28527644 0.007857693 0.11146424 0.80349255 -0.35534558 -0.9891581 -0.052602775
-0.2425882 -0.010984017 0.14431342 -0.101816714 -0.1635236 0.43024182 -0.12595446 0.23750795
0.20296617 -0.018231276 0.3748597 0.13087265 0.2955073 0.3513985 -0.052100033 0.4161751
-0.20119885 0.27168876 0.008157485 -0.20163302 -0.3948642 -0.0032215172 0.4825522 -0.0044587245
0.24603194 -0.312982 0.081440695 -0.25396016 -0.433866 0.2758899 -0.1655433 0.069698766
-0.13826306 -0.15488264 0.08654188 0.032057434 -0.19805105 -0.2371708 0.07290097 -0.124382354
-0.39330038 1.5441496 0.0019570268 0.5977041 0.47193497 0.1649869 -0.16074096 0.082522206
0.18915378 -0.085419446 0.06059193 -0.00854271 -0.011381404 -0.068127416 -0.23225221 -0.078146964
0.26602548 0.10895563 -0.06884523 -0.52346134 -0.528377 0.06437081 0.60320455 -0.37544703
-0.30506903 0.018651277 0.14943591 -0.011889046 0.4557818 -0.10721387 -0.18994802 -0.69616216
0.16438387 -0.0061736815 -0.45566088 0.09045412 -0.008008261 0.27747467 -0.5513802 -0.3079332
-0.22518505 0.09601811 0.18062747 0.14269847 0.004260195 0.546327 -0.142403 0.20283398
-0.68481666 0.012731605 -0.13208897 -0.06831958 0.21205501 0.027809745 0.113488406 0.059590477
-0.19881643 0.24524567 -0.16812514 -0.17172259 -0.017123654 0.3565228 -0.21451151 0.26057804
-0.018628627 -0.42947057 0.06956423 0.1169869 0.31864956 0.073141314 -0.32509407 -0.26192284
-0.017823158 0.06004738 0.2665913 -0.059154496 0.02306165 0.06251113 -0.5287428 0.18028176
-0.23160689 -0.4415202 0.011620882 -0.35109288 -0.7075541 0.0053212787 0.5304495 -0.18556994
-0.6631575 0.23969865 0.31089103 -0.24419466 0.18338844 -0.18043627 -0.6206872 -0.41593957
0.076806255 0.10753314 -0.3660166 0.34571525 -0.16435936 0.25194892 -0.26098627 -0.4197949
0.40189648 -0.1819249 0.10808951 0.35306183 0.20843937 0.45913512 -0.29832837 -0.028687106
-0.6405952 0.25146738 -0.19146442 -0.37107083 0.28611496 -0.28341383 0.11357651 -0.07139661
-0.38138533 0.24598165 0.06885266 -0.11840273 0.06896576 0.41559747 -0.7813592 0.091106884
-0.3682045 -0.2135338 0.12256351 -0.24628368 0.23307586 0.11646608 -0.18919665 0.0057311454

lstm.bias_ih_l1 f4 [256]
00000000: 068c f3bf e34d 2dbf 751c 9abf f41d 81bf
00000010: 5d5b a5bf 36ae 32bf d382 04bf 1140 91be
00000020: 026a 04bf b51d e7bf c8e1 d8bf 90f5 15bf
00000030: 6896 e93c 76b2 b9bf 4270 14bf 358b 82bf
00000040: f625 44bf d3f7 ffbf 9048 3cbf e8ec 9dbf
00000050: 0bbf 58bf 8988 84bf 50fe f8be bec1 e03c
00000060: 835b abbf bb21 d0bf fc2d 61bf 4eed bfbf
00000070: ae43 b7bf f0b6 7cbe 9c52 d5be 64a5 a4be
00000080: c4b7 213d 7b56 83bf df42 a9bf 4347 8fbf
00000090: 6cb4 12bf c7fb ffbe 7316 7abf 53db 6abf
000000a0: af51 eabd 42a9 dfbf 03e6 04c0 7782 3bbf
000000b0: 385e 9abf fde1 babf b578 e0bf 53d6 d7bf
000000c0: 9452 eabf 02b7 bebf fa89 efbf 7983 1dbf
000000d0: c9fc f4bf b129 26bf d168 5bbf 5086 f1bf
000000e0: ed48 29bf e148 79be 525e f7bf aeee ccbf
000000f0: d58b b6be 6291 80bf e457 e1bf 8bd3 02c0
00000100: 1c8d 8abf 9b68 f6bf d34d 5fbf b4ca 1fbf
00000110: 37ee b6bf 94df eabf 9e2b afbf fbf3 4cbf
00000120: 9007 21bf 91ce 90bf ba49 b0bf 15c6 98bf
00000130: 9d02 a0bf e24f 4abf fe8f 58bf 0a83 b7bf
00000140: bdb0 83bf 461b 77bf 6e4e 17bf c4ee abbf
00000150: 9cbf 93bf 1b56 6dbf 4760 79bf bb52 d1be
00000160: dead 80bf 94cc 87bf e599 7fbf 70e0 8cbf
00000170: 6441 2fbf 01fd bcbf 2f2e 8fbf e71d b9be
00000180: effa 21be 32a0 91bf 10df edbf 27ed b3bf
00000190: ec8a 04c0 a416 bfbf 347a 64bf e46a cbbf
000001a0: d569 d3bf abc4 86bf ee7f 57bf 5463 9ebf
000001b0: eb99 66bf bfe8 a7bf 22ea 7abf 8c81 7abf
000001c0: 38d8 8cbf f42e 99bf 7f30 7cbf a634 bfbf
000001d0: 54ec 9abf 99bf 1ebf 4d35 25bf 3674 97bf
000001e0: 9d5f 47bf 9051 4bbf 3fb9 7fbf 359b a2bf
000001f0: ac26 94bf 594e 63bf eaa5 7fbf 8de4 80bf
00000200: df21 9b3c 4ccf 753d a0ff b9bc 694f 693d
00000210: c892 e53d 3783 0abd 0599 aebb 4b02 f63b
00000220: 79d3 27bc 4325 713d 6567 53bd a537 0b3d
00000230: 0dd1 043d 10dc 33bd f9f4 25bd 3c52 d03c
00000240: 7af2 2f3c f935 d7bd a9d6 6f3d 3c99 9b3c
00000250: 8e9e a3bd 181a b83c 6acc ba3d bf8d ec3d
00000260: b6ac 833d a634 95bd d263 8bbc d7d1 e13d
00000270: f43d 2abd 5a85 50bd bdb1 2bbc 16ab 033e
00000280: 9798 c0bd 2d15 a3bd b349 fbbc 3460 d0bc
00000290: 8087 993d 3d6a 06bd 0fbd 163d 5a04 92bd
000002a0: e1f1 973d c309 8d3c e549 173d 1ff1 963c
000002b0: 0cd9 643a f230 4cbd f2ba 243d 15af cf3d
000002c0: dda0 85bd 33aa 8bbd 23c7 08bd 955c a73d
000002d0: 8ebf 8b3d 4231 85bd 6923 353d 1bcb 433d
000002e0: eaf6 463c e519 de3c ddf3 003d 8b18 353d
000002f0: bc3c b6bc 38b5 2cbd 3d7e 3d3c 042c db3c
00000300: aaed efbf cb44 26bf 461b 8abf f430 5ebf
00000310: 4b20 a9bf 2921 0ebf 70c3 ffbe a93c acbe
00000320: 2c6e 6ebe 567a e8bf c28b bfbf 85d0 fabe
00000330: db22 7bbc e9c8 a4bf bfcc 08bf cf1e 96bf
00000340: b23e 5abf 18a2 f7bf 00a0 5abf 0c47 adbf
00000350: 1e5c 55bf f399 7cbf 430f 0bbf 65a8 c73d
00000360: 70fd bebf accc c2bf aea9 60bf 518a b6bf
00000370: 7fd5 b8bf 7611 e9be eabf 0bbf 758d 1ebf
00000380: 2001 103e 52b5 84bf eb34 abbf 2d9a a2bf
00000390: 1910 12bf b803 9dbe 2e66 7ebf d671 84bf
000003a0: 2f5e ddbc e774 edbf 30e4 01c0 ce34 5abf
000003b0: 08a2 94bf 0007 c4bf 97af e7bf dca2 d5bf
000003c0: 5e32 d3bf e050 abbf e4ce f8bf 3a47 ffbe
000003d0: 2ec3 dcbf 5151 19bf 454b 58bf 1847 e2bf
000003e0: 560e 15bf 7e6f 85be 4a85 f0bf fc49 d1bf
000003f0: 0a8f d4be 5d56 9ebf 499d f5bf 6610 edbf
-1.9027107 -0.6769697 -1.2039934 -1.0087266 -1.2918507 -0.69797075 -0.5176212 -0.2836919
-0.51724255 -1.8055941 -1.6943903 -0.58577824 0.028514102 -1.4507587 -0.5798379 -1.0198733
-0.76620424 -1.9997505 -0.7354822 -1.2337923 -0.8466651 -1.0354167 -0.48631525 0.027436133
-1.3387302 -1.6260294 -0.8796079 -1.4994295 -1.4317529 -0.2467916 -0.41664588 -0.32157433
0.039481893 -1.0260767 -1.3223532 -1.1193622 -0.5730655 -0.49996778 -0.97690505 -0.9174091
-0.11441361 -1.7473528 -2.0765388 -0.7324595 -1.2060003 -1.4600216 -1.7536837 -1.6862282
-1.8306451 -1.48996 -1.8713982 -0.61528736 -1.9139644 -0.64907366 -0.8570681 -1.8869114
-0.661269 -0.24344207 -1.9325659 -1.6010339 -0.35653558 -1.0044367 -1.7604947 -2.0441616
-1.0824313 -1.9250673 -0.87228125 -0.62418675 -1.4291447 -1.8349481 -1.3685186 -0.80059785
-0.62902164 -1.1313039 -1.37725 -1.193545 -1.2500798 -0.7902814 -0.84594715 -1.4336865
-1.0288311 -0.9652599 -0.5910405 -1.343224 -1.154285 -0.9270951 -0.9741253 -0.4088343
-1.005306 -1.0609307 -0.998442 -1.1005993 -0.68459153 -1.4764711 -1.1185969 -0.36155626
-0.1581838 -1.1377013 -1.8583698 -1.4056748 -2.070979 -1.4928784 -0.8924897 -1.5891995
-1.6516672 -1.0528768 -0.8417958 -1.2374063 -0.9007861 -1.3117903 -0.9801351 -0.9785392
-1.1003485 -1.1967454 -0.985115 -1.4937942 -1.2103372 -0.62011105 -0.64534456 -1.183234
-0.7788027 -0.7942133 -0.9989204 -1.2703615 -1.1574302 -0.88791424 -0.9986254 -1.0069748
0.01893705 0.060012147 -0.0227049 0.056960497 0.11209637 -0.033816542 -0.0053283 0.0075075976
-0.01024329 0.058873426 -0.051612277 0.033988614 0.03242593 -0.04391104 -0.040516827 0.025429837
0.010738963 -0.10508341 0.058554325 0.018993966 -0.07989226 0.02247338 0.0912102 0.115504734
0.06429426 -0.072854325 -0.017015371 0.11026352 -0.04156299 -0.050908424 -0.010479388 0.12858233
-0.09404104 -0.07963023 -0.030674791 -0.025436498 0.07496548 -0.03281616 0.036801394 -0.07129736
0.074191816 0.017216569 0.036935706 0.018425522 0.0008729852 -0.049851365 0.040217347 0.10140816
-0.06524823 -0.06819572 -0.033393037 0.081719555 0.068236455 -0.06503536 0.044223223 0.04780112
0.01214383 0.027111957 0.031482566 0.04421286 -0.022245757 -0.04216501 0.011565742 0.026754387
-1.8744404 -0.6494872 -1.0789573 -0.86793447 -1.321298 -0.5551935 -0.49953794 -0.3364003
-0.23284215 -1.8162334 -1.4964526 -0.48987213 -0.015328134 -1.2873813 -0.5343742 -1.1728152
-0.85251915 -1.9346342 -0.8540039 -1.3537307 -0.83343685 -0.9867241 -0.5432016 0.097489156
-1.4921093 -1.5218711 -0.8775891 -1.4260961 -1.4440154 -0.45521134 -0.5458971 -0.61934596
0.14062929 -1.0367835 -1.3375524 -1.2703301 -0.57055813 -0.306669 -0.99374664 -1.034724
-0.02702245 -1.8551301 -2.0295525 -0.85236824 -1.1611948 -1.5314636 -1.8100461 -1.6690326
-1.6499746 -1.3384056 -1.9438138 -0.4985903 -1.7247064 -0.59889704 -0.8448985 -1.7677946
-0.58225 -0.26061624 -1.8790677 -1.6350703 -0.4151538 -1.2370106 -1.9188625 -1.852063

lstm.bias_hh_l1 f4 [256]
00000000: e8ec dfbf a3c4 2dbf abe9 91bf 5dd4 84bf
00000010: 179e a6bf cee7 33bf 63fb fcbe f40c 80be
00000020: 001d ccbe 2d4e f2bf 5870 d5bf f627 1abf
00000030: 9dc5 013e 22ce b8bf 94f0 d1be 656d 9dbf
00000040: ae27 59bf ace3 06c0 d6d6 6ebf f8c2 9cbf
00000050: 1910 7bbf 57c1 97bf 823c aebe 71e1 1cbe
00000060: 7539 b0bf 954d b7bf 164d 7bbf ccb6 b3bf
00000070: cc54 c2bf 5b05 bebe dc0d 0dbf cebf b3be
00000080: 7e20 e63c b260 71bf fb84 b1bf 6195 96bf
00000090: 077e e2be 9825 b5be 37bc 74bf e79a 83bf
000000a0: f7c9 16be ea63 e2bf f5fa f8bf 5b60 6cbf
000000b0: 52eb 87bf c354 cebf c90c e1bf bb14 d6bf
000000c0: 7add e4bf 9a88 bebf 3aee ebbf db06 0cbf
000000d0: e7d8 f7bf 25c5 4abf 0c0e 79bf 86c3 ebbf
000000e0: 378a 38bf 6ce2 95be 0296 e3bf e45e c4bf
000000f0: 8663 0fbf c45e 7dbf 1281 e6bf 443d f3bf
00000100: b2aa 7cbf 0d6e f3bf 7f1e 78bf c832 39bf
00000110: 8b41 b3bf 04ae f8bf 0052 b0bf 7d4c 47bf
00000120: 7853 04bf dfaa a2bf 580f a6bf 0b1e 91bf
00000130: 7366 94bf b827 1fbf f6b7 4abf 96aa ccbf
00000140: b7ce 83bf a0d9 52bf ae33 36bf 00f4 98bf
00000150: f4f1 7bbf dfac 82bf 8ba5 5cbf 533e 7fbe
00000160: 402a 6dbf b23b 9fbf e746 98bf ae22 9dbf
00000170: 9a99 3ebf 3d7a c9bf 796e 9bbf 70eb fdbe
00000180: 5140 11be c264 8dbf 240a d8bf cdf4 bdbf
00000190: f03d f9bf c6c3 d1bf 7077 7cbf 7e39 b1bf
000001a0: 8bf6 d4bf 15c3 85bf 973a 81bf aeea 93bf
000001b0: df70 5ebf 5feb 98bf 9e26 80bf fcce 6dbf
000001c0: f0eb 90bf 884f aabf 4b38 68bf 72ec b9bf
000001d0: efa2 8dbf 259d dbbe 3f00 61bf 5c07 89bf
000001e0: 8b48 42bf fea0 33bf 19df 92bf 4f20 90bf
000001f0: ffb7 6bbf 93e3 69bf 42d5 72bf 28a6 61bf
00000200: 26a3 95bd 8ab9 c23c de16 f43c d995 b6bd
00000210: 6e4c a8bd 9937 26bd 52d8 9a3d 679d 90bc
00000220: 03da af3c 0f92 5abd dc43 483c a34d 203c
00000230: 4019 a83b e676 153d 7050 033b 7d29 fc3c
00000240: 760c e33d 1f39 c63d 68c2 b1bd cd96 bc3b
00000250: a70d 343d d917 593c 296d 463e 7055 9f3b
00000260: 623d 27bd f8ae d63d 2197 833d a978 b8bd
00000270: 5cb2 103d a764 ec39 9efc 643d 54bd 35bd
00000280: c4fb 293d 0194 823d 627d d53d ead5 99bc
00000290: 053c a53c 5372 d6bc 30a4 10ba 549f 043d
000002a0: 2a51 cbbc 32f4 25bd 89d6 15bc 2338 c2bc
000002b0: 5027 3a3b c284 b13d a460 74bd 9bc7 95bd
000002c0: daec 4e3d 8977 533c bb63 653d 16ce 03bd
000002d0: 547c c9bd 94e3 9fbd fbb0 1f3e 52a0 ccbc
000002e0: a891 33bc a286 eebb 26cd f4bb 9cd7 13bc
000002f0: 55b3 583d 0568 aa3c 22fe 583c ded9 fc3b
00000300: 5e01 ebbf 2dec 25bf ae0f 96bf 9ac3 5cbf
00000310: df02 b1bf 0317 11bf 6087 1dbf ff71 c4be
00000320: 17e3 c6be 0a9e 00c0 7259 c1bf 1e6b 1bbf
00000330: 4509 1ebd eb11 9fbf ecfd c9be 8300 85bf
00000340: b817 78bf 4eea fabf c887 64bf 3e0e a9bf
00000350: e9a6 80bf 72a8 98bf cbab 16bf 384d 9abc
00000360: 2c5e c4bf 86fa d2bf fe67 81bf 2186 b6bf
00000370: 997a c9bf ac28 c0be 8d0e bfbe 41fb 1ebf
00000380: 4cd2 813e e67a 6bbf 312d a7bf 7d30 8fbf
00000390: 99ba eebe 0e3e d5be 9e4e 72bf a3cf 80bf
000003a0: 9568 2abe 9932 efbf ff61 ffbf 0e00 36bf
000003b0: 0cad 9abf a824 d8bf 8308 dcbf 5c6f babf
000003c0: 8000 e5bf 4e36 b5bf aa1e f8bf adf4 1ebf
000003d0: a47e f2bf df64 39bf b44f 74bf 5cb1 e7bf
000003e0: 4412 36bf 59ba 42be 8efd f9bf 4819 d4bf
000003f0: d4bd e3be b54e 89bf 6d53 fabf 0ce3 f4bf
-1.7494173 -0.6787817 -1.1399435 -1.0377308 -1.3016995 -0.7027558 -0.49410543 -0.25009882
-0.39865875 -1.8930107 -1.667491 -0.60217226 0.1267304 -1.4437907 -0.4100386 -1.229901
-0.8482617 -2.107646 -0.93296564 -1.2247 -0.9807144 -1.1855878 -0.3403054 -0.15320374
-1.3767534 -1.4320551 -0.981645 -1.404016 -1.5182128 -0.3711346 -0.5509927 -0.35107273
0.028091665 -0.9428817 -1.3868707 -1.1764337 -0.44236776 -0.35380244 -0.95599693 -1.0281647
-0.14725481 -1.7686741 -1.9451586 -0.92334527 -1.0618689 -1.6119617 -1.7582027 -1.6725076
-1.7880089 -1.4885437 -1.8432076 -0.5469796 -1.9363068 -0.7920707 -0.9728706 -1.8419044
-0.720859 -0.2927431 -1.7780154 -1.5341458 -0.56011236 -0.98972726 -1.8008139 -1.9003072
-0.9869796 -1.901796 -0.96921533 -0.7234311 -1.4004377 -1.9428105 -1.3775024 -0.77851087
-0.51689863 -1.2708396 -1.2973433 -1.1337293 -1.1593765 -0.6216998 -0.7918695 -1.5989559
-1.0297459 -0.8236332 -0.71172607 -1.1949463 -0.98416066 -1.0209006 -0.861901 -0.24926119
-0.92642593 -1.2440093 -1.1896638 -1.2276208 -0.7445313 -1.5740429 -1.2143089 -0.49593687
-0.14184691 -1.1046374 -1.6878095 -1.4840332 -1.9472027 -1.638787 -0.9861975 -1.384567
-1.6637739 -1.0450159 -1.0096005 -1.1555994 -0.8689098 -1.194683 -1.0011785 -0.9289396
-1.1322002 -1.3305521 -0.90710896 -1.4525282 -1.1065348 -0.4289333 -0.87891 -1.0705371
-0.7589194 -0.7016753 -1.1474334 -1.125986 -0.9207763 -0.91362876 -0.94856656 -0.8814416
-0.07306509 0.023770113 0.02979606 -0.089153 -0.08217703 -0.040580366 0.07560791 -0.01765318
0.02146626 -0.05336195 0.01222321 0.009784135 0.005129963 0.036490344 0.0020036958 0.030781502
0.11086361 0.09678864 -0.08679658 0.0057552815 0.043958332 0.013250315 0.19377579 0.00486248
-0.040830024 0.104825914 0.0642531 -0.09007389 0.035326347 0.0004508842 0.055904977 -0.04437001
0.041499868 0.06375886 0.104243055 -0.01877876 0.020170221 -0.02617756 -0.000551763 0.03237851
-0.024818975 -0.040516086 -0.009145387 -0.023708409 0.002840478 0.086679 -0.059662476 -0.07313462
0.050518848 0.012906917 0.056003314 -0.03217896 -0.09838167 -0.07807079 0.15594856 -0.02497879
-0.01096002 -0.007279233 -0.0074707447 -0.009023573 0.0529054 0.020801554 0.013244184 0.0077164015
-1.8359792 -0.648135 -1.1723535 -0.86235964 -1.3829001 -0.5667574 -0.6153469 -0.38368222
-0.3884513 -2.009646 -1.5105422 -0.6071032 -0.03858306 -1.2427343 -0.3945154 -1.0390781
-0.9691119 -1.9602754 -0.89269686 -1.3207471 -1.0050937 -1.1926405 -0.58855885 -0.018835649
-1.5341239 -1.6482704 -1.0109861 -1.4259683 -1.5740539 -0.3753103 -0.3731579 -0.62102133
0.25355756 -0.91984403 -1.3060666 -1.1186672 -0.46626738 -0.41648906 -0.9465121 -1.0063366
-0.16641457 -1.8687316 -1.9951781 -0.71093833 -1.208406 -1.6886187 -1.7190098 -1.4565234
-1.7890778 -1.4157197 -1.9384358 -0.62092096 -1.8944898 -0.7241954 -0.9543412 -1.8101001
-0.7112162 -0.19016398 -1.9530504 -1.6570215 -0.44480765 -1.0727144 -1.955671 -1.9131789
