Code/698/10step_5horizon/models/lstm/5step_5horizon_RMSE_84.pth (torch, 335227 bytes, 11 tensors)

lstm.weight_ih_l0 f4 [256, 85]
0	0x3e7f42e4	0.2492786
1	0x3e2fd88e	0.17172453
2	0xbe01292c	-0.12613362
3	0x3dc314ae	0.09525429
4	0x3dda70a9	0.106660195
5	0xbe63fcb3	-0.22264366
6	0xbf1c62af	-0.6108808
7	0xbd96df04	-0.073667556
8	0xbcccc761	-0.024997415
9	0xbe451049	-0.19244494
10	0xbea87ea6	-0.32909125
11	0x3e8f4a34	0.279863
12	0xbe7b7a93	-0.24558477
13	0x3e616c61	0.22014
14	0xbe0d1df4	-0.13780957
15	0xbe2f934a	-0.1714603
16	0xbe0d4350	-0.13795209
17	0x3da46c8d	0.08028517
18	0xbe4415b0	-0.19148898
19	0xbd9d3ced	-0.07677636
20	0xbe01ce61	-0.12676384
21	0xbe0b102a	-0.13580385
22	0xbead7461	-0.33877853
23	0xbf4f60db	-0.81007165
24	0x3ed38205	0.41310135
25	0xbe91d43f	-0.28482243
26	0xbe16c7e8	-0.14724696
27	0x3e86a110	0.26294756
28	0x3e4b23aa	0.19837824
29	0xbf51fa69	-0.8202272
30	0x3e81dd82	0.2536431
31	0xbf111348	-0.56670046
32	0x3e4b0b4b	0.19828527
33	0xbd0dcefe	-0.03462123
34	0x3f08dd11	0.5346232
35	0xbd5edbc7	-0.054408815
36	0x3e85711c	0.26062858
37	0xbec1c3d1	-0.3784471
38	0xbe8d488b	-0.27594408
39	0x3e02e2cc	0.12781829
40	0xbdcbfb2c	-0.099600166
41	0x3f62e8a8	0.88636255
42	0x3eda96be	0.42693132
43	0xbe80015b	-0.25001034
44	0x3e384308	0.1799432
45	0x3e72cba6	0.23710498
46	0xbe5378f5	-0.2065161
47	0xbd6a326b	-0.05717699
48	0x3eb63bb5	0.35592428
49	0x3d689e85	0.0567918
50	0xbdf167de	-0.11787389
51	0x3dd8bed9	0.10583276
52	0xbd23458d	-0.03986125
53	0xbe6ac430	-0.22926402
54	0xbf3cbfe0	-0.7373028
55	0xbfa9b795	-1.325915
56	0xbeb0c3d8	-0.34524417
57	0x3d96ed28	0.07369453
58	0x3e41ea85	0.18937118
59	0xbe0a342e	-0.13496467
60	0x3c779f90	0.015113726
61	0xbe253135	-0.16132052
62	0xbe0ae1a4	-0.13562638
63	0xbd7d4e42	-0.06184221
64	0x3c881b56	0.016614597
65	0x3da301b9	0.07959313
66	0xbdcdd90a	-0.100511625
67	0xbe41102c	-0.18853825
68	0xbe404459	-0.18776073
69	0xbe91c1f3	-0.28468284
70	0xbedcf574	-0.43156016
71	0xbd557656	-0.052114807
72	0x3b134b0f	0.0022475158
73	0x3e8b67c2	0.27227598
74	0x3d036cc1	0.032086138
75	0xbec90315	-0.39260164
76	0x3ee4f531	0.44718316
77	0xbdb14ad7	-0.08656853
78	0x3e75ff76	0.24023232
79	0x3e326dbc	0.17424673
80	0xbe2ac5e2	-0.16677049
81	0x3edb4abe	0.4283046
82	0xbe2f73e5	-0.17134054
83	0x3d726065	0.05917396
84	0x3e051618	0.1299671
85	0xc01c7a58	-2.4449673
86	0xbe9a2b2a	-0.30111057
87	0xbe5c8138	-0.21533668
88	0x3e2544b3	0.16139488
89	0x3e52e00b	0.20593278
90	0xbc5ef0fe	-0.013607262
91	0xbdc95557	-0.098307304
92	0x3e1f0eed	0.15533037
93	0x3b754d00	0.0037429929
94	0x3e26fe9b	0.16308062
95	0xbe968cce	-0.294043
96	0xbe9112f7	-0.28334782
97	0x3f544933	0.82924193
98	0xbf32fa0e	-0.69912803
99	0x3db1dc3d	0.08684585
100	0xbf78abc4	-0.97137094
101	0xbeabe604	-0.33573925
102	0xbdff9ba0	-0.12480855
103	0xbd9afd6f	-0.0756787
104	0x3e561af3	0.20908718
105	0xbd87708b	-0.06613263
106	0x3d8a56c9	0.06754834
107	0xbd298ec6	-0.041395925
108	0xbf09d843	-0.53845614
109	0x3ec32a01	0.38117984
110	0xbebed708	-0.3727343
111	0xbeb38027	-0.3505871
112	0xbe62fdf1	-0.22167183
113	0x3e253c20	0.16136217
114	0xbeda9b38	-0.42696548
115	0xbcadf3a8	-0.021234348
116	0xbcede84c	-0.029041432
117	0x3e867710	0.26262712
118	0x3d7b3679	0.061331246
119	0x3dc71e25	0.097225465
120	0x3f9c90ba	1.2231667
121	0x3efd5929	0.49482086
122	0x3ecfc57c	0.40580356
123	0x3d5341f7	0.05157658
124	0xbed975ea	-0.42472774
125	0xbfaa57a2	-1.3307993
126	0xbefebe0a	-0.49754363
127	0xbe0d8826	-0.13821468
128	0xbd585475	-0.05281492
129	0x3d6bb09f	0.057541486
130	0xbfba87a6	-1.4572647
131	0xb955a2b3	-0.00020373873
132	0x3ea5f004	0.3240968
133	0xbdce59e2	-0.100757375
134	0xbe1d076b	-0.15334861
135	0xbeb4e36f	-0.35329768
136	0x3edd3eb1	0.43211892
137	0xbdb15b0b	-0.08659943
138	0xbec308a3	-0.38092527
139	0xbee67174	-0.45008433
140	0xbd7445d7	-0.059636917
141	0xbeba8cd3	-0.36435565
142	0xbe369041	-0.17828466
143	0x3da4cec8	0.08047253
144	0xbb34e63a	-0.0027603046
145	0x3e09e6e9	0.13466991
146	0xbcdfe3aa	-0.027330238
147	0x3e1b7417	0.15181004
148	0x3dfc1995	0.12309567
149	0x3d7219aa	0.059106506
150	0xbe92a1ee	-0.28639168
151	0x3dd7e146	0.105410144
152	0x3dc69583	0.09696486
153	0x3e860ca3	0.26181516
154	0xbdb5c1ad	-0.08874831
155	0xbe5c6091	-0.21521212
156	0xbe2c18bc	-0.1680631
157	0xbcad3aa7	-0.021146132
158	0xbebff610	-0.37492418
159	0xbe7ff3b6	-0.24995312
160	0xbd9bda61	-0.07610012
161	0x3c6f9e9a	0.014625216
162	0x3e22dfe5	0.15905721
163	0x3d9a96b6	0.07548277
164	0xbe5859f1	-0.2112806
165	0x3e7cfbe8	0.2470547
166	0x3edd2f07	0.43199942
167	0x3de47967	0.11155968
168	0x3db412a9	0.08792622
169	0xbd91c16b	-0.0711697
170	0xbf11514d	-0.5676468
171	0xbd9544c6	-0.07288508
172	0xbd80c124	-0.06286839
173	0xbe2c8946	-0.1684924
174	0x3e4cd993	0.20004873
175	0x3e151187	0.14557467
176	0xbef33012	-0.47497612
177	0x3c37a2bb	0.011208232
178	0xbd1377f9	-0.036003087
179	0x3dee6d53	0.11641946
180	0xbedf8439	-0.43655565
181	0xbdb7d58e	-0.08976279
182	0x3eadc451	0.3393884
183	0x3ebf96b3	0.37419662
184	0xbdb68e6a	-0.08913882
185	0xbf55428b	-0.8330466
186	0xbe020e81	-0.12700845
187	0x3d85bfe1	0.065307386
188	0x3e3f7ddd	0.18700357
189	0x3d7fc26a	0.062441267
190	0xbe82cc9d	-0.25546733
191	0xbd40618c	-0.046968028
192	0x3e873b0a	0.2641223
193	0x3d7cc4bf	0.06171107
194	0x3e3f8442	0.18702796
195	0x3daa3eb2	0.083127394
196	0x3e2dbec3	0.16967301
197	0xbe079154	-0.13239032
198	0xbd65aff2	-0.056075998
199	0x3e91cdb0	0.2847724
200	0xbda1269c	-0.07868692
201	0xbf802d44	-1.0013814
202	0x3e141859	0.14462413
203	0x3e67bade	0.22629878
204	0x3dfa0a90	0.12209046
205	0x3f5515d9	0.8323646
206	0xbe9826f6	-0.29717225
207	0xbe9ec184	-0.31007016
208	0x3e8bcd7b	0.27305207
209	0xbeb52101	-0.35376742
210	0xbe8af3ea	-0.27139217
211	0x3d973dfb	0.07384869
212	0xbe42bd92	-0.19017628
213	0xbe6c2a70	-0.23063064
214	0x3dfd309a	0.12362786
215	0x3e844c3b	0.2583941
216	0xbe5f4a1a	-0.21805611
217	0x3eb87fb6	0.36034936
218	0x3e351f94	0.17687827
219	0xbdd3a245	-0.10333685
220	0x3f91d629	1.1393481
221	0x3ed55cd5	0.41672388
222	0xbe07dadc	-0.13267082
223	0x3e913a78	0.2836492
224	0x3e633e1e	0.22191665
225	0x3ea1007b	0.3144568
226	0xbe065e29	-0.13121857
227	0xbe577c29	-0.21043457
228	0x3e664869	0.2248856
229	0x3e63a742	0.22231773
230	0xbd98b324	-0.07456043
231	0x3dc79411	0.09745038
232	0x3e76b102	0.2409096
233	0x3de5682a	0.11201508
234	0xbcec34f8	-0.028833851
235	0xbdeb02b2	-0.114751235
236	0xbea27a5f	-0.31733987
237	0x3c99f7cb	0.018794915
238	0xbe47d1a5	-0.19513567
239	0xbe70f865	-0.23532255
240	0x3da8162a	0.082073525
241	0xbd3f6ac6	-0.046732686
242	0x3dc9caaf	0.09853112
243	0x3c051cd4	0.008124549
244	0x3c13a0f1	0.009010539
245	0x3e3429d9	0.17594089
246	0xbc751317	-0.014958165
247	0xbd596f7f	-0.053084847
248	0xbd58fd08	-0.052975684
249	0x3e75548d	0.23958035
250	0x3e88c675	0.2671391
251	0x3f602a6b	0.87564725
252	0xbeaabca5	-0.3334705
253	0xbe0f7691	-0.14010073
254	0x3e8423dc	0.2580861
255	0xc04de7dd	-3.2172768

lstm.weight_hh_l0 f4 [256, 64]
0	0x3df15ad6	0.11784904
1	0x3d179548	0.0370076
2	0xbd89391a	-0.067003444
3	0x3d9a635c	0.075384825
4	0xbdcfd05c	-0.10147163
5	0xbd7e0188	-0.06201318
6	0x3dfeae2e	0.12435566
7	0x3c8eae70	0.017417163
8	0x3d2cb5c4	0.042165533
9	0x3ce0ee00	0.027457237
10	0x3d0d9c00	0.0345726
11	0xbd90e6ce	-0.070752725
12	0xbd86d87c	-0.0658426
13	0xbde244d6	-0.11048286
14	0x3d2f1e08	0.04275325
15	0x3d9f74b6	0.07785933
16	0xbbf2dc60	-0.0074115247
17	0x3cb5ae40	0.022177815
18	0x3df17fa8	0.117919266
19	0x3c3cec20	0.011530906
20	0xbcd64be0	-0.026159227
21	0xbcf655d8	-0.03007023
22	0x3dd51d18	0.1040594
23	0x3daca09a	0.0842907
24	0x3dbdf676	0.09275524
25	0xbbcd8760	-0.0062722415
26	0xbba4b400	-0.0050263405
27	0x3d820704	0.063489944
28	0x3dc1632c	0.09442744
29	0xbd653888	-0.055962116
30	0xb9e18800	-0.00043016672
31	0xbde4435c	-0.1114566
32	0x3c8c6500	0.017138004
33	0xbd278548	-0.04089859
34	0x3d5ad8ec	0.05342953
35	0x3ddc478c	0.10755834
36	0x3c38b1c0	0.011272848
37	0xbd1dd070	-0.03852886
38	0x3c344f60	0.011005253
39	0x3de5d3c2	0.1122203
40	0xbc858ad0	-0.016301543
41	0x3dc0b1e2	0.094089285
42	0x3de59e2c	0.112118095
43	0x3da8d10a	0.08242996
44	0xbcce1528	-0.025156572
45	0x3cafde38	0.021468267
46	0x3da64c78	0.08120054
47	0xbcdf31c8	-0.027245417
48	0x3c328a00	0.01089716
49	0xbdb9c032	-0.090698615
50	0x3da6f9c4	0.08153108
51	0x3dc965fa	0.098339036
52	0xbd06ce2c	-0.032911465
53	0xbdf592d6	-0.11990897
54	0xbd2a4780	-0.041572094
55	0x3d1811fc	0.037126526
56	0xbcc257f8	-0.023723587
57	0x3daef8fe	0.08543585
58	0x3c1f1a60	0.009710878
59	0xbdb184fe	-0.08667944
60	0xbd1e6568	-0.038670927
61	0xbdc54cde	-0.09633802
62	0xbca4e350	-0.020127922
63	0x3dbddc16	0.09270494
64	0x3d010ed0	0.031508267
65	0xbda84612	-0.0821649
66	0x3cbae088	0.022812143
67	0xbd4b5e2c	-0.049650356
68	0xbd4c6534	-0.049901202
69	0x3dc59bb0	0.09648836
70	0x3cc7b160	0.024376571
71	0x3d324f4c	0.043532655
72	0x3dbb9108	0.09158522
73	0x3daed790	0.08537209
74	0x3ceec608	0.029147163
75	0x3dc70634	0.0971798
76	0xbd244204	-0.04010202
77	0xbd65734c	-0.05601816
78	0x3c92ab10	0.017903835
79	0x3cae3e60	0.021269977
80	0x3ddc245e	0.10749124
81	0x3d65ce18	0.05610475
82	0x3cc38300	0.023866177
83	0xbd533718	-0.051566213
84	0x3d85befe	0.065305695
85	0xbdcfd244	-0.10147527
86	0x3d369df4	0.04458423
87	0x3d33bddc	0.043882236
88	0xbd8427ec	-0.06452927
89	0xbc6d2eb0	-0.014476463
90	0x3de99924	0.114061624
91	0xbd8f103a	-0.06985517
92	0xbdf7dc2e	-0.12102543
93	0xbcbec398	-0.023286626
94	0xbc8c5668	-0.017131045
95	0x3c955b80	0.018232107
96	0x3dfaeb42	0.12251903
97	0xbcf6e230	-0.030137151
98	0xbdc35936	-0.095385
99	0x3d8a74ba	0.06760545
100	0xbdc4eff6	-0.096160814
101	0xbd614d5c	-0.055005416
102	0x3c16cb80	0.009203792
103	0xbc831b08	-0.0160041
104	0xbd75b9bc	-0.059991583
105	0xbdd90f96	-0.10598676
106	0xbd9d651e	-0.07685302
107	0xbdcde4d0	-0.10053408
108	0x3de0d1b0	0.10977495
109	0x3cfa66d8	0.030566618
110	0x3dfb710e	0.12277423
111	0x3dfba686	0.12287621
112	0x3d712d9c	0.058881387
113	0x3df061f0	0.1173743
114	0xbd5de80c	-0.054176375
115	0xbbef47e0	-0.0073022693
116	0xbd2fa484	-0.042881504
117	0xbc308030	-0.01077275
118	0xbdb76d68	-0.089564145
119	0x3d7b3a4c	0.061334893
120	0x3d9c9138	0.07644886
121	0xbd9af0b6	-0.07565443
122	0xbd45eb18	-0.048319906
123	0xbdfd2c22	-0.12361933
124	0xbdd840f2	-0.10559262
125	0xbd0a22f4	-0.03372474
126	0xbcfc7378	-0.030816779
127	0x3b97f840	0.004637748
128	0x3defc380	0.117072105
129	0x3a804d80	0.0009788722
130	0x3c0264e0	0.007958621
131	0x3d40605c	0.046966895
132	0x3d841ee4	0.064512044
133	0xbdef7014	-0.11691299
134	0x3d9e2a34	0.07722893
135	0xbd5c4998	-0.053781122
136	0xbdaf3b26	-0.085562035
137	0x3d88b0e8	0.06674367
138	0x3ce8a308	0.028398052
139	0xbd52c934	-0.051461414
140	0xbd10a618	-0.03531465
141	0xbcd215b8	-0.025645122
142	0x3db21dec	0.086971134
143	0x3c8cc6c8	0.01718463
144	0x3ceb3f40	0.028716683
145	0xbd8762fc	-0.06610677
146	0x3d80e0da	0.06292887
147	0x3d8d973c	0.06913611
148	0xbd7e3678	-0.062063664
149	0x3d3f4180	0.046693325
150	0xbd6fbce4	-0.05852975
151	0x3d9aca60	0.07558131
152	0x3d6aaf58	0.057296127
153	0xbddf2468	-0.10895616
154	0xba145e00	-0.0005659759
155	0xbd3b2448	-0.045688897
156	0x3ddcf1d0	0.107883096
157	0xbdef15de	-0.11674093
158	0x3dae150a	0.08500107
159	0x3db52676	0.088452265
160	0x3ddfd858	0.10929936
161	0x3d82ede8	0.06393033
162	0x3d6cee18	0.05784425
163	0x3dab9662	0.083782926
164	0xbcf789c8	-0.030217066
165	0x3b416500	0.0029509664
166	0x3d04bef8	0.032408684
167	0x3c31aeb0	0.010844871
168	0x3dc6e1e6	0.097110555
169	0x3d9829e6	0.074298665
170	0xbdb5c2a6	-0.08875017
171	0xbc280980	-0.010256171
172	0xbde9d3be	-0.1141734
173	0x3dfdc334	0.12390748
174	0xbd2eb2d0	-0.042650998
175	0x3d4b2690	0.049597323
176	0x3dd22022	0.10260035
177	0xbcb982a0	-0.022645295
178	0xbde028c8	-0.109452784
179	0xbda4856a	-0.08033259
180	0xbdc57d44	-0.09643033
181	0xbd9a42fe	-0.07532309
182	0xbdee0412	-0.1162187
183	0x3cdd8ae0	0.02704376
184	0x3dfdbd5c	0.12389633
185	0x3d1df204	0.038560882
186	0xbd4edafc	-0.05050181
187	0x3def31ea	0.11679442
188	0x3dfe576a	0.12419017
189	0xbd9ca638	-0.07648891
190	0x3da16908	0.07881361
191	0xbceb42a8	-0.028718308
192	0xbd41f318	-0.047350973
193	0xbd83328a	-0.06406124
194	0x3ab07400	0.0013462305
195	0xbd9db980	-0.07701397
196	0x3d9e6b86	0.07735352
197	0xbd5cb308	-0.053881675
198	0x3dce1aa4	0.10063675
199	0xbdc458e2	-0.095872656
200	0x3d8859c4	0.066577464
201	0x3db5c836	0.08876078
202	0x3d88da32	0.066822425
203	0x3cbdb998	0.023159787
204	0x3d7c2e58	0.061567634
205	0x3c2a09f0	0.010378346
206	0xbd841a48	-0.06450325
207	0x3de1f994	0.110339314
208	0x3de91944	0.11381772
209	0xbd7ce578	-0.061742276
210	0xbdc9cb0a	-0.0985318
211	0xbd1c9db4	-0.038236335
212	0xbcd08980	-0.02545619
213	0x3dbf64ac	0.093453735
214	0xbdd2c83a	-0.102920964
215	0xbc47e730	-0.0122011155
216	0x3d970a82	0.07375051
217	0xbc2d7710	-0.010587469
218	0xbdd9efbc	-0.10641429
219	0x3d939418	0.07205981
220	0x3cf69cc0	0.030104041
221	0xbdf8c0b2	-0.12146129
222	0x3a701300	0.00091581047
223	0x3da5ae1a	0.08089848
224	0x3df2c0f6	0.11853211
225	0x3c46c6d0	0.0121323615
226	0xbd4507f8	-0.048103303
227	0x3dd5c84c	0.10438594
228	0xbd93b59c	-0.072123736
229	0xbd899d0a	-0.06719406
230	0xbdd6ef70	-0.10494888
231	0xbced5980	-0.028973341
232	0xbd454d20	-0.048169255
233	0xbdab631e	-0.083685145
234	0x3dab3b28	0.083608925
235	0xbca192e0	-0.019723356
236	0x3defc194	0.11706844
237	0xbd0ff214	-0.035142973
238	0x3d703400	0.05864334
239	0x3cf2f6c0	0.029658675
240	0xbdff3a72	-0.124623194
241	0x3de48ac6	0.111592814
242	0x3d110d68	0.035413176
243	0xbc8c4fb0	-0.017127842
244	0x3db29c84	0.08721259
245	0x3d03ef50	0.032210648
246	0xbd62e910	-0.055398047
247	0xbc06f480	-0.008237004
248	0x3db6607c	0.08905122
249	0xbd351f30	-0.044219196
250	0xbdb4b2ba	-0.08823152
251	0x3d6c752c	0.05772893
252	0xba93cc00	-0.0011276007
253	0x3d70be4c	0.05877523
254	0xbdb74442	-0.08948566
255	0x3d8d4a18	0.06898898

lstm.bias_ih_l0 f4 [256]
0	0xc00cdd8f	-2.2010229
1	0xbfd7ae3d	-1.6850048
2	0xbfef3ac5	-1.868981
3	0x3e8c8fd7	0.2745349
4	0xbff787a0	-1.9338264
5	0xc003c147	-2.0586717
6	0xbe6aa1dd	-0.22913308
7	0xbf96162a	-1.1725514
8	0xc00074e7	-2.0071352
9	0xc01410b7	-2.3135202
10	0xc0112065	-2.2676022
11	0xbce544c7	-0.027986897
12	0xc00d8c8f	-2.211704
13	0x3ef38292	0.47560555
14	0x401467f0	2.3188438
15	0xbfe0c254	-1.7559304
16	0xbfbb312c	-1.4624381
17	0xbff31e70	-1.8993664
18	0xc00727e6	-2.1118102
19	0xbfabc1cc	-1.3418517
20	0xbfcc59f5	-1.5964953
21	0xbfe67f2e	-1.8007562
22	0xbfcaf196	-1.5854976
23	0xbf02ce6a	-0.5109621
24	0xbf13825d	-0.57620794
25	0xbf990c3e	-1.1956861
26	0xbfba029f	-1.453205
27	0xbff65f48	-1.9247828
28	0xbf8f79bd	-1.1209027
29	0xbfe937e6	-1.8220184
30	0xbfdf651b	-1.745273
31	0xc013e3d8	-2.3107815
32	0xc00585c8	-2.0862904
33	0xbfca1329	-1.5787097
34	0xbf8995e0	-1.0748863
35	0xbfb20c57	-1.3910016
36	0xc00bc141	-2.1836703
37	0xc0152420	-2.33033
38	0xbfea205e	-1.8291128
39	0xbfd10d62	-1.6332209
40	0xbff65210	-1.9243793
41	0xbff3795d	-1.9021412
42	0xbf6d969e	-0.9280795
43	0xc0106b13	-2.2565353
44	0xbf78e796	-0.9722837
45	0xbf407c8f	-0.7519006
46	0xbfe454c8	-1.7838373
47	0x4027f85e	2.6245341
48	0xbfe15423	-1.7603801
49	0xbfeb4b73	-1.83824
50	0xbfd2fc36	-1.6483219
51	0xc006a0ff	-2.1035764
52	0xbfad1388	-1.3521585
53	0xbfd064e6	-1.6280792
54	0x408a5e8a	4.3240404
55	0xbfd083c2	-1.6290209
56	0xbfa946d3	-1.3224739
57	0x3eaefce4	0.34177315
58	0xbfae7b28	-1.3631334
59	0xbff4f869	-1.9138309
60	0xbfba72d1	-1.4566289
61	0xbf1e8bf0	-0.6193228
62	0xbfdd0f1f	-1.727024
63	0xbfcf392e	-1.6189325
64	0x3d29bfc8	0.041442662
65	0xbdcf88a4	-0.10133484
66	0xbd22b33c	-0.039721712
67	0xbddc897c	-0.107684106
68	0xbdd8f9a6	-0.10594492
69	0xbcf3c260	-0.029755771
70	0x3d464230	0.048402965
71	0x3d428d24	0.047497883
72	0x3da2f4c0	0.079568386
73	0x3d15c04c	0.03656034
74	0x3c0bfe70	0.008544549
75	0x3d359cc0	0.04433894
76	0xbdeaabc2	-0.114585415
77	0x3be7b9a0	0.007071689
78	0xbdcd00ea	-0.1000994
79	0x3deb11f2	0.11478032
80	0xbbee5de0	-0.0072743744
81	0x3c1c9c00	0.009558678
82	0xbdc78a1a	-0.09743138
83	0x3df168da	0.11787577
84	0x3c24cd50	0.010058716
85	0xbdacd280	-0.08438587
86	0xbd90623a	-0.07049985
87	0xbd62a17c	-0.055329785
88	0xbc818ae0	-0.015813291
89	0xbc37e960	-0.0112250745
90	0x3bad60a0	0.0052910596
91	0x3d332014	0.043731764
92	0x3dc7a426	0.09748106
93	0xbd831076	-0.06399624
94	0xbcfc9af8	-0.030835614
95	0x3c1c12d0	0.00952597
96	0xbdea6f28	-0.114469826
97	0xbd680840	-0.056648493
98	0x3dffa7dc	0.124831885
99	0x3d354bac	0.04426162
100	0xbdf09f0c	-0.11749086
101	0x3deb9290	0.11502564
102	0x3c8245e0	0.01590246
103	0x3d8cef02	0.068815246
104	0x3da9d322	0.082922235
105	0x3dee0526	0.11622076
106	0xbdba7fc6	-0.09106402
107	0x3c341ba0	0.010992914
108	0xbc1537c0	-0.00910753
109	0x3d065840	0.032799006
110	0xbc5b0790	-0.013368502
111	0x3ce6f470	0.028192729
112	0x3dc0eaa6	0.09419756
113	0xbca0ee28	-0.019644812
114	0x3d82652e	0.06366955
115	0x3d0849e0	0.033273578
116	0xbca79cb0	-0.020460457
117	0xbd949e58	-0.07256764
118	0xbb881080	-0.0041523576
119	0xbdaf2f2a	-0.08553918
120	0x3dafd68e	0.08585845
121	0xbd21af80	-0.03947401
122	0x3cdde990	0.02708891
123	0x3cc273a8	0.02373679
124	0xbd303b48	-0.043025285
125	0x3b926b20	0.0044683367
126	0xbde97608	-0.11399466
127	0xbcce3ec0	-0.025176406
128	0xbea554ee	-0.3229136
129	0xbde3f284	-0.111302406
130	0x3e817524	0.25284684
131	0x3d8f0eb9	0.0698523
132	0xbe1cfd5c	-0.15331024
133	0xbc079c90	-0.0082770735
134	0x3e08ccaf	0.1335933
135	0xbf2d82b0	-0.6777754
136	0x3e5fb273	0.21845417
137	0x3d2171b8	0.03941509
138	0xbf2c0487	-0.6719441
139	0x3d92d12a	0.07168801
140	0xbe97a5c4	-0.29618657
141	0x3ee1fd76	0.44138688
142	0xbf5adf6e	-0.85497177
143	0xbf0da6b3	-0.5533249
144	0xbd1fd295	-0.039019186
145	0xbcfad267	-0.030617906
146	0x3df774e7	0.12082844
147	0xbe2f471f	-0.17116974
148	0xbf1ed585	-0.62044555
149	0xbedbf50a	-0.42960387
150	0x3f22dafd	0.636154
151	0x3ec0e203	0.37672433
152	0xbef6f565	-0.48234096
153	0xbed5fb3e	-0.41793245
154	0x3f0776fb	0.52915925
155	0x3e9dc188	0.30811715
156	0x3f719c0f	0.9437875
157	0x3dd2ab2e	0.10286556
158	0xbe5838f2	-0.21115473
159	0xbe1f8e6b	-0.15581672
160	0x3eb8a4b8	0.3606317
161	0x3d0edf40	0.034880877
162	0x3f19dc1f	0.60101503
163	0x3edd25ef	0.43193004
164	0x3e6df411	0.23237635
165	0x3f33d3b5	0.70244914
166	0xbef71cfa	-0.48264295
167	0x3f558201	0.83401495
168	0x3f6d8232	0.9277679
169	0x3f306081	0.68897253
170	0x3f0df502	0.5545198
171	0x3e753db2	0.23949316
172	0x3f3305b5	0.69930583
173	0x3f1ae2c0	0.60502243
174	0xbc00350d	-0.007825148
175	0x3f34cfe7	0.70629734
176	0x3f0d5b93	0.55217856
177	0x3e22aed2	0.15887001
178	0xbc40a796	-0.011758706
179	0xbdf8b2fd	-0.12143514
180	0xbe558d3b	-0.20854656
181	0x3f4c15d7	0.79720825
182	0xbeab4391	-0.33449987
183	0xbf47b9aa	-0.78017676
184	0xbf0fcd05	-0.5617221
185	0xbec3e9a5	-0.38264194
186	0x3e310bec	0.17289704
187	0x3e80fa96	0.25191182
188	0xbe6d730e	-0.23188421
189	0x3f18f52a	0.5974909
190	0x3e628cc2	0.22124007
191	0xbe011bdf	-0.12608288
192	0xc00ef485	-2.2336743
193	0xbfda19f3	-1.7039169
194	0xc005dd9f	-2.0916517
195	0xbfb72891	-1.4309255
196	0xbfe0b22d	-1.7554375
197	0xc0021adf	-2.03289
198	0xbfa2fc4f	-1.2733248
199	0xbfb4a112	-1.4111655
200	0xbffecfa6	-1.9907119
201	0xc00be4f6	-2.1858497
202	0xc00e5dd3	-2.2244766
203	0xbfc0b479	-1.5055076
204	0xbffd0be3	-1.9769253
205	0xbfb6d9ff	-1.4285277
206	0x4011f994	2.280858
207	0xbfaf843c	-1.371223
208	0xbfc3dc51	-1.530161
209	0xbff1a9ed	-1.8879982
210	0xbfeb9c77	-1.8407124
211	0xbf7a099c	-0.9767091
212	0xbfda5339	-1.7056648
213	0xbfd0df75	-1.6318194
214	0xbf896d70	-1.0736523
215	0xbfaa6750	-1.3312778
216	0xbfb9a3c5	-1.4503103
217	0xbfeaef05	-1.8354193
218	0xbfcf2da1	-1.61858
219	0xbfd749ca	-1.6819394
220	0xbf8779a6	-1.0583999
221	0xbfc4daed	-1.5379311
222	0xbfd78c76	-1.683974
223	0xbff6f3ad	-1.9293114
224	0xc008faf9	-2.1403182
225	0xbff2e78b	-1.8976911
226	0xbfdf8af4	-1.746428
227	0xbf4addd9	-0.7924476
228	0xc00e44d5	-2.2229512
229	0xc01a8f36	-2.414991
230	0xbffd42f6	-1.978606
231	0xbfbbcc83	-1.4671787
232	0xbfc3e188	-1.5303202
233	0xbfe9474f	-1.8224887
234	0xbf8476c5	-1.0348746
235	0xc001db2f	-2.029003
236	0xbfd8fac7	-1.6951531
237	0xbfa97c2c	-1.3241019
238	0xbfe098b9	-1.7546607
239	0x40774e24	3.8641443
240	0xbfd78ab9	-1.683921
241	0xbfe04140	-1.7519913
242	0xbfd50b07	-1.664399
243	0xbff8431c	-1.939548
244	0xbfb9ed0d	-1.4525467
245	0xbfc8a59f	-1.5675544
246	0x40ad6c9a	5.419507
247	0xbf927967	-1.1443299
248	0xbf99e95b	-1.202434
249	0xbfc439cb	-1.5330137
250	0xbfb367ef	-1.4016093
251	0xbfdfedc8	-1.749444
252	0xc0068dd4	-2.1024065
253	0xbf8901cd	-1.0703675
254	0xbfb8b886	-1.4431312
255	0xbfd8cb13	-1.6936973

lstm.bias_hh_l0 f4 [256]
0	0xc0015c53	-2.02126
1	0xbfd98ff3	-1.6997055
2	0xbfe3f5cf	-1.780939
3	0x3efc084e	0.49225086
4	0xbfee7c90	-1.8631763
5	0xc001274b	-2.0180233
6	0xbe836f36	-0.25670785
7	0xbf91cb40	-1.1390152
8	0xbff0608c	-1.8779464
9	0xc0076a9b	-2.1158817
10	0xc00f7c25	-2.2419522
11	0xbd964888	-0.07338053
12	0xc0025409	-2.036379
13	0x3ec95b98	0.39327693
14	0x401a0532	2.406567
15	0xbfe1ffb6	-1.7656162
16	0xbfcba2fc	-1.5909114
17	0xc00514a5	-2.079385
18	0xc00a63a8	-2.1623325
19	0xbf95cc8c	-1.1703048
20	0xbfca5045	-1.5805746
21	0xbfc97158	-1.5737715
22	0xbfd0f700	-1.6325378
23	0xbf1b2375	-0.6060098
24	0xbedde450	-0.4333825
25	0xbf92ef14	-1.1479211
26	0xbfb4627f	-1.4092559
27	0xbfe20cf6	-1.7660205
28	0xbf903c25	-1.1268355
29	0xbfe35fe8	-1.7763643
30	0xbfdb67fd	-1.714111
31	0xc00cec6c	-2.20193
32	0xc0051b8c	-2.0798063
33	0xbfc5e435	-1.5460268
34	0xbf9543e4	-1.1661344
35	0xbfa5d971	-1.2956983
36	0xbfffb17b	-1.9976038
37	0xc01c3674	-2.4408236
38	0xc0034b95	-2.0514882
39	0xbfb178d8	-1.3865004
40	0xbfe26ab8	-1.7688818
41	0xbff5ffa1	-1.9218637
42	0xbf69df82	-0.9135667
43	0xc0104b2b	-2.254588
44	0xbf94b158	-1.1616621
45	0xbf52a031	-0.8227568
46	0xbfe34ef8	-1.7758474
47	0x402532fc	2.5812368
48	0xbff8c7e3	-1.9436
49	0xbfe79c13	-1.8094505
50	0xbfdcaa44	-1.7239461
51	0xc00a0093	-2.156285
52	0xbfb19e46	-1.3876426
53	0xbfc58634	-1.543158
54	0x4089d4f0	4.3072433
55	0xbfb89556	-1.4420574
56	0xbf8d3b7d	-1.1033779
57	0x3eec28b4	0.46124804
58	0xbfb4901c	-1.4106479
59	0xbfda9065	-1.7075316
60	0xbfccf14d	-1.6011139
61	0xbf2dbfd6	-0.67870843
62	0xbfe06087	-1.7529458
63	0xbfc4ba94	-1.5369439
64	0xbb08ccc0	-0.0020873994
65	0xbab4f280	-0.0013805181
66	0xbdf1a0fe	-0.11798285
67	0xbd812f12	-0.06307806
68	0xbd82d69e	-0.06388591
69	0xbd185fc8	-0.03720072
70	0xbd667af0	-0.056269586
71	0x3d9ccfc8	0.07656819
72	0xbdc21be4	-0.09477976
73	0xbc149c40	-0.009070456
74	0x3c78c780	0.015184283
75	0x3b119680	0.002221495
76	0xbddac3ce	-0.10681878
77	0x3d11052c	0.035405323
78	0x3d3bac10	0.04581839
79	0x3b8fcee0	0.004388675
80	0x3c232490	0.009957448
81	0xbd84b768	-0.064802945
82	0x3df18e90	0.1179477
83	0x3a54b000	0.0008113384
84	0xbdbbddee	-0.09173189
85	0x3d233468	0.0398449
86	0x3ddf95ca	0.10917242
87	0xbd35cc84	-0.044384494
88	0x3db7d3d6	0.089759514
89	0xbdd4862c	-0.10377154
90	0xbde3a86c	-0.11116108
91	0xbd7c4ac8	-0.061594754
92	0x3d6b4724	0.05744089
93	0xbd3c5f8c	-0.045989558
94	0x3df98278	0.12183088
95	0xbd886cee	-0.06661402
96	0x3d2fe950	0.042947114
97	0x3d44716c	0.04795973
98	0x3d8954fe	0.06705664
99	0xbdfd083e	-0.12355088
100	0x3ccead10	0.025229007
101	0x3ccc34d8	0.024927542
102	0x3d7dd610	0.061971724
103	0x3d96e628	0.073681176
104	0xbdedd69e	-0.116132006
105	0x3d06e2a4	0.032930985
106	0x3deade72	0.11468209
107	0x3da0e838	0.07856792
108	0xbce121d0	-0.027481943
109	0x3ddb3f42	0.10705425
110	0xbde6a48e	-0.11261855
111	0xbd345dcc	-0.044034764
112	0xbd939b64	-0.07207373
113	0x3d986212	0.074405804
114	0xbdb2b74c	-0.08726367
115	0xbd17447c	-0.036930546
116	0xbdb6b392	-0.08920969
117	0x3da5256a	0.08063777
118	0x3b87ede0	0.00414823
119	0x3d696fa4	0.056991234
120	0x3dc48340	0.095953465
121	0xbddfc1f0	-0.109256625
122	0x3dc081a4	0.09399727
123	0xbdc8f8f0	-0.09813106
124	0xbcf7a778	-0.030231223
125	0xbc341230	-0.010990664
126	0xbd92377e	-0.071394905
127	0x3d27bb68	0.04095021
128	0xbe309df6	-0.17247757
129	0x3c9ff10c	0.01952412
130	0x3e8ecf17	0.27892372
131	0x3dd42aa5	0.10359696
132	0xbe17deb6	-0.14831051
133	0x3e17c24f	0.14820217
134	0x3dd42e46	0.103603885
135	0xbf3c9ae8	-0.7367387
136	0x3d9e5300	0.07730675
137	0x3d87891c	0.066179484
138	0xbf5574cb	-0.83381337
139	0x3e197ff1	0.14990212
140	0xbe893dc9	-0.2680495
141	0x3ed013e2	0.4064017
142	0xbf56fa38	-0.83975554
143	0xbf1e59f1	-0.6185599
144	0x3dcedd72	0.10100831
145	0xbd8cebef	-0.06880938
146	0xb9b7a9e8	-0.0003503107
147	0xbe3f34f1	-0.1867254
148	0xbee01905	-0.43769088
149	0xbeb3f104	-0.35144818
150	0x3ed8efd1	0.42370465
151	0x3ee7e815	0.45294252
152	0xbec52ca3	-0.38510618
153	0xbf19f5af	-0.6014051
154	0x3f127257	0.5720572
155	0x3eca16dc	0.39470565
156	0x3f5f46f9	0.8721767
157	0x3dc8ee5a	0.09811087
158	0xbe6c6b0c	-0.2308771
159	0x3d1e099b	0.03858338
160	0x3e5829c6	0.21109685
161	0x3d39578c	0.045249507
162	0x3f295519	0.66145474
163	0x3eca404b	0.39502177
164	0x3e5e3b95	0.21702416
165	0x3f1f4127	0.6220879
166	0xbf01088e	-0.5040368
167	0x3f4a2521	0.78962904
168	0x3f8734c1	1.0562974
169	0x3f2a18cd	0.66444093
170	0x3f1b8a26	0.6075767
171	0x3e8d9d7a	0.27659208
172	0x3f254697	0.64560837
173	0x3f2700aa	0.6523539
174	0x3e27b169	0.1637627
175	0x3f411919	0.7542892
176	0x3f2453cf	0.6419038
177	0x3e5f0164	0.21777874
178	0xbc607e87	-0.0137020415
179	0x3d9c89d3	0.076434754
180	0xbe96dbfb	-0.29464707
181	0x3f21a73b	0.631458
182	0xbedee25b	-0.4353207
183	0xbf3c29fa	-0.7350155
184	0xbf1df829	-0.6170679
185	0xbf0f345c	-0.5593927
186	0x3e6e444e	0.23268244
187	0x3e30ca88	0.1726476
188	0xbebea364	-0.37234032
189	0x3f190014	0.59765744
190	0x3defb3de	0.11704229
191	0xbe670e92	-0.22564152
192	0xc00b8fdb	-2.1806552
193	0xbfd092e5	-1.6294829
194	0xc00812fd	-2.126159
195	0xbfbdbde5	-1.4823576
196	0xbfd1cd27	-1.6390733
197	0xbff2db0c	-1.8973098
198	0xbf9a0f3d	-1.20359
199	0xbfb3bb4c	-1.4041533
200	0xc005f159	-2.0928557
201	0xc001f35a	-2.030478
202	0xc009510b	-2.1455715
203	0xbfd887af	-1.6916407
204	0xc006521b	-2.0987613
205	0xbfc8090b	-1.562776
206	0x401b7968	2.429285
207	0xbfaac618	-1.3341703
208	0xbfc2f13f	-1.5229872
209	0xbff17983	-1.8865207
210	0xbfff58d3	-1.9948982
211	0xbf89a58c	-1.0753646
212	0xbfc1ffab	-1.5156149
213	0xbfe54db9	-1.7914344
214	0xbf72f0f3	-0.9489891
215	0xbf9cc7e0	-1.2248497
216	0xbfc59afb	-1.5437921
217	0xbfd38bc7	-1.6527032
218	0xbfccb35b	-1.5992235
219	0xbfebff10	-1.8437214
220	0xbf90090a	-1.1252759
221	0xbfcb8c77	-1.5902241
222	0xbfe9859e	-1.8243902
223	0xc006b911	-2.1050456
224	0xc00e37cf	-2.2221563
225	0xbff28869	-1.8947879
226	0xbff7b262	-1.9351313
227	0xbf68bee3	-0.9091627
228	0xc00b3ad3	-2.1754653
229	0xc018db10	-2.3883705
230	0xc005239d	-2.0802987
231	0xbfcd366b	-1.6032232
232	0xbfd8846e	-1.6915414
233	0xbfdc7fd9	-1.7226516
234	0xbf815661	-1.0104486
235	0xc00a6a53	-2.1627395
236	0xbfd4261d	-1.6574131
237	0xbfad124e	-1.3521211
238	0xbfcf1f97	-1.6181515
239	0x406e1dde	3.720573
240	0xbfe2e75f	-1.7726859
241	0xbff0fe8c	-1.8827682
242	0xbfd93cb7	-1.6971654
243	0xc00656b9	-2.0990431
244	0xbf9f46bf	-1.2443465
245	0xbfb1985f	-1.3874625
246	0x40aae524	5.3404713
247	0xbf9b70d9	-1.2143813
248	0xbf8c6ac3	-1.0970081
249	0xbfdd7281	-1.7300569
250	0xbfbdd319	-1.4830047
251	0xbfdb45d2	-1.7130682
252	0xc006f11c	-2.1084661
253	0xbf99b71f	-1.2009009
254	0xbfbe9556	-1.4889324
255	0xbfc49e19	-1.5360748

lstm.weight_ih_l1 f4 [256, 64]
0	0xbb328a1c	-0.0027242964
1	0x3d7e70f0	0.062119424
2	0x3d1f35b9	0.038869593
3	0xbd82eb2e	-0.06392513
4	0x3a6edfcc	0.0009112328
5	0xbc168a4e	-0.009188248
6	0xbeb23b4d	-0.34810868
7	0x3e4459c9	0.19174875
8	0x3e0247b3	0.12722664
9	0xba871eb4	-0.0010308833
10	0x3e2bc859	0.16775645
11	0x3d801cc8	0.062554896
12	0x3b6fbe63	0.0036581985
13	0xbe040026	-0.12890682
14	0x3ecd2d87	0.40073797
15	0xbd92ba2b	-0.07164415
16	0x3ea811d3	0.328261
17	0x3de3b9dd	0.11119435
18	0x3e2d9583	0.16951565
19	0x3de3cc62	0.11122967
20	0x3dc0f632	0.09421958
21	0xbdf7f827	-0.12107878
22	0xbe641663	-0.22274165
23	0x3ea0ff78	0.31444907
24	0x3db1364d	0.08652935
25	0xbda67b77	-0.08129018
26	0xbe12214b	-0.14270513
27	0x3debb376	0.11508839
28	0xbf2584cc	-0.64655757
29	0xbdd23b79	-0.1026525
30	0x3e855320	0.26039982
31	0xbcf410ec	-0.029793225
32	0xbe0226ab	-0.12710063
33	0xbe4c9f6e	-0.19982693
34	0xbd9a2280	-0.075261116
35	0x3f61b33b	0.8816411
36	0xbe7db3cb	-0.24775617
37	0xbe1ecef7	-0.15508638
38	0xbd70227b	-0.058626633
39	0xbe2a8473	-0.16652088
40	0xbe64ef88	-0.22356999
41	0xbe3f4f52	-0.18682602
42	0xbefe2474	-0.49637187
43	0xbd91e192	-0.07123102
44	0x3d9c33d7	0.07627075
45	0xbe02d4b6	-0.12776455
46	0xbdea3a9f	-0.11436962
47	0xbe2ae56e	-0.16689083
48	0xbdb57548	-0.0886026
49	0xbe3ef38d	-0.18647595
50	0xbadebad7	-0.0016992938
51	0xbdd16ec5	-0.10226206
52	0xbddc91ed	-0.10770021
53	0xbeaa0946	-0.332102
54	0xbe3981be	-0.18115899
55	0x3d320b66	0.0434679
56	0x3e645a2c	0.22300023
57	0xbd9e3ebc	-0.077268094
58	0x3c8b0197	0.016968532
59	0x3dd4d0ce	0.10391389
60	0xbb8ddf63	-0.0043296083
61	0xbf275fcc	-0.6538055
62	0x3dd47c2d	0.10375247
63	0xbe36b84a	-0.17843738
64	0x3ecae010	0.3962407
65	0x3dbc8fdf	0.09207129
66	0xbf870f60	-1.0551567
67	0xbf19e451	-0.6011401
68	0xbf603442	-0.8757974
69	0xbd7a3c3f	-0.06109261
70	0xbe81443e	-0.25247377
71	0x3d478575	0.04871126
72	0x3ef31c31	0.47482446
73	0x3e8e1d8b	0.27756914
74	0xbe1f95d9	-0.15584506
75	0x3e898051	0.2685571
76	0x3f97cff4	1.1860337
77	0x3efdd984	0.49580014
78	0xbdd9cac0	-0.106343746
79	0x3ef7c0dd	0.4838933
80	0x3da1973c	0.07890174
81	0x3d2b0e2a	0.041761555
82	0xbad3d310	-0.0016160924
83	0x3e1adebb	0.15124027
84	0xbee59427	-0.44839594
85	0x3e493f44	0.1965304
86	0x3d501614	0.050802305
87	0x3f25a74f	0.6470842
88	0x3eeb892f	0.460031
89	0xbf92d703	-1.1471866
90	0xbe3632ee	-0.17792866
91	0x3de3b05b	0.111176215
92	0xbe29fcb5	-0.16600306
93	0xbf338967	-0.70131534
94	0xbe1d3ea5	-0.15355928
95	0x3d9da902	0.07698251
96	0x3f8f5821	1.119877
97	0x3f81ef15	1.0151087
98	0xbf3578d7	-0.7088751
99	0x4092545b	4.5727973
100	0x3f184538	0.5948062
101	0x3c89c38f	0.016816882
102	0x3e5564c0	0.20839214
103	0x3d42b1c5	0.047532815
104	0x3d9b37ca	0.07579
105	0xbbc7718a	-0.006086533
106	0x3e732a62	0.23746637
107	0xbe1378c5	-0.14401539
108	0xbde33258	-0.11093587
109	0xbdccd4b5	-0.10001508
110	0xbe3fd91d	-0.18735166
111	0x3f8d9fdd	1.1064411
112	0x3f834155	1.0254313
113	0x3e590388	0.21192753
114	0x3f19b9ce	0.6004914
115	0xbdabfd97	-0.08397978
116	0xbf04edc4	-0.519253
117	0xbe29cf23	-0.16582923
118	0xc046d00e	-3.1064487
119	0xbe7f563d	-0.24935241
120	0x3e034f4c	0.12823218
121	0xbe81566c	-0.25261247
122	0x3e80b76f	0.2513995
123	0x3f5703b2	0.83990014
124	0x3e662bf4	0.22477704
125	0x3d174eb5	0.036940295
126	0x3fcc2d18	1.5951262
127	0xbf12eb6c	-0.57390475
128	0x3e24df6d	0.16100855
129	0xbc71fd91	-0.014769928
130	0xbde1ce75	-0.11025707
131	0xbda1be3d	-0.07897613
132	0x3e0919a1	0.13388683
133	0xbe26ccbe	-0.1628904
134	0xbee21794	-0.44158614
135	0x3eb9fa42	0.36323744
136	0x3c7d970f	0.01547791
137	0xbdff7303	-0.124731086
138	0x3d6f2841	0.058388
139	0xbd4dde20	-0.050260663
140	0xbca04e06	-0.019568454
141	0xbe713900	-0.235569
142	0x3f3886e8	0.7208085
143	0xbb26059f	-0.002533294
144	0x3e40ae74	0.18816549
145	0x3e42834f	0.18995403
146	0x3e49cede	0.1970782
147	0xbbd20767	-0.006409574
148	0x3d45d6b3	0.048300456
149	0xbd7c23f2	-0.061557718
150	0xbe6e4257	-0.23267494
151	0x3ec2a1fd	0.38014212
152	0x3e95b879	0.29242304
153	0xbdb20b45	-0.08693556
154	0xbdb3d9bb	-0.08781763
155	0x3df5840d	0.11988077
156	0xbf0bbd13	-0.5458538
157	0x3c7ab330	0.015301511
158	0x3e6821ea	0.22669187
159	0xbdd43721	-0.103620775
160	0xbe77f8e8	-0.24216044
161	0xbea18751	-0.3154855
162	0xbe069528	-0.13142836
163	0x3f491be4	0.7855818
164	0xbe84d853	-0.25946292
165	0xbddf8ea6	-0.1091588
166	0x3ba395de	0.004992231
167	0x3b261a9a	0.0025345446
168	0xbddcba1b	-0.10777684
169	0xbe63259a	-0.22182313
170	0xbeb0d71e	-0.3453912
171	0xbd4773b0	-0.048694313
172	0x3d24ea2d	0.04026239
173	0xbd2a179e	-0.04152643
174	0xbe598210	-0.21241021
175	0xbd9ad551	-0.07560218
176	0xbc9a2a17	-0.018818898
177	0xbc77329b	-0.015087749
178	0x3d5f5c38	0.054531306
179	0x3d7c5712	0.061606474
180	0xbe8bd53f	-0.2731113
181	0xbeeea453	-0.46609744
182	0xbdbb210e	-0.09137164
183	0xbe199c52	-0.15001038
184	0xba594331	-0.00082879054
185	0xbd20d8b2	-0.039269157
186	0x3e34015e	0.17578647
187	0x3e0e81a0	0.13916636
188	0x3d8fa86c	0.07014546
189	0xbf03d829	-0.5150171
190	0x3e05bbdc	0.13059944
191	0x3cdd80de	0.027038988
192	0x3d44ebac	0.048076317
193	0x3e1855f4	0.14876539
194	0xbe9fd1c3	-0.31214723
195	0x3dab843f	0.08374833
196	0x3dea1759	0.114302345
197	0xbd15279d	-0.03641473
198	0xbef3dac5	-0.47627845
199	0x3d486180	0.04892111
200	0x3d1369bb	0.035989504
201	0xbe1fdf5a	-0.15612546
202	0x3e0dd7ff	0.13851927
203	0xbd49c291	-0.04925782
204	0xbcaad63a	-0.020854104
205	0x3dbbc5f9	0.0916862
206	0x3ed2e6b4	0.41191638
207	0x3db3f509	0.08786971
208	0x3da37f94	0.07983318
209	0x3e4abfea	0.19799772
210	0x3d9dbb8f	0.077017896
211	0xbc0e7032	-0.008693742
212	0x3cf47de7	0.029845191
213	0xbda7a8d0	-0.08186495
214	0x3d857bcc	0.06517753
215	0x3e508e44	0.2036677
216	0x3e83e3da	0.25759774
217	0xbe3d0c35	-0.18461688
218	0xbe051b50	-0.129987
219	0x3d6f14bb	0.05836938
220	0xbeda5440	-0.42642403
221	0xbe170c97	-0.14750896
222	0x3dffe8c9	0.12495572
223	0xbe3008e9	-0.17190899
224	0xbcf69f45	-0.030105243
225	0xbe388891	-0.18020846
226	0xbceacce5	-0.028662154
227	0x3f1177a6	0.56823194
228	0xbe093589	-0.13399328
229	0xbdf3623b	-0.1188397
230	0x3dba08c0	0.090837
231	0x3dc5f77d	0.09666345
232	0xbe2be503	-0.1678658
233	0x3d968395	0.07349316
234	0xbe98c4ab	-0.29837546
235	0xbe01504a	-0.12628284
236	0xbd622608	-0.05521205
237	0x3d94b9f3	0.072620295
238	0xbe4efd40	-0.20213795
239	0xbb5d573c	-0.003377392
240	0x3d4d55d5	0.050130684
241	0xbdaf2ea9	-0.085538216
242	0xbd0bebef	-0.03416055
243	0xbac03b74	-0.0014666156
244	0x3dfc251a	0.12311764
245	0xbe30d221	-0.17267658
246	0xbe31dac0	-0.17368603
247	0xbce9b66f	-0.028529374
248	0x3d5c8c65	0.05384483
249	0xbd6323de	-0.055454127
250	0x3e32a367	0.17445146
251	0x3e1582ee	0.14600727
252	0xbce82214	-0.028336562
253	0xbed905f6	-0.4238736
254	0x3e0ee2ec	0.13953751
255	0x3e2b437d	0.16724963

lstm.weight_hh_l1 f4 [256, 64]
0	0xbdc43e12	-0.095821515
1	0x3de78d2c	0.11306223
2	0xbd4fdfc8	-0.050750524
3	0xbdff6602	-0.12470628
4	0xbdd05c94	-0.10173908
5	0xbd2c2ff8	-0.042037934
6	0xbcc3b998	-0.023892209
7	0x3d8705b6	0.06592886
8	0x3c51fbe0	0.012816399
9	0xbd33af80	-0.04386854
10	0x3dc1df44	0.09466413
11	0xbdd618e6	-0.10453968
12	0x3ddf2f44	0.10897687
13	0x3d978656	0.073986694
14	0xbd987842	-0.07444812
15	0x3dc537e2	0.096297994
16	0xbdec20a2	-0.11529662
17	0xbdf05be4	-0.11736277
18	0x3db2434e	0.087042436
19	0x3db8d09c	0.09024164
20	0x3c7a70c0	0.015285671
21	0xbbe1b1c0	-0.0068876445
22	0x3d08bdc4	0.0333841
23	0xbde74ad8	-0.11293572
24	0x3dccef00	0.10006523
25	0xbcc33240	-0.023827672
26	0xbc8841b8	-0.0166329
27	0x3c3309f0	0.010927662
28	0x3c5c7360	0.013455242
29	0xbd9bd754	-0.0760943
30	0x3c97df28	0.018539026
31	0xbd82248e	-0.063546285
32	0x3cf904c0	0.030397773
33	0xbdda26ca	-0.1065193
34	0x3dc5358a	0.096293524
35	0x3c3f2570	0.011666641
36	0x3be88800	0.0070962906
37	0xbd803650	-0.06260359
38	0x3ca14b78	0.019689307
39	0x3d9b3848	0.07579094
40	0x3de027b0	0.1094507
41	0x3dd44f80	0.10366726
42	0xbcd123d8	-0.025529787
43	0xbdf12922	-0.117754236
44	0xbd97474e	-0.07386647
45	0x3a3bea00	0.00071683526
46	0x3c58db30	0.013235852
47	0xbc7f8570	-0.015595779
48	0xbda4eb9c	-0.080527514
49	0x3d81700a	0.06320198
50	0xbda4ce8e	-0.0804721
51	0x3df2f50c	0.11863145
52	0x3de4419e	0.11145328
53	0x3d4c79e8	0.049920946
54	0x3dfb9812	0.122848645
55	0xbd00470c	-0.031317756
56	0x3ca34670	0.019931048
57	0x3d106ee4	0.035262004
58	0x3d3ae7d4	0.045631245
59	0x3dbc7056	0.09201114
60	0x3dd84eec	0.10561928
61	0x3dda83a6	0.10669641
62	0x3d1d1868	0.038353354
63	0x3b8d39e0	0.0043098778
64	0x3db639fa	0.08897777
65	0x3d746b3c	0.05967258
66	0x3df0e732	0.11762847
67	0x3c017330	0.007900998
68	0x3d8037f4	0.06260672
69	0x3bdc6ba0	0.006726697
70	0xbcd94858	-0.026523754
71	0x3d54da3c	0.051965937
72	0xbca4d3e0	-0.020120561
73	0x3dd8c428	0.10584289
74	0xbcfc62e0	-0.030808866
75	0x3ddfd952	0.109301224
76	0xb90b4c00	-0.00013284385
77	0x3dd31b1c	0.10307905
78	0xbd8599ba	-0.06523462
79	0xbdd1bad4	-0.10240713
80	0xbdf4f032	-0.11959876
81	0xbd62c284	-0.055361286
82	0xbded8b16	-0.11598794
83	0xbd94ee40	-0.07272005
84	0xbd46163c	-0.048361048
85	0x3d665cb0	0.056240737
86	0xbd5172c8	-0.051134855
87	0xbbe762c0	-0.0070613325
88	0xbcbf68b0	-0.023365349
89	0xbdd01a38	-0.10161251
90	0xbcbbfb58	-0.022946998
91	0x3c9fb3c0	0.019494891
92	0xbd9b85d8	-0.07593888
93	0x3d8403ce	0.06446038
94	0x3dfdf4fe	0.12400244
95	0xbbfff960	-0.0078117102
96	0xbd683424	-0.05669035
97	0xbdaeae76	-0.085293695
98	0x3c8d10e8	0.017219976
99	0x3cbaf498	0.02282171
100	0x3dcc8054	0.09985414
101	0x3c6fa920	0.014627725
102	0x3dad5d2c	0.08465037
103	0xbd297a60	-0.04137647
104	0xbdca4f12	-0.09878363
105	0xbc693d60	-0.014235824
106	0x3dc4c450	0.09607756
107	0xbd3e4f34	-0.046462253
108	0x3da5371c	0.08067152
109	0x3d4a8110	0.04943949
110	0x3d1b1c58	0.037868828
111	0xbdad144e	-0.084511384
112	0xbdb4ac74	-0.08821955
113	0xbd943c92	-0.07238115
114	0xbbd719a0	-0.006564334
115	0x3c6205a0	0.013795286
116	0xbd86519e	-0.06558536
117	0x3d20f4f4	0.039296106
118	0x3dc99448	0.098427355
119	0x3d4a4db0	0.049390495
120	0xbd1698c0	-0.036766768
121	0xbd63b490	-0.05559212
122	0x3d5b6594	0.05356367
123	0x3ceb57c8	0.02872838
124	0xbde91ddc	-0.11382648
125	0x3dc1bcda	0.09459849
126	0xbde68db2	-0.11257495
127	0xbc9cbee8	-0.019134
128	0x3d5444bc	0.051823363
129	0x3daeab74	0.08528796
130	0xbcd17870	-0.025570124
131	0xbbb818e0	-0.0056181997
132	0x3d5d7a60	0.054071784
133	0xbd96ac2e	-0.073570594
134	0xbc0588b0	-0.008150265
135	0x3d80a6bc	0.06281802
136	0xbd512c78	-0.0510678
137	0x3c6fa290	0.01462616
138	0xbd8ba200	-0.068180084
139	0xbdc49ac0	-0.09599829
140	0x3dc286f6	0.09498398
141	0xbbdec220	-0.006798044
142	0x3d1af8e0	0.037835002
143	0x3dbeed68	0.093226254
144	0x3d01c738	0.03168413
145	0x3dbd2afc	0.09236714
146	0xbda974c6	-0.08274226
147	0x3ca955e8	0.020670846
148	0x3dec4cbe	0.11538075
149	0x3de61652	0.11234726
150	0xbd7b0c30	-0.06129092
151	0x3cdc4ad8	0.026891157
152	0xbdccf1fc	-0.10007092
153	0x3d9b463c	0.075817555
154	0x3c122600	0.008920193
155	0xbd97c664	-0.07410887
156	0xbc7393c0	-0.014866769
157	0x3b83bdc0	0.0040204227
158	0xbdfec2c0	-0.12439489
159	0xbd74dfb4	-0.059783652
160	0x3b922980	0.0044605136
161	0xbd3e8bd4	-0.04652007
162	0x3d9ffcf2	0.07811917
163	0xbdd79894	-0.10527149
164	0xbdb6ddd8	-0.08929032
165	0x3cdea640	0.027178884
166	0xbd69b418	-0.057056516
167	0xbda38cf2	-0.079858676
168	0x3dac83da	0.08423586
169	0xbdbe4814	-0.092910916
170	0x3c847368	0.016168311
171	0x3d92f806	0.07176213
172	0xbd7bbe68	-0.061460882
173	0xbdfcc170	-0.12341583
174	0x3d9b0436	0.075691625
175	0xbdd0bde6	-0.1019247
176	0x3daaac68	0.08333665
177	0x3db63bae	0.08898102
178	0x3d31df38	0.04342577
179	0x3d0cf788	0.03441575
180	0xbd2363f8	-0.03989026
181	0xbcffab90	-0.031209737
182	0x3bfab060	0.00765042
183	0xbdaefa2a	-0.08543809
184	0x3d835ec6	0.06414561
185	0xbdf9ee42	-0.12203647
186	0xbcc52b18	-0.0240684
187	0x3dbf2efa	0.09335132
188	0xbd9a28be	-0.07527302
189	0xbb336240	-0.0027371794
190	0xbc9b5300	-0.018960476
191	0x3ccb0820	0.024784148
192	0xbd3c2eb4	-0.045942977
193	0xbd677998	-0.056512445
194	0xbbc77460	-0.006086871
195	0x3dbbbbda	0.09166689
196	0xbd9e53a8	-0.077308
197	0x3d2b0d6c	0.041760847
198	0x3d8bbeec	0.06823525
199	0x3dfb19fa	0.12260814
200	0xbd8580be	-0.06518696
201	0x3da5c5cc	0.080943674
202	0xbbcae600	-0.006191969
203	0x3dddbdda	0.10827227
204	0x3b9d1460	0.0047936887
205	0x3cb4c878	0.022068247
206	0x3da8635a	0.08222075
207	0xbd05dee4	-0.03268327
208	0x3c60d0b0	0.01372163
209	0x3d294810	0.04132849
210	0xbd123df4	-0.035703614
211	0x3de89e96	0.11358373
212	0x3da38dfa	0.07986064
213	0xbcabc658	-0.020968601
214	0xbde96562	-0.1139629
215	0x3db8fca8	0.09032565
216	0xbbe20be0	-0.0068983883
217	0x3d85fefe	0.065427765
218	0xbdc38d64	-0.095484525
219	0x3dff8596	0.12476651
220	0xbd453c0c	-0.04815297
221	0x3dfd71fa	0.12375255
222	0x3dc1f0a4	0.09469727
223	0xbda44644	-0.080212146
224	0x3a94cc80	0.001135245
225	0xbbe383e0	-0.006943211
226	0xbc8ae338	-0.01695405
227	0xbd9c83a2	-0.076422945
228	0x3db4b6fe	0.088239655
229	0xbc3a3580	-0.011365294
230	0xbd841e54	-0.06451097
231	0xbd0bb834	-0.034111217
232	0xbdfeae02	-0.12435533
233	0xbc256620	-0.010095149
234	0xbdd6acfa	-0.104822114
235	0x3c612e00	0.013743877
236	0x3dbe383e	0.09288071
237	0x3ca69360	0.020333946
238	0xbd94d04c	-0.07266292
239	0xbdeb8276	-0.11499493
240	0xbdf66e24	-0.120327264
241	0xbd6b1480	-0.057392597
242	0xbdb8cbb8	-0.09023231
243	0x3d678f80	0.056533337
244	0xbdae46fa	-0.085096315
245	0x3da3c46a	0.079964474
246	0x3ce1efd0	0.027580172
247	0x3de69842	0.112595096
248	0xbdb4abf0	-0.08821857
249	0x3de616c4	0.11234811
250	0x3d7f3084	0.062302127
251	0x3d585064	0.05281104
252	0xbdc2ecd6	-0.09517829
253	0x3b7d8a40	0.003868714
254	0xbd2d9dc4	-0.042386785
255	0xbd5fddf8	-0.054655045

lstm.bias_ih_l1 f4 [256]
0	0xc0042b50	-2.0651436
1	0xc0050bba	-2.0788407
2	0xc023c840	-2.5590973
3	0xc0002739	-2.002394
4	0xbff4aa50	-1.9114475
5	0xc000e998	-2.0142574
6	0xbffa4ad8	-1.955409
7	0xc0067d25	-2.1013882
8	0xbfee1148	-1.8599024
9	0xc022eb19	-2.5455992
10	0xc0153c2e	-2.331798
11	0xc001a026	-2.0253997
12	0xbff538d7	-1.9157971
13	0xc007c929	-2.1216528
14	0xc00c0ecd	-2.1884034
15	0xc022dde1	-2.5447924
16	0xc0039a3e	-2.0562892
17	0xc022746f	-2.5383565
18	0xc002d52d	-2.0442612
19	0xc0084c62	-2.129662
20	0xbf927b9d	-1.1443974
21	0xbff86d92	-1.9408438
22	0xbff8b1d0	-1.9429264
23	0xc005c411	-2.090092
24	0xbff2adcf	-1.8959292
25	0xbff53f0b	-1.9159864
26	0xc0039e62	-2.056542
27	0xc0108286	-2.2579665
28	0xc004e49d	-2.0764534
29	0xc02b21a2	-2.6739278
30	0xbfef15b6	-1.8678501
31	0xc00c932c	-2.1964827
32	0xbf040d1f	-0.5158252
33	0xc003f784	-2.0619822
34	0xc004e9df	-2.0767744
35	0xbfc86471	-1.5655652
36	0xc004afc0	-2.073227
37	0xc01f9e4d	-2.494037
38	0xc0187502	-2.3821416
39	0xc0090840	-2.1411285
40	0xc02934ba	-2.6438432
41	0xc022d632	-2.5443234
42	0xc0114128	-2.2696018
43	0xc00fd0e2	-2.2471242
44	0xc021cbdf	-2.5280683
45	0xc030b81b	-2.761237
46	0xbff8fc33	-1.9451965
47	0xc0069b00	-2.1032104
48	0xbf81ed8c	-1.0150619
49	0xbfd8201f	-1.6884803
50	0xbffc9ac3	-1.973473
51	0xc00a2e86	-2.1590896
52	0xc0058f70	-2.0868797
53	0xc02b5237	-2.676893
54	0xc00945e1	-2.14489
55	0xbff855b6	-1.9401157
56	0xc00cac20	-2.1980057
57	0xc00e9bb5	-2.2282536
58	0xc0214332	-2.5197263
59	0xc01de86c	-2.467311
60	0xc0086447	-2.1311204
61	0xc00e95bb	-2.2278888
62	0xc022e1e1	-2.5450366
63	0xc010b98b	-2.2613246
64	0x3dfc3302	0.123144165
65	0xbd98ea60	-0.074665785
66	0xbb08e740	-0.002088979
67	0x3d14be94	0.036314562
68	0x3df84172	0.12121858
69	0x3d93bc94	0.07213703
70	0x39e83600	0.0004429072
71	0x3dea459e	0.1143906
72	0xbda1bd8e	-0.07897483
73	0xbde28f90	-0.110625386
74	0x3d975da2	0.07390906
75	0x3d12dab0	0.035853088
76	0x3c701570	0.014653549
77	0xbd9a265e	-0.07526849
78	0xbd1363ac	-0.035983726
79	0x3dc71a18	0.09721774
80	0xbd93f3c6	-0.072242305
81	0x3d8073f8	0.06272119
82	0x3d3437f4	0.043998674
83	0xbd702f14	-0.058638647
84	0x3d28e0dc	0.041230068
85	0xbcde0b08	-0.02710487
86	0x3d5715e8	0.052511126
87	0x3dfff272	0.12497415
88	0x3dfe583a	0.12419172
89	0xbc99a918	-0.018757388
90	0xbc9b91f0	-0.018990487
91	0x3b8db540	0.004324585
92	0x3d95d686	0.07316308
93	0x3dc7a0b4	0.097474486
94	0xbd23c324	-0.039981022
95	0x3d5d4924	0.05402483
96	0x3d7126f8	0.058875054
97	0xbd554bf8	-0.052074403
98	0xbd9fec22	-0.07808711
99	0x3dd86318	0.10565776
100	0x3de371da	0.111057
101	0xbdedf4b2	-0.116189376
102	0x3db26cf0	0.087121844
103	0x3dec3a7c	0.115345925
104	0x3da2fb54	0.07958093
105	0xbc28a9f0	-0.0102944225
106	0x3d62e2d0	0.055392087
107	0x3dced20c	0.10098657
108	0x3d322b50	0.043498337
109	0xbdf707c2	-0.120620266
110	0xbd3b0510	-0.045659125
111	0xbcc56278	-0.024094805
112	0xbd69a510	-0.05704218
113	0x3da0fba8	0.078604996
114	0xbd77e534	-0.06052132
115	0xbd8c52c4	-0.06851724
116	0xbd2d045c	-0.042240486
117	0xbcabd5b8	-0.020975932
118	0x3dcff62a	0.10154374
119	0xbd9b8a78	-0.0759477
120	0x3d5d2244	0.053987756
121	0x3dc2bdc6	0.09508853
122	0xbd9702a4	-0.073735505
123	0x3d04fc24	0.032467023
124	0x3d89e618	0.0673334
125	0x3df6b678	0.12046522
126	0x3dd10044	0.10205129
127	0xbd08c6c4	-0.033392683
128	0xbd61d732	-0.055136867
129	0xbed52482	-0.41629416
130	0xbd428dc9	-0.047498498
131	0x3c37b0bb	0.011211569
132	0xbd9e1f40	-0.07720804
133	0x3dc261d6	0.09491317
134	0xbda1e2b4	-0.07904568
135	0x3c5bf447	0.0134249395
136	0xbc65f8c1	-0.014036358
137	0xbe29acea	-0.16569868
138	0xbf7823b4	-0.9692948
139	0x3d847932	0.06468429
140	0xbd2d16e6	-0.042258166
141	0x3d9c40fe	0.07629584
142	0x3c48c87c	0.01225483
143	0x3c82c432	0.015962694
144	0xbda4f7ed	-0.080551006
145	0x3dc7e88a	0.0976115
146	0x3d56d39c	0.0524479
147	0x3d4fd14c	0.05073671
148	0x3f46f1e5	0.7771285
149	0x3d423695	0.047415335
150	0x3a10ff4a	0.0005531205
151	0xbe71d097	-0.23614727
152	0x3f02b0a7	0.510508
153	0x3c21ae99	0.0098682875
154	0x3cc87162	0.024468128
155	0xbd81fa64	-0.06346586
156	0x3dd2e4d4	0.10297552
157	0xbe9e96fc	-0.30974567
158	0xbe204369	-0.15650715
159	0x3d4d91b6	0.05018779
160	0x3f01ce79	0.5070568
161	0xbdc63d3c	-0.09679648
162	0xbcb98aee	-0.022649255
163	0xbdbf45bf	-0.09339475
164	0x3d2787ea	0.040901102
165	0xbc90e76e	-0.01768848
166	0x3d672f50	0.056441605
167	0x3d961079	0.07327361
168	0x3a720d45	0.00092335447
169	0x3f6aba6f	0.91690725
170	0x3cc9c9a3	0.02463228
171	0xbd7ae151	-0.061250035
172	0x3dd6c5f8	0.10486978
173	0xbe6b06e6	-0.2295185
174	0x3cb5bc9b	0.02218466
175	0x3d78b9be	0.060724013
176	0x3d97301d	0.07382224
177	0x3f06845c	0.52545714
178	0xbad6259f	-0.0016338116
179	0x3c4c36e7	0.012464262
180	0xbccd6f68	-0.025077537
181	0xbe4c38c3	-0.19943528
182	0xbbf85f6f	-0.007579736
183	0x3da2df7b	0.07952782
184	0xbda4a509	-0.080392905
185	0x3d90e2fa	0.07074542
186	0xbddec344	-0.10877088
187	0x3eab9af5	0.3351666
188	0x3d1ff26b	0.039049547
189	0x3ddfc383	0.10925963
190	0xbd2e6698	-0.04257831
191	0xbd9401de	-0.07226919
192	0xc00aea50	-2.1705513
193	0xc004bee0	-2.07415
194	0xc02daee7	-2.7138002
195	0xbffdf792	-1.9841177
196	0xbff9a9e1	-1.9504968
197	0xc003d011	-2.0595744
198	0xc00b2ae2	-2.1744924
199	0xc005e3ca	-2.0920281
200	0xbffb80b2	-1.964865
201	0xc029bd40	-2.652176
202	0xc00de9a6	-2.2173858
203	0xc006c066	-2.105493
204	0xbff2d4fd	-1.8971249
205	0xc0053184	-2.0811472
206	0xc0053e48	-2.0819263
207	0xc01dd3a3	-2.4660423
208	0xc00b65e8	-2.1780949
209	0xc0271fe7	-2.6113222
210	0xc003f6fd	-2.06195
211	0xc011de88	-2.2792072
212	0xbf846f7a	-1.034652
213	0xc0052706	-2.0805068
214	0xbffb9697	-1.9655331
215	0xbffe29a9	-1.9856464
216	0xbff88e02	-1.9418337
217	0xc002837c	-2.0392752
218	0xc000c2ce	-2.01189
219	0xc0085e7a	-2.1307664
220	0xc0027235	-2.0382206
221	0xc02e2842	-2.7212071
222	0xbff71be6	-1.9305389
223	0xc00ef3f5	-2.23364
224	0xbf6de401	-0.9292603
225	0xc001c2f4	-2.027524
226	0xc006b049	-2.1045096
227	0xbfee18b5	-1.860129
228	0xbfff437d	-1.9942471
229	0xc02077d3	-2.5073135
230	0xc00ff391	-2.249241
231	0xc005d3f4	-2.0910616
232	0xc029b7e9	-2.65185
233	0xc02ca12f	-2.6973379
234	0xc00a7882	-2.1636052
235	0xc0042a64	-2.0650873
236	0xc01d4b82	-2.4577336
237	0xc02489ac	-2.5709028
238	0xbffcd419	-1.9752227
239	0xbff9d64e	-1.9518526
240	0xbf83f8ba	-1.031028
241	0xbfd0c490	-1.6309986
242	0xc000a09d	-2.009803
243	0xc001f0cf	-2.0303228
244	0xc005ed61	-2.0926135
245	0xc0355252	-2.8331494
246	0xc007a1cc	-2.1192503
247	0xbfe9e3e9	-1.8272678
248	0xc0058e5c	-2.086814
249	0xc00296a6	-2.0404449
250	0xc026b227	-2.6046236
251	0xc029fa27	-2.655893
252	0xc0077562	-2.1165395
253	0xc00b62b7	-2.1779
254	0xc0223abf	-2.5348356
255	0xc0127cf7	-2.2888772
