Code/698/10step_5horizon/models/lstm/5step_1horizon_RMSE_84.pth (torch, 333974 bytes, 10 tensors)

lstm.weight_ih_l0 f4 [256, 85]
-0.044907585 0.083371244 -0.2838038 0.093920864 -0.035684105 -0.028661033 -0.14699063 -0.24220912
-0.28034848 -0.0974908 -0.07264805 0.018796267 0.068129726 0.044143155 -0.2709502 0.22839677
-0.07002237 -0.002267429 0.08544862 0.11497268 0.21569683 -0.03971571 0.0631618 -0.10899405
0.01724708 -0.3471111 0.08874054 0.18735391 -0.08228912 0.03610554 0.109847344 0.08958274
0.08101634 -0.29809913 0.03849039 0.5558639 0.38466966 0.0030333179 -0.09964063 0.0780479
-0.022275925 0.00812895 -0.052040715 0.15507925 0.07820339 -0.1866218 -0.40524626 -0.19675824
-0.04845156 -0.21787904 0.10139914 0.17847086 -0.009271842 -0.0074657258 0.24766965 -0.23876862
-0.21728364 -0.043469016 -0.013338729 -0.16752018 -0.037154518 0.022810228 -0.13329804 0.26431674
-0.08629677 0.09823798 -0.2145709 0.04189414 0.2103422 0.026429256 0.07734103 0.05936769
0.006461331 0.08695133 0.121955805 0.012711267 -0.20694982 0.13020357 -0.31813344 -0.023019603
-0.073794425 0.04972977 -0.03273981 0.057258576 -0.19213895 -1.5017802 -0.05844538 -0.25589517
0.1651845 0.15822916 -0.4470623 0.007318979 -0.0996702 -0.12394821 -0.20836662 0.2355864
0.04619552 -0.13864951 0.08192741 0.09187448 0.1428085 0.0758699 -0.07887026 -0.0286147
0.031081745 0.3689781 -0.014805424 0.3396813 0.24069978 -0.23608834 -0.25740558 0.037610862
0.20862986 -0.017137429 -0.00932607 0.16846727 0.048991304 0.15292501 -0.15960819 0.11839644
0.16804703 0.026769094 -0.2808844 -0.2775117 -0.12439566 -0.4295727 0.055474803 -0.11558883
0.15625057 0.0941812 -0.047774155 -0.07671458 0.03495223 0.27087173 0.03903556 -0.1335928
0.22729377 -0.19693844 0.26688236 0.22888757 0.08472874 -0.3100821 0.041764237 0.28470606
-0.19418062 0.08297227 -0.047376197 -0.07536639 0.13289808 0.029925175 -0.1886132 -0.047495615
0.13706486 0.08812728 0.20698358 0.15046686 -0.09235468 0.34551376 0.13909446 0.07956507
-0.022503236 -0.08952857 0.04492442 -0.2270145 -0.0749012 0.0869055 0.22044173 0.11987297
-0.21674162 -0.15377377 -0.13686208 0.10160075 -0.23216711 0.14920427 0.16035564 -0.14090037
-0.0498716 -0.036110826 -0.19245139 -0.17546931 0.3379173 0.024084935 -0.16101831 0.2619784
-0.056275822 0.255331 0.046208736 -0.10838925 -0.15202498 0.07218513 0.15833692 0.06750199
0.069200784 0.073137395 0.022079162 0.036969926 0.21793702 0.34114403 -0.06800818 -0.085682884
0.043080464 -0.1279426 -0.105029255 0.13038546 0.10606583 0.31535146 0.014668814 -0.037684403
-0.11897084 -0.035250444 -0.2355196 0.12834279 -0.058542147 0.077153526 0.13003476 -0.16292202
-0.0847674 0.09567889 0.19363473 0.074566245 -0.017185505 0.09480045 -0.31192854 0.15808147
-0.007927907 0.039788146 -0.25129208 -0.09782216 0.19365825 -0.0937908 0.15844281 -0.122921824
-0.08535579 -0.010314452 0.10222306 0.052294075 0.012305476 0.32742968 0.021072203 0.1115944
0.027224876 0.088466965 0.28056812 0.024671797 0.1722466 0.09350411 -0.27658072 0.3025441
-0.10597117 -0.11061221 0.03291379 0.029361833 0.2360196 -0.036809545 -0.18906191 -0.9369881
00000000: 04f1 37bd 8bbe aa3d bb4e 91be 9559 c03d
00000010: 7f29 12bd 8bca eabc b684 16be ab05 78be
00000020: d689 8fbe 42a9 c7bd 80c8 94bd a1fa 993c
00000030: 9987 8b3d 74cf 343d fcb9 8abe d8e0 693e
00000040: e367 8fbd 2599 14bb b0ff ae3d cc76 eb3d
00000050: a1df 5c3e f1ac 22bd f95a 813d 4638 dfbd
00000060: c049 8d3c 8cb8 b1be 9abd b53d b4d9 3f3e
00000070: 3387 a8bd 67e3 133d a5f7 e03d 2877 b73d
00000080: e5eb a53d 73a0 98be 19a8 1d3d 194d 0e3f
00000090: 6cf3 c43e a1ca 463b 6310 ccbd 94d7 9f3d
000000a0: 007c b6bc 4a2f 053c a528 55bd 18cd 1e3e
000000b0: 1929 a03d c919 3fbe 707c cfbe fe7a 49be
000000c0: 2575 46bd af1b 5fbe 5aaa cf3d 11c1 363e
000000d0: ede8 17bc 0ca3 f4bb 1d9d 7d3e c37f 74be
000000e0: 9a7f 5ebe 910c 32bd af8a 5abc 698a 2bbe
000000f0: 562f 18bd 84dc ba3c 487f 08be 8654 873e
00000100: 5cbc b0bd fe30 c93d 79b8 5bbe 3199 2b3d
00000110: f263 573e 2b82 d83c f964 9e3d 892b 733d
00000120: 93b9 d33b 8a13 b23d f7c3 f93d eb42 503c
00000130: a7ea 53be 1654 053e 63e2 a2be 9b93 bcbc
00000140: 8821 97bd 71b1 4b3d 2e1a 06bd f887 6a3d
00000150: 13c0 44be 553a c0bf 6c64 6fbd b104 83be
00000160: 2026 293e d306 223e 5ae5 e4be 0cd4 ef3b
00000170: e41f ccbd 8fd8 fdbd 0f5e 55be 903d 713e
00000180: 8337 3d3d 23fa 0dbe 8fc9 a73d b028 bc3d
00000190: 643c 123e ae61 9b3d bb86 a1bd 6069 eabc
000001a0: 259f fe3c b3ea bc3e 7392 72bc b5ea ad3e
000001b0: 017a 763e 24c1 71be aaca 83be d90d 1a3d
000001c0: 11a3 553e cb63 8cbc 5fcc 18bc af82 2c3e
000001d0: 1bab 483d 6098 1c3e 5470 23be d579 f23d
000001e0: 8514 2c3e dc4a db3c 14d0 8fbe 0316 8ebe
000001f0: 27c3 febd f4f0 dbbe 8c39 633d d6b9 ecbd
00000200: 2600 203e 13e2 c03d d5ae 43bd 891c 9dbd
00000210: 122a 0f3d b3af 8a3e c0e3 1f3d 8dcc 08be
00000220: b3bf 683e 3baa 49be cea4 883e 8161 6a3e
00000230: 4386 ad3d 15c3 9ebe fa10 2b3d fec4 913e
00000240: 49d7 46be 5eed a93d 8b0d 42bd b259 9abd
00000250: 6f16 083e a425 f53c d223 41be c38a 42bd
00000260: bb5a 0c3e 137c b43d 81f3 533e fc13 1a3e
00000270: 7324 bdbd 2ee7 b03e c76e 0e3e 03f3 a23d
00000280: b558 b8bc c15a b7bd ab02 383d 7d76 68be
00000290: cd65 99bd 83fb b13d 7abb 613e f67f f53d
000002a0: 84f1 5dbe df76 1dbe 9325 0cbe 0e14 d03d
000002b0: 37bd 6dbe 01c9 183e 4534 243e 3048 10be
000002c0: 2a46 4cbd f2e8 13bd fa11 45be 3aae 33be
000002d0: 7f03 ad3e c54d c53c fce1 24be 0822 863e
000002e0: 7a81 66bd bfba 823e 5f45 3d3d 2ffb ddbd
000002f0: 70ac 1bbe ccd5 933d 1323 223e 7c3e 8a3d
00000300: 24b9 8d3d 0fc9 953d 5cdf b43c c76d 173d
00000310: e22a 5f3e 6eaa ae3e df47 8bbd 827a afbd
00000320: 2475 303d 6303 03be 9419 d7bd c483 053e
00000330: 0b39 d93d bf75 a13e 7755 703c f65a 1abd
00000340: fca6 f3bd c562 10bd 0d2c 71be 4b6c 033e
00000350: e4c9 6fbd ab02 9e3d d527 053e 08d5 26be
00000360: 889a adbd 4bf3 c33d 2f48 463e 30b6 983d
00000370: 9ec8 8cbc bd26 c23d 19b5 9fbe 1ce0 213e
00000380: 0de4 01bc e5f8 223d 5ba9 80be fc56 c8bd
00000390: 594e 463e 6415 c0bd d53e 223e 70be fbbd
000003a0: 04cf aebd f3fd 28bc 535a d13d 5032 563d
000003b0: e89c 493c dda4 a73e 9d9f ac3c 9b8b e43d
000003c0: b406 df3c 2b2e b53d a0a6 8f3e 821c ca3c
000003d0: 6a61 303e 157f bf3d fd9b 8dbe 0fe7 9a3e
000003e0: 6a07 d9bd a888 e2bd 9cd0 063d 3a88 f03c
000003f0: 1faf 713e 9bc5 16bd 7299 41be 74de 6fbf

lstm.weight_hh_l0 f4 [256, 64]
0.57231575 0.3261343 -0.09530692 0.29704666 -0.3003681 -0.060059402 0.1133049 0.2956152
-0.04123869 -0.3482786 -0.0013070902 0.4082707 0.038916234 0.25583804 -0.061513845 -0.08374693
-0.30166808 -0.3903436 -0.09946941 0.16712894 -0.16454527 -0.23524864 -0.35230115 -0.1918731
0.048807416 -0.15593797 -0.023544103 -0.008573034 0.06257095 0.25873217 0.01716611 0.095579326
-0.09999828 -0.0027946162 1.2014312 -0.105353154 -0.14663488 -0.055230003 -0.28567386 0.111572295
0.10797256 0.28302526 -0.26162836 -0.03027659 0.26591027 -0.14038377 -0.04204474 0.19092971
-0.28522682 0.26604447 0.4431542 0.1000145 -0.03693754 -0.42185685 -0.06433328 0.44911262
0.94595414 0.14195727 0.11072433 0.44832438 -0.31898198 -0.13889049 -0.39178234 -0.36954343
0.21525754 0.69533634 -0.22545022 -0.071741626 -0.17247514 -0.21230224 0.27302542 0.4271425
-0.05187954 -0.05395939 -0.08530557 0.1360329 0.0802567 0.38006553 -0.045025367 0.22133444
-0.5310762 -0.02216095 -0.13405325 -0.33936083 -0.021847578 -0.018344047 -0.15779129 -0.26008502
0.004925483 0.16983841 -0.16694209 0.21566565 0.058105364 0.2784649 0.14285886 0.045207508
-0.032365456 -0.15075335 1.0112164 -0.056823116 -0.033416577 -0.054197792 0.24910334 -0.23125324
0.025898062 -0.35944575 -0.34056947 -0.09356925 -0.20755854 -0.06751745 0.23338684 -0.028906867
-0.27123192 0.02513564 0.2523721 -0.30873203 -0.10242424 -0.7712986 0.49553937 0.5901412
1.0012352 0.124447934 0.042868268 0.064818025 0.016675454 0.12230397 -0.15990357 -0.19103076
0.1545319 0.5397267 -0.23486269 -0.031792536 -0.3744452 0.16595328 0.42798206 0.50692415
0.25935143 -0.20222065 -0.17466679 0.495054 -0.034208916 0.54050404 -0.02140328 0.10062022
-0.6846332 -0.45043972 -0.4264923 -0.3380749 -0.3322679 0.29751772 -0.41078165 -0.08651344
0.039844688 -0.082903825 0.0468255 0.31256834 -0.1871608 0.3670558 0.09781414 0.010206858
-0.2037815 0.18750072 0.9072904 -0.07143685 0.12563927 0.002449851 0.08876443 0.009960395
-0.42241448 0.09179051 -0.57336384 0.30573186 0.015288941 -0.5491942 -0.2555931 -0.05229575
-0.41885483 0.03440978 0.42087203 -0.10219659 -0.14531413 -0.5632312 0.23688534 0.5640254
0.6569484 0.14107622 0.14408937 0.43751392 -0.32573858 0.114407204 -0.30733296 0.0446911
0.27445242 0.40789706 0.048157923 -0.0074370834 -0.3516332 0.030690145 0.36706603 0.5103612
-0.09476388 0.046689738 0.0018352274 0.13298444 -0.19957072 0.53060585 0.01776088 -0.0021912225
-0.6071815 -0.09664307 -0.30833006 -0.1684032 0.026962778 0.13758042 -0.2758166 0.18542
-0.08184314 -0.088651195 -0.17987034 0.07396957 0.073271185 0.024195159 -0.046935122 -0.12750338
-0.18563755 0.16238898 0.6792401 0.09245328 -0.18893196 -0.013300508 0.1864797 -0.06954021
-0.33611572 -0.19108705 -0.04183013 0.030737929 -0.03469623 -0.44662207 -0.17913193 -0.024354195
-0.19657703 -0.03720361 0.018354535 -0.29664585 -0.28115344 -0.5144625 0.13456315 0.519208
0.74583316 0.082663015 0.2884752 0.13850345 -0.23408976 -0.035325512 -0.18201526 -0.17106019
00000000: 4983 123f 13fb a63e 4630 c3bd 8016 983e
00000010: d9c9 99be d900 76bd 660c e83d e05a 973e
00000020: e7e9 28bd 9351 b2be ab52 abba db08 d13e
00000030: a166 1f3d 34fd 823e f1f5 7bbd 8383 abbd
00000040: 3d74 9abe 1edb c7be 9eb6 cbbd d923 2b3e
00000050: 8e7e 28be 05e5 70be d160 b4be 627a 44be
00000060: 49ea 473d 34ae 1fbe 90df c0bc e975 0cbc
00000070: 3325 803d 8b78 843e f19f 8c3c 18bf c33d
00000080: e6cb ccbd e125 37bb 7fc8 993f 65c3 d7bd
00000090: 7427 16be db38 62bd d843 92be 0480 e43d
000000a0: b820 dd3d b0e8 903e 27f4 85be 9c06 f8bc
000000b0: 6425 883e c3c0 0fbe 1b37 2cbd 1483 433e
000000c0: 4009 92be fb36 883e 1be5 e23e 67d4 cc3d
000000d0: d14b 17bd 9ffd d7be 2bc1 83bd 17f2 e53e
000000e0: 0d2a 723f 3f5d 113e 70c3 e23d c68a e53e
000000f0: 9b51 a3be 4f39 0ebe b297 c8be cc34 bdbe
00000100: 796c 5c3e 9001 323f 6cdc 66be 46ed 92bd
00000110: 539d 30be c265 59be fdc9 8b3e 6cb2 da3e
00000120: a47f 54bd 8504 5dbd b0b4 aebd 354c 0b3e
00000130: a05d a43d f397 c23e 856c 38bd 7fa5 623e
00000140: 9cf4 07bf e18a b5bc 4145 09be b4c0 adbe
00000150: b1f9 b2bc 4146 96bc 0a94 21be dd29 85be
00000160: f265 a13b 1fea 2d3e def2 2abe 75d7 5c3e
00000170: e4ff 6d3d f492 8e3e 9849 123e 822b 393d
00000180: a491 04bd 165f 1abe 8a6f 813f 5bbf 68bd
00000190: d2df 08bd 81fe 5dbd f214 7f3e a6cd 6cbe
000001a0: 2c28 d43c 4609 b8be 1f5f aebe 3ca1 bfbd
000001b0: 3a8a 54be 9746 8abd f6fc 6e3e 18ce ecbc
000001c0: e9de 8abe 42e9 cd3c ea36 813e 2012 9ebe
000001d0: cdc3 d1bd d373 45bf 56b7 fd3e 7e13 173f
000001e0: 7a28 803f 8fde fe3d a396 2f3d 50bf 843d
000001f0: f69a 883c 817a fa3d c3bd 23be 919d 43be
00000200: 9c3d 1e3e 872b 0a3f d87f 70be e438 02bd
00000210: 48b7 bfbe a8ef 293e 7720 db3e c8c5 013f
00000220: b6c9 843e ee12 4fbe dadb 32be b877 fd3e
00000230: a61e 0cbd 795e 0a3f ee55 afbc f911 ce3d
00000240: 1f44 2fbf 09a0 e6be 335d dabe 2718 adbe
00000250: 051f aabe 3e54 983e f951 d2be f52d b1bd
00000260: 2f34 233d 7bc9 a9bd 18cc 3f3d f508 a03e
00000270: 15a7 3fbe bdee bb3e c852 c83d aa3a 273c
00000280: 19ac 50be 3000 403e 2f44 683f 7c4d 92bd
00000290: 95a7 003e ae8d 203b 20ca b53d ed30 233c
000002a0: b646 d8be aafc bb3d f9c7 12bf e388 9c3e
000002b0: 777e 7a3c fe97 0cbf 19dd 82be 1134 56bd
000002c0: 2474 d6be 45f1 0c3d 8a7c d73e 724c d1bd
000002d0: 3acd 14be ec2f 10bf 1292 723e f863 103f
000002e0: c52d 283f 4976 103e 2a8c 133e d301 e03e
000002f0: 35c7 a6be 534e ea3d bf5a 9dbe 040e 373d
00000300: 0785 8c3e e2d7 d03e 3e41 453d c7b2 f3bb
00000310: 4409 b4be e669 fb3c 14f0 bb3e 08a7 023f
00000320: 9113 c2bd bd3d 3f3d 038c f03a 132d 083e
00000330: 445c 4cbe c9d5 073f 447f 913c 9d9a 0fbb
00000340: 3f70 1bbf cdec c5bd 70dd 9dbe e371 2cbe
00000350: 0be1 dc3c e2e1 0c3e d537 8dbe bede 3d3e
00000360: 609d a7bd c28e b5bd ee2f 38be 5c7d 973d
00000370: 340f 963d ed34 c63c 0b3f 40bd 3f90 02be
00000380: c517 3ebe 4c49 263e aee2 2d3f 2558 bd3d
00000390: 6177 41be 60ea 59bc 89f4 3e3e 196b 8ebd
000003a0: 5c17 acbe 53ac 43be 1256 2bbd 1cce fb3c
000003b0: a21d 0ebd a6ab e4be 5c6e 37be 7382 c7bc
000003c0: 7d4b 49be d062 18bd 405c 963c f7e1 97be
000003d0: 58f3 8fbe d0b3 03bf ecca 093e d1ea 043f
000003e0: ecee 3e3f 3a4b a93d 05b3 933e d9d3 0d3e
000003f0: 3ab5 6fbe 7cb1 10bd 3562 3abe 672a 2fbe

lstm.bias_ih_l0 f4 [256]
-1.8348811 -1.8337512 -1.7726157 -1.9903641 -1.9257808 -1.4675555 -1.395498 -1.5286424
-1.983445 -0.18508473 -1.9337432 -1.7852678 -2.0291195 -1.3309045 -1.8609517 -1.5851611
-1.8618492 -1.5757742 -2.1835368 -1.1328211 -2.0773258 -1.9450111 -1.4394337 -1.6964909
-1.8684633 -1.8478172 -0.86113876 -1.5769725 -2.173351 -2.057806 -1.8727492 -1.7054204
-1.8796402 -1.7374552 0.19107878 -1.8419695 -1.421994 -1.9217556 -1.8167577 -1.0157039
-1.6338837 -1.6734334 -1.7127676 -1.776879 1.7364541 -1.9604516 -1.8286245 -2.058123
-1.7599167 -1.7979747 -1.7157618 -0.2452982 -1.9509901 -0.7370619 -1.4953911 -1.8835121
0.9563054 -1.4439871 -1.7083155 -1.5232263 -1.5998279 -1.9093417 -1.9719181 -1.6740042
-1.0301439 -1.3047131 -0.9617069 -1.0567758 -1.1979078 -1.1857408 -1.0072008 -1.2829889
-1.1333557 -0.7426502 -1.1038833 -1.4811425 -1.0470543 -1.3370788 -0.9265859 -1.5140909
-1.3378221 -1.3548089 -1.2839822 -1.5962882 -1.0334076 -1.1240842 -1.0116572 -0.8444657
-1.0220127 -1.0871673 -1.2254918 -1.2196431 -1.3235102 -1.1234007 -0.8367983 -1.2974215
-1.1003792 -0.9632121 -0.97696763 -1.118824 -1.355623 -1.092675 -1.1155221 -1.1747621
-1.1129102 -1.0471348 -1.3076152 -0.9875132 -1.9613694 -1.1406039 -1.1209673 -1.144108
-1.3914603 -1.0874876 -1.0984097 -0.9625707 -1.0060457 -0.6665781 -0.97510105 -1.1310049
-0.4635504 -1.2625166 -1.1022907 -1.1847833 -1.1416514 -1.0000871 -1.2078699 -1.0177932
-0.21916857 -0.902293 -0.01059369 -0.037223365 0.19470537 0.08540297 0.6063803 0.29356498
0.0941562 -0.39713532 -0.106113836 -0.10017453 -0.06712389 0.6179219 -0.023599906 -0.25301728
0.13966386 0.16228245 0.36603498 -0.2712494 0.26698506 -0.12315081 0.3046832 -0.038439292
-0.018189523 -0.060689412 -0.42105532 0.5057299 0.28890696 -0.0869442 -0.008010195 -0.12993905
0.112327114 -0.03922095 -0.33705577 0.05842178 0.17989236 0.041210324 0.15527897 -0.5048925
-0.34105647 -0.095753245 0.1023119 0.012730278 0.5351226 0.60603034 0.0996733 -0.070997454
0.12753195 -0.0874775 -0.33962038 0.31180885 -0.06130913 -0.49709442 0.4401347 0.5817516
0.43497974 -0.11693253 -0.116101675 -0.00013529966 0.104286075 -0.06788014 0.08770214 0.2178323
-1.7263976 -2.2604816 -2.0153975 -2.0305736 -1.9303997 -1.7543778 -1.1091164 -1.8843412
-1.9217411 -0.5610071 -1.8583189 -1.6539022 -2.0232847 -1.6394043 -2.0736864 -1.7721429
-2.0413935 -1.834138 -2.1647463 -1.4572144 -2.0605605 -1.8840216 -1.3631107 -1.694668
-1.8859997 -1.855951 -1.1378922 -1.7698492 -2.1960847 -2.2271578 -1.9125102 -2.04274
-2.0430012 -1.8866355 -3.8106346 -2.0591815 -1.5809171 -1.8669503 -1.9772545 -1.1991802
-1.9104645 -1.7342861 -1.9007859 -2.039139 1.7182853 -1.9557978 -2.0350227 -2.1400855
-2.03699 -2.0058706 -2.2992785 -0.25426328 -1.9784384 -0.40462586 -1.7487111 -1.6955447
0.9409733 -1.815414 -1.6966823 -1.8823574 -1.9864634 -1.6956971 -1.9649302 -1.6642042
00000000: 62dd eabf 5cb8 eabf 12e5 e2bf 40c4 febf
00000010: fc7f f6bf dcd8 bbbf ae9f b2bf 8eaa c3bf
00000020: 87e1 fdbf da86 3dbe e684 f7bf a883 e4bf
00000030: 18dd 01c0 145b aabf aa33 eebf 8fe6 cabf
00000040: 1351 eebf f8b2 c9bf 11bf 0bc0 4800 91bf
00000050: e8f2 04c0 20f6 f8bf 5d3f b8bf 9d26 d9bf
00000060: ce29 efbf 4685 ecbf 9773 5cbf 3cda c9bf
00000070: 2f18 0bc0 18b3 03c0 3fb6 efbf 374b dabf
00000080: 0d98 f0bf ef64 debf 28aa 433e a8c5 ebbf
00000090: e603 b6bf 16fc f5bf 848b e8bf 9602 82bf
000000a0: 1a23 d1bf 1133 d6bf f83b dbbf c570 e3bf
000000b0: 2144 de3f 14f0 fabf 5e10 eabf 4ab8 03c0
000000c0: f344 e1bf 0924 e6bf 159e dbbf 742f 7bbe
000000d0: 0bba f9bf 17b0 3cbf fa68 bfbf ed16 f1bf
000000e0: 6ed0 743f 92d4 b8bf 15aa dabf 14f9 c2bf
000000f0: 29c7 ccbf 4f65 f4bf d067 fcbf c545 d6bf
00000100: c1db 83bf d700 a7bf 6c32 76bf 6e44 87bf
00000110: 0b55 99bf 5bc6 97bf f5eb 80bf fb38 a4bf
00000120: cd11 91bf 531e 3ebf 0c4c 8dbf 1496 bdbf
00000130: e005 86bf 6625 abbf bc34 6dbf bbcd c1bf
00000140: c13d abbf 616a adbf 8759 a4bf 2c53 ccbf
00000150: b346 84bf fee1 8fbf fc7d 81bf e72e 58bf
00000160: 50d1 82bf 4c28 8bbf eadc 9cbf 441d 9cbf
00000170: c868 a9bf 98cb 8fbf 6a38 56bf e811 a6bf
00000180: 3ad9 8cbf 1195 76bf 8d1a 7abf a035 8fbf
00000190: 0e85 adbf c6dc 8bbf 6ec9 8ebf 9b5e 96bf
000001a0: d773 8ebf 8308 86bf ef5f a7bf aacd 7cbf
000001b0: 270e fbbf 4fff 91bf db7b 8fbf 2272 92bf
000001c0: 5f1b b2bf cb32 8bbf b098 8cbf 096b 76bf
000001d0: 1bc6 80bf dda4 2abf 39a0 79bf c5c4 90bf
000001e0: 7a56 edbe 259a a1bf dd17 8dbf fba6 97bf
000001f0: a221 92bf db02 80bf 7b9b 9abf 0c47 82bf
00000200: ba6d 60be adfc 66bf 2891 2dbc 8777 18bd
00000210: d860 473e c1e7 ae3d bd3b 1b3f 264e 963e
00000220: f7d4 c03d 5255 cbbe 3652 d9bd 4e28 cdbd
00000230: 4078 89bd 2130 1e3f 9754 c1bc 7b8b 81be
00000240: 0b04 0f3e 5f2d 263e f068 bb3e 34e1 8abe
00000250: 44b2 883e 7e36 fcbd 70ff 9b3e 8572 1dbd
00000260: 3202 95bc 7695 78bd 9094 d7be 8477 013f
00000270: 9deb 933e cd0f b2bd 313d 03bc be0e 05be
00000280: c20b e63d 26a6 20bd 9392 acbe ad4b 6f3d
00000290: b435 383e 28cc 283d 7301 1f3e a340 01bf
000002a0: f49e aebe 471a c4bd e788 d13d a892 503c
000002b0: cbfd 083f ce24 1b3f 8421 cc3d 1d67 91bd
000002c0: bc97 023e 6727 b3bd b9e2 adbe 69a5 9f3e
000002d0: 481f 7bbd 2983 febe 5659 e13e aced 143f
000002e0: aab5 de3e 537a efbd b7c6 edbd 3adf 0db9
000002f0: f093 d53d be04 8bbd 2e9d b33d 6e0f 5f3e
00000300: 99fa dcbf bbab 10c0 46fc 00c0 ebf4 01c0
00000310: 5617 f7bf 748f e0bf 87f7 8dbf 1832 f1bf
00000320: 9dfb f5bf 299e 0fbf 65dd edbf 11b3 d3bf
00000330: 7f7d 01c0 00d8 d1bf 47b7 04c0 94d5 e2bf
00000340: 31a6 02c0 09c5 eabf 348b 0ac0 0086 babf
00000350: 39e0 03c0 9f27 f1bf 697a aebf e2ea d8bf
00000360: 7068 f1bf cd8f edbf 74a6 91bf 6b8a e2bf
00000370: a78c 0cc0 c189 0ec0 22cd f4bf 41bc 02c0
00000380: 88c0 02c0 467d f1bf 70e1 73c0 a1c9 03c0
00000390: 7e5b cabf 3af8 eebf ad16 fdbf bd7e 99bf
000003a0: 1a8a f4bf 16fd ddbf f44c f3bf 4181 02c0
000003b0: c6f0 db3f 9557 fabf d03d 02c0 29f7 08c0
000003c0: 0b5e 02c0 2f60 00c0 6127 13c0 cc2e 82be
000003d0: 783d fdbf 1f2b cfbe c4d5 dfbf 9c07 d9bf
000003e0: a0e3 703f 7c5f e8bf e32c d9bf 16f1 f0bf
000003f0: 6f44 febf 9a0c d9bf d582 fbbf a504 d5bf

lstm.bias_hh_l0 f4 [256]
-1.7738948 -1.9367113 -1.8401673 -1.8603549 -2.0038433 -1.5537565 -1.5089896 -1.533344
-1.8693131 -0.25091785 -1.7951756 -1.801023 -1.907604 -1.4454834 -1.7293353 -1.5165676
-1.8280209 -1.6386516 -2.1600344 -1.2296076 -2.1096148 -1.8160496 -1.5496372 -1.8419644
-1.8282723 -1.8008397 -0.80418223 -1.461544 -2.3291252 -2.0079393 -1.7766893 -1.8227948
-2.0213132 -1.7931856 0.19274104 -1.8578007 -1.2617238 -1.784101 -1.9451852 -1.1488727
-1.7067935 -1.7120591 -1.762047 -1.8330096 1.7740027 -2.0612953 -1.9828053 -1.9603518
-1.9308866 -1.8315765 -1.8430046 -0.34451053 -1.9320265 -0.88379914 -1.5832915 -1.7982141
0.7968061 -1.5489037 -1.7889408 -1.6278844 -1.6895648 -1.9234468 -1.7500741 -1.6191417
-1.2096494 -1.3457404 -1.0220667 -1.0459678 -1.3652102 -1.1896676 -1.0035864 -1.2432035
-1.0233161 -0.7669595 -0.98360217 -1.3977975 -1.107634 -1.4743543 -0.9439875 -1.3620416
-1.3293787 -1.4279324 -1.2801241 -1.6024399 -1.1639951 -1.192871 -1.0598841 -1.0447569
-1.0284631 -1.0080543 -1.0492766 -1.3592811 -1.236038 -1.1575185 -1.0344015 -1.3716702
-1.1531363 -1.0726308 -0.92184645 -1.1891166 -1.1849618 -0.97219795 -0.9585423 -1.247629
-1.2816557 -1.2046455 -1.0887092 -1.106102 -1.8968202 -1.0749794 -1.0356554 -0.9985121
-1.3294345 -1.0882617 -0.9802299 -1.0725946 -1.0893455 -0.663089 -1.129132 -1.1245226
-0.5004886 -1.3022395 -1.030069 -1.1081599 -1.0354252 -0.955727 -1.2329153 -1.028552
-0.1389432 -0.8827227 -0.0187108 -0.15343386 0.13181409 0.14096595 0.5904966 0.20123082
-0.014159749 -0.19548722 -0.033825964 -0.06054786 0.13516806 0.5884971 0.015893778 -0.15597312
0.05992454 0.23334394 0.32724738 -0.3583665 0.27788275 0.04618857 0.3004368 0.071264565
-0.026642095 -0.02987019 -0.19622548 0.6081165 0.2003353 -0.2119835 0.011073675 -0.1578837
0.041924924 -0.13811542 -0.44019583 -0.042347502 0.3300512 0.054530345 -0.029417861 -0.3650835
-0.5165347 -0.15550695 0.2557995 -0.010983111 0.39585635 0.57590973 0.05064888 -0.1871796
0.06143116 0.06559523 -0.41734722 0.3714303 0.17200737 -0.58825594 0.48726907 0.626017
0.38711488 0.05293276 0.036130145 -0.055906978 0.30524406 0.086044766 0.1857662 0.030459652
-1.8954326 -2.1827137 -1.992888 -2.1590774 -1.9243326 -1.6905065 -0.9427283 -1.8083632
-2.0793662 -0.49058065 -1.737321 -1.5989286 -1.9156436 -1.5979726 -2.0404289 -1.6626997
-2.1295416 -2.0225563 -2.0946007 -1.6154745 -2.068084 -1.9602045 -1.3126274 -1.8234019
-1.8032861 -1.7169644 -1.1342125 -1.6657051 -2.1928456 -2.0746543 -1.9285882 -1.9492489
-1.9865042 -1.8477914 -3.6552134 -2.0357075 -1.5653512 -1.8149302 -1.7788583 -1.2471477
-1.9491513 -1.9694386 -1.9272573 -2.083924 1.8879757 -1.9170262 -1.9957936 -2.007268
-2.0914636 -1.9307728 -2.1310046 -0.22346495 -2.066943 -0.41186938 -1.7782784 -1.7020779
0.97622395 -1.8085356 -1.9076635 -1.9275141 -2.1094837 -1.7555597 -2.0314598 -1.8104082
00000000: fc0e e3bf 28e6 f7bf 9a8a ebbf 1c20 eebf
00000010: f83e 00c0 7ee1 c6bf 9226 c1bf 9e44 c4bf
00000020: a745 efbf 4e78 80be 50c8 e5bf ec87 e6bf
00000030: 5e2c f4bf 9a05 b9bf dc5a ddbf e31e c2bf
00000040: 97fc e9bf 56bf d1bf 013e 0ac0 c863 9dbf
00000050: ee03 07c0 5074 e8bf 835a c6bf 7dc5 ebbf
00000060: d404 eabf ea81 e6bf e3de 4dbf e013 bbbf
00000070: 6310 15c0 1482 00c0 8e6a e3bf 5751 e9bf
00000080: 325d 01c0 1b87 e5bf e85d 453e 6acc edbf
00000090: 2a80 a1bf 6c5d e4bf d4fb f8bf 430e 93bf
000000a0: 3678 dabf c124 dbbf c28a e1bf 0fa0 eabf
000000b0: 8512 e33f 43ec 03c0 90cc fdbf cfec fabf
000000c0: 4b27 f7bf 1971 eabf 93e7 ebbf af63 b0be
000000d0: a54c f7bf a940 62bf 4ca9 cabf e12b e6bf
000000e0: 7cfb 4b3f 7a42 c6bf 03fc e4bf 845e d0bf
000000f0: a943 d8bf 8133 f6bf 6e02 e0bf 0940 cfbf
00000100: cbd5 9abf 3941 acbf 15d3 82bf 46e2 85bf
00000110: 35bf aebf 0747 98bf 8575 80bf 4b21 9fbf
00000120: 06fc 82bf 7557 44bf 5acd 7bbf 07eb b2bf
00000130: f3c6 8dbf a4b7 bcbf 2aa9 71bf 6157 aebf
00000140: 1529 aabf 7dc6 b6bf 1bdb a3bf c01c cdbf
00000150: cbfd 94bf ffaf 98bf 48aa 87bf 98ba 85bf
00000160: aea4 83bf ec07 81bf b24e 86bf ecfc adbf
00000170: 7e36 9ebf 9129 94bf 4567 84bf e492 afbf
00000180: f899 93bf f74b 89bf 21fe 6bbf f934 98bf
00000190: d4ac 97bf f7e1 78bf 0763 75bf 4fb2 9fbf
000001a0: 4b0d a4bf d331 9abf d35a 8bbf c094 8dbf
000001b0: 01cb f2bf ed98 89bf 5b90 84bf 7d9e 7fbf
000001c0: e92a aabf 294c 8bbf 59f0 7abf c84a 89bf
000001d0: ac6f 8bbf 33c0 29bf 6687 90bf 5bf0 8fbf
000001e0: 0520 00bf c9af a6bf 4dd9 83bf 2fd8 8dbf
000001f0: d088 84bf 86aa 74bf 2bd0 9dbf 98a7 83bf
00000200: 2047 0ebe 1dfa 61bf 6447 99bc c41d 1dbe
00000210: 46fa 063e 6159 103e c92a 173f 740f 4e3e
00000220: 4bfe 67bc cd2d 48be 188d 0abd 0801 78bd
00000230: 7f69 0a3e bfa7 163f ab33 823c 6bb7 1fbe
00000240: 6f73 753d b7f1 6e3e f88c a73e d07b b7be
00000250: a646 8e3e 3a30 3d3d dad2 993e 28f3 913d
00000260: 8640 dabc 54b2 f4bc 55ef 48be 86ad 1b3f
00000270: b224 4d3e 3412 59be 5c6e 353c 44ac 21be
00000280: 78b9 2b3d 216e 0dbe 5961 e1be 9374 2dbd
00000290: 79fc a83e 365b 5f3d bafd f0bc 39ec babe
000002a0: 9e3b 04bf 373d 1fbe 27f8 823e 82f2 33bc
000002b0: afad ca3e d26e 133f 3375 4f3d 02ac 3fbe
000002c0: 3d9f 7b3d cb56 863d 89ae d5be 1d2c be3e
000002d0: b322 303e f197 16bf 557b f93e a642 203f
000002e0: ec33 c63e 06d0 583d 34fd 133d b7fe 64bd
000002f0: f348 9c3e 3d38 b03d 7f39 3e3e 8586 f93c
00000300: 899d f2bf 95b1 0bc0 f416 ffbf 532e 0ac0
00000310: 8850 f6bf 8462 d8bf a456 71bf 7278 e7bf
00000320: 5614 05c0 632d fbbe 8960 debf b1a9 ccbf
00000330: cf33 f5bf 5e8a ccbf 6396 02c0 58d3 d4bf
00000340: 694a 08c0 9071 01c0 f00d 06c0 dec7 cebf
00000350: 7d5b 04c0 fbe7 fabf 2d04 a8bf 3c65 e9bf
00000360: 14d2 e6bf 7dc5 dbbf e02d 91bf d335 d5bf
00000370: 9557 0cc0 23c7 04c0 fadb f6bf fd80 f9bf
00000380: c545 febf 6e84 ecbf 04ef 69c0 0849 02c0
00000390: 6e5d c8bf a24f e8bf a1b1 e3bf 89a2 9fbf
000003a0: ca7d f9bf 9016 fcbf 5eb0 f6bf 035f 05c0
000003b0: 30a9 f13f 1d61 f5bf 2a76 ffbf 1477 00c0
000003c0: 8ada 05c0 9023 f7bf 6162 08c0 ffd3 64be
000003d0: cb48 04c0 8be0 d2be a09e e3bf b0dd d9bf
000003e0: d0e9 793f 187e e7bf 512e f4bf c8b8 f6bf
000003f0: c801 07c0 2eb6 e0bf 7003 02c0 75bb e7bf

lstm.weight_ih_l1 f4 [256, 64]
0.026114428 0.025076378 -0.06062825 -0.008546926 -0.103836656 0.07526866 0.028151883 0.09105397
-0.08329744 -0.11787873 0.030175513 0.11434356 -0.20934413 0.010433698 0.1895353 -0.077391416
-0.13211997 -0.05509237 -0.03319993 -0.14916725 -0.08257017 -0.024955519 -0.12746467 0.1570546
-0.04311337 0.05408688 0.20337774 0.10414045 -0.036248665 0.122455895 -0.06595633 0.28875536
-0.18458508 0.034808308 0.33297026 -0.028882815 0.060091514 -0.060905974 0.15883453 0.02270772
0.0137299765 -0.13044786 -0.30624884 0.028709795 0.08554462 -0.11539579 0.029471928 0.30844775
-0.051354 -0.076715484 0.17957519 -0.13435607 -0.035069566 -0.12179923 0.12646797 0.44404316
0.63698393 0.20839615 0.13178386 0.03342513 -0.3044605 -0.22262868 -0.15297206 -0.077570364
-0.09939827 -0.19010545 -0.15126769 -0.14876038 0.012744297 0.12939836 -0.008210118 -0.205651
-0.041022845 0.12403126 0.27795562 0.11523688 -0.09018384 -0.18663308 0.020939406 0.081443354
0.16441187 -0.02870362 -0.0633666 0.11990404 0.008214771 0.11026529 0.30012125 0.06377032
-0.025288397 -0.065617025 0.5702148 -0.10089078 0.17807066 -0.12621695 -0.17300107 0.13322666
-0.099837676 0.05104593 0.27831 0.0071116756 0.07102208 0.046086006 -0.037828367 0.20527878
0.1276664 -0.009347222 -0.10907459 -0.036126066 -1.0080553 0.050009903 0.13771395 -0.048755653
-0.097957626 0.07462834 0.24617319 -0.4951838 -0.06574033 -0.25560048 -0.5244944 0.01696943
0.17236084 -0.19986439 0.07156315 -0.00994814 -0.06947369 0.1250392 -0.22362442 -0.08107258
0.23212941 0.35468814 -0.1825511 -0.09372199 -0.004593365 -0.11534648 0.22409156 0.17638463
-0.12034098 0.20427889 0.09985725 0.19089255 -0.13911133 0.16334149 0.07649725 -0.22861777
-0.19938757 -0.15318856 -0.070879295 -0.037018582 -0.12110358 0.0448319 -0.17400347 0.15410309
0.044755433 -0.13882856 0.259757 0.22581196 0.09046611 0.18664262 -0.016107032 0.22688052
0.0016946844 -0.061365668 0.47259068 -0.09191851 -0.028363982 -0.11982774 0.19035165 0.005118058
0.014216217 -0.04368187 -0.25342894 0.13760076 -0.040763434 -0.19252981 0.12229991 0.0080530355
-0.36645594 0.16712703 0.46145812 -0.21771672 -0.2727361 -0.28299445 0.24455832 0.2950775
0.39666346 0.12743777 0.047530424 0.008930434 -0.19337891 -0.116289854 -0.35317317 -0.24430017
0.09587445 -0.04042591 0.11152476 -0.05285437 -0.0755322 -0.11657419 -0.09910854 0.0016964845
-0.12989381 -0.24671587 -0.09920999 0.30386367 0.06565391 -0.10406223 0.14690794 0.019603714
-0.12103185 -0.11705889 0.03385977 0.04692269 0.052410774 -0.038957343 0.047013167 -0.15411432
-0.005448009 0.007951406 0.16354433 -0.21113403 0.21740606 -0.2500827 0.03742388 0.059711315
0.0063740127 0.29453018 0.22182891 0.05762482 -0.17261349 -0.24565725 -0.11231294 0.24071763
0.035317034 0.12343764 -0.10487233 -0.0128292255 0.25475857 0.043390397 0.12425394 -0.024362162
-0.016101575 0.14295252 0.005334563 -0.7209477 -0.120863415 0.12188697 -0.0785278 0.1874203
0.4358185 0.116424724 -0.050698 -0.027202163 -0.14457029 0.08547777 -0.074516766 -0.02548106
00000000: eded d53c fa6c cd3c 5455 78bd 6808 0cbc
00000010: 50a8 d4bd 7526 9a3d c79e e63c 817a ba3d
00000020: d997 aabd 676a f1bd a332 f73c f52c ea3d
00000030: 4f5e 56be 1af2 2a3c 8b15 423e 647f 9ebd
00000040: 754a 07be 89a8 61bd a6fc 07bd 4dbf 18be
00000050: 8d1a a9bd 846f ccbc 1986 02be ecd2 203e
00000060: a597 30bd 348a 5d3d 4142 503e 9747 d53d
00000070: 7b79 14bd 28ca fa3d 1d14 87bd bed7 933e
00000080: df03 3dbe 2893 0e3d 147b aa3e a79b ecbc
00000090: 8522 763d 8b78 79bd 85a5 223e 8a05 ba3c
000000a0: b2f3 603c 2094 05be a6cc 9cbe ce30 eb3c
000000b0: 0532 af3d a154 ecbd 1d6f f13c ddec 9d3e
000000c0: 9258 52bd 021d 9dbd 8fe2 373e a394 09be
000000d0: 1ba5 0fbd e071 f9bd d280 013e a059 e33e
000000e0: 6111 233f cd65 553e 59f2 063e cae8 083d
000000f0: 3fe2 9bbe c6f8 63be b5a4 1cbe 36dd 9ebd
00000100: 5291 cbbd 01ab 42be ebe5 1abe a454 18be
00000110: 75cd 503c 0181 043e bb83 06bc 2d96 52be
00000120: 9207 28bd 1a04 fe3d 3350 8e3e 5001 ec3d
00000130: 4eb2 b8bd be1c 3fbe 1e89 ab3c c6cb a63d
00000140: 965b 283e db23 ebbc 59c6 81bd 4090 f53d
00000150: 3f97 063c c5d2 e13d 7ea9 993e 039a 823d
00000160: 9d29 cfbc 3862 86bd 99f9 113f d39f cebd
00000170: 2858 363e 043f 01be 3127 31be 926c 083e
00000180: b277 ccbd 8915 513d a67e 8e3e 0f09 e93b
00000190: 0674 913d aec4 3c3d ebf1 1abd 9a34 523e
000001a0: fbba 023e 1725 19bc 8062 dfbd edf8 13bd
000001b0: f507 81bf 2fd7 4c3d e304 0d3e 02b4 47bd
000001c0: 029e c8bd bed6 983d d314 7c3e bb88 fdbe
000001d0: dea2 86bd 11de 82be 4445 06bf 7903 8b3c
000001e0: 5c7f 303e 40a9 4cbe b38f 923d 86fd 22bc
000001f0: 3948 8ebd 470a 003e cdfd 64be 6109 a6bd
00000200: 55b3 6d3e af99 b53e adee 3abe 51f1 bfbd
00000210: f083 96bb c63a ecbd 4278 653e 2c9e 343e
00000220: 5575 f6bd 7c2e 513e f581 cc3d 5679 433e
00000230: 3373 0ebe fe42 273e 97aa 9c3d c71a 6abe
00000240: 412c 4cbe 76dd 1cbe 2a29 91bd cca0 17bd
00000250: 2705 f8bd a8a1 373d f72d 32be 33cd 1d3e
00000260: 7951 373d 1329 0ebe dffe 843e 403b 673e
00000270: 4c46 b93d 3e1f 3f3e e5f2 83bc 5e53 683e
00000280: 2c20 de3a 915a 7bbd 68f7 f13e c63f bcbd
00000290: 955b e8bc 3f68 f5bd 8beb 423e 62b5 a73b
000002a0: 23eb 683c c3eb 32bd 70c1 81be 37e7 0c3e
000002b0: 8ff7 26bd 8926 45be 6078 fa3d e1f0 033c
000002c0: 1da0 bbbe 5923 2b3e 3d44 ec3e 22f1 5ebe
000002d0: 11a4 8bbe a6e4 90be 7f6d 7a3e 6614 973e
000002e0: 7917 cb3e 0c7f 023e 43af 423d f450 123c
000002f0: 1f05 46be 6029 eebd 1dd3 b4be d329 7abe
00000300: d359 c43d a495 25bd 1867 e43d d37d 58bd
00000310: a0b0 9abd 73be eebd 6bf9 cabd 935c de3a
00000320: e202 05be 16a3 7cbe 9b2e cbbd 0594 9b3e
00000330: 8f75 863d 941e d5bd 096f 163e f897 a03c
00000340: 8cdf f7bd 92bc efbd 8bb0 0a3d 0232 403d
00000350: aeac 563d bc91 1fbd e190 403d 25d0 1dbe
00000360: 3685 b2bb 9d46 023c 2a78 273e 8533 58be
00000370: b29f 5e3e d70a 80be c849 193d da93 743d
00000380: 18dd d03b a9cc 963e 1e27 633e 0108 6c3d
00000390: 97c1 30be 938d 7bbe 5404 e6bd af7e 763e
000003a0: 98a8 103d e0cc fc3d 4ec7 d6bd ac31 52bc
000003b0: b76f 823e 21ba 313d da78 fe3d 2893 c7bc
000003c0: 73e7 83bc 2562 123e 8fcd ae3b 0790 38bf
000003d0: 3d87 f7bd e09f f93d 2fd3 a0bd 1beb 3f3e
000003e0: 9a23 df3e 1670 ee3d b5a8 4fbd 12d7 debc
000003f0: 3c0a 14be f80e af3d 3f9c 98bd a8bd d0bc

lstm.weight_hh_l1 f4 [256, 64]
-0.2934902 -0.7037625 0.027685048 -0.41223082 0.68129283 -0.27033177 0.47022095 0.17377655
-0.2032519 -0.19460648 -0.46551585 -0.32447553 -0.0022977218 0.48322836 -0.03825982 -0.0064551285
-0.24424507 0.10187196 -0.03006383 0.28764856 0.38845032 -0.023059854 0.5745259 -0.13922103
0.07532847 -1.0736389 -0.026237879 -0.73048276 -0.18178858 0.5365226 0.19232382 0.12797976
0.52531475 0.643095 -0.061058655 -0.008791642 -0.29087293 0.13084798 -0.15410374 1.2379113
0.3317665 -0.3911347 -0.077702716 -0.6534557 -0.04355214 1.2550147 0.36324427 -0.2666908
-0.066699065 -0.40370908 0.20452313 0.054795742 0.19655299 -0.027567506 -0.23942828 0.28241152
-0.14913674 -0.22605687 -0.016460055 0.34712493 0.12851852 0.33096635 0.29887885 0.031211136
-0.37398648 -0.21842085 0.29387623 -0.45188046 0.07737043 -0.76993376 0.6940583 0.25055075
0.028674819 -0.8681452 -0.15193897 -0.46029356 0.023467455 0.27026266 -0.247048 0.23203702
-1.5549172 0.13330631 0.18415377 0.38624045 0.12851617 0.52209693 0.3118398 -0.32624358
0.69940627 -0.11703864 -0.4264452 -0.2530819 -0.40760487 0.041066255 0.056634292 0.003673242
1.0162079 0.28752786 -0.17881571 0.07192754 -0.1397751 0.09957518 0.11189852 0.27116406
1.1315019 -0.16377157 -0.36107704 -0.30618593 -0.09823251 0.27566916 0.16296703 -0.5371564
-0.10167454 -0.4738457 0.2632553 -0.91327435 1.2643547 0.47922978 -0.54472923 0.21826154
-0.0038295106 -0.6708494 -0.20201841 0.38469163 0.20216836 1.4360112 0.18529466 0.23841129
-0.17704752 -0.49671224 0.042148866 -0.2848219 0.5321373 -0.17686716 0.41836083 0.089916505
-0.1014281 0.0028971734 -0.42060617 -0.27111563 0.15616855 0.28479773 -0.20623125 0.033628915
-0.08669502 0.1795577 0.0877294 0.22094452 0.36590615 -0.11748107 0.5852128 -0.14610639
-0.16224293 -0.623677 -0.15600304 -0.6095039 -0.14473501 0.44987962 0.047412515 0.08806108
0.37943634 0.5785188 -0.021774426 -0.03723773 -0.30399698 0.21398883 -0.3346527 0.6568964
0.21651974 -0.28581864 -0.023985527 -0.26069382 -0.16556573 0.73119783 0.13673799 -0.026202971
-0.07633145 -0.27129462 0.006652527 -0.018186932 -0.07213466 -0.011526218 -0.36239326 0.33693752
0.15211317 -0.3813503 0.039934196 0.17198746 -0.03403264 0.24390686 0.14551258 -0.018609041
-0.4208177 -0.16621327 0.06903248 -0.35658243 0.20526133 -0.57214946 0.4648367 0.18508805
-0.1728263 -0.7240685 -0.23400971 -0.04555797 -0.017160803 0.30644014 -0.07690899 0.01876137
-0.3070371 0.15661313 0.24198171 0.34463754 0.3696257 0.15929973 0.32347944 -0.05645819
0.3245582 -0.56899244 -0.33475232 -0.3877917 -0.25138134 0.1448272 0.18469624 -0.061848726
0.3217946 0.19015409 0.046365507 -0.09859206 -0.3432191 0.0122503955 -0.031643346 0.5515569
0.55083823 -0.3132521 -0.21542297 -0.43248183 -0.01107664 0.7998268 0.2506764 -0.26369756
0.080170654 -0.51616305 0.015999509 -0.114918016 0.27372482 0.20249906 -0.1923043 0.22422113
-0.011312614 -0.16915855 -0.1884102 0.31093773 0.07820721 1.0320129 0.31016284 0.112184726
00000000: 5944 96be c729 34bf c1cb e23c eb0f d3be
00000010: 3569 2e3f ed68 8abe cdc0 f03e 7bf2 313e
00000020: 4421 50be ec46 47be 1858 eebe a821 a6be
00000030: 6095 16bb b569 f73e 54b6 1cbd 8b85 d3bb
00000040: 611b 7abe 3fa2 d03d 6c48 f6bc ac46 933e
00000050: f6e2 c63e 05e8 bcbc 2114 133f f58f 0ebe
00000060: d045 9a3d 006d 89bf d2f0 d6bc eb00 3bbf
00000070: c926 3abe 8c59 093f 89f0 443e 200d 033e
00000080: 077b 063f e0a1 243f a418 7abd d20a 10bc
00000090: 4ced 94be 03fd 053e 5fcd 1dbe e173 9e3f
000000a0: 4cdd a93e cf42 c8be 9a22 9fbd df48 27bf
000000b0: bb63 32bd 52a4 a03f 27fb b93e b28b 88be
000000c0: 8599 88bd f5b2 cebe 836e 513e 8071 603d
000000d0: 3045 493e 40d5 e1bc b02c 75be 3e98 903e
000000e0: 4db7 18be 747b 67be 3dd7 86bc 5cba b13e
000000f0: 5c9a 033e 6c74 a93e a606 993e 7fae ff3c
00000100: 287b bfbe b7a9 5fbe f276 963e e05c e7be
00000110: 6374 9e3d 611a 45bf cead 313f 3048 803e
00000120: 74e7 ea3c c43e 5ebf e495 1bbe 99ab ebbe
00000130: d23e c03c de5f 8a3e 27fa 7cbe 1d9b 6d3e
00000140: 8707 c7bf 7381 083e ce92 3c3e 4fc1 c53e
00000150: be99 033e 25a8 053f 77a9 9f3e 6609 a7be
00000160: 4a0c 333f f4b1 efbd 0657 dabe f393 81be
00000170: 96b1 d0be 1735 283d 5cf9 673d c6ba 703b
00000180: 1a13 823f da36 933e 771b 37be bf4e 933d
00000190: 3421 0fbe 12ee cb3d 0d2b e53d 04d6 8a3e
000001a0: 0ed5 903f bcb3 27be 17df b8be 67c4 9cbe
000001b0: 202e c9bd 8224 8d3e d4e0 263e 1583 09bf
000001c0: be3a d0bd e79b f2be 66c9 863e 59cc 69bf
000001d0: 60d6 a13f 9b5d f53e 6073 0bbf f47f 5f3e
000001e0: 87f8 7abb c9bc 2bbf eadd 4ebe 4df6 c43e
000001f0: 3905 4f3e 37cf b73f e2bd 3d3e 1722 743e
00000200: f24b 35be 1151 febe 4aa4 2c3d 2dd4 91be
00000210: 263a 083f aa1c 35be 6433 d63e 2526 b83d
00000220: 89b9 cfbd 81de 3d3b b159 d7be abcf 8abe
00000230: a6ea 1f3e 02d1 913e 492e 53be 79be 093d
00000240: 298d b1bd f9dd 373e 79ab b33d 483f 623e
00000250: 0d58 bb3e ea99 f0bd 82d0 153f ea9c 15be
00000260: 0323 26be 4ca9 1fbf 43bf 1fbe 7308 1cbf
00000270: 6a35 14be 9f56 e63e a033 423d 5e59 b43d
00000280: 7b45 c23e cf19 143f 4860 b2bc 9786 18bd
00000290: 7ea5 9bbe e31f 5b3e 9957 abbe 5d2a 283f
000002a0: 5ab7 5d3e d256 92be 4c7d c4bc a979 85be
000002b0: 108a 29be c82f 3b3f 0b05 0c3e 9da7 d6bc
000002c0: aa53 9cbd 21e7 8abe 71fd d93b c3fc 94bc
000002d0: 56bb 93bd 76d8 3cbc 9c8b b9be 1383 ac3e
000002e0: 8ec3 1b3e 5940 c3be 0a92 233d 7b1d 303e
000002f0: cf65 0bbd b8c2 793e 4001 153e fd71 98bc
00000300: 6b75 d7be d033 2abe e760 8d3d f991 b6be
00000310: 0730 523e 6378 12bf 13ff ed3e b987 3d3e
00000320: 61f9 30be 8e5c 39bf 3ea0 6fbe fe9a 3abd
00000330: d094 8cbc b9e5 9c3e 7682 9dbd 72b1 993c
00000340: f733 9dbe 315f 203e 0eca 773e 5574 b03e
00000350: 943f bd3e 781f 233e 199f a53e b440 67bd
00000360: 7e2c a63e 7da9 11bf a864 abbe a28c c6be
00000370: 0eb5 80be 954d 143e 0321 3d3e 1755 7dbd
00000380: 43c2 a43e c1b7 423e c2e9 3d3d a2ea c9bd
00000390: 6aba afbe e2b5 483c 749c 01bd d532 0d3f
000003a0: bc03 0d3f 9462 a0be d797 5cbe 426e ddbe
000003b0: cc7a 35bc 73c1 4c3f a858 803e 5e03 87be
000003c0: 8330 a43d 4323 04bf 6711 833c 235a ebbd
000003d0: a925 8c3e ea5b 4f3e 6beb 44be 399a 653e
000003e0: 8b58 39bc e637 2dbe 9aee 40be 3b33 9f3e
000003f0: 1a2b a03d 0019 843f aacd 9e3e 1bc1 e53d

lstm.bias_ih_l1 f4 [256]
-1.8077351 -1.8597561 -1.9141368 -1.8839282 -2.0334406 -1.439629 -1.8735949 -1.9435977
-1.8774675 -1.8898041 -1.5361942 -1.9455922 -1.9858704 -1.5647112 -1.8771875 -1.9915822
-1.0750037 -1.1797986 -1.983023 -1.3920043 -0.64959824 -2.1170037 -1.9490649 -1.980011
-1.3517491 -1.0138725 -1.978238 -1.9039724 -2.1231568 -1.8726382 -1.7156363 -1.8606169
-0.76470506 -1.728519 -2.0010948 -1.9978818 -1.6400474 -2.009271 -1.9216806 -0.39278042
-1.8767596 -0.64320594 -1.8927583 -1.9890515 -2.007363 -1.0734787 -1.9181648 -2.0739923
-2.0649545 -0.0460179 -1.8212858 -1.131181 -1.2555584 -2.0336614 -1.981584 -1.597693
-1.9277815 -1.8757484 -1.878272 -1.9790766 -1.9249699 -1.5163713 -1.709479 -2.0442195
-1.1148419 -0.53133225 -1.0520715 -1.0610933 -0.4498017 -1.112015 -0.9736911 -1.0081713
-1.0025966 -1.8137414 -0.86541784 -1.029317 -1.0480317 -1.007848 -0.93212116 -1.1377885
-0.731911 -1.1680678 -0.99944884 -0.78166616 -0.38458037 -1.0793602 -0.6187627 -1.0287842
-1.0839151 -0.27267972 -1.1705347 -0.6435984 -1.107232 -0.6817136 -0.98588085 -1.0485661
-0.21450797 -0.8850054 -1.1961297 -0.9997884 -0.9590247 -1.047338 -0.92195374 0.014489409
-0.822889 -0.57595927 -1.0034704 -0.610869 -1.1100004 -0.3891408 -0.68742263 -1.2364572
-1.1654173 -0.33355734 -1.0648766 -0.9372103 -0.9880641 -1.0186231 -1.028672 -0.8247094
-0.9976422 -1.0708572 -1.1571203 -1.0297797 -1.1422098 -1.3333272 -0.5486204 -1.0934796
-0.018726123 0.077001 0.10257949 -0.0700996 0.057445098 -0.03375615 0.028772313 0.012347151
-0.0148597695 0.05951804 -0.0077429563 -0.03364967 -0.010163338 0.07836608 0.060142815 0.0071762446
0.084125616 0.022582982 -0.098741956 -0.06564555 0.0015109642 -0.033806104 0.0028176627 0.06263409
-0.00082939165 0.04178646 0.0037528053 0.02873922 -0.020379817 -0.0037829196 0.017518517 0.0031944686
-0.06559263 0.017101081 0.0351767 0.024193907 0.095563516 0.07869309 0.043031607 -0.010722454
-0.0472579 0.0045176684 0.08968657 0.055658754 0.023332398 -0.01611119 0.09329402 0.06213735
0.09132179 -0.033464964 -0.07484397 -0.03717572 0.004853259 0.049085103 0.042395823 0.0069954554
-0.02819987 -0.10249768 0.007933383 -0.021326914 0.040837962 0.14543195 0.07288378 0.04747497
-1.8942802 -1.6736563 -1.7611812 -1.704656 -2.0761762 -1.3893163 -2.0123374 -1.9488108
-1.9554275 -1.8857328 -1.6442238 -2.005437 -2.0727334 -1.5109928 -1.9110483 -2.0336447
-0.8590991 -1.366085 -1.8421316 -1.296174 -0.5836526 -2.0643704 -2.0659795 -1.9022026
-1.35046 -0.92565775 -1.9493661 -1.8817095 -1.9517083 -2.0474417 -1.9355122 -1.754568
-0.38993695 -1.9621757 -2.0231633 -1.9095722 -1.5687665 -1.9145453 -1.8539783 -0.24200478
-1.8088843 -0.45354733 -1.9647232 -1.7717266 -2.021538 -0.8858989 -1.9269158 -2.0325902
-2.1062226 -0.08622849 -1.8937877 -1.0086554 -1.2133536 -2.0915668 -1.9038284 -1.795844
-2.1043658 -1.9888836 -1.8240135 -1.8623208 -1.9134628 -1.4901212 -1.6990823 -2.060878
00000000: dd63 e7bf 7d0c eebf 6f02 f5bf 8f24 f1bf
00000010: e423 02c0 c345 b8bf f5d1 efbf cfc7 f8bf
00000020: db50 f0bf 1ae5 f1bf 03a2 c4bf 2a09 f9bf
00000030: 0031 febf 7548 c8bf ae47 f0bf 2aec febf
00000040: b999 89bf a403 97bf b3d3 fdbf 322d b2bf
00000050: 124c 26bf fd7c 07c0 f57a f9bf 0071 fdbf
00000060: 1d06 adbf 93c6 81bf e736 fdbf 5eb5 f3bf
00000070: cde1 07c0 9cb2 efbf f899 dbbf b228 eebf
00000080: b6c3 43bf 1c40 ddbf f011 00c0 97ba ffbf
00000090: 13ed d1bf e597 00c0 a1f9 f5bf 841a c9be
000000a0: a939 f0bf 25a9 24bf e745 f2bf 3d99 febf
000000b0: a378 00c0 c067 89bf 6d86 f5bf 4abc 04c0
000000c0: 3728 04c0 447d 3cbd e51f e9bf 8aca 90bf
000000d0: 23b6 a0bf 8227 02c0 8ba4 fdbf 3481 ccbf
000000e0: 8bc1 f6bf 8618 f0bf 386b f0bf 6252 fdbf
000000f0: 6a65 f6bf 7418 c2bf 35d0 dabf 7ed4 02c0
00000100: 24b3 8ebf 6405 08bf 47aa 86bf e8d1 87bf
00000110: 694c e6be 8256 8ebf d243 79bf c20b 81bf
00000120: 1655 80bf ae28 e8bf 068c 5dbf a9c0 83bf
00000130: e725 86bf 2a01 81bf 7e9f 6ebf 0ea3 91bf
00000140: 855e 3bbf 3f83 95bf e1db 7fbf 461b 48bf
00000150: b8e7 c4be 7a28 8abf 3b67 1ebf 33af 83bf
00000160: bbbd 8abf ad9c 8bbe 15d4 95bf ddc2 24bf
00000170: c7b9 8dbf c884 2ebf b062 7cbf 6a37 86bf
00000180: faa7 5bbe b78f 62bf c71a 99bf 22f2 7fbf
00000190: a582 75bf 2c0f 86bf 2905 6cbf fc64 6d3c
000001a0: daa8 52bf 1172 13bf b871 80bf e961 1cbf
000001b0: 7e14 8ebf 773d c7be eefa 2fbf 3b44 9ebf
000001c0: 652c 95bf 07c8 aabe e04d 88bf 04ed 6fbf
000001d0: c5f1 7cbf 3e62 82bf 86ab 83bf 2820 53bf
000001e0: 7b65 7fbf d911 89bf 851c 94bf d2cf 83bf
000001f0: ee33 92bf 77aa aabf 6372 0cbf 24f7 8bbf
00000200: 8767 99bc b3b2 9d3d 3215 d23d 6190 8fbd
00000210: 8d4b 6b3d e443 0abd eab3 eb3c b44b 4a3c
00000220: 6476 73bc 30c9 733d a0b8 fdbb 3dd4 09bd
00000230: 2184 26bc 657e a03d 5058 763d b426 eb3b
00000240: 0d4a ac3d f2ff b83c 3939 cabd 2d71 86bd
00000250: 8c0b c63a 4578 0abd 89a8 383b 4d46 803d
00000260: 886b 59ba 4728 2b3d a0f1 753b 836e eb3c
00000270: 93f3 a6bc dcea 77bb fe82 8f3c 4a5a 513b
00000280: 6e55 86bd 9117 8c3c 7215 103d 4d32 c63c
00000290: ceb6 c33d d829 a13d e941 303d 3bad 2fbc
000002a0: 8091 41bd f308 943b 98ad b73d 6ffa 633d
000002b0: 9623 bf3c 9dfb 83bc ef10 bf3d bc83 7e3d
000002c0: eb06 bb3d 8f12 09bd cc47 99bd 9145 18bd
000002d0: 1608 9f3b 760d 493d 3ea7 2d3d 223a e53b
000002e0: 6a03 e7bc 4eea d1bd 05fb 013c c8b5 aebc
000002f0: b545 273d 1dec 143e 1744 953d 1d75 423d
00000300: c677 f2bf 5f3a d6bf 636e e1bf 2b32 dabf
00000310: 12e0 04c0 1ed5 b1bf 23ca 00c0 a272 f9bf
00000320: 734b fabf b15f f1bf ed75 d2bf 1459 00c0
00000330: aaa7 04c0 3668 c1bf 3b9d f4bf 3c27 02c0
00000340: ebed 5bbf e0db aebf f8ca ebbf 08e9 a5bf
00000350: 426a 15bf a51e 04c0 0239 04c0 607b f3bf
00000360: e0db acbf e8f7 6cbf d484 f9bf dbdb f0bf
00000370: 94d1 f9bf 4909 03c0 ddbe f7bf af95 e0bf
00000380: d1a5 c7be 9328 fbbf 827b 01c0 dd6c f4bf
00000390: 57cd c8bf d20f f5bf 294f edbf 1ad0 77be
000003a0: 8589 e7bf 5b37 e8be 0d7c fbbf f0c7 e2bf
000003b0: e160 01c0 45ca 62bf 2da5 f6bf f515 02c0
000003c0: 5acc 06c0 9098 b0bd a367 f2bf 9f1b 81bf
000003d0: 2c4f 9bbf 3bdc 05c0 a6b0 f3bf 37de e5bf
000003e0: eead 06c0 bd93 febf 4679 e9bf 8760 eebf
000003f0: 59ec f4bf 4bbc bebf 877b d9bf 6de5 03c0

lstm.bias_hh_l1 f4 [256]
-1.9847518 -1.8269321 -1.7809626 -1.7929777 -2.1627526 -1.5113944 -1.8401567 -2.0790129
-1.8108114 -1.8867781 -1.6600522 -2.043261 -1.9560158 -1.556367 -1.9812274 -1.8334737
-1.0417019 -1.3616161 -1.8925139 -1.3828516 -0.58801985 -2.1741521 -2.0679903 -2.0223382
-1.3671061 -1.1904438 -1.9673501 -2.0820708 -2.0009813 -1.9648845 -1.7255404 -1.9781785
-0.8684583 -1.7593348 -1.999246 -1.9452125 -1.6893395 -1.8694782 -2.0325835 -0.30703312
-1.8055409 -0.6415816 -2.0112906 -1.800712 -1.9794124 -1.1719999 -1.8298315 -1.8899829
-1.944874 -0.16112724 -1.8537666 -1.0033573 -1.158697 -2.0601597 -2.0987647 -1.821574
-2.0565116 -1.9194493 -1.890671 -1.9050007 -1.8875229 -1.4593012 -1.6369945 -2.0149956
-1.0248411 -0.38412392 -0.90960044 -1.1158123 -0.55190396 -1.1837268 -1.0169747 -1.0098648
-1.0544803 -1.631135 -0.9651408 -0.9680143 -1.0259631 -1.0334368 -1.0342863 -1.1247177
-0.71013373 -1.2436603 -0.9957294 -0.76613104 -0.48207062 -0.97528 -0.71301436 -1.005932
-0.97643334 -0.44254598 -1.1324302 -0.7929478 -1.2568866 -0.6663183 -1.0845021 -1.0176469
-0.16435957 -1.0600725 -1.1300758 -1.0285813 -0.9992938 -0.92327374 -0.9432451 -0.19542377
-0.63158786 -0.5666048 -1.0057002 -0.79070026 -0.96659595 -0.4344013 -0.78710854 -1.0345558
-0.9599985 -0.3131272 -1.0533857 -0.74715805 -0.9944362 -1.0695131 -1.1385056 -0.99864125
-0.94169456 -1.037718 -0.9914362 -1.1803668 -1.152992 -1.1504735 -0.6301268 -1.1432872
0.016097298 -0.08501538 -0.10290247 0.07794804 -0.12712881 0.019051332 -0.031552795 -0.011278804
0.015446229 -0.08067379 0.023593677 0.03086238 0.015049416 -0.100013904 -0.056824297 -0.011254136
0.0032074337 -0.042077966 0.093981035 0.044466935 -0.031584535 0.027583249 -0.012248994 -0.06538425
-0.09364213 -0.020069385 0.009377012 0.0045921854 -0.07392911 -0.018911883 -0.020292304 -0.010374239
-0.048548352 -0.02773927 -0.024241706 -0.019462148 -0.076887995 -0.08385496 -0.04620866 -0.011460864
0.033725116 0.030315194 -0.090283155 -0.040157598 -0.025457527 0.001031357 -0.10125939 -0.060513828
-0.09706428 0.023663733 0.0802774 0.06693891 -0.12448815 -0.04832229 -0.048252538 -0.01924102
0.02057385 0.10883035 -0.009680052 0.022209488 -0.041439567 -0.0066774273 -0.092013486 -0.053396206
-2.032976 -1.5984966 -1.9440223 -1.7104911 -2.1550717 -1.4674094 -1.8844624 -1.929347
-1.9622978 -1.7431201 -1.6076249 -2.0730312 -2.1061292 -1.5011027 -2.0341263 -1.9493878
-0.9782942 -1.2707012 -1.7981064 -1.2739398 -0.65934646 -2.1810977 -2.1641638 -1.9892492
-1.395421 -0.91895115 -1.9080665 -2.1209502 -1.9918406 -2.0025434 -1.8559202 -1.9979638
-0.5646541 -1.7878188 -2.0815656 -1.8850697 -1.5123233 -1.8480184 -1.8902057 -0.23848072
-1.7780832 -0.507924 -1.9010285 -1.8193016 -1.9921005 -0.9158583 -1.8112386 -1.9969915
-2.004246 0.011875315 -1.7559739 -1.04732 -1.1237669 -1.8853012 -1.945194 -1.6561395
-1.8957531 -1.9852365 -1.8681734 -1.8619689 -1.9589211 -1.5323905 -1.6422924 -1.9996966
00000000: 590c febf e9d8 e9bf 95f6 e3bf 4b80 e5bf
00000010: 8a6a 0ac0 5f75 c1bf 418a ebbf 8c0e 05c0
00000020: abc8 e7bf f281 f1bf 977c d4bf cac4 02c0
00000030: ba5e fabf 0937 c7bf dc98 fdbf 44af eabf
00000040: 7d56 85bf 7049 aebf e53d f2bf 4801 b1bf
00000050: 7888 16bf 4f25 0bc0 f459 04c0 fd6d 01c0
00000060: 55fd aebf 7660 98bf 21d2 fbbf a640 05c0
00000070: 1410 00c0 5681 fbbf 82de dcbf f434 fdbf
00000080: 4853 5ebf e231 e1bf 4be7 ffbf b9fc f8bf
00000090: 473c d8bf 104b efbf d915 02c0 7233 9dbe
000000a0: f71b e7bf b13e 24bf fcb8 00c0 bb7d e6bf
000000b0: 635d fdbf 1804 96bf eb37 eabf f6ea f1bf
000000c0: a2f1 f8bf 8afe 24be 3948 edbf 036e 80bf
000000d0: 2f50 94bf a8d9 03c0 2952 06c0 5629 e9bf
000000e0: e39d 03c0 84b0 f5bf 8201 f2bf 10d7 f3bf
000000f0: 5a9a f1bf 62ca babf 0989 d1bf b0f5 00c0
00000100: fe2d 83bf e4ab c4be 93db 68bf f0d2 8ebf
00000110: 9449 0dbf 5c84 97bf 3a2c 82bf 4043 81bf
00000120: 36f9 86bf 08c9 d0bf 7813 77bf c9cf 77bf
00000130: c252 83bf a847 84bf 7e63 84bf c0f6 8fbf
00000140: 53cb 35bf 4330 9fbf 1fe8 7ebf 2a21 44bf
00000150: f6d1 f6be f3ab 79bf 1c88 36bf 61c2 80bf
00000160: 89f7 79bf 6395 e2be 79f3 90bf a1fe 4abf
00000170: a9e1 a0bf d693 2abf f7d0 8abf 4142 82bf
00000180: e04d 28be 75b0 87bf 53a6 90bf 8da8 83bf
00000190: b8d1 7fbf ab5b 6cbf 8378 71bf 2b1d 48be
000001a0: beaf 21bf 030d 11bf c9ba 80bf 556b 4abf
000001b0: d572 77bf d969 debe f27f 49bf 536c 84bf
000001c0: 76c2 75bf 3552 a0be 58d5 86bf c045 3fbf
000001d0: 5f93 7ebf cee5 88bf 8dba 91bf f4a6 7fbf
000001e0: e512 71bf f2d3 84bf c3ce 7dbf 4216 97bf
000001f0: 3e95 93bf b742 93bf fd4f 21bf 3c57 92bf
00000200: 7bde 833c 8b1c aebd 88be d2bd 39a3 9f3d
00000210: 0e2e 02be 8a11 9c3c 813d 01bd bcca 38bc
00000220: 2e12 7d3c 4d38 a5bd 8747 c13c 1ad3 fc3c
00000230: d391 763c 17d4 ccbd 98c0 68bd 4563 38bc
00000240: cf33 523b f259 2cbd 2179 c03d f622 363d
00000250: c95e 01bd 44f6 e13c 01b0 48bc 2de8 85bd
00000260: 72c7 bfbd 8d68 a4bc 0aa2 193c 0b7a 963b
00000270: 2568 97bd 18ed 9abc 0c3c a6bc b6f8 29bc
00000280: a3da 46bd 773d e3bc 8b96 c6bc 156f 9fbc
00000290: 7477 9dbd 26bc abbd 4b45 3dbd 59c6 3bbc
000002a0: 5923 0a3d 9257 f83c 60e6 b8bd 4b7c 24bd
000002b0: 4e8c d0bc 992e 873a 1561 cfbd 59dd 77bd
000002c0: a3c9 c6bd 72da c13c 7a68 a43d 4417 893d
000002d0: a5f3 febd 98ed 45bd 74a4 45bd 589f 9dbc
000002e0: 7e8a a83c 72e2 de3d 1599 1ebc acf0 b53c
000002f0: 89bc 29bd 52ce dabb 9171 bcbd fbb5 5abd
00000300: 471c 02c0 899b ccbf b9d5 f8bf 5ff1 dabf
00000310: b2ec 09c0 12d4 bbbf 1036 f1bf d8f4 f6bf
00000320: 932c fbbf 8f1e dfbf a7c6 cdbf 8bac 04c0
00000330: d2ca 06c0 2224 c0bf 202f 02c0 8a85 f9bf
00000340: 7d71 7abf 56a6 a2bf 5a28 e6bf 7610 a3bf
00000350: eeca 28bf 1b97 0bc0 a981 0ac0 b89f febf
00000360: 289d b2bf 6240 6bbf 863b f4bf a6bd 07c0
00000370: a2f4 febf ac29 00c0 cb8e edbf 47bd ffbf
00000380: 2c8d 10bf 3fd7 e4bf 5f38 05c0 f749 f1bf
00000390: cf93 c1bf de8b ecbf 43f2 f1bf 4a34 74be
000003a0: 3b98 e3bf 4f07 02bf e754 f3bf e0de e8bf
000003b0: 26fd febf b175 6abf abd6 e7bf 6b9d ffbf
000003c0: 9145 00c0 ae90 423c c1c3 e0bf 950e 86bf
000003d0: 98d7 8fbf 8d51 f1bf 1efc f8bf 61fc d3bf
000003e0: 0aa8 f2bf 3b1c febf 4e20 efbf ff54 eebf
000003f0: edbd fabf 5f25 c4bf a336 d2bf 0ff6 ffbf
