Code/698/10step_5horizon/models/lstm/5step_5horizon_RMSE_8.pth (torch, 219692 bytes, 11 tensors)

lstm.weight_ih_l0 f4 [256, 9]
0	0x3ed6a56d	0.41923085
1	0xbdda6e09	-0.10665519
2	0x3ee2213e	0.44165987
3	0xbf17b986	-0.5926746
4	0x3ebc1e83	0.3674203
5	0x3e8fb4a6	0.2806751
6	0xbed5e271	-0.41774324
7	0xbc74f33c	-0.01495057
8	0xbeefc44a	-0.46829444
9	0x3fa494d8	1.2857924
10	0x3f0b5444	0.54425454
11	0x3e91f9c4	0.2851087
12	0x3b550bcd	0.0032508255
13	0x3f310a2b	0.6915614
14	0xbf065e81	-0.5248795
15	0xbf398a95	-0.72477084
16	0x3e50bc37	0.20384298
17	0xbf685462	-0.9075376
18	0x3fb457eb	1.408933
19	0x3f2f69c9	0.6852079
20	0x3dc3066c	0.09522709
21	0xbe34b2ac	-0.17646283
22	0xbee45996	-0.445996
23	0x3d205963	0.039147746
24	0xbe2863e4	-0.16444355
25	0x3e0a02fe	0.13477704
26	0xbdfb62de	-0.12274717
27	0x3f59857c	0.84969306
28	0x3ec40be8	0.38290334
29	0x3eaed1bc	0.3414439
30	0xbf10bf9f	-0.5654239
31	0x3f3120ee	0.6919087
32	0xbc2e1abc	-0.010626491
33	0xbeef8630	-0.46782064
34	0xbc06e4ce	-0.008233262
35	0xbf258b0a	-0.6466528
36	0x3f584563	0.84480876
37	0x3e6f86f6	0.23391327
38	0x3ee647fb	0.44976792
39	0xbec431ce	-0.38319248
40	0x3f36d6ad	0.7142132
41	0xbddb3eb2	-0.107053176
42	0xbf305f1b	-0.6889512
43	0x3de088ee	0.10963617
44	0xbf39192e	-0.72304046
45	0x3f89a8e3	1.0754665
46	0x3e35de06	0.17760476
47	0x3e51c1fb	0.20484154
48	0xbe90077b	-0.28130707
49	0x3f65e4a1	0.89801985
50	0xbe988a1f	-0.29792878
51	0xbf5e1e27	-0.8676476
52	0x3ea09978	0.31367087
53	0xbf5059d6	-0.8138708
54	0x3fd0c27a	1.630935
55	0xbe0723a3	-0.13197188
56	0x3e00d752	0.12582138
57	0xbe010f9c	-0.12603611
58	0x3d853775	0.06504718
59	0x3e1552e2	0.14582399
60	0xbf36e27d	-0.71439344
61	0xbe228b06	-0.15873346
62	0xbdc6c0d3	-0.09704747
63	0x3f87125d	1.0552479
64	0x3ec105cb	0.37699732
65	0xbe024125	-0.12720163
66	0xbe6f1a75	-0.23349936
67	0xbf2031ca	-0.6257597
68	0xbd02d9e0	-0.031946063
69	0xbd26fd16	-0.040768705
70	0x3dac1cb0	0.08403909
71	0xbe56d460	-0.20979452
72	0x3f9e183f	1.2351149
73	0x3efdd6b4	0.49577868
74	0x3ea7e465	0.3279144
75	0xbe472356	-0.19447073
76	0xbf093b34	-0.5360596
77	0x3f192ccc	0.5983398
78	0x3d4af283	0.049547683
79	0xbdccc34d	-0.09998188
80	0xbca53ffb	-0.02017211
81	0x3e2a0220	0.16602373
82	0x3ec7aac3	0.38997468
83	0x3ed25c88	0.4108622
84	0xbea0deec	-0.31420076
85	0x3ee08778	0.43853354
86	0xbdc90279	-0.09814925
87	0xbede28d3	-0.4339052
88	0x3ed79ec9	0.4211333
89	0xbd7abf37	-0.061217513
90	0x40158d3c	2.3367453
91	0xbe030acc	-0.12797087
92	0x3f017215	0.505647
93	0xbf35846e	-0.70905197
94	0xbed69508	-0.41910577
95	0xbe6a66bb	-0.22890751
96	0xbe933c60	-0.28757
97	0x3e64e3cb	0.22352521
98	0xbf9f3f87	-1.2441262
99	0x3f56be37	0.83883995
100	0x3f3c9e8a	0.7367941
101	0x3e22d940	0.15903187
102	0xbf8f37d7	-1.1188916
103	0x3f063374	0.5242226
104	0xbecbc46d	-0.39798298
105	0xbf09ee3c	-0.5387914
106	0x3e3d4cc5	0.18486317
107	0xbf46cbbd	-0.7765463
108	0xc078fe0a	-3.8905053
109	0xbeea40e6	-0.4575264
110	0x3bedf453	0.0072617917
111	0x3e0569e6	0.13028678
112	0xbdd0b7e2	-0.10191323
113	0xbd1c921d	-0.038225282
114	0xbf115365	-0.56767875
115	0x3ed638f3	0.41840324
116	0xbe09ee89	-0.134699
117	0x3fa8fdd4	1.3202462
118	0x3f0dd06f	0.5539617
119	0xbe43a41a	-0.19105569
120	0xbe428b84	-0.18998533
121	0xbf9ee347	-1.241311
122	0xbe33be9b	-0.17553179
123	0x3e9e6e9b	0.3094376
124	0x3f009068	0.50220346
125	0xbf8205ee	-1.015806
126	0x3f513008	0.81713915
127	0x3dac91c0	0.08426237
128	0x3f0d2c46	0.5514568
129	0xbf623700	-0.88365173
130	0x3ee3ad31	0.44468072
131	0x3e546585	0.20741852
132	0xbedef8e7	-0.43549272
133	0xbcf3d942	-0.029766683
134	0xbf44b2be	-0.7683524
135	0x3fbe0d21	1.4847757
136	0x3eec26f5	0.46123472
137	0x3ea8b788	0.32952523
138	0xbd1e7259	-0.03868327
139	0xbf5ee071	-0.8706122
140	0x3e791ad3	0.24326639
141	0xbe2e0d91	-0.16997363
142	0x3ea22715	0.31670442
143	0xbe2cd825	-0.16879328
144	0x3fb825c0	1.438652
145	0x3f3123f1	0.6919547
146	0x3ed30248	0.41212678
147	0x3e9bcfa0	0.30431843
148	0xbfbd9c2d	-1.4813286
149	0x3f202c3c	0.62567496
150	0xbeb458b3	-0.35223922
151	0x3ec58e24	0.38585007
152	0x3d725935	0.059167106
153	0x3f489d52	0.7836505
154	0x3ec35997	0.3815429
155	0xbe97a547	-0.29618284
156	0xbf76611a	-0.96241915
157	0xbbad433b	-0.0052875555
158	0xbea4b88d	-0.3217205
159	0xbeaf886b	-0.34283766
160	0x3eb95d2f	0.36203906
161	0xbf091331	-0.5354491
162	0x3fa39430	1.2779598
163	0x3da5ee6f	0.08102118
164	0x3f1699ca	0.58828413
165	0xbf816c37	-1.011115
166	0x3ec57f03	0.38573465
167	0x3e00f73f	0.12594317
168	0xbe85cd63	-0.2613326
169	0x3f1afe87	0.6054463
170	0xbf7311de	-0.9494914
171	0x3f60e459	0.8784843
172	0x3f86dad2	1.0535529
173	0x3ec80011	0.3906255
174	0xbf89178d	-1.0710312
175	0x3f22b876	0.63562715
176	0xbf88c684	-1.0685582
177	0xbe2800fe	-0.16406628
178	0x3f009f3c	0.5024297
179	0x3e0aa8ec	0.13541001
180	0x3fb0529d	1.3775212
181	0x3c57f731	0.013181494
182	0x3f0ddf27	0.5541863
183	0xbe7e3239	-0.24823846
184	0xbe986abd	-0.29768935
185	0x3f343934	0.70399785
186	0xbe8485ee	-0.2588343
187	0xbbc7e600	-0.006100416
188	0x3eee7889	0.46576336
189	0x3f79feaa	0.9765421
190	0xbeefb649	-0.4681876
191	0xbd49b898	-0.049248308
192	0x3dccc699	0.09998817
193	0x3ed5b554	0.41739905
194	0x3e92f807	0.28704855
195	0xbe2d4b3e	-0.16923234
196	0x3e17f2ea	0.14838758
197	0xbe626eb9	-0.2211255
198	0x3da249b9	0.07924218
199	0x3f1f4e05	0.62228423
200	0xbe02c395	-0.12769921
201	0xbec7156a	-0.38883525
202	0x3f1c2d70	0.6100683
203	0xbf0eb7bb	-0.557491
204	0xbdfa04fe	-0.122079834
205	0xbcf0ce9a	-0.02939539
206	0xbf698036	-0.9121126
207	0x3e93a92d	0.28840008
208	0xbe50b439	-0.2038125
209	0x3f047c14	0.5175183
210	0xbefc1a28	-0.49238706
211	0x3ed13a22	0.40864664
212	0xbd441d10	-0.04787928
213	0xbe87404f	-0.2641625
214	0x3edf054e	0.43558735
215	0xbeeff192	-0.4686399
216	0xbe762695	-0.24038155
217	0x3e93c30c	0.28859746
218	0x3e976d62	0.2957564
219	0xbe8a7df1	-0.2704921
220	0x3e53a24c	0.2066738
221	0x3dbfd98d	0.093676664
222	0xbedb6053	-0.42846927
223	0x3f0cc44c	0.54987025
224	0xbeb5dec7	-0.35521528
225	0x3f340e07	0.70333904
226	0x3ebd41a4	0.36964142
227	0x3e041296	0.12897715
228	0xbe62e260	-0.22156668
229	0xbe831d95	-0.25608507
230	0xbe5ae2e2	-0.21375611
231	0xbee6da4f	-0.4508843
232	0x3e835064	0.2564727
233	0xbdb8fd0d	-0.090326406
234	0x3f07a967	0.5299286
235	0xbe5f705d	-0.21820207
236	0x3ef889f1	0.4854274
237	0xbf0ecd12	-0.5578166
238	0x3f63dac5	0.8900569
239	0xbd5a9078	-0.053360432
240	0xbeb10cab	-0.34579977
241	0x3eda717e	0.42664713
242	0xbf400d17	-0.75019974
243	0x3f737c2c	0.95111346
244	0x3f64ce6b	0.8937747
245	0xbdc79e40	-0.09746981
246	0xbefa947a	-0.48941404
247	0xbef24371	-0.4731708
248	0xbee45511	-0.4459615
249	0xbe36c18d	-0.17847271
250	0xbf0998c6	-0.5374874
251	0x3e2ecf79	0.17071332
252	0x3f7e4f53	0.9933979
253	0x3f166a66	0.587561
254	0x3da9cf82	0.08291532
255	0xbeb41ffa	-0.35180646

lstm.weight_hh_l0 f4 [256, 64]
0	0xbd8dad7c	-0.06917855
1	0x3dc3c5b8	0.09559196
2	0x3dff16dc	0.12455532
3	0xbd2e62b4	-0.0425746
4	0xbd979ef6	-0.07403366
5	0x3befb000	0.007314682
6	0xbdbab73a	-0.09116979
7	0xbdb74496	-0.089486286
8	0x3c69bff0	0.014266953
9	0x3d2d7764	0.042350188
10	0x3db1e5c8	0.086864054
11	0xbd98b424	-0.07456234
12	0xbbe45ce0	-0.0069690794
13	0x3d1340d4	0.035950497
14	0xbcfa22f8	-0.030534253
15	0x3cf36510	0.029711276
16	0x3d6e8334	0.058230594
17	0xbdca49ee	-0.09877382
18	0x3d52aaf4	0.051432565
19	0x3a5c1600	0.0008395612
20	0x3a6d6c00	0.0009056926
21	0xbcd09fb0	-0.02546677
22	0x3d53eb28	0.051737934
23	0x3d3e9c90	0.04653603
24	0xbc3e4940	-0.011614144
25	0xbd466b28	-0.048442036
26	0xbce0a448	-0.027422085
27	0x3cb80e18	0.022467658
28	0x3c9035d0	0.017603785
29	0xbde7bdf8	-0.113155305
30	0x3de0413c	0.109499425
31	0xbdcfb63c	-0.1014218
32	0x3d23e618	0.040014356
33	0x3d88b2f4	0.066747576
34	0xbd81c06a	-0.06335528
35	0xbd34fc88	-0.044186145
36	0xbd953cde	-0.07287
37	0xbd885580	-0.06656933
38	0xbd03fb68	-0.03222218
39	0x3d0ef62c	0.034902737
40	0xbda7928c	-0.081822485
41	0xbd4d639c	-0.050143823
42	0xbc142ea0	-0.009044319
43	0xbd22488c	-0.039619967
44	0x3d3fc70c	0.046820685
45	0xbc135140	-0.0089915395
46	0x3d167f24	0.036742344
47	0x3d9b3ca8	0.07579929
48	0x3d5fe550	0.05466205
49	0x3d5ccf18	0.053908437
50	0xbdf9944a	-0.12186487
51	0xbacd0700	-0.0015642345
52	0xbbde11a0	-0.0067770034
53	0x3da6f696	0.08152501
54	0xbdbfb02a	-0.093597725
55	0xbd8e6ed8	-0.069547355
56	0xbd10d02c	-0.03535478
57	0x3d0d9710	0.034567893
58	0xbc2aecc0	-0.010432422
59	0xbd3be028	-0.04586807
60	0xbd19aef4	-0.037520364
61	0x3de5328c	0.11191282
62	0x3dd6cd46	0.104883716
63	0xbd39dcec	-0.045376703
64	0x3d5af42c	0.053455517
65	0xbd768d88	-0.06019357
66	0xbde23f38	-0.11047214
67	0xbd6815ec	-0.05666153
68	0x3d937c32	0.07201423
69	0x3dd77136	0.1051964
70	0x3d90a17c	0.07062051
71	0x3cf1c3c0	0.029512286
72	0x3d5e6e2c	0.054304287
73	0x3d5b32a8	0.053515106
74	0xbd06261c	-0.032751188
75	0x3db08344	0.08618787
76	0xbdb3257c	-0.08747384
77	0x3ddddd86	0.10833268
78	0x3db2202c	0.086975425
79	0x3cb15d70	0.021651
80	0xbdf40b1e	-0.11916183
81	0x3da5ede6	0.08102016
82	0xbda30548	-0.07959992
83	0xbdc23f26	-0.09484701
84	0xbdc48de0	-0.09597373
85	0xbb577dc0	-0.003288135
86	0x3dfdacb8	0.12386459
87	0x3d806dee	0.062709674
88	0xbdefa6b2	-0.117017165
89	0xbd83bf88	-0.06433016
90	0xbd1f26fc	-0.038855538
91	0xbdf46766	-0.11933784
92	0x3d743928	0.05962482
93	0x3cf5d4f0	0.030008763
94	0x3dee1352	0.11624779
95	0xbc72fc10	-0.014830604
96	0x3d5b3ee4	0.053526774
97	0x3d80ef58	0.06295651
98	0xbd6ce684	-0.057837024
99	0x3dad547c	0.0846338
100	0xbbb989c0	-0.005662173
101	0x3d6944d4	0.056950405
102	0x3b7e2880	0.0038781464
103	0xbcf68878	-0.03009437
104	0x3dba5154	0.09097543
105	0xbd5c1a1c	-0.053735837
106	0xbdec8ca8	-0.115502656
107	0xbcff1cf0	-0.031141728
108	0xbd8aae52	-0.0677153
109	0xbd3dbe38	-0.046323985
110	0x3d2b7aa4	0.041865006
111	0x3ccee6e0	0.025256574
112	0xbc3e5800	-0.0116176605
113	0x3d8bbaca	0.068227366
114	0x3c7883c0	0.01516813
115	0x3daea9e2	0.08528496
116	0x3c4689f0	0.012117848
117	0x3da5159a	0.08060761
118	0x3dfc8224	0.1232951
119	0x3da4e9a0	0.08052373
120	0x3c955e28	0.018233374
121	0x3df61138	0.12015003
122	0x3b350580	0.0027621686
123	0x3c3aaac0	0.011393249
124	0xbcb57a40	-0.02215302
125	0xbdbc5768	-0.09196359
126	0x3df05d46	0.117365405
127	0x3da46138	0.080263555
128	0x3d26c77c	0.040717587
129	0x3b381000	0.0028085709
130	0xbd8d198c	-0.06889638
131	0x3dced63c	0.10099456
132	0xbde00c12	-0.10939802
133	0x3cb94988	0.02261807
134	0xbd825fc8	-0.06365925
135	0xbde6c822	-0.11268641
136	0x3dacc49a	0.08435936
137	0xbdc824be	-0.09772633
138	0x3c842790	0.016132146
139	0xbddf0f04	-0.10891536
140	0x3d24b44c	0.040211007
141	0x3ca992f0	0.020699948
142	0x3d89f46e	0.067360744
143	0xbb9db300	-0.004812598
144	0xbdae7d48	-0.08519989
145	0x3db0a5ea	0.086253956
146	0x3dcfdfee	0.10150133
147	0x3d729838	0.0592272
148	0x3de0a5da	0.10969134
149	0x3dea0ed2	0.11428608
150	0x3d5e8480	0.05432558
151	0xbd8a8d02	-0.06765176
152	0x3d85ba0e	0.06529628
153	0x3d8c0d5a	0.06838484
154	0x3cc8f3f0	0.024530381
155	0xbd1b6c98	-0.03794536
156	0xbda4ea0c	-0.080524534
157	0xbd5c5470	-0.053791463
158	0xbd9a624c	-0.0753828
159	0x3b826d60	0.0039803237
160	0x3ddef9ca	0.10887487
161	0x3b8cdfe0	0.004299149
162	0xbda81a3e	-0.0820813
163	0xbd57031c	-0.0524932
164	0xbc4dbd00	-0.012557268
165	0x3cac4aa8	0.021031693
166	0x3d3a256c	0.045445845
167	0xbd00f330	-0.03148192
168	0xbdbd5a22	-0.09245707
169	0x3cc43888	0.023952737
170	0x3c60eb20	0.013727933
171	0x3de8bb94	0.11363903
172	0xbdb55458	-0.08853978
173	0x3c491b50	0.012274578
174	0x3dbc251e	0.09186767
175	0x3de860d2	0.11346592
176	0x3de3af4a	0.11117418
177	0x3db98746	0.090590045
178	0x3dfa7672	0.12229623
179	0xbd10a418	-0.035312742
180	0xbdffbd16	-0.12487237
181	0xbceb1338	-0.028695688
182	0xbd4415e4	-0.04787244
183	0x3d3b7e9c	0.04577504
184	0xbdbe64ba	-0.09296556
185	0x3d28ff48	0.04125908
186	0xbd611a64	-0.05495681
187	0x3dd8b1ce	0.105807886
188	0xbd9b5cce	-0.075860605
189	0x3ca1e308	0.019761577
190	0xbd8f7ca6	-0.07006197
191	0x3d10ff68	0.035399824
192	0xbbdcfd80	-0.0067440867
193	0xbc6c5a70	-0.014425859
194	0x3d083b98	0.033259958
195	0xbc4e6ea0	-0.012599617
196	0xbd68dc18	-0.056850523
197	0x3d5461b8	0.051851004
198	0x3c2196b0	0.009862587
199	0x3ddb6b6e	0.1071385
200	0x3db71b0c	0.08940706
201	0xbdabe420	-0.08393121
202	0xbde6abf8	-0.11263269
203	0x3dade778	0.08491415
204	0xba9f4580	-0.001215145
205	0xbde7c9a8	-0.1131776
206	0x3d541e94	0.051786974
207	0xbc861c30	-0.016370863
208	0x3bbc62c0	0.0057490766
209	0x3d6f1624	0.058370724
210	0x3dbd6048	0.0924688
211	0x3dd69ae2	0.1047876
212	0xbdf47d0a	-0.11937912
213	0x3da562f2	0.08075513
214	0x3cf81778	0.030284628
215	0xbc84f3c0	-0.01622951
216	0x3d404a14	0.046945646
217	0x3d7f15bc	0.062276587
218	0x3d8a0048	0.06738335
219	0xbdda8162	-0.10669209
220	0x3d700498	0.05859813
221	0x3de47854	0.11155763
222	0x3df37eee	0.11889444
223	0xbd3bebec	-0.04587929
224	0x3dd865b4	0.10566273
225	0x3d15b204	0.036546722
226	0xbdd2a0e0	-0.10284591
227	0x3dddcac0	0.10829687
228	0xbde2e9c4	-0.110797435
229	0xbd0618e0	-0.032738566
230	0xbd93ba6c	-0.072132915
231	0x3dfb5554	0.122721344
232	0x3d830ac4	0.06398538
233	0xbdf427de	-0.119216666
234	0x3dc7fbd4	0.09764829
235	0xbd38acd0	-0.04508668
236	0xbd9ebb92	-0.0775062
237	0xbc2f5fb0	-0.010703966
238	0xbd7d6388	-0.0618625
239	0x3ddf7f2a	0.109129265
240	0x3cdd33b0	0.027002186
241	0x3d9efa50	0.07762587
242	0x3cb0ae60	0.021567523
243	0xbda54202	-0.080692306
244	0xbd69323c	-0.056932673
245	0xbdc839b2	-0.097766295
246	0x3d059910	0.032616675
247	0xbca78490	-0.020448953
248	0x3d942c04	0.07234958
249	0xbdeb284e	-0.11482297
250	0xbdf4620e	-0.11932765
251	0xbd9a5b5a	-0.07536955
252	0xbb37b440	-0.0028031021
253	0xbc9bf910	-0.01903966
254	0x3d28b484	0.041187778
255	0x3c9a52d8	0.018838331

lstm.bias_ih_l0 f4 [256]
0	0xbfef1946	-1.8679588
1	0xbfbd0cf4	-1.4769578
2	0xbfe7f20d	-1.8120743
3	0xbfeaf2fa	-1.83554
4	0xbfed4e9e	-1.8539617
5	0xbfcecfae	-1.6157129
6	0x3f13e332	0.5776855
7	0xbfee4011	-1.8613302
8	0xbfcf2ed4	-1.6186166
9	0xc00a1f59	-2.1581633
10	0xbf129c0a	-0.57269347
11	0xbfa8c00f	-1.3183612
12	0xbdf7c468	-0.120980084
13	0xbf9362fb	-1.1514581
14	0xbfcc0111	-1.5937825
15	0xbfd9e88f	-1.7024096
16	0xbfa11bc8	-1.2586603
17	0xbf961528	-1.1725206
18	0xbfb0f8f3	-1.3825973
19	0xbf72f21c	-0.9490068
20	0xbf59a0ea	-0.8501116
21	0x3e307c87	0.17235003
22	0xbfbb4655	-1.4630839
23	0xbff9990d	-1.9499832
24	0xc0007dd9	-2.0076811
25	0xbfe66abd	-1.8001324
26	0xbfe4d819	-1.7878448
27	0xbf87977e	-1.0593107
28	0xc008821a	-2.1329408
29	0xbfbcef9b	-1.4760622
30	0xbf644ac8	-0.8917661
31	0xbfecfe36	-1.8515079
32	0xc0030e16	-2.0477347
33	0x3f99759c	1.1989017
34	0xbfd8d01b	-1.6938509
35	0xbfef726f	-1.8706797
36	0xbe3d2afd	-0.1847343
37	0xbfd6153a	-1.6725228
38	0xbff21886	-1.8913734
39	0xbfb37903	-1.4021305
40	0xc005a122	-2.0879598
41	0xbffd2d98	-1.9779539
42	0xbfb8491d	-1.4397312
43	0xbfbc023c	-1.4688182
44	0xbf57352d	-0.84065515
45	0x3fbcfcf1	1.4764692
46	0xbfce2b92	-1.6107047
47	0xbf28e834	-0.65979314
48	0xc0014d2b	-2.020335
49	0xbfad8913	-1.3557457
50	0x3e36f897	0.17868267
51	0xbfd92bbc	-1.6966472
52	0xbf553af7	-0.832931
53	0xbfc8255a	-1.5636399
54	0xbf417882	-0.75574505
55	0x3e9b1ef4	0.30297053
56	0xc0098789	-2.1488974
57	0xbff1ab39	-1.8880378
58	0xbfd75cf3	-1.6825241
59	0xbfefd116	-1.8735683
60	0xbfc08652	-1.5040991
61	0xbff389e5	-1.9026457
62	0xbfebb471	-1.8414441
63	0xbf8dcba8	-1.1077776
64	0xbd04fea4	-0.032469407
65	0x3d8a242a	0.06745179
66	0x3d52fdd0	0.051511586
67	0x3d6e4a28	0.05817619
68	0x3dd2f04c	0.10299739
69	0x3da3d248	0.07999092
70	0xbd2173d4	-0.039417103
71	0x3dc09a8e	0.09404479
72	0xbd0661ac	-0.03280799
73	0x3dde09d0	0.10841715
74	0x3d0874ac	0.033314392
75	0x3d323cd8	0.043515056
76	0x3dffd644	0.1249204
77	0x3da50ce4	0.08059099
78	0xbdf15828	-0.117843926
79	0xbbb76a20	-0.005597368
80	0xbd53f7d0	-0.051750004
81	0xbd2ca43c	-0.042148814
82	0xbd009110	-0.031388342
83	0x3dc4087c	0.09571931
84	0x3ddd31a6	0.10800485
85	0x3d83a956	0.06428783
86	0xbbd25dc0	-0.0064198673
87	0x3ddd2ea2	0.1079991
88	0xbd7eb4e8	-0.062184244
89	0x3dd5bad8	0.10436028
90	0xbd840942	-0.06447078
91	0x3dd6b2a4	0.10483292
92	0xbd299e34	-0.04141064
93	0x3d4c8c28	0.04993835
94	0x3c8487d0	0.016178042
95	0x3cc68b58	0.024236366
96	0x3d7f9a90	0.06240326
97	0x3d738c28	0.059459835
98	0x3d009218	0.031389326
99	0xbd0666b4	-0.03281279
100	0xbde051ca	-0.109531
101	0x3d846a3e	0.064655766
102	0xbd78c704	-0.06073667
103	0x3d49c26c	0.04925768
104	0x3db2c9cc	0.08729896
105	0x3df91e5e	0.12163995
106	0x3ca948a8	0.020664528
107	0x3d8aea5e	0.06782983
108	0xbdf0d4fc	-0.117593735
109	0xbd2dec88	-0.042461902
110	0x3d4c5640	0.049886942
111	0xbdb52e66	-0.088467404
112	0x3d4b6158	0.04965338
113	0x3deea89a	0.11653252
114	0xbcd6a498	-0.026201531
115	0x3d690dc0	0.05689788
116	0x3ddc1118	0.10745448
117	0x3cd75210	0.026284248
118	0xbd6227e4	-0.055213824
119	0x3dd2aa0c	0.1028634
120	0xbdd93006	-0.10604863
121	0x3d9f6560	0.077830076
122	0xbc6622f0	-0.014046416
123	0x3dbeabb0	0.093100905
124	0x3dc98b02	0.09840967
125	0x3da1770c	0.078840345
126	0xbbea93c0	-0.0071587265
127	0xbd3b48a0	-0.045723557
128	0xbdf1f691	-0.11814607
129	0x3dc7a7c5	0.097487964
130	0x3dd7ead0	0.10542834
131	0xbd0e6b01	-0.034770016
132	0xbe183a26	-0.14865932
133	0xbd4faf02	-0.05070401
134	0x3ec2ab77	0.38021442
135	0x3b0e0d69	0.0021675474
136	0xbe22412a	-0.1584517
137	0xbe0f5ee8	-0.14001048
138	0x3f1e118c	0.61745524
139	0xbb742dc7	-0.003725873
140	0x3e86af9f	0.26305863
141	0xbced6c35	-0.028982261
142	0xbd899115	-0.06717125
143	0x3d856f7a	0.06515403
144	0x3d9e7c75	0.07738582
145	0x3e0c3b2e	0.1369445
146	0x3cbec992	0.023289476
147	0x3f01ac93	0.5065395
148	0xbe53a1a1	-0.20667125
149	0x3e99a9af	0.3001227
150	0x3e15a692	0.14614323
151	0x3d248664	0.040167227
152	0x3d8976e9	0.067121334
153	0xbb343dd7	-0.002750268
154	0x3d98fae8	0.074697316
155	0x3ecb8017	0.39746162
156	0xbd4c5d31	-0.04989356
157	0x3e0c03a6	0.13673267
158	0xbde95dbb	-0.11394831
159	0xbac02d12	-0.001466187
160	0xbc4104f3	-0.011780965
161	0x3e1f19c5	0.15537174
162	0x3e0c1849	0.13681139
163	0xbe13fa07	-0.14450847
164	0x3e13202f	0.14367746
165	0x3e26f120	0.1630292
166	0x3e03563e	0.12825868
167	0xbe5ea51f	-0.21742676
168	0xbd8a77ac	-0.06761107
169	0x3db7d989	0.089770384
170	0x3d40afcf	0.047042664
171	0x3d729185	0.05922081
172	0x3e4ff080	0.20306587
173	0x3e9a9155	0.30189005
174	0xbe175f7f	-0.14782523
175	0xbebfa0c6	-0.37427348
176	0x3eb763c0	0.3581829
177	0xbdb64765	-0.08900336
178	0x3f10f148	0.56618166
179	0xbebbae89	-0.36656597
180	0x3ed86826	0.4226696
181	0x3dd0e80f	0.10200512
182	0x3e69f6ba	0.22848025
183	0x3ea526c6	0.32256144
184	0x3d9b79d3	0.075915955
185	0xbd5ea617	-0.054357614
186	0xbc8f6f61	-0.017509164
187	0xbd793ab3	-0.060846996
188	0xbd9c696b	-0.076372944
189	0x3dca3c26	0.09874754
190	0x3d8adcb6	0.067803785
191	0x3e4361b2	0.19080237
192	0xbfec7139	-1.8472053
193	0xbfb70f1f	-1.430149
194	0xbfffa59b	-1.9972414
195	0xbfe16fbe	-1.7612226
196	0xbff0c9ea	-1.8811619
197	0xbfd6a9af	-1.6770533
198	0x3f26630b	0.6499488
199	0xbfe3769b	-1.777057
200	0xbfcb7ceb	-1.5897497
201	0xc005ef02	-2.0927129
202	0xbf6cf5e7	-0.9256272
203	0xbf9fba79	-1.2478782
204	0xbe08c976	-0.13358101
205	0xbf867a29	-1.050603
206	0xbfb3ba8a	-1.4041302
207	0xbfcf9e3b	-1.6220163
208	0xbf9b3d46	-1.2128074
209	0xbfae2bde	-1.3607137
210	0xbfafb83f	-1.3728102
211	0xbf692e11	-0.91085917
212	0xbf390238	-0.7226901
213	0x3e061bb4	0.13096505
214	0xbfc72eda	-1.5561173
215	0xbff466fa	-1.9093926
216	0xc005c908	-2.090395
217	0xbfeadd17	-1.8348721
218	0xbfd7eabb	-1.6868509
219	0xbfa235ea	-1.2672703
220	0xbff93cf5	-1.9471728
221	0xbfa9b2db	-1.3257707
222	0xbf5af86b	-0.85535306
223	0xc00715fb	-2.1107166
224	0xbfef8d80	-1.8715057
225	0x3fb6576f	1.4245433
226	0xbfcdb77a	-1.6071618
227	0xbfe40b78	-1.7816
228	0xbe1582f2	-0.14600733
229	0xbfcdb667	-1.607129
230	0xbff0ebc9	-1.8821956
231	0xbfb87238	-1.4409857
232	0xbff84fab	-1.9399313
233	0xc000b600	-2.0111084
234	0xbfc1cb00	-1.5140076
235	0xbfc149f0	-1.5100689
236	0xbf41fef1	-0.75779635
237	0x3fb19521	1.3873636
238	0xbfc8d0de	-1.5688741
239	0xbf2ced46	-0.6754955
240	0xc00af545	-2.17122
241	0xbf9a00fa	-1.2031548
242	0x3e4b0efa	0.19829932
243	0xbfe9a7c1	-1.825432
244	0xbf52c14c	-0.823262
245	0xbf97faa6	-1.1873367
246	0xbf23b259	-0.6394401
247	0x3f15dc1e	0.58539
248	0xc00d790e	-2.2105136
249	0xbfd84aa6	-1.6897781
250	0xbfed30be	-1.85305
251	0xbfe2e297	-1.77254
252	0xbfb24b93	-1.3929313
253	0xbfe20d2b	-1.7660269
254	0xbfe3e836	-1.780524
255	0xbf70bf09	-0.94041497

lstm.bias_hh_l0 f4 [256]
0	0xbfe46eb4	-1.7846284
1	0xbfc3e790	-1.5305042
2	0xbfecc6ad	-1.8498131
3	0xbfe6d8ca	-1.8034909
4	0xbff186da	-1.8869278
5	0xbfe4c2da	-1.7871964
6	0x3f17ebee	0.59344375
7	0xbff9a61b	-1.9503816
8	0xbfbafdbc	-1.4608684
9	0xc00d8c3b	-2.211684
10	0xbf1808ea	-0.593886
11	0xbfa71363	-1.3052791
12	0xbdbea09e	-0.09307979
13	0xbf91915f	-1.1372489
14	0xbfcab941	-1.5837785
15	0xbfef194f	-1.8679599
16	0xbf8c7b40	-1.0975113
17	0xbf952d62	-1.1654475
18	0xbfafd57f	-1.3737029
19	0xbf7ebc5f	-0.9950618
20	0xbf7bab20	-0.9830799
21	0x3e3e5e67	0.18590699
22	0xbfd26d43	-1.6439594
23	0xbffec54f	-1.9903964
24	0xc0055b73	-2.0837066
25	0xbff26fa7	-1.8940324
26	0xbff0d0af	-1.8813685
27	0xbf8b2a7c	-1.087234
28	0xc0014c0a	-2.020266
29	0xbfb71543	-1.4303364
30	0xbf5e540a	-0.86846983
31	0xc0002867	-2.002466
32	0xc000a08f	-2.0097997
33	0x3f93d784	1.1550145
34	0xbfd9c077	-1.7011861
35	0xbfd331a1	-1.649952
36	0xbe92e74a	-0.28692085
37	0xbfce059a	-1.609546
38	0xbffedeb3	-1.9911712
39	0xbfb3566f	-1.4010752
40	0xbff4df87	-1.9130715
41	0xbff12ea4	-1.8842359
42	0xbfc995f5	-1.5748888
43	0xbfa8a8e2	-1.3176539
44	0xbf5a93cf	-0.8538179
45	0x3fc0d995	1.5066401
46	0xbfca226a	-1.5791752
47	0xbf254aee	-0.6456746
48	0xbffd32ae	-1.9781091
49	0xbfaa68df	-1.3313254
50	0x3e98f541	0.29874614
51	0xbff3d18e	-1.9048326
52	0xbf50dad1	-0.8158389
53	0xbfc204a4	-1.5157666
54	0xbf546ace	-0.8297547
55	0x3ee39132	0.44446713
56	0xc008bfe1	-2.1367114
57	0xbfd6ba05	-1.6775519
58	0xbfe21993	-1.7664055
59	0xbfe05a5e	-1.7527578
60	0xbfb215d2	-1.3912909
61	0xbfd97a9d	-1.6990544
62	0xbffb8f69	-1.965314
63	0xbf937690	-1.1520557
64	0x3d235204	0.039873138
65	0x3c332aa0	0.010935456
66	0xbc1f56d0	-0.009725288
67	0xbcfebfb0	-0.031097263
68	0x3a584c00	0.0008251071
69	0x3c74d430	0.014943168
70	0xbce0d038	-0.027443036
71	0x3d9eaf54	0.07748285
72	0x3c3fb170	0.011700019
73	0xbc0342d0	-0.008011535
74	0x3dff2262	0.1245773
75	0xbbe3e820	-0.0069551617
76	0xbd33e50c	-0.043919608
77	0xbd8f71be	-0.070041165
78	0x3def32a8	0.11679584
79	0xbd917bd2	-0.07103695
80	0xbd3f0cf8	-0.046643227
81	0x3daa6216	0.0831949
82	0xbce25fe0	-0.027633607
83	0x3d915488	0.07096201
84	0x3da11af0	0.07866466
85	0x3de2599c	0.11052248
86	0x3d020898	0.031746477
87	0x3df6d414	0.120521694
88	0x3dde3f36	0.108519
89	0xbddd600c	-0.10809335
90	0xbd22fcd8	-0.03979191
91	0x3de079c2	0.109607235
92	0xbda5c3f2	-0.08094014
93	0x3d45df64	0.048308745
94	0xbd89221a	-0.066959575
95	0x3db15aba	0.08659883
96	0xbdc740e2	-0.09729172
97	0xbdc4cd38	-0.09609455
98	0x3d2dd7b8	0.042442054
99	0xbdeca760	-0.11555362
100	0xbde31a3e	-0.1108899
101	0xbd2cf320	-0.04222405
102	0x3d3cb7d4	0.04607375
103	0x3de8cefc	0.11367604
104	0xbdb25e5e	-0.08709405
105	0x3c3b1900	0.011419535
106	0x3ca7f7f8	0.020503983
107	0xbdb660f8	-0.08905214
108	0xbc44c6f0	-0.012010321
109	0xbd902d7a	-0.07039924
110	0xbd5a8044	-0.05334498
111	0xbdee28d2	-0.116288796
112	0xbda4528e	-0.080235586
113	0x3cedb070	0.029014796
114	0xbd6b64f0	-0.05746931
115	0xbdd0ee16	-0.10201661
116	0x3d21c77c	0.039496884
117	0xbd8354b4	-0.0641264
118	0x3b794e80	0.0038041174
119	0x3d89c72a	0.06727441
120	0x3c70cc70	0.014697179
121	0x3d9c6904	0.07637218
122	0xbcda4e38	-0.026648626
123	0xbdf5fab6	-0.1201071
124	0xbca5ad68	-0.020224288
125	0xbdbf44ce	-0.09339295
126	0x3c6d6e60	0.0144916475
127	0xbd9facbe	-0.0779662
128	0x3c77fcb8	0.015135936
129	0x3d440d9b	0.047864538
130	0x3d960c0e	0.07326518
131	0xbe0bca80	-0.13651466
132	0xbc153c28	-0.009108581
133	0xbe11ef65	-0.14251478
134	0x3e46d454	0.19416934
135	0x3e49ec63	0.1971908
136	0xbe3e45e8	-0.18581355
137	0xbe142a6a	-0.14469305
138	0x3f07a79a	0.52990115
139	0xbd21bea5	-0.039488453
140	0x3e53174f	0.2061436
141	0xbcd6bbb1	-0.026212545
142	0xbe0182cc	-0.12647551
143	0x3de4e000	0.11175537
144	0x3d64367e	0.05571603
145	0x3dde9733	0.10868683
146	0x3e1bca64	0.15213925
147	0x3eadd211	0.3394933
148	0xbe1b44d5	-0.15162976
149	0x3eee0fa5	0.4649631
150	0xbb5050ef	-0.0031786521
151	0x3d6212ef	0.055193838
152	0x3d258fc4	0.04042031
153	0xbe289017	-0.16461216
154	0x3dd9b494	0.10630146
155	0x3e255dbc	0.16149038
156	0xbe1b905d	-0.15191789
157	0x3c99083d	0.018680686
158	0x3c5ec4a1	0.013596685
159	0x3ddf688c	0.109086126
160	0x3e080da5	0.13286455
161	0x3e190b17	0.14945637
162	0x3c914318	0.017732188
163	0xbc979efe	-0.01850843
164	0x3e254af3	0.16141872
165	0x3d4bd98a	0.04976801
166	0xbd55ae97	-0.052168455
167	0xbe0fc148	-0.14038575
168	0xbe1a0b37	-0.1504334
169	0x3db7c42f	0.08972966
170	0x3dc1642e	0.09442936
171	0x3e30eb90	0.1727736
172	0x3dc575eb	0.09641632
173	0x3ed07e13	0.40721187
174	0xbd0fc3c9	-0.035098825
175	0xbe92c1b0	-0.28663397
176	0x3e807db2	0.25095898
177	0xbe112e0f	-0.14177726
178	0x3ed2755e	0.4110517
179	0xbe83d87b	-0.257511
180	0x3eae8630	0.34086752
181	0xbd95742f	-0.07297551
182	0x3e888c0b	0.26669344
183	0x3e349d7d	0.17638202
184	0x3dead5df	0.11466574
185	0xbda310e5	-0.07962207
186	0xbe3916fa	-0.18075171
187	0xbd376c83	-0.04478122
188	0xbddb319d	-0.10702822
189	0x3d44cc17	0.048046198
190	0x3dc8a8a5	0.097977914
191	0x3da07bc3	0.07836106
192	0xbfe2a183	-1.770554
193	0xbfb76e8f	-1.4330615
194	0xbfe5bf2e	-1.7948968
195	0xbfe3e27a	-1.780349
196	0xbfe7d960	-1.8113213
197	0xbff204dd	-1.8907734
198	0x3f18364b	0.59457844
199	0xbfe02783	-1.7512058
200	0xbfc5af9b	-1.5444216
201	0xc00bb9b0	-2.1832085
202	0xbf5f4beb	-0.87225217
203	0xbfa34353	-1.2754921
204	0xbc09075b	-0.00836357
205	0xbf87eb57	-1.0618695
206	0xbfbfb7d2	-1.4977973
207	0xbfd8d06f	-1.6938609
208	0xbf9c6878	-1.2219381
209	0xbfb223c2	-1.3917162
210	0xbfaae84d	-1.3352143
211	0xbf803f66	-1.0019348
212	0xbf5d8f3e	-0.86546695
213	0x3db27c25	0.08715085
214	0xbfc29fda	-1.5205033
215	0xc000e6a4	-2.0140772
216	0xc002e8e2	-2.045464
217	0xbfe4dd7f	-1.7880095
218	0xbfd0a403	-1.6300052
219	0xbf9f9e3e	-1.2470167
220	0xbff14fa5	-1.885243
221	0xbfa955dd	-1.3229328
222	0xbf595e51	-0.8490954
223	0xbffd8c16	-1.9808376
224	0xc002e9f3	-2.0455291
225	0x3fbf6923	1.495396
226	0xbfc129cc	-1.509088
227	0xbfe41162	-1.7817805
228	0x3d98c9f9	0.07460398
229	0xbfe1262f	-1.7589778
230	0xbff694dd	-1.926418
231	0xbfb6cf48	-1.4282007
232	0xbff65cdb	-1.9247087
233	0xbff68a65	-1.9260985
234	0xbfae4a9c	-1.3616519
235	0xbfb281a6	-1.3945816
236	0xbf29f465	-0.6638854
237	0x3faa65f9	1.331237
238	0xbfcc73a4	-1.5972791
239	0xbf1fadd4	-0.62374616
240	0xc00b0e19	-2.1727355
241	0xbf97fcf4	-1.187407
242	0x3dda5c20	0.10662103
243	0xbfdd0115	-1.7265955
244	0xbf492066	-0.7856506
245	0xbf9e7960	-1.2380791
246	0xbf1c95c9	-0.61166054
247	0x3ef0366d	0.46916524
248	0xc0049540	-2.0716095
249	0xbfd585e6	-1.6681488
250	0xbfd5ae98	-1.6693907
251	0xbfeb8643	-1.8400348
252	0xbfbadb8b	-1.4598249
253	0xbfdd024b	-1.7266325
254	0xbfe45ffe	-1.7841794
255	0xbf88d88a	-1.0691082

lstm.weight_ih_l1 f4 [256, 64]
0	0x3d2da734	0.042395785
1	0xbdbe4b96	-0.092917606
2	0xbde6ed49	-0.11275727
3	0x3d23407b	0.039856415
4	0xbce21f6c	-0.027602874
5	0xbd8502d3	-0.06494679
6	0x3e851361	0.25991347
7	0x3e296c86	0.16545305
8	0xbe9a851a	-0.30179673
9	0xbdb0ebad	-0.086387016
10	0x3e6a5cd1	0.22886969
11	0x3e80f619	0.25187758
12	0x3eadc4c8	0.33939195
13	0xbe1050a2	-0.14093259
14	0x3d0bead7	0.034159508
15	0xbd6b2230	-0.05740565
16	0x3e2904a0	0.1650567
17	0xbe390cb6	-0.18071255
18	0xbdb6c6f2	-0.089246646
19	0x3e53b1b4	0.20673257
20	0xbe09a5d2	-0.13442162
21	0x3e155356	0.14582571
22	0xbdd0b62b	-0.10190996
23	0x3db9143f	0.09037065
24	0x3c9ec521	0.019381108
25	0xbd48ae46	-0.048994325
26	0xbdc3ae4f	-0.09554731
27	0x3e7a2d4b	0.2443134
28	0x3d84e1fd	0.06488416
29	0x3c44344c	0.011975359
30	0x3e341d19	0.17589225
31	0xbde5d424	-0.11222103
32	0xbe11d461	-0.14241172
33	0x3e4a61d1	0.19763876
34	0xbcc555bb	-0.024088731
35	0x3d8686c6	0.06568675
36	0x3e8c1a7c	0.27363956
37	0xbcc07a10	-0.023495704
38	0xbd7a5022	-0.061111577
39	0x3d407f1e	0.04699623
40	0xbd68dc75	-0.05685087
41	0x3c18b234	0.009319831
42	0xbe11ed08	-0.14250576
43	0xbeb00c33	-0.34384307
44	0xbc51445f	-0.012772649
45	0x3e536c8c	0.20646876
46	0xbdb410b1	-0.08792246
47	0xbe7c6f15	-0.2465175
48	0xbc8c2c86	-0.017111074
49	0x3e06b521	0.13155033
50	0xbeb9f217	-0.36317512
51	0xbdd67d00	-0.104730606
52	0x3d85b4ea	0.06528647
53	0xbe1c4010	-0.15258813
54	0x3e5d86a4	0.21633393
55	0x3eb3be12	0.3510595
56	0x3d7c6a6d	0.061624933
57	0x3e4954c4	0.19661242
58	0x3d1acbe0	0.037792087
59	0xbd7506be	-0.059820883
60	0x3e4ee9be	0.20206353
61	0xbd4d30b9	-0.050095294
62	0x3de8fd0d	0.113763906
63	0x3dfcc86b	0.12342914
64	0x3c62c2f4	0.013840426
65	0x3d86892e	0.06569134
66	0x3dcb3f76	0.099242136
67	0xbe70ab80	-0.23502922
68	0xbda2be19	-0.079464145
69	0xbc7e5c16	-0.015524885
70	0x3e292ca9	0.16520943
71	0x3e3dc65d	0.18532701
72	0xbdb5e1dd	-0.088809706
73	0xbd1ffeb1	-0.039061252
74	0x3e90030d	0.28127328
75	0x3db4f7ac	0.08836302
76	0x3e477f74	0.19482213
77	0x3e4b3d95	0.1984771
78	0xbdc782d1	-0.09741748
79	0x3dd9b549	0.106302805
80	0x3c370d3b	0.011172588
81	0x3dac36a7	0.084088616
82	0xbd850769	-0.06495554
83	0x3e0f49f0	0.13993049
84	0xbca50ae9	-0.020146804
85	0x3c55daf5	0.013052692
86	0x3d47dc86	0.048794292
87	0x3c2c0042	0.010498108
88	0x3c146192	0.009056466
89	0xbdbf783f	-0.09349107
90	0x3e00c81e	0.12576339
91	0x3e181677	0.1485232
92	0xbdfc04c1	-0.12305594
93	0xbd3cc0c3	-0.04608227
94	0xbe03e813	-0.12881498
95	0x3defea97	0.11714666
96	0x3d5ccd57	0.053906765
97	0x3d32ef37	0.043685164
98	0x3ce6b761	0.028163614
99	0x3c136a7f	0.008997559
100	0x3d38403a	0.044983126
101	0x3e2b0a75	0.16703208
102	0xbc8321c1	-0.016007306
103	0xbd6f315d	-0.058396686
104	0x3d6c9a3e	0.057764284
105	0x3e080f19	0.1328701
106	0xb9acb40a	-0.00032940536
107	0x3d2cf84e	0.04222899
108	0x3e1737d1	0.14767386
109	0x3e74cbc2	0.23905852
110	0xbe2a9998	-0.16660154
111	0xbcf4d417	-0.029886289
112	0x3e350d1f	0.17680787
113	0xbe4006ee	-0.18752643
114	0xbedd3a77	-0.43208668
115	0xbda61760	-0.08109927
116	0x3e06c481	0.13160898
117	0xbd625fb1	-0.05526704
118	0x3e3750d1	0.17901923
119	0x3ea2f229	0.3182538
120	0xbe0e6313	-0.13904981
121	0xbc4e4f4c	-0.012592148
122	0xbd9e90a7	-0.07742434
123	0xbc006663	-0.007836911
124	0x3c69291a	0.014230991
125	0x3bd77473	0.006575161
126	0x3d93601f	0.07196068
127	0xbc85a2cd	-0.016312981
128	0xbdd848bb	-0.10560747
129	0x3decb68b	0.11558255
130	0x3e96d313	0.29457912
131	0xbe07efe2	-0.13275102
132	0xbe43857e	-0.19093892
133	0xbde2d3d1	-0.11075557
134	0x3e81baac	0.25337732
135	0x3ed1c0b8	0.40967345
136	0xbe946d7c	-0.2898978
137	0xbe8caca7	-0.27475473
138	0x3e904e28	0.28184628
139	0xbe4794f6	-0.19490418
140	0x3e39a5de	0.1812968
141	0x3eab3a8e	0.3344311
142	0xbe31da52	-0.17368439
143	0x3eb94125	0.36182514
144	0x3e934d11	0.28769735
145	0x3e12dc49	0.14341845
146	0x3ce165d1	0.02751437
147	0x3ed9695b	0.42463192
148	0xbe88042d	-0.26565686
149	0x3ea74c64	0.3267547
150	0x3e08b669	0.13350834
151	0xbcaeac6e	-0.021322455
152	0x3e3292c9	0.17438807
153	0xbe40c6d9	-0.18825854
154	0x3dc4170e	0.0957471
155	0x3ef60ac8	0.480551
156	0xbe9fd9d5	-0.3122088
157	0x3e1978f9	0.14987554
158	0xbe1705dd	-0.1474833
159	0x3de0a418	0.109687984
160	0x3e06ecb0	0.13176227
161	0x3e6346df	0.22195004
162	0x3e5024d7	0.20326553
163	0xbd258e63	-0.040418994
164	0x3e08a761	0.133451
165	0x3cde6ec9	0.027152436
166	0x3e0b90f0	0.13629508
167	0x3ded9dd5	0.1160237
168	0xbe429172	-0.19000795
169	0x3e0728f8	0.13199222
170	0x3e72a010	0.23693871
171	0x3e5df1d8	0.21674287
172	0x3e70854a	0.23488346
173	0x3e81b4d8	0.25333285
174	0xbeba7324	-0.3641597
175	0xbe1372b1	-0.1439922
176	0x3ea4086b	0.32037672
177	0xbe35a59b	-0.17738955
178	0xbe6f2816	-0.23355135
179	0xbe6a5158	-0.22882593
180	0x3ed1e1ef	0.40992686
181	0x3c295179	0.010334366
182	0x3e47534f	0.19465373
183	0x3e9c0e47	0.30479643
184	0xbe4c9c09	-0.19981398
185	0xbeb1635e	-0.34646124
186	0x3bd0a7bc	0.0063676517
187	0xbe8a3c1d	-0.26998988
188	0xbdf934c2	-0.12168266
189	0x3eac6f52	0.3367868
190	0x3e887d7f	0.26658246
191	0x3e84a282	0.25905234
192	0xbdca9f3b	-0.09893652
193	0x3d3f1a47	0.04665592
194	0x3dd4c94a	0.10389955
195	0x3c8e22b5	0.017350534
196	0x3cf30d42	0.029669408
197	0xbc6b848c	-0.014374863
198	0x3d25e963	0.040505778
199	0x3d90a1aa	0.07062085
200	0xbe4b27d3	-0.1983941
201	0x3d9c5908	0.07634169
202	0x3e1eb975	0.15500434
203	0xbe504474	-0.20338613
204	0xbd8f5171	-0.069979556
205	0x3e627a5d	0.2211699
206	0xbe20a63b	-0.15688412
207	0x3e697b48	0.22800934
208	0x3e56edda	0.2098917
209	0x3e1a97f3	0.15097027
210	0x3d1a67c5	0.03769662
211	0xbd3a527a	-0.045488812
212	0xbe8a4a33	-0.27009735
213	0x3e0b329f	0.13593529
214	0xbe4c0800	-0.19924927
215	0xbe097dea	-0.13426939
216	0xbda0dfbc	-0.07855174
217	0x3d8d55bc	0.06901118
218	0xbd7e27f1	-0.06204981
219	0x3e152b64	0.14567333
220	0x3d186fa6	0.03721585
221	0xbdd68189	-0.104739256
222	0x3d77a927	0.06046405
223	0xbde1889c	-0.11012384
224	0x3cbd0faa	0.023078758
225	0x3d2172ee	0.039416246
226	0x3e0ba9a1	0.13638927
227	0xbe325e40	-0.17418766
228	0xbe8a68d0	-0.2703309
229	0xbc9cbcbc	-0.019132964
230	0xbc5f286b	-0.013620476
231	0xbd11538c	-0.035480067
232	0x3ba8217a	0.005130944
233	0x3e5b32e2	0.21406129
234	0x3d134253	0.035951924
235	0x3e6ea820	0.23306322
236	0x3e58601a	0.2113041
237	0x3ca15f76	0.01969884
238	0xbe4aa3c3	-0.19789033
239	0x3da51e44	0.08062413
240	0x3da0fdf7	0.0786094
241	0xbdb274e5	-0.08713702
242	0xbef08ac2	-0.46980864
243	0xbdc61356	-0.09671657
244	0x3e2aa29a	0.1666359
245	0x3e00bd55	0.12572224
246	0x3daae980	0.08345318
247	0x3dba0b3e	0.090841755
248	0xbd99c2c3	-0.07507851
249	0xbdc022f6	-0.09381668
250	0xbd76c169	-0.060243044
251	0x3d1ae5df	0.03781688
252	0xbe4a79ff	-0.197731
253	0x3e653006	0.223816
254	0x3ea16e09	0.31529263
255	0x3e2f38af	0.17111467

lstm.weight_hh_l1 f4 [256, 64]
0	0xbca03200	-0.019555092
1	0x3df0240c	0.117256254
2	0x3d1d9344	0.03847052
3	0xbcc31f00	-0.023818493
4	0xbcfd5cc0	-0.030928016
5	0x3d2ddd04	0.042447105
6	0xbd5b6738	-0.053565234
7	0x3d8ad6c0	0.067792416
8	0x3d7fa724	0.062415257
9	0x3d7b0cb0	0.061291397
10	0xbd8ec254	-0.06970659
11	0xbd95b360	-0.07309604
12	0x3d7b2b3c	0.06132053
13	0x3df102f8	0.11768144
14	0xbcb9a838	-0.02266322
15	0x3ccbe218	0.024888083
16	0x3ded7716	0.115949795
17	0xbb41c340	-0.002956584
18	0xbcaafae8	-0.020871595
19	0x3dd4914a	0.10379274
20	0xbc396060	-0.0113144815
21	0xbdf57ba2	-0.11986472
22	0xbc475410	-0.012166038
23	0xbd5ab20c	-0.053392455
24	0xbdae12f8	-0.08499712
25	0x3c677c60	0.014128774
26	0xbdcd2084	-0.100159675
27	0xbdafcf18	-0.08584422
28	0xbd6f7820	-0.05846417
29	0xbdc01fba	-0.09381051
30	0x3da055e6	0.07828884
31	0x3bd82920	0.0065966994
32	0x3da64ea0	0.08120465
33	0x3dc2bb28	0.095083535
34	0x3d1807ac	0.03711669
35	0xbce898e0	-0.028393209
36	0x3dc1ba4c	0.094593614
37	0x3de74a02	0.11293413
38	0xbda2effe	-0.07955931
39	0xbdf74904	-0.120744735
40	0x3c325d80	0.01088655
41	0xbdc3b2b4	-0.09555569
42	0x3c1de0e0	0.009636134
43	0x3c7deec0	0.015498817
44	0xbd168c9c	-0.03675519
45	0xbdcb8622	-0.09937693
46	0xbd58bd20	-0.05291474
47	0xbb5a6700	-0.0033325553
48	0xbd4ee01c	-0.050506696
49	0x3ddd5f58	0.10809201
50	0x3df54820	0.119766474
51	0x3cc05578	0.023478255
52	0xbd94dd50	-0.072687745
53	0xbdac6682	-0.08417989
54	0xbde75ea0	-0.11297345
55	0xbd98086e	-0.07423483
56	0x3d4e9be4	0.050441638
57	0xbd96e2ee	-0.07367502
58	0x3db81d64	0.08989981
59	0xbdf4b152	-0.11947884
60	0x3c5a8a30	0.0133386105
61	0x3d9b6bd8	0.07588929
62	0xbc147570	-0.009061202
63	0xbdf1c600	-0.11805344
64	0x3d83532c	0.06412348
65	0xbcaa34b0	-0.020777076
66	0xbd061d5c	-0.032742843
67	0x3dbece36	0.09316675
68	0x3d15a2ac	0.03653209
69	0x3d5a1bbc	0.053249106
70	0xbdb71546	-0.089396045
71	0x3daa4d88	0.08315569
72	0xbd94cbfe	-0.07265471
73	0xbc4cd210	-0.012501255
74	0x3d1e0450	0.03857833
75	0x3d87c2cc	0.066289514
76	0x3cbb7298	0.022881791
77	0x3d698d34	0.057019427
78	0xbcb49ff0	-0.02204892
79	0xbccc7420	-0.024957716
80	0x3d58f80c	0.05297093
81	0xbd9d0bde	-0.07668279
82	0xbb80a660	-0.0039260834
83	0xbcf7b4a8	-0.03023751
84	0x3d7b4a30	0.061350048
85	0x3df18408	0.11792761
86	0xbdbce7ca	-0.09223898
87	0x3ca7f2b0	0.020501465
88	0xbd3467bc	-0.04404424
89	0xbd638898	-0.055550188
90	0x3d8eb5c0	0.0696826
91	0x3c848338	0.016175851
92	0x3d982ac8	0.07430035
93	0xbdd69fd6	-0.10479705
94	0xbdc77d74	-0.09740725
95	0x3dc50e62	0.09621884
96	0xbd09357c	-0.033498272
97	0xbc2f60a0	-0.01070419
98	0x3c1dfb90	0.009642497
99	0xbdaf8b88	-0.08571535
100	0x3db2e3ac	0.08734831
101	0x3d73dcd8	0.059536785
102	0x3db5002a	0.08837922
103	0xb9492800	-0.00019183755
104	0x3c30a8a0	0.010782391
105	0xbcd0e1c8	-0.025498286
106	0xbdd51270	-0.10403907
107	0xbdfdf854	-0.124008805
108	0xbde78306	-0.113042876
109	0x3df7bcf8	0.1209659
110	0x3dc1cace	0.0946251
111	0x3c6ec250	0.014572695
112	0xbd2b5364	-0.041827574
113	0x3db991cc	0.09061012
114	0x3cd7ef70	0.02635929
115	0x3d0b32e8	0.033984095
116	0x3ce538d8	0.027981207
117	0xbd6f0d0c	-0.05836205
118	0xbcd046e0	-0.02542442
119	0xbdb04e2e	-0.086086616
120	0x3cb65410	0.022256881
121	0x3b424240	0.002964154
122	0x3deb16bc	0.114789456
123	0xbcf152b8	-0.029458389
124	0x3deda7b4	0.116042525
125	0xbd1e1ff8	-0.038604707
126	0x3c48fc90	0.012267247
127	0x3c8676f8	0.01641415
128	0x3de14254	0.10998979
129	0x3ce85ec8	0.028365508
130	0xbc0c1c80	-0.008551717
131	0xbc0fe640	-0.008782923
132	0xbd99bd88	-0.07506853
133	0x3c95add0	0.018271357
134	0xbd8bf0d8	-0.06833047
135	0xbcaafc80	-0.020872355
136	0xbd0525d0	-0.032506764
137	0x3df1ed8a	0.11812885
138	0x3d224950	0.039620697
139	0x3d3b510c	0.04573159
140	0xbdf6203c	-0.12017867
141	0xbdb009ba	-0.08595605
142	0x3defee18	0.11715335
143	0x3de7ec76	0.11324398
144	0xbd480e48	-0.048841745
145	0xbd3fe3bc	-0.046848044
146	0xbdcb3b3a	-0.09923406
147	0x3dd5fd4a	0.10448702
148	0xbdfd5908	-0.12370497
149	0x3d820956	0.06349437
150	0xbd52125c	-0.05128704
151	0xbdf22dd4	-0.11825147
152	0x3ca4c878	0.020115122
153	0x3dc18be4	0.0945051
154	0x3d0c8a18	0.034311384
155	0x3df42708	0.11921507
156	0x3bd12960	0.006383106
157	0x3c3ec190	0.011642829
158	0x3da4f7ee	0.08055101
159	0xbd2d41c0	-0.042299032
160	0xbced2130	-0.02894649
161	0x3d16d9b8	0.036828727
162	0xbdf19d7c	-0.11797616
163	0x3dceac78	0.100914896
164	0xbb9f4de0	-0.0048615783
165	0x3d66e510	0.056370795
166	0x3cb6fdf0	0.022337884
167	0x3cb8ab80	0.022542715
168	0x3a7b2200	0.00095799565
169	0x3d2782dc	0.04089628
170	0xbdc82ace	-0.09773789
171	0x3d89bae6	0.06725101
172	0x3da065c2	0.07831909
173	0x3dd221b4	0.102603346
174	0x3dfd83d4	0.1237866
175	0xbcbc5a58	-0.022992298
176	0xbdd4fa28	-0.10399276
177	0x3a8b4800	0.0010626316
178	0x3d6c6114	0.05770977
179	0xbd9dbdb8	-0.077022016
180	0xbc368ef0	-0.011142477
181	0x3d5f29dc	0.05448328
182	0x3da56b00	0.08077049
183	0xbd86e174	-0.065859705
184	0xbcec30a8	-0.028831795
185	0x3d689860	0.05678594
186	0x3db0dd52	0.086359635
187	0x3bbaa4a0	0.0056958944
188	0xbcae6fd8	-0.021293566
189	0xbde61036	-0.11233561
190	0xbded46e0	-0.11585784
191	0xbccdec48	-0.025137082
192	0x3da33902	0.07969858
193	0xbdc22cfa	-0.09481235
194	0x3cbaeb28	0.02281721
195	0xbd5c05dc	-0.053716525
196	0x3d82d6a0	0.06388593
197	0xbdef5446	-0.11685996
198	0xbdc86b9e	-0.09786151
199	0xbcedb308	-0.029016033
200	0xbd1c415c	-0.03814827
201	0x3d6f6124	0.05844225
202	0xbd9c73d0	-0.07639277
203	0x3d8e9e2a	0.06963761
204	0x3ddb85e8	0.107189
205	0xbc043140	-0.008068383
206	0xbda1ca40	-0.07899904
207	0x3d2c2a68	0.04203263
208	0x3da6b590	0.08140099
209	0xbd551284	-0.05201961
210	0x3dbc4926	0.091936395
211	0x3cb4e038	0.022079572
212	0x3bc04500	0.0058676004
213	0xbdee91d4	-0.11648908
214	0x3dc9e5f8	0.09858316
215	0xbd188578	-0.03723666
216	0x3ca8f330	0.020623773
217	0x3b911860	0.0044279546
218	0xbd8cb3bc	-0.06870219
219	0xbcff72e0	-0.031182706
220	0xbd04b6a8	-0.032400757
221	0x3995a200	0.00028540194
222	0x3d0a81f4	0.03381534
223	0x3c064590	0.008195296
224	0x3d85ebf4	0.06539145
225	0xbd85aeda	-0.06527491
226	0x3d8bae34	0.06820336
227	0x3cf33508	0.029688373
228	0xbd272134	-0.04080315
229	0x3d16fdd8	0.036863178
230	0x3d87ddd4	0.06634107
231	0x3d41d6e8	0.04732409
232	0x3dd25668	0.10270387
233	0x3cbdfb68	0.023191169
234	0xbde7f7fc	-0.11326596
235	0x3cd8a518	0.02644591
236	0x3d6d49ac	0.057931587
237	0xbdeb8dd6	-0.115016624
238	0xbdc25354	-0.0948855
239	0xbde2319e	-0.1104462
240	0xbdb385e6	-0.087657735
241	0xbca984f0	-0.020693272
242	0x3dd43ace	0.103627786
243	0x3d1d30b4	0.038376525
244	0x3d1e3c84	0.03863193
245	0xbd665efc	-0.056242928
246	0xbcc234c8	-0.023706809
247	0xbc8f8108	-0.017517582
248	0x3c0599d0	0.008154348
249	0xbc157240	-0.009121478
250	0x3d3030c8	0.04301527
251	0x3c2084b0	0.00979726
252	0xbda0e8c0	-0.078568935
253	0x3d63f614	0.0556546
254	0xba308e00	-0.0006735027
255	0x3d623cf8	0.055233926

lstm.bias_ih_l1 f4 [256]
0	0xc0103925	-2.2534878
1	0xbffb26d8	-1.9621229
2	0xc009b6f2	-2.151791
3	0xc0018f67	-2.0243776
4	0xbfbd8211	-1.4805318
5	0xbffb476f	-1.9631175
6	0xbfe5e7b2	-1.7961333
7	0xbff59283	-1.9185337
8	0xbffd398e	-1.9783189
9	0xbffdd9e9	-1.9832126
10	0xc00873cf	-2.1320684
11	0xc022aa07	-2.5416276
12	0xc00c78ee	-2.194881
13	0xc00e3dc9	-2.222521
14	0xc0048aee	-2.0709796
15	0xc002fa50	-2.0465279
16	0xc00d5318	-2.2081966
17	0xbf76aaaa	-0.9635416
18	0xbfcefb8e	-1.6170518
19	0xc00798ad	-2.1186936
20	0xbff8f1a2	-1.944874
21	0xc000bcd3	-2.011525
22	0xc00882e4	-2.132989
23	0xc0011ce3	-2.017388
24	0xc00d37a1	-2.2065203
25	0xc012d8e2	-2.2944875
26	0xc00db3d2	-2.2141004
27	0xbffe7b7b	-1.9881433
28	0xc00566f4	-2.0844088
29	0xc00c0475	-2.187772
30	0xbffcf9f3	-1.9763778
31	0xbffc4fab	-1.9711813
32	0xc005d896	-2.0913444
33	0xc0065fed	-2.0996048
34	0xbfb61c14	-1.4227319
35	0xbff41753	-1.9069618
36	0xc004056a	-2.0628304
37	0xbffbf498	-1.9684019
38	0xbffa5d9e	-1.955982
39	0xbff4c333	-1.912207
40	0xc00988e0	-2.1489792
41	0xc0069fca	-2.1035028
42	0xc0062f8d	-2.0966523
43	0xc0038959	-2.055258
44	0xc0087f59	-2.1327727
45	0xc009ca50	-2.1529732
46	0xc00432b9	-2.0655959
47	0xbd59548f	-0.053059157
48	0xc0079766	-2.1186156
49	0xc002a0a5	-2.041055
50	0xbf610248	-0.87894106
51	0xbffe5960	-1.9871025
52	0xbfa75ad7	-1.3074597
53	0xbffbd3d0	-1.9674015
54	0xc0080888	-2.1255207
55	0xc0089199	-2.1338866
56	0xbff3abef	-1.9036845
57	0xc000cbc7	-2.0124376
58	0xc00b5c3b	-2.1775043
59	0xbff94f01	-1.9477235
60	0xc00385e7	-2.0550478
61	0xbff3a255	-1.9033915
62	0xc0092e3b	-2.1434467
63	0xc00ac875	-2.168485
64	0xbbd501e0	-0.0065004677
65	0x3d16dda0	0.03683245
66	0xbde039b8	-0.10948509
67	0xbce9f0d0	-0.028557211
68	0x3daecb26	0.08534841
69	0x3db93aae	0.090443954
70	0xbd812204	-0.06305316
71	0x3df350ba	0.11880632
72	0x3d1101a8	0.03540197
73	0x3dce94e6	0.10086994
74	0x3db22ee0	0.08700347
75	0x3c344280	0.011002183
76	0x3ddafea4	0.106931
77	0x3d0b2018	0.033966154
78	0xbd8c7fde	-0.06860326
79	0x3d807934	0.06273118
80	0xbd748eb8	-0.05970642
81	0x3dccf774	0.100081354
82	0xbca53750	-0.020167977
83	0xbda976a2	-0.082745805
84	0x3d09e4b4	0.033665374
85	0xbd93af3c	-0.07211158
86	0xbd1ed7b8	-0.038779944
87	0xbb97b2c0	-0.004629463
88	0xbd1d32dc	-0.03837858
89	0xbdd84984	-0.10560897
90	0x3d6e31cc	0.05815296
91	0xbdcc554a	-0.09977205
92	0xbdea300e	-0.11434947
93	0x3df985be	0.121837124
94	0xbd0861fc	-0.03329657
95	0x3cf4b9c8	0.029873744
96	0xbd0d81e4	-0.0345477
97	0x3c878108	0.01654102
98	0xbdac26b6	-0.08405821
99	0x3dd7821a	0.10522862
100	0x3d184170	0.03717178
101	0x3da8cd72	0.082423106
102	0x3d26e4d0	0.040745556
103	0x3dd21136	0.10257189
104	0x3c9f5428	0.019449309
105	0xbda966b6	-0.08271544
106	0xbcf721b8	-0.030167446
107	0x3da1e580	0.07905102
108	0xbdb72fe2	-0.0894468
109	0x3c1b0570	0.009461746
110	0xbc54f430	-0.012997672
111	0xbc895688	-0.016764894
112	0xbd493c14	-0.04912956
113	0x3d23b14c	0.039964005
114	0xbdb3e144	-0.087832004
115	0x3d45c308	0.0482817
116	0x3cec9948	0.028881684
117	0x3dcb318c	0.0992156
118	0xbbbbc120	-0.0057298094
119	0x3de4311a	0.11142178
120	0xbd1ee730	-0.038794696
121	0x3d4850dc	0.04890524
122	0xbd90d2b8	-0.070714414
123	0xbd6d58a4	-0.057945862
124	0x3dae043e	0.08496903
125	0xbd9926b4	-0.07478085
126	0xbdf16cb0	-0.117883086
127	0x3de26bfe	0.11055754
128	0x3cfd98b0	0.030956596
129	0x3ca63021	0.020286622
130	0x3d59ac57	0.05314287
131	0xbc0eca36	-0.008715203
132	0x3e509280	0.20368385
133	0xbccece32	-0.025244806
134	0xbedda442	-0.4328938
135	0x3d08dfe4	0.033416644
136	0x3d4db2bf	0.050219294
137	0x3deeaac4	0.11653665
138	0x3c136d4f	0.008998229
139	0x3db74110	0.089479566
140	0x3ea18742	0.31548506
141	0x3debb62a	0.115093544
142	0xbc7a956b	-0.015294413
143	0xbd7e5cda	-0.06210027
144	0xbc8a9995	-0.016918937
145	0xbdac229e	-0.0840504
146	0xbe4f77a4	-0.20260483
147	0x3c01ecd5	0.00793
148	0xbd4e97be	-0.05043768
149	0x3d6b1ebb	0.057402354
150	0xbddeff4d	-0.108885385
151	0x3d132bc7	0.03593042
152	0xbd3d440a	-0.046207465
153	0xbdc9588b	-0.09831341
154	0xbe11867f	-0.14211462
155	0x3cce8e3a	0.025214303
156	0xbd32a629	-0.043615494
157	0x3d5c8580	0.053838253
158	0xbda1000d	-0.07861338
159	0x3d066b27	0.032817032
160	0x3bc0124e	0.005861557
161	0xbd5305a0	-0.051519036
162	0xbe0b3f7b	-0.13598435
163	0x3bf67478	0.0075212084
164	0x3ca65f79	0.020309197
165	0x3c7f4bed	0.015582067
166	0x3df506f9	0.119642206
167	0x3d1a7e3f	0.037718054
168	0xbbf8b5e0	-0.0075900406
169	0x3d6e519b	0.058183294
170	0xbdb5b05c	-0.088715285
171	0xbe109340	-0.14118671
172	0xbbc5684f	-0.0060243974
173	0xbd672c72	-0.05643887
174	0xbd515996	-0.051110826
175	0x3df6eb2d	0.12056575
176	0x3dc93a4b	0.098255716
177	0x3d5b6e11	0.053571764
178	0xbe9af968	-0.30268407
179	0xbbd41708	-0.006472472
180	0x3de43ac8	0.11144024
181	0xbea12c14	-0.3147894
182	0xbb12dfa8	-0.0022411142
183	0x3e32a2e8	0.17444956
184	0xbc8bb20d	-0.017052675
185	0x3d0dc9a2	0.03461612
186	0xbd8e4541	-0.06946803
187	0xbcd978b3	-0.026546812
188	0xbdbd79a3	-0.09251716
189	0x3d04d246	0.032427095
190	0xbda7fefb	-0.082029305
191	0x3c8aaf80	0.016929388
192	0xc004cbd3	-2.0749404
193	0xc003e453	-2.0608108
194	0xc00a45dd	-2.160514
195	0xc003dfac	-2.0605268
196	0xbfbed8f6	-1.4909961
197	0xc005a5e0	-2.0882492
198	0xbfddf205	-1.7339483
199	0xbfe9417c	-1.8223109
200	0xc0004b52	-2.0045972
201	0xc0062ce0	-2.096489
202	0xbff99a2f	-1.9500178
203	0xc0194146	-2.394609
204	0xc0077f3d	-2.117141
205	0xc012c5e7	-2.293329
206	0xc00396ab	-2.056071
207	0xc00b02a0	-2.1720352
208	0xc0133b40	-2.3004913
209	0xbf69612e	-0.9116391
210	0xbfd846ce	-1.6896608
211	0xc0091513	-2.1419113
212	0xc002a2b3	-2.0411804
213	0xc001b55b	-2.026694
214	0xc001e5ee	-2.0296588
215	0xbffebb9f	-1.9901007
216	0xc01370ee	-2.3037677
217	0xc01295e2	-2.2903981
218	0xc015eaaa	-2.3424478
219	0xc00bb025	-2.182626
220	0xc00c84dc	-2.195609
221	0xc01521fe	-2.3301997
222	0xc00578da	-2.0855012
223	0xbffc05d5	-1.968928
224	0xc0031d00	-2.048645
225	0xc00a94fc	-2.1653433
226	0xbfc9b960	-1.5759697
227	0xc0065d11	-2.0994303
228	0xbfedd72e	-1.8581293
229	0xbff00163	-1.8750423
230	0xc006f2fd	-2.1085808
231	0xc007d7cf	-2.122547
232	0xc0003e1e	-2.0037913
233	0xc00f57df	-2.2397382
234	0xbffbfecd	-1.9687134
235	0xc006c671	-2.105862
236	0xc00c68db	-2.1938999
237	0xc001ed15	-2.0300953
238	0xc00646b7	-2.098066
239	0xbe50b418	-0.203812
240	0xc002be74	-2.0428743
241	0xc0083b78	-2.1286297
242	0xbf5226d5	-0.820905
243	0xbff4f064	-1.9135861
244	0xbfa95e6d	-1.3231941
245	0xbff1274d	-1.8840119
246	0xc0061e7b	-2.0956104
247	0xc0109906	-2.2593398
248	0xc000b619	-2.0111144
249	0xc0099af4	-2.1500826
250	0xc0047fac	-2.0702925
251	0xc0068513	-2.1018722
252	0xbff755cf	-1.9323062
253	0xc007fb01	-2.124695
254	0xc0085fe5	-2.130853
255	0xbffb29cc	-1.962213
