Code/698/10step_5horizon/models/lstm/5step_1horizon_RMSE_8.pth (torch, 218375 bytes, 10 tensors)

lstm.weight_ih_l0 f4 [256, 9]
0	0x3e6d64b5	0.23182948
1	0xbe43fde9	-0.19139828
2	0x3e4948b9	0.19656648
3	0xbd9e92c5	-0.07742838
4	0xbebc52bb	-0.36781868
5	0x3de20fcf	0.110381715
6	0x3e55326e	0.20820019
7	0xbdb415ba	-0.087932065
8	0x3e178192	0.14795521
9	0x3d81df62	0.06341435
10	0xbe02caf5	-0.12772734
11	0xbde67190	-0.11252129
12	0x3de69825	0.11259488
13	0xbc10eb0a	-0.0088451
14	0x3e24fef1	0.16112877
15	0xbda01585	-0.078166045
16	0xbdbc8e95	-0.09206883
17	0xbd4e4d12	-0.05036647
18	0xbed59605	-0.41716018
19	0x3e418f69	0.18902363
20	0xbca56816	-0.020191234
21	0x3dc98589	0.09839923
22	0x3d9aed33	0.075647734
23	0xbe92fcd5	-0.2870852
24	0xbe5e9578	-0.21736705
25	0xbd960772	-0.07325639
26	0x3e82a89b	0.2551926
27	0xbd7e9215	-0.062151033
28	0xbde3edc6	-0.11129336
29	0x3d3ca55e	0.046056144
30	0xbd810ed5	-0.06301657
31	0x3d77c3ca	0.060489453
32	0xbd3e318d	-0.046433974
33	0x3b0c18b0	0.002137702
34	0xbe057777	-0.13033853
35	0x3d4e9a1c	0.05043994
36	0xbf24ea0f	-0.64419645
37	0xbdee0949	-0.11622865
38	0x3e0fb61e	0.14034316
39	0x3daa379e	0.083113894
40	0xbd02574a	-0.031821527
41	0xbe7efb3c	-0.24900526
42	0xbb73cbb0	-0.0037200265
43	0xbd3498e1	-0.04409111
44	0x3da754a1	0.081704386
45	0xbe2821eb	-0.16419189
46	0x3e1580a1	0.1459985
47	0x3db6fb75	0.0893468
48	0xbe0e002c	-0.13867253
49	0xbd597c93	-0.05309732
50	0x3d4ddd4c	0.050259873
51	0xbda4fb43	-0.08055737
52	0x3cc611f5	0.024178484
53	0x3e1551a9	0.14581932
54	0x3db1d354	0.08682886
55	0xbdd48c65	-0.10378341
56	0x3d755915	0.05989941
57	0xbc463049	-0.012096473
58	0xbd6ee5a6	-0.05832448
59	0xbde7b9d0	-0.11314738
60	0x3e5d9fcd	0.2164299
61	0x3dd1e5b7	0.10248893
62	0xb8460535	-4.7211728e-05
63	0x3e4bc638	0.19899833
64	0xbb97deb6	-0.0046347035
65	0x3e1fbbfa	0.15599051
66	0xbdc575da	-0.09641619
67	0xbe02a0f8	-0.12756717
68	0x3d739481	0.059467796
69	0xbda531d2	-0.08066143
70	0xbe70ed9e	-0.23528144
71	0x3da26f2d	0.07931361
72	0x3ecaeeef	0.39635417
73	0x3d3e34e7	0.04643717
74	0x3d1e14c5	0.038594026
75	0xbdac0872	-0.08400048
76	0xbd0a06cf	-0.0336979
77	0xbe92b4c0	-0.28653526
78	0x3e3a066f	0.18166517
79	0xbc87c5e1	-0.016573848
80	0xbe384f42	-0.17998984
81	0x3e710ad0	0.23539281
82	0xbe99494a	-0.29938728
83	0x3e3ce0c6	0.1844512
84	0xbd61254c	-0.05496721
85	0xbe3fc5bf	-0.18727778
86	0x3b49a3ce	0.0030767801
87	0x3eb3b9f6	0.35102814
88	0xbe09a325	-0.13441141
89	0x3d91a69e	0.07111858
90	0x3e737e36	0.23778614
91	0xbe9f25ed	-0.31083623
92	0x3dc75aab	0.097340904
93	0x3e081775	0.13290198
94	0xbe499f76	-0.19689736
95	0x3e97c817	0.29644844
96	0x3c963e7c	0.018340342
97	0x3eb452cc	0.3521942
98	0x3d13ea4a	0.036112107
99	0xbdbc618e	-0.091982946
100	0x3e155e0a	0.14586654
101	0x3e5ebbf2	0.21751383
102	0x3dba701c	0.091034144
103	0xbe5b0d48	-0.21391785
104	0x3e2e04ad	0.16993971
105	0x3dc8c7c7	0.098037295
106	0xbdc9ea9c	-0.09859201
107	0x3e0ed9f7	0.13950334
108	0x3e70e2aa	0.23523965
109	0xbddafffe	-0.10693358
110	0x3d623d20	0.055234075
111	0x3ddeb154	0.108736664
112	0xbd8c7e46	-0.06860022
113	0x3bc8f759	0.0061330018
114	0xbdc10c3b	-0.09426161
115	0x3dabc84a	0.083878115
116	0x3d093692	0.033499308
117	0x3e36d84e	0.17855951
118	0xbed4a0a3	-0.41528806
119	0x3e3a4ee8	0.18194163
120	0x3cc58899	0.024112986
121	0xbe0cfa44	-0.13767344
122	0x3e59285c	0.21206802
123	0x3ec308ca	0.38092643
124	0xbd936bb9	-0.07198281
125	0xbd3db217	-0.046312418
126	0x3e0142b8	0.12623107
127	0xbdf68bac	-0.12038359
128	0x3e285bf9	0.16441335
129	0xbb7dbf07	-0.0038718597
130	0x3d37dade	0.044886462
131	0x3c5a7ccd	0.013335419
132	0xbd5639bc	-0.052301154
133	0x3dff2ac8	0.12459332
134	0x3d63102a	0.055435337
135	0x3eeb7401	0.4598694
136	0xbe62414c	-0.22095221
137	0xbcd7364e	-0.026271012
138	0x3e6f3b9e	0.23362586
139	0xbe464b90	-0.19364762
140	0x3d83de21	0.06438852
141	0x3e889225	0.26674
142	0xbe008b54	-0.1255315
143	0x3cea7472	0.028619979
144	0x3e097fd3	0.13427667
145	0x3db99f80	0.09063625
146	0x3e47f5de	0.19527385
147	0x3d53afa8	0.05168119
148	0x3d992c87	0.07479196
149	0x3c230593	0.0099500595
150	0xbb34d9ae	-0.0027595568
151	0x3a7c05e0	0.00096139126
152	0x3e1b7730	0.15182185
153	0xbea3634b	-0.31911692
154	0x3d9c4b1b	0.07631513
155	0x3d379b43	0.044825803
156	0x3d09df68	0.033660322
157	0x3ca9f635	0.020747283
158	0x3be17efb	0.0068815923
159	0x3de257c9	0.110519
160	0xbda67ac4	-0.081288844
161	0x3d912f6b	0.070891224
162	0x3ed1b3db	0.4095753
163	0xbe6a4b6d	-0.22880335
164	0xbd8538ea	-0.06504996
165	0xbe492b49	-0.19645418
166	0x3e09ecbc	0.13469213
167	0xbe9c7e6c	-0.30565202
168	0x3e6154b0	0.22004962
169	0xbea90c94	-0.3301741
170	0x3d631927	0.05544391
171	0x3eaeea10	0.3416295
172	0xbd83e75c	-0.06440613
173	0x3e98f4f1	0.29874375
174	0x3d680df6	0.05665394
175	0xbe676478	-0.2259692
176	0x3e1d2967	0.15347825
177	0x3e9a46f4	0.30132258
178	0x3df4405a	0.119263366
179	0x3ce38b6f	0.027776448
180	0x3e306f13	0.17229871
181	0xbea0640d	-0.31326333
182	0x3dd030f6	0.101655886
183	0x3d4de037	0.050262656
184	0xbd2fd668	-0.042929083
185	0x3d297ce6	0.041378878
186	0x3e5ea894	0.21743995
187	0xbca41c51	-0.020033034
188	0xbd8a13d1	-0.06742061
189	0x3e8d9edf	0.27660272
190	0x3dfd0cfe	0.12355994
191	0x3e3928e0	0.18081999
192	0x3e3c5908	0.18393338
193	0xbe9eda0e	-0.31025738
194	0x3ed41729	0.4142392
195	0xbd9966b9	-0.07490296
196	0x3e4da138	0.20081031
197	0x3e808dec	0.25108278
198	0x3e967195	0.2938353
199	0x3dbb3557	0.09141033
200	0x3cc38b4e	0.023870137
201	0x3e638a5a	0.22220746
202	0xbe94418e	-0.28956264
203	0x3e846623	0.25859174
204	0x3d94a2ac	0.0725759
205	0x3e79e96c	0.2440545
206	0x3e163814	0.1466983
207	0x3e3ce4a3	0.18446593
208	0xbe07664a	-0.13222614
209	0x3dca9c9f	0.09893154
210	0x3d8dac5c	0.069176406
211	0xbdd369db	-0.10322925
212	0x3d80e148	0.06292969
213	0xbdc35fb5	-0.09539739
214	0xbd6fca29	-0.058542404
215	0x3dab6d31	0.08370436
216	0x3ebe28fe	0.3714065
217	0xbe9fe659	-0.3123043
218	0x3d832c55	0.0640494
219	0x3d719a65	0.058985133
220	0x3e13cc8c	0.14433497
221	0xbd809aac	-0.06279501
222	0x3e6f2adf	0.23356198
223	0xbb8093bb	-0.003923861
224	0xbd5a268b	-0.053259414
225	0xbe8d569d	-0.27605143
226	0xbd6da09f	-0.05801451
227	0x3e12610b	0.14294831
228	0xbe297540	-0.16548634
229	0x3e205ee0	0.15661192
230	0xbe036605	-0.12831886
231	0x3ab02577	0.00134389
232	0xbe4eb49c	-0.20186085
233	0xbe47423e	-0.19458863
234	0x3f2f6637	0.6851534
235	0xbecaee08	-0.39634728
236	0x3ddcea15	0.10786835
237	0xbe2ccf98	-0.16876066
238	0x3e7903c6	0.24317846
239	0x3d9d76d2	0.07688679
240	0x3d832b6d	0.06404767
241	0xbe0d9410	-0.13826013
242	0x3cca100a	0.024665851
243	0x3f002c08	0.50067186
244	0xbe5654c9	-0.2093078
245	0x3da83a94	0.08214298
246	0xbd0d4a6e	-0.03449481
247	0x3e825c4e	0.25461048
248	0xbd4ea7bd	-0.050452936
249	0x3cf0b4ae	0.02938303
250	0xbe218ac6	-0.15775594
251	0xbdbbf6d3	-0.09177937
252	0x3e293b7c	0.16526598
253	0xbe5c244a	-0.21498218
254	0x3cfe063e	0.031008836
255	0xbd72dea4	-0.059294358

lstm.weight_hh_l0 f4 [256, 64]
0	0x3af8615f	0.0018949917
1	0xbed947e0	-0.4243765
2	0xbdfcb5b7	-0.12339347
3	0xbe0fae3b	-0.14031307
4	0xbd65a683	-0.056067
5	0xbda836f4	-0.082136065
6	0xbe742c4d	-0.23845024
7	0x3e056b73	0.1302927
8	0xbf0c46d7	-0.54795593
9	0xbe374bd3	-0.17900018
10	0xbdb07ab8	-0.08617157
11	0xbdb62dbf	-0.08895444
12	0xbc83fe9b	-0.016112616
13	0xbe00ebc3	-0.12589936
14	0xbd7ef371	-0.062243883
15	0xbdda43c7	-0.10657459
16	0xbe35c990	-0.17752671
17	0xbee492fa	-0.44643384
18	0x3e3e1e86	0.18566331
19	0xbcc99712	-0.024608169
20	0x3d4c98c4	0.049950376
21	0xbcfe05bf	-0.0310086
22	0xbdcb42a2	-0.099248186
23	0x3d2554ac	0.040363953
24	0xbd006f1e	-0.03135597
25	0x3ee0d145	0.4390966
26	0x3e23dcec	0.16002244
27	0x3d290499	0.04126415
28	0xbd8ebf0c	-0.06970033
29	0x3c88ba20	0.016690314
30	0x3dadb5ef	0.08481967
31	0xbe1b111f	-0.1514325
32	0xbdd35330	-0.10318601
33	0xbdc48242	-0.09595157
34	0xbe360acb	-0.17777555
35	0x3e009346	0.1255618
36	0x3e8a70e6	0.2703926
37	0x3dd740fd	0.105104424
38	0xbd6a7d40	-0.057248354
39	0x3e3522ab	0.17689006
40	0x3d9d0dc1	0.07668639
41	0x3d4305c5	0.047612924
42	0x3dce001d	0.10058615
43	0x3db94fbf	0.090484135
44	0x3e9e2838	0.3089006
45	0x3e8cdb71	0.2751117
46	0xbd87925c	-0.06619713
47	0x3d105c56	0.03524431
48	0xbebe2c1c	-0.37143028
49	0xbd2f8466	-0.042850874
50	0x3e27fcab	0.16404979
51	0xbd0a40cf	-0.033753213
52	0xbd95ab2e	-0.073080406
53	0x3ca41ad0	0.020032316
54	0x3d60adbb	0.054853182
55	0xbe04b5a0	-0.1295991
56	0x3e7a419a	0.24439088
57	0x3da420ff	0.08014106
58	0x3d2fa3a8	0.042880684
59	0x3d397b2a	0.045283474
60	0x3d4411cd	0.04786854
61	0x3d900a68	0.07033235
62	0xbd0be5df	-0.03415477
63	0x3e8a5821	0.27020362
64	0x3e9d1cd6	0.30686063
65	0xbe29d565	-0.1658531
66	0xbe5e428f	-0.21705078
67	0xbdc6e98b	-0.097125135
68	0xbdda63c8	-0.10663563
69	0x3d72c4ae	0.0592696
70	0xbe98c983	-0.2984124
71	0x3d3440b7	0.04400703
72	0xbdfd58d3	-0.123704575
73	0xbebcb3ce	-0.3685593
74	0x3e84fce9	0.25974205
75	0x3e07af70	0.13250518
76	0xbe4acb18	-0.19804037
77	0xbebd7414	-0.37002623
78	0xbe7cde7e	-0.24694249
79	0xbe8e6ead	-0.27818814
80	0xbde1cc7b	-0.1102533
81	0x3d5356b7	0.05159637
82	0xbc16507f	-0.009174465
83	0xbe2116a6	-0.15731296
84	0x3e668dad	0.22514983
85	0xbe2b13e1	-0.16706802
86	0xbe8c36ac	-0.2738546
87	0xbe852d91	-0.26011327
88	0xbe824fbd	-0.2545146
89	0x3e3ff03a	0.18743983
90	0x3e44b017	0.19207798
91	0x3ec71664	0.3888427
92	0x3e8c62dc	0.27419174
93	0xbe74d8da	-0.23910847
94	0xbac8d746	-0.0015322946
95	0x3e85d6b7	0.26140377
96	0xbdafbdee	-0.08581148
97	0xbe5be9a8	-0.21475852
98	0x3d2c6d6c	0.04209654
99	0x3ec916a1	0.39275077
100	0x3e158065	0.1459976
101	0x3e6fbd8a	0.23412147
102	0xbe109649	-0.14119829
103	0x3e471a36	0.19443592
104	0xbdfa0168	-0.122072995
105	0xbda80c4c	-0.082054704
106	0xbd79590d	-0.06087594
107	0x3e4e8974	0.20169622
108	0x3e2d359d	0.16914983
109	0x3f8b47fc	1.0881343
110	0x3dbc7f78	0.09204
111	0x3ca1e7e2	0.01976389
112	0xbe72e7a3	-0.23721175
113	0x3e4b03a1	0.19825603
114	0x3e92e4cb	0.2869018
115	0xbe8c91b5	-0.27454916
116	0xbd97967a	-0.07401748
117	0x3eac6369	0.33669594
118	0x3dbb451a	0.091440395
119	0xbd77da07	-0.06051066
120	0x3e5872e4	0.21137577
121	0x3edcffa3	0.43163785
122	0x3ea1ac80	0.3157692
123	0x3e9817b8	0.29705596
124	0xbe017708	-0.12643063
125	0x3d85dee5	0.065366544
126	0x3d9cf269	0.076634236
127	0x3eabb5d9	0.33537176
128	0xbe51f3e0	-0.20503187
129	0x3caeee94	0.021353997
130	0x3dbf6216	0.0934488
131	0x3d147caa	0.0362517
132	0x3e10632e	0.14100334
133	0xbc2b80b4	-0.010467697
134	0xbd047bbb	-0.03234456
135	0xbe413427	-0.18867551
136	0x3b065bd7	0.0020501518
137	0x3e582720	0.21108675
138	0xbb53c878	-0.0032315534
139	0xbd3e0c91	-0.046398703
140	0x3eba09f8	0.3633573
141	0x3dfba566	0.122874066
142	0x3d8fd2b7	0.070226125
143	0x3cf0146f	0.029306618
144	0xbc74ad67	-0.01493392
145	0xbdce1477	-0.10062497
146	0x3e09f66f	0.13472913
147	0x3e4889ec	0.19583863
148	0xbdb59256	-0.08865802
149	0xbd8fd636	-0.07023279
150	0x3e8bb788	0.2728846
151	0x3e0f609f	0.14001702
152	0x3e9c2102	0.30493933
153	0x3c92f947	0.01794113
154	0xbe8e5705	-0.27800766
155	0xbe2bfe23	-0.16796164
156	0xbdb856e4	-0.09000948
157	0x3e8bb441	0.2728596
158	0xbcc384f0	-0.0238671
159	0xbdefd5a2	-0.11710669
160	0x3e1f839b	0.15577547
161	0xbe454a3e	-0.19266602
162	0x3c8a6ac8	0.01689662
163	0xbe843970	-0.2582507
164	0xbd04a77e	-0.032386295
165	0xbeac240e	-0.33621258
166	0x3d167d5c	0.036740646
167	0x3d0ae51d	0.033909906
168	0x3e026368	0.12733233
169	0x3e2878ea	0.16452375
170	0xbd8306d4	-0.06397787
171	0xbc77fe94	-0.01513638
172	0xbc1936b7	-0.009351424
173	0x3db4d374	0.08829394
174	0xbd31a832	-0.043373294
175	0xbd058c98	-0.032604784
176	0xbe95cf33	-0.29259643
177	0xbde34df3	-0.11098852
178	0xbe3307b1	-0.17483403
179	0x3e15ddf0	0.14635444
180	0x3e088ff0	0.13336158
181	0xbe9f3d69	-0.3110154
182	0xbe7692fb	-0.24079506
183	0xbd9f74ab	-0.077859245
184	0xbeb20f0b	-0.34777102
185	0xbedd99b1	-0.4328132
186	0xbddb4618	-0.10706729
187	0xbd6f8758	-0.058478683
188	0x3e1819b6	0.14853558
189	0xbe185ae1	-0.14878418
190	0xbdd709ce	-0.10499917
191	0xbe8298d2	-0.25507218
192	0x3d48d23e	0.049028628
193	0xbe551ba4	-0.20811325
194	0xbe3da2f0	-0.18519187
195	0xbc80acc8	-0.015707389
196	0x3d7940ae	0.0608527
197	0xbc9d8495	-0.01922826
198	0xbd8ecaf1	-0.06972302
199	0xbdc3c1ce	-0.0955845
200	0xbe585a7f	-0.21128272
201	0x3db0db3d	0.086355664
202	0x3baac07d	0.0052109347
203	0x3bb2dc3e	0.005458384
204	0x3d38b353	0.045092892
205	0xbd74a06b	-0.0597233
206	0xbd99d563	-0.075114034
207	0xbe0da1ec	-0.138313
208	0x3cd16fc7	0.025565995
209	0xbe185d25	-0.14879282
210	0x3dde8bf4	0.10866538
211	0xbd80f6bf	-0.06297063
212	0x3d8c56d9	0.068525024
213	0xbe53c473	-0.20680408
214	0x3d79304a	0.060837068
215	0xbd6d19a7	-0.057885792
216	0x3d2c7390	0.042102396
217	0x3e357500	0.17720413
218	0x3e12a1c6	0.14319524
219	0xbd27f560	-0.041005492
220	0xbe0b7489	-0.13618673
221	0x3d4d5c04	0.05013658
222	0x3aaee5ee	0.0013343671
223	0xbdcb23aa	-0.09918912
224	0x3d7c90c4	0.061661497
225	0xbdc006cc	-0.093762964
226	0xbe2e1489	-0.17000021
227	0x3d837c79	0.06420226
228	0x3e2b0fe7	0.16705285
229	0x3d1d2f44	0.038375154
230	0xbdb48909	-0.088152
231	0x3e1527f4	0.14566022
232	0x3df65671	0.12028206
233	0x3d0c6f25	0.034285683
234	0x3c97c3fe	0.018526074
235	0xbd80df0e	-0.06292544
236	0x3e187f39	0.14892282
237	0x3e2fccb1	0.17167927
238	0xbd93689a	-0.071976855
239	0x3de64f9c	0.11245653
240	0xbe0a1320	-0.13483858
241	0xbd1f4d2e	-0.038891964
242	0x3d8b04f6	0.067880556
243	0xbe0bfeb7	-0.13671385
244	0x3cfa8071	0.030578824
245	0xbdfd80ec	-0.123781055
246	0x3d0afd5a	0.03393302
247	0x3d0559ed	0.032556463
248	0xbc2de80e	-0.010614408
249	0x3d94853b	0.07251974
250	0xbd82e8ac	-0.06392035
251	0x3e0fe80d	0.14053364
252	0x3c9c5116	0.019081634
253	0x3d5e835a	0.054324485
254	0xbe2599ac	-0.16171902
255	0x3df55262	0.11978604

lstm.bias_ih_l0 f4 [256]
0	0xbfba6e1a	-1.456485
1	0xbc7218c9	-0.014776417
2	0xbfc78a91	-1.5589162
3	0xbfb54ca7	-1.4164017
4	0xbfd1e118	-1.6396818
5	0xbfc8bae3	-1.5682033
6	0xbfb87bd1	-1.4412786
7	0xbfba1973	-1.4539016
8	0xbda107fd	-0.07862852
9	0xbfaeffb5	-1.3671786
10	0xbf6ee059	-0.9331108
11	0xbfd6def6	-1.6786792
12	0xbfa83dd6	-1.3143871
13	0xbfa4616c	-1.2842231
14	0xbfd444f8	-1.6583548
15	0xbf50b8ad	-0.8153179
16	0xbfa91e92	-1.3212454
17	0xbfa97e55	-1.3241678
18	0xbe75bd8d	-0.23998089
19	0xbf9ceab7	-1.2259129
20	0xbfb4f0ab	-1.4135946
21	0xbf7e9620	-0.9944782
22	0xbfa8a205	-1.3174444
23	0xbfd4fb29	-1.6639148
24	0xbf9813be	-1.1881025
25	0xbec816e7	-0.39079973
26	0xbf9142fe	-1.1348569
27	0xbf80e2c6	-1.0069206
28	0xbfc9440a	-1.5723889
29	0xbfbdf9ee	-1.4841897
30	0xbfe2b0b8	-1.771018
31	0xbfd51ddd	-1.6649739
32	0xbf5a8bbe	-0.8536948
33	0xbe0449c6	-0.12918767
34	0xbe8c1a06	-0.27363604
35	0xbf966a80	-1.1751251
36	0xbfb8edb6	-1.4447544
37	0xbf9bb62c	-1.216497
38	0xbfa29daf	-1.2704371
39	0xbfd13452	-1.6344092
40	0xbfefc639	-1.8732368
41	0xbfd5f781	-1.6716157
42	0xbfd60387	-1.6719826
43	0x3f1243ef	0.5713491
44	0xbf6e431b	-0.93071145
45	0xbf07901b	-0.5295426
46	0xbfdffb3f	-1.7498549
47	0xbfdaac58	-1.7083845
48	0xbe425635	-0.18978198
49	0xbfb273b7	-1.3941563
50	0xbf982957	-1.1887616
51	0xbfbb1211	-1.4614888
52	0xbfc5aae9	-1.5442783
53	0xbf6e9eab	-0.9321086
54	0xbf899995	-1.0749995
55	0xbfc4c1b0	-1.5371609
56	0xbfc77424	-1.5582318
57	0xbf4d2db1	-0.80147845
58	0xbfcb305d	-1.5874134
59	0xbfd29724	-1.6452374
60	0xbfd7db4e	-1.6863801
61	0xbfb4f94a	-1.4138577
62	0xbf9f4f8e	-1.2446153
63	0xbf006cfa	-0.50166285
64	0xbf52afb6	-0.82299364
65	0x3e05cd47	0.13066588
66	0xbf766ee1	-0.9626294
67	0xbf3b53e3	-0.73174876
68	0xbf88f3c5	-1.0699393
69	0xbf41f65e	-0.7576655
70	0xbefb9cb3	-0.4914299
71	0xbf770942	-0.964985
72	0xbec6f5bf	-0.38859364
73	0xbf159345	-0.5842784
74	0xbf1ef986	-0.6209949
75	0xbf78c889	-0.9718099
76	0xbf22a99d	-0.6354006
77	0xbf214658	-0.6299796
78	0xbf630724	-0.8868277
79	0xbf5ed4af	-0.8704328
80	0xbf7aec9c	-0.9801729
81	0xbf12c4af	-0.57331365
82	0x3ededee5	0.4352943
83	0xbf783305	-0.9695285
84	0xbf2c4a8d	-0.67301255
85	0xbf13edd2	-0.5778476
86	0xbf366d86	-0.7126087
87	0xbf35f136	-0.71071184
88	0xbf917d28	-1.136632
89	0xbf54f5fb	-0.83187836
90	0xbf7b6341	-0.98198324
91	0xbf8acc53	-1.0843605
92	0xbf592ae3	-0.84831065
93	0xbf28092d	-0.65639
94	0xbf8d9b61	-1.1063043
95	0xbf85463a	-1.0412056
96	0xbf11234d	-0.5669449
97	0xbea11607	-0.31462118
98	0xbe5ebd50	-0.21751904
99	0xbf73bc24	-0.95208955
100	0xbf0f516b	-0.5598361
101	0xbf7ca585	-0.9869006
102	0xbf2363e5	-0.638243
103	0xbf90ab94	-1.1302361
104	0xbf72fce3	-0.94917125
105	0xbf96366a	-1.1735356
106	0xbf743cf8	-0.9540553
107	0x3eae1df6	0.34007233
108	0xbf246fb0	-0.6423292
109	0xbf2c5509	-0.67317253
110	0xbf77ccc1	-0.96796805
111	0xbf6d0105	-0.9257968
112	0x3e01e2c0	0.12684155
113	0xbf854930	-1.041296
114	0xbf92052a	-1.1407826
115	0xbfa02850	-1.2512302
116	0xbf5a0cc4	-0.8517573
117	0xbf8d9c6e	-1.1063364
118	0xbf476674	-0.77890706
119	0xbf3daf43	-0.74095553
120	0xbf3648ed	-0.71205026
121	0xbf89ebc3	-1.0775074
122	0xbf83d89c	-1.0300479
123	0xbf85f118	-1.0464201
124	0xbf8e18fc	-1.1101375
125	0xbf5037eb	-0.81335324
126	0xbf4d3ee1	-0.8017407
127	0xbf359098	-0.7092376
128	0x3cded293	0.027200019
129	0x3dcd696b	0.100298725
130	0xb951b770	-0.00020000129
131	0x3d933a80	0.07188892
132	0xbc8dc447	-0.017305506
133	0xbd2fd148	-0.042924196
134	0x3dbbe80b	0.09175118
135	0x3c3ace5a	0.011401737
136	0x3d91e2fa	0.071233705
137	0x3da4d093	0.08047595
138	0xbd04d1c5	-0.032426614
139	0xbdc551d6	-0.096347496
140	0x3d9b9209	0.07596213
141	0x3e0e418e	0.13892195
142	0x3c8c90b0	0.017158836
143	0x3e184a08	0.1487199
144	0x3db4f407	0.08835607
145	0x3e072c6f	0.13200544
146	0x3c8caf75	0.017173508
147	0x3d6444d1	0.05572969
148	0xbdd0c5cf	-0.10193979
149	0x3e1d7f2d	0.15380545
150	0x3da1359d	0.07871554
151	0x3d80f676	0.06297009
152	0x3d7cd78d	0.061729003
153	0xbe0462d3	-0.12928323
154	0xbd50a145	-0.05093505
155	0xbddc31d3	-0.10751691
156	0xbdb7c9d0	-0.089740396
157	0x3d7427a7	0.059608128
158	0xbdbf3d48	-0.0933786
159	0x3d8ab67b	0.06773087
160	0x3dde2c7e	0.1084833
161	0x3daec28e	0.08533202
162	0x3d22c1bf	0.039735552
163	0xbe197c13	-0.14988737
164	0xbd7ffb8d	-0.062495757
165	0x3d5fea88	0.054667026
166	0x3e19ab59	0.1500677
167	0x3c6e9c49	0.0145636285
168	0xbcd0311a	-0.025414038
169	0x3d51ee9d	0.05125295
170	0x3c8b9fe2	0.017044012
171	0xbde13dbe	-0.109981045
172	0xbe086bbb	-0.13322346
173	0xbd0d6b95	-0.034526426
174	0x3da8afd0	0.082366586
175	0xbc683367	-0.0141724115
176	0xbddb69a8	-0.10713512
177	0xbd4d05be	-0.050054304
178	0xbdfa19d7	-0.1221196
179	0x3e152815	0.14566071
180	0x3dc2b2da	0.095067695
181	0xbd0ac4bc	-0.033879027
182	0xbdab9f5e	-0.08380006
183	0x3ce88503	0.028383737
184	0xbd6b2748	-0.05741051
185	0xbda2b8c8	-0.079454005
186	0x3c134730	0.00898914
187	0x3d67f220	0.056627393
188	0xbc22b8dc	-0.009931769
189	0xbd8022f8	-0.0625667
190	0x3e0c8d52	0.13725784
191	0xbe5ab7c3	-0.21359162
192	0xbfb5d7ce	-1.4206483
193	0x3e3d9d6e	0.18517086
194	0xbfb99742	-1.4499285
195	0xbfc46fb6	-1.5346591
196	0xbfe6f37e	-1.8043058
197	0xbfcc422d	-1.5957695
198	0xbfb9d571	-1.4518262
199	0xbfaea93d	-1.3645397
200	0x3d7a2f5c	0.06108032
201	0xbfcb860b	-1.5900282
202	0xbf6b9efc	-0.92039466
203	0xbfcf1db1	-1.6180936
204	0xbfaceba9	-1.3509418
205	0xbfb9cf3e	-1.451637
206	0xbfcc9e29	-1.5985767
207	0xbf6af50f	-0.9178018
208	0xbfb289f2	-1.3948348
209	0xbfb88cd9	-1.4417983
210	0x3e4f6142	0.20251945
211	0xbf90132e	-1.1255853
212	0xbfbdeee0	-1.4838524
213	0xbf7f59fe	-0.9974669
214	0xbfa58da2	-1.2933848
215	0xbfda530c	-1.7056594
216	0xbf91deea	-1.1396153
217	0xbea615a5	-0.32438388
218	0xbf8c17b8	-1.0944738
219	0xbf77d3c6	-0.96807516
220	0xbfd92aec	-1.6966224
221	0xbfb5741c	-1.4176059
222	0xbfe44481	-1.7833406
223	0xbfcb6263	-1.58894
224	0xbf46e67f	-0.7769546
225	0xbe3127b3	-0.173003
226	0xbea958c2	-0.3307553
227	0xbf9d619c	-1.2295413
228	0xbfcf7e64	-1.6210446
229	0xbf9ef1c5	-1.2417532
230	0xbf90da13	-1.1316551
231	0xbfc66229	-1.5498706
232	0xbfdd279a	-1.727771
233	0xbfd67bd2	-1.6756537
234	0xbfe815b5	-1.8131624
235	0x3f385757	0.7200827
236	0xbf5ecb8f	-0.87029356
237	0xbed957a9	-0.42449692
238	0xbfe621d6	-1.7979076
239	0xbfdf27c4	-1.743401
240	0x3dff4ee5	0.1246622
241	0xbfa03ebb	-1.2519144
242	0xbf98c7b8	-1.1935949
243	0xbfba5b07	-1.4559029
244	0xbfdb8405	-1.7149664
245	0xbf6d7270	-0.9275274
246	0xbf8d5a04	-1.1043096
247	0xbfc2b63a	-1.5211861
248	0xbfb52cde	-1.4154317
249	0xbf335a30	-0.7005949
250	0xbfe1e9da	-1.7649491
251	0xbfbfe5e8	-1.4992037
252	0xbfe2146c	-1.7662482
253	0xbfbcd17a	-1.4751427
254	0xbf913908	-1.134553
255	0xbf2ff4db	-0.68732995

lstm.bias_hh_l0 f4 [256]
0	0xbfba7030	-1.4565487
1	0x3e20f3d9	0.1571802
2	0xbfb0ee7b	-1.3822778
3	0xbfcffafb	-1.6248468
4	0xbfe02a61	-1.7512933
5	0xbfb1088d	-1.3830734
6	0xbfc0315b	-1.5015062
7	0xbfa280b3	-1.2695526
8	0xbce17097	-0.027519507
9	0xbfb87bab	-1.441274
10	0xbf8a7d37	-1.0819463
11	0xbfc62e5e	-1.54829
12	0xbfaf2294	-1.3682427
13	0xbfaba1d2	-1.3408759
14	0xbfcc0e06	-1.594178
15	0xbf517c91	-0.818307
16	0xbfaca032	-1.3486388
17	0xbf971805	-1.1804205
18	0xbe2e84a1	-0.17042781
19	0xbfb44e73	-1.4086441
20	0xbfbabb7d	-1.4588467
21	0xbf938599	-1.1525146
22	0xbf9dec67	-1.2337769
23	0xbfca4ade	-1.5804098
24	0xbf8bb9ce	-1.0916078
25	0xbf06eb97	-0.5270323
26	0xbf99cc86	-1.2015541
27	0xbf90cdbe	-1.1312788
28	0xbfe20c02	-1.7659914
29	0xbfbd062e	-1.4767511
30	0xbfd9e436	-1.702277
31	0xbfdce1df	-1.725643
32	0xbf4250e0	-0.75904655
33	0xbe198a46	-0.14994153
34	0xbe930b0c	-0.28719366
35	0xbfa17bfc	-1.2615962
36	0xbfcf4aa6	-1.6194656
37	0xbfa3621a	-1.2764313
38	0xbfa02293	-1.2510551
39	0xbfcc33ca	-1.5953305
40	0xbfdb1241	-1.7114946
41	0xbfd131c3	-1.6343311
42	0xbfea39c2	-1.8298876
43	0x3ee3d863	0.44501027
44	0xbf69ad4f	-0.9128007
45	0xbecd0a75	-0.4004704
46	0xbfe33eec	-1.7753577
47	0xbfe37c70	-1.777235
48	0xbe8031b1	-0.25037912
49	0xbf9ab015	-1.2084986
50	0xbfaed02d	-1.365728
51	0xbfc433dd	-1.5328327
52	0xbfe36a73	-1.7766861
53	0xbf8af5bb	-1.0856241
54	0xbf89bf4c	-1.0761504
55	0xbfcfbf3e	-1.6230237
56	0xbfc158e6	-1.5105255
57	0xbf449849	-0.7679487
58	0xbfd8a483	-1.6925205
59	0xbfd760a4	-1.6826367
60	0xbfe605f6	-1.7970569
61	0xbfc4d098	-1.5376158
62	0xbf974b12	-1.1819785
63	0xbf1e84b4	-0.6192124
64	0xbf38fba8	-0.72258997
65	0x3d2ad8b2	0.041710563
66	0xbf644309	-0.8916479
67	0xbf5409f1	-0.8282767
68	0xbf8f6d60	-1.1205254
69	0xbf47b366	-0.78008115
70	0xbf15d554	-0.5852864
71	0xbf602814	-0.87561154
72	0xbeae3227	-0.34022638
73	0xbf2a7fff	-0.66601557
74	0xbf1536b2	-0.58286583
75	0xbf592613	-0.8482372
76	0xbf3a92f3	-0.72880477
77	0xbf288146	-0.65822256
78	0xbf56a5ec	-0.83846927
79	0xbf5c8fdf	-0.8615703
80	0xbf6b91de	-0.9201945
81	0xbf0e3419	-0.55548245
82	0x3ea6e00d	0.32592812
83	0xbf6d7c9d	-0.9276827
84	0xbef9063c	-0.4863757
85	0xbf1cd828	-0.6126733
86	0xbf270fde	-0.65258586
87	0xbf326092	-0.69678605
88	0xbf95c7b8	-1.1701574
89	0xbf6a4f7f	-0.9152755
90	0xbf8c4a38	-1.096015
91	0xbf83286b	-1.024671
92	0xbf6f0aaf	-0.93375677
93	0xbefd6969	-0.49494484
94	0xbf7c0b32	-0.9845458
95	0xbf8c721a	-1.0972321
96	0xbf32e65c	-0.6988275
97	0xbdce5523	-0.10074832
98	0xbe57c08a	-0.21069542
99	0xbf4f8960	-0.8106899
100	0xbf158a72	-0.58414376
101	0xbf7ec7f8	-0.9952388
102	0xbf1b51cd	-0.60671693
103	0xbf9255ae	-1.1432397
104	0xbf8e8eb1	-1.1137296
105	0xbf8b116e	-1.0864694
106	0xbf6919e4	-0.9105513
107	0x3e9c5030	0.30529928
108	0xbf4cd636	-0.8001436
109	0xbf235bb9	-0.6381183
110	0xbf8131b0	-1.0093288
111	0xbf7774a9	-0.96662384
112	0x3d392f05	0.045210857
113	0xbf82295b	-1.0168871
114	0xbf88ba4a	-1.0681851
115	0xbf8ca009	-1.0986339
116	0xbf7a5402	-0.97784436
117	0xbf875334	-1.0572267
118	0xbf6456a0	-0.8919468
119	0xbf44bd07	-0.7685093
120	0xbf088bff	-0.5333862
121	0xbf831ac0	-1.0242538
122	0xbf9d2ebc	-1.2279887
123	0xbf93cf16	-1.1547573
124	0xbf8a0a6f	-1.0784434
125	0xbf766d93	-0.96260947
126	0xbf71036d	-0.9414585
127	0xbf482694	-0.78183866
128	0xbe0dc693	-0.13845281
129	0x3e25e4e0	0.1620059
130	0xbe318de0	-0.17339277
131	0x3d89ec08	0.067344725
132	0x3c846ab0	0.016164154
133	0xbd958d53	-0.07302346
134	0xbc38400e	-0.011245741
135	0xbe040e81	-0.12896158
136	0x3e38ae52	0.18035248
137	0xbbd2d1f0	-0.006433718
138	0xbe042dfd	-0.12908168
139	0x3d2b0795	0.041755278
140	0x3d41a253	0.047273945
141	0xbca1db9e	-0.019758042
142	0x3d9560ca	0.07293852
143	0x3d3e40a1	0.046448354
144	0x3cd74091	0.026275905
145	0x3d8042d9	0.0626275
146	0x3e5514e0	0.20808744
147	0x3ded62ed	0.11591134
148	0x3cafe8e5	0.021473357
149	0xbc8d4ae8	-0.017247632
150	0x3d563a73	0.052301835
151	0x3d3e17ba	0.046409346
152	0x3dad2911	0.084550984
153	0xbd9ce01b	-0.07659932
154	0xbdb98781	-0.090590484
155	0xbd9d960b	-0.07694634
156	0x3d2be1c6	0.04196336
157	0x3cf2b2a5	0.0296262
158	0x3d335cff	0.04378986
159	0x3db0ae7c	0.0862703
160	0x3daf10ca	0.08548124
161	0x3e15ca0c	0.14627856
162	0x3e2bb9e2	0.16770127
163	0x3c16c0f2	0.009201275
164	0xbd85be69	-0.065304585
165	0xbe302e88	-0.1720525
166	0xbd39b905	-0.045342464
167	0x3dacb965	0.08433799
168	0x3da420aa	0.08014043
169	0x3cb3a33b	0.02192842
170	0xbcd5921e	-0.02607065
171	0xbe333282	-0.17499736
172	0xbd7fde96	-0.062468134
173	0x3e21bc09	0.15794386
174	0xbd478555	-0.04871114
175	0x3c298b4b	0.010348151
176	0xbd228ffc	-0.039688095
177	0xbd279809	-0.040916476
178	0xbd45ced2	-0.048292942
179	0xbd13a8b1	-0.03604955
180	0xbd31b1d4	-0.04338248
181	0xbe0158d1	-0.12631537
182	0xbddee204	-0.10882953
183	0x3d8ac7be	0.06776379
184	0xbd5638be	-0.052300207
185	0xbdaa70fa	-0.0832233
186	0xbcaa5ee5	-0.020797202
187	0x3d8e80ce	0.06958161
188	0x3c4e1008	0.012577064
189	0xbd015ea6	-0.031584404
190	0x3d36b3a7	0.044604924
191	0x3cf75b61	0.03019494
192	0xbfac0f62	-1.3442194
193	0x3ddf233f	0.108953945
194	0xbfaff922	-1.3747904
195	0xbfcc87e2	-1.5978968
196	0xbfe5f596	-1.7965572
197	0xbfcdad9f	-1.606861
198	0xbfb09109	-1.3794261
199	0xbfa3c241	-1.2793657
200	0x3ddcf483	0.107888244
201	0xbfbf859f	-1.4962653
202	0xbf8c3abd	-1.0955426
203	0xbfd3f281	-1.6558381
204	0xbfadefff	-1.3588866
205	0xbfb4cd70	-1.4125195
206	0xbfca6e39	-1.5814887
207	0xbf7d5802	-0.98962414
208	0xbfbe6236	-1.4873722
209	0xbfb885c5	-1.4415823
210	0x3e1656ae	0.14681503
211	0xbf9db74a	-1.232156
212	0xbfae2e08	-1.3607798
213	0xbf9513ea	-1.1646702
214	0xbf9fa324	-1.2471662
215	0xbfc0ef50	-1.5073032
216	0xbf967df0	-1.1757183
217	0xbe95129b	-0.29115757
218	0xbf85e636	-1.046088
219	0xbf614a20	-0.8800373
220	0xbfc8a3d8	-1.5675001
221	0xbfb81c06	-1.4383552
222	0xbfe39919	-1.7781097
223	0xbfc2811d	-1.5195652
224	0xbf37c489	-0.71784264
225	0xbddd12d1	-0.107946046
226	0xbe791956	-0.24326071
227	0xbf985a9e	-1.1902654
228	0xbfbc6eb8	-1.4721289
229	0xbf9869bf	-1.1907271
230	0xbfa2d4bf	-1.2721175
231	0xbfc969d7	-1.5735425
232	0xbfe108e8	-1.7580843
233	0xbfd724de	-1.6808126
234	0xbff27249	-1.8941127
235	0x3f040abb	0.51578873
236	0xbf6ace3b	-0.9172093
237	0xbea81ad5	-0.3283297
238	0xbfd276b0	-1.644247
239	0xbfcba5f8	-1.5910025
240	0xbd36719c	-0.04454194
241	0xbf9f50fd	-1.2446591
242	0xbfb206b6	-1.3908298
243	0xbfa2e999	-1.2727538
244	0xbfdb1c77	-1.7118062
245	0xbf73b1e6	-0.95193326
246	0xbf737114	-0.9509442
247	0xbfd14224	-1.634831
248	0xbfcdef80	-1.6088715
249	0xbf393972	-0.7235328
250	0xbfdb7444	-1.7144856
251	0xbfbe5000	-1.4868164
252	0xbfdb2e50	-1.7123508
253	0xbfc8be66	-1.5683105
254	0xbfa0b2aa	-1.2554524
255	0xbf1b5421	-0.60675246

lstm.weight_ih_l1 f4 [256, 64]
0	0x3e14d8c1	0.1453581
1	0x3d823c73	0.06359186
2	0x3d71da0d	0.05904584
3	0x3e09187e	0.1338825
4	0xbc2dc648	-0.010606356
5	0xbe2f2e85	-0.1710759
6	0x3adb543a	0.0016733475
7	0xbd831877	-0.06401151
8	0x3d140240	0.03613496
9	0x3dafdec8	0.08587414
10	0x3e105fda	0.14099064
11	0xbd9b1ace	-0.07573472
12	0x3d6bd0ee	0.057572298
13	0xbce060fc	-0.027389996
14	0x3af17a90	0.0018423367
15	0x3d8dd314	0.069250256
16	0xbdb22a03	-0.08699419
17	0xbd747e38	-0.059690684
18	0x3d8ede54	0.069759995
19	0x3e30f755	0.1728185
20	0x3db228e5	0.08699206
21	0xbcefd6bb	-0.029277196
22	0xbcc38766	-0.023868274
23	0x3d484c41	0.048900846
24	0x3d8f3c9d	0.06993983
25	0xbe0739fd	-0.13205715
26	0xbcd1dbad	-0.025617445
27	0xbe02083e	-0.12698457
28	0xbdd3d806	-0.103439376
29	0xbdf3ad1d	-0.11898253
30	0xbd801c04	-0.062553436
31	0xbd2cd6ae	-0.042196922
32	0x3e1ebcd7	0.15501724
33	0xbd1fdc36	-0.03902837
34	0x3d67c73e	0.056586497
35	0xbd13286b	-0.035927217
36	0xbd8b00f1	-0.06787289
37	0xbcbba868	-0.02290745
38	0x3d7b04a2	0.061283715
39	0x3c022840	0.007944167
40	0x3da41665	0.08012084
41	0x3d03e3cd	0.03219967
42	0x3d037106	0.03209021
43	0x3d4cec2f	0.05002993
44	0xbd6aa641	-0.05728746
45	0x3dd07416	0.10178392
46	0xbde16848	-0.11006218
47	0xbddb8f6c	-0.10720715
48	0xbde680b7	-0.11255019
49	0x3cef17de	0.029186185
50	0xbd4f0f93	-0.050551962
51	0x3c7142cc	0.014725398
52	0x3daa9429	0.083290406
53	0xbdec563d	-0.11539886
54	0xbdd6c99d	-0.104876734
55	0x3e0c0642	0.13674262
56	0x3d06c7f7	0.032905545
57	0xbcc0efd7	-0.023551865
58	0xbd4067ab	-0.046973865
59	0xba91f8f9	-0.0011136822
60	0xbc6a49c0	-0.01429981
61	0xbb8db36b	-0.004324367
62	0xbdf33bb8	-0.11876625
63	0xbda05370	-0.078284144
64	0x3e0bba85	0.1364537
65	0xbe28b318	-0.16474569
66	0xbd523fc1	-0.05133033
67	0xbd6c95c6	-0.057760023
68	0xbc603ec8	-0.013686843
69	0xbc1dabb0	-0.009623453
70	0xbe0075fd	-0.12545009
71	0x3c9ecc1c	0.019384436
72	0xbcda6137	-0.026657684
73	0xbdc95ff2	-0.09832753
74	0x3e86fc69	0.2636445
75	0xbcd35fd0	-0.025802523
76	0xbe283dc5	-0.16429813
77	0xbea0cf80	-0.3140831
78	0xbd8e2c31	-0.069420226
79	0xbe1bac89	-0.15202536
80	0xbde98377	-0.11402028
81	0x3d70e443	0.058811437
82	0xbe172294	-0.14759284
83	0xbea40b68	-0.32039952
84	0x3e61e255	0.22058995
85	0xbe27e47f	-0.16395758
86	0xbe184c14	-0.14872772
87	0xbd462cf2	-0.048382707
88	0xbe68fd4f	-0.2275288
89	0x3e14f3d5	0.1454614
90	0x3d38ae47	0.04508808
91	0x3e0045e6	0.12526664
92	0x3e334691	0.17507388
93	0xbe86c666	-0.2632324
94	0xbbd0b78e	-0.0063695377
95	0x3d11a38a	0.035556354
96	0xbe612c3b	-0.21989529
97	0xbe24d3cc	-0.16096419
98	0xbe8b733b	-0.2723635
99	0x3daf19ea	0.085498646
100	0x3e453127	0.19257031
101	0x3dc1cfa8	0.094634354
102	0xbe746839	-0.23867883
103	0x3e0ead47	0.13933288
104	0xbe433018	-0.19061315
105	0xbe0a4805	-0.13504036
106	0x3dabb843	0.083847545
107	0x3e1ac153	0.1511281
108	0x3e2976c0	0.16549206
109	0x3f06cf3f	0.5265998
110	0xbdd29898	-0.10283011
111	0xbdbaa785	-0.09113983
112	0x3dbdcd8e	0.09267722
113	0x3e86afce	0.26306003
114	0x3c0d209d	0.008613733
115	0xbdf1ee10	-0.11812985
116	0xbd9fbe30	-0.07799947
117	0x3e63c3b0	0.22242618
118	0xbdbae930	-0.09126508
119	0xbe0aa137	-0.13538061
120	0x3e3305c0	0.17482662
121	0x3e627d3e	0.22118089
122	0x3d543b3a	0.051814295
123	0x3e949cb0	0.29025793
124	0xbdf88776	-0.12135212
125	0x3e4b1d5e	0.19835421
126	0x3dd7fdb0	0.10546434
127	0x3e3dd58a	0.1853849
128	0x3e1b9bd6	0.15196165
129	0xbe80ee06	-0.25181597
130	0xbebed0f4	-0.37268794
131	0xbdd78634	-0.10523644
132	0xbe349d02	-0.17638019
133	0xbb2c4b25	-0.0026289907
134	0xbe776d6b	-0.24162833
135	0x3da10569	0.0786236
136	0xbe0a5bf5	-0.13511641
137	0xbe506cc6	-0.20353994
138	0x3ebe396e	0.3715319
139	0x3e0db8a0	0.1383996
140	0xbddabf7e	-0.106810555
141	0xbef43130	-0.47693777
142	0xbdc118f7	-0.0942859
143	0xbe9f5b6c	-0.31124437
144	0xbe12a5e7	-0.14321099
145	0xbd274621	-0.040838365
146	0x3e63cf47	0.22247039
147	0xbe72cb75	-0.23710425
148	0x3ea78798	0.32720637
149	0xbeb06f26	-0.344598
150	0xbe8c2bbe	-0.27377123
151	0x3c08b647	0.00834424
152	0xbe45aedc	-0.19304985
153	0xbe40e2fb	-0.18836586
154	0x3e83f9de	0.2577657
155	0xbcf4d5ea	-0.029887158
156	0x3d8810ae	0.066438064
157	0xbe0c25fa	-0.13686362
158	0xbcb4e636	-0.02208243
159	0x3ca9ad37	0.020712478
160	0xbe983f09	-0.29735592
161	0xbe584593	-0.2112029
162	0xbd749143	-0.059708845
163	0x3e947119	0.28992537
164	0xbcb50823	-0.022098606
165	0x3e5d097d	0.2158565
166	0xbeb5e28d	-0.35524407
167	0x3d7dbd75	0.06194826
168	0xbd624a8c	-0.055246875
169	0x3d5d1d5a	0.05398307
170	0xbdeca0a1	-0.11554075
171	0x3ce953e2	0.028482381
172	0x3d976a4b	0.07393321
173	0x3f46f76b	0.7772128
174	0xbce5afc0	-0.028037906
175	0x3dbfc40c	0.09363565
176	0xbf308e8a	-0.689675
177	0x3e469cf6	0.19395813
178	0x3c8712ad	0.016488397
179	0xbe4bbfd4	-0.19897395
180	0x3d2e82ac	0.042605087
181	0x3cb5e818	0.022205397
182	0x3d5c9587	0.053853538
183	0xbd1e149a	-0.038593866
184	0x3e006403	0.12538151
185	0x3e9fc8e4	0.31207955
186	0xbd2ec763	-0.04267062
187	0x3e2e0227	0.16993009
188	0x3dcffa25	0.10155133
189	0x3da8d7ef	0.08244311
190	0x3ddb961c	0.107219905
191	0x3e94f237	0.29091045
192	0x3d06526b	0.032793444
193	0xbe3431a2	-0.17597058
194	0xbb8bd371	-0.004267149
195	0xbd2224a7	-0.039585736
196	0x3a9ac7c1	0.0011808799
197	0xbdb1dd72	-0.086848155
198	0xbd8a8892	-0.0676433
199	0x3ceda5ba	0.029009689
200	0x3d0785eb	0.0330867
201	0xbce4a287	-0.02790953
202	0x3c34a09a	0.0110246185
203	0xbd5fd5de	-0.05464732
204	0x3dba980d	0.09111033
205	0x3bd7c770	0.006585054
206	0x3d64f43d	0.055896986
207	0xbd1610da	-0.036637165
208	0x3c20b550	0.009808853
209	0xbe277d5d	-0.16356416
210	0xbd06df4b	-0.032927793
211	0xbd921e51	-0.07134689
212	0xbd9d7975	-0.07689182
213	0x3d216b76	0.039409123
214	0x3d8cc470	0.06873405
215	0x3decbee2	0.115598455
216	0xbda9805d	-0.082764365
217	0xbe275ef0	-0.1634481
218	0xbc0d3ea0	-0.008620888
219	0xbe1fbd1f	-0.15599488
220	0xbccbe311	-0.024888547
221	0x3d07e393	0.033176016
222	0x3d6996fb	0.05702875
223	0xbe191145	-0.14947994
224	0x3dfa9655	0.12235705
225	0xbe09d96e	-0.13461849
226	0xbdbf11a9	-0.0932954
227	0xbd815e6a	-0.06316836
228	0x3de2a4ae	0.110665664
229	0xbe07f615	-0.13277467
230	0xbe1caea6	-0.15300998
231	0x3e1ab497	0.15107952
232	0x3c525f9b	0.012840177
233	0xbaca5147	-0.00154356
234	0x3d6e96cb	0.058249276
235	0xbdec7a69	-0.115467854
236	0xbd86ca52	-0.06581558
237	0x3de90101	0.113771446
238	0xbd0809cf	-0.03321248
239	0x3dd0a895	0.101884045
240	0x3da9d88b	0.082932554
241	0x3d5b9ccc	0.05361633
242	0xbe0e7269	-0.13910832
243	0xbdef2990	-0.11677849
244	0x3d2228fa	0.03958986
245	0xbe2b257a	-0.16713515
246	0xbc4281e9	-0.011871793
247	0xbd92615a	-0.071474746
248	0x3d013294	0.031542376
249	0x3d169896	0.03676661
250	0x3da3c6ce	0.07996903
251	0x3c964289	0.018342273
252	0xbd2709e4	-0.040780917
253	0x3e1ed47a	0.15510741
254	0xbc01f43e	-0.007931767
255	0xbe0f4bd6	-0.13993773

lstm.weight_hh_l1 f4 [256, 64]
0	0x3deefdb7	0.11669486
1	0xbea7189d	-0.32635966
2	0xbe8f6e56	-0.28013867
3	0xbe551c9f	-0.208117
4	0xb98707e9	-0.000257551
5	0x3d23049f	0.03979933
6	0xbde25276	-0.110508844
7	0x3efd7f4a	0.49511176
8	0x3e52beea	0.2058064
9	0x3e8236d4	0.25432456
10	0x3dddfd6e	0.108393535
11	0xbdd201eb	-0.10254272
12	0xbe2a1a20	-0.16611528
13	0x3e1ae0c8	0.1512481
14	0x3de2d2a9	0.110753365
15	0xbdd90b4d	-0.105978586
16	0x3d5c3b09	0.053767238
17	0xbd30d86a	-0.04317514
18	0x3d73c37f	0.05951261
19	0x3dbd318a	0.092379645
20	0xbd514ebb	-0.051100474
21	0x3e43c221	0.19117023
22	0x3e0ffcbd	0.14061256
23	0x3e2854ba	0.1643857
24	0x3d9c9170	0.076449275
25	0x3dcae8a1	0.09907652
26	0xbe4b1dfa	-0.19835654
27	0x3e26d7ab	0.16293208
28	0x3d2224ee	0.039586
29	0xbd9f1c91	-0.077691205
30	0x3e55ccd5	0.20878918
31	0xbda32ed0	-0.07967913
32	0xbe3a6e09	-0.18206038
33	0x3d728b00	0.059214592
34	0x3ca19651	0.019724997
35	0x3c876540	0.016527772
36	0x3e7962ff	0.2435417
37	0x3e91dfc9	0.28491047
38	0x3eb54dd3	0.35410938
39	0x3e8acca3	0.2710925
40	0x3dff57cf	0.1246792
41	0x3e004854	0.12527591
42	0xbe22edeb	-0.15911071
43	0x3e05593e	0.13022324
44	0x3cb8651a	0.022509146
45	0xbeb25089	-0.34827068
46	0x3ec7cff4	0.39025843
47	0x3dd409da	0.103534415
48	0xbe6e7f10	-0.23290658
49	0xbdb42bf1	-0.08797444
50	0x3e3fc9fc	0.18729395
51	0xbda48ac3	-0.08034279
52	0xbdcd917d	-0.10037515
53	0xbd26c933	-0.040719222
54	0xbe2defb6	-0.16985974
55	0x3e3fc932	0.18729094
56	0x3dc4595f	0.09587359
57	0xbe9f1828	-0.31073117
58	0x3d66c8d9	0.056343887
59	0xbe2c4834	-0.16824418
60	0xbd246537	-0.04013559
61	0xbd267a37	-0.040643897
62	0xbe64f184	-0.22357756
63	0xbe30a443	-0.17250161
64	0xbe4685bf	-0.19386958
65	0xbe2585d7	-0.16164337
66	0xbe062641	-0.1310053
67	0x3d3cab63	0.046061885
68	0x3e51f1da	0.20502415
69	0xbdaeb952	-0.08531441
70	0x3b2ff7f7	0.002685068
71	0x3e30ca7c	0.17264742
72	0x3e295cbf	0.16539286
73	0x3e3eba3e	0.18625733
74	0x3d7a56ea	0.061118044
75	0x3ccb4f6f	0.02481815
76	0xbd0f4d36	-0.034985743
77	0xbe64f37e	-0.2235851
78	0x3e55cd93	0.20879202
79	0x3e00ded8	0.12585008
80	0xbd1becb1	-0.038067523
81	0x3e0e1477	0.13874994
82	0x3d5e4f31	0.05427474
83	0xbdd5289d	-0.10408137
84	0xbd13deba	-0.03610108
85	0x3f336b38	0.7008548
86	0x3da8a108	0.08233839
87	0x3d920ee5	0.07131747
88	0xbc6131ba	-0.013744766
89	0x3c3bed5e	0.011470167
90	0xbda39b0e	-0.07988559
91	0xbc0654bc	-0.008198913
92	0x3da2e35f	0.07953524
93	0xb8efa1db	-0.00011426556
94	0x3e6a44c0	0.22877789
95	0xbded1b2d	-0.11577449
96	0x3d59189a	0.053001978
97	0x3d9dc74f	0.07704031
98	0xbc9990b4	-0.018745758
99	0x3e0e4661	0.13894035
100	0x3d4af9ca	0.049554624
101	0x3d417038	0.04722616
102	0xbd0b3745	-0.033988256
103	0xbd7f0cf0	-0.062268198
104	0x3c22d489	0.009938368
105	0xbee38c46	-0.44442958
106	0xbdad80fc	-0.084718674
107	0x3df9f2c9	0.12204511
108	0x3d81d578	0.06339544
109	0x3d185861	0.03719366
110	0x3df005ea	0.11719878
111	0xbb58439b	-0.003299928
112	0xbe78e10d	-0.243046
113	0xbcc56a04	-0.024098404
114	0x3b333e60	0.002735041
115	0xb9edc3e3	-0.0004535011
116	0xbd852f89	-0.06503207
117	0xbe5ca8e5	-0.21548803
118	0x3c9223c3	0.017839318
119	0x3d7fdb2e	0.062464885
120	0x3d2e2d2e	0.042523555
121	0x3daa365a	0.08311148
122	0xbb9b15bf	-0.004732817
123	0xbe100c22	-0.14067128
124	0x3df88d8b	0.12136372
125	0x3bab6429	0.005230446
126	0xbdc302b4	-0.09522
127	0xbdf73312	-0.12070288
128	0xbe155c34	-0.14585954
129	0xbdf92001	-0.121643074
130	0xbda13e32	-0.07873191
131	0xbd9c85de	-0.07642721
132	0x3c6a11fe	0.014286516
133	0xbe90da47	-0.28291532
134	0x3e80daf6	0.25167054
135	0xbdf43211	-0.11923612
136	0x3dea68d4	0.11445776
137	0xbccbd6fb	-0.024882784
138	0xbd6d6cb8	-0.05796501
139	0xbe636bdd	-0.22209115
140	0xbe0f505e	-0.13995501
141	0x3d204333	0.039126586
142	0x3e0b0201	0.13574983
143	0x3dc27ce8	0.0949648
144	0x3c97b5c9	0.0185193
145	0x3e4da5b6	0.20082745
146	0xbe30b16a	-0.17255178
147	0xbd41254c	-0.04715471
148	0xbdbc0cc3	-0.091821216
149	0x3f2be050	0.6713915
150	0x3e867778	0.26263022
151	0x3e3ed823	0.18637137
152	0x3defd0fd	0.11709783
153	0x3dd81614	0.10551086
154	0x3d42d724	0.047568455
155	0x3ea3a473	0.31961402
156	0xbcf6ead5	-0.030141274
157	0xbd9142ca	-0.07092817
158	0x3d3c1308	0.045916587
159	0x3e7866ad	0.24257918
160	0xbe09498b	-0.1340696
161	0xbcbc2fe8	-0.022972062
162	0x3cac079f	0.020999728
163	0x3e20a784	0.15688902
164	0x3db28fc7	0.087188296
165	0x3e5b5165	0.21417768
166	0xbded7c8a	-0.115960196
167	0x3e0ca189	0.13733496
168	0xbe0f4582	-0.13991359
169	0xbecc5883	-0.3991128
170	0x3c42080d	0.01184274
171	0xbe64443c	-0.22291654
172	0xbcf69269	-0.03009911
173	0x3c416704	0.011804346
174	0xbda2d80d	-0.07951365
175	0x3cd5e9f7	0.02611254
176	0xbdd75cf6	-0.10515778
177	0x3d912fdf	0.07089209
178	0x3db09742	0.086226
179	0xbe3a6c0e	-0.18205282
180	0xbddcbbd4	-0.10778013
181	0xbee815fa	-0.45329267
182	0xbe0fbcc2	-0.14036849
183	0x3bb7d5cb	0.005610203
184	0xbdc6c8ab	-0.09706243
185	0x3da265d9	0.07929582
186	0x3de4d919	0.111742206
187	0xbd2cdcf2	-0.042202897
188	0x3cdc6bce	0.026906874
189	0x3d8c82fb	0.0686092
190	0xbe61a856	-0.22036871
191	0xbd02dc9a	-0.031948663
192	0x3cc0242e	0.023454752
193	0xbdb35888	-0.0875712
194	0xbe38dac5	-0.18052204
195	0xbd5362bf	-0.051607843
196	0xbc888b0a	-0.016667861
197	0xbe2567aa	-0.16152826
198	0x3da9edee	0.082973346
199	0x3e875bd9	0.26437262
200	0x3e35b49e	0.17744681
201	0x3e107ce3	0.1411014
202	0xbc45c02e	-0.012069745
203	0xbe0aad46	-0.13542661
204	0xbdbe6728	-0.09297019
205	0xbd0302e1	-0.031985167
206	0x3d8fa8eb	0.070146404
207	0xbdc4b3e5	-0.09604625
208	0xbd9ec762	-0.07752873
209	0x3ca0f7de	0.019649442
210	0xbdc7fecf	-0.09765398
211	0xbb224629	-0.0024761057
212	0x3d960adb	0.07326289
213	0x3e9cc3bc	0.30618083
214	0x3d8545ab	0.06507429
215	0x3c076444	0.008263651
216	0x3adbbba4	0.0016764295
217	0xbd092717	-0.033484545
218	0xbdbabc9b	-0.09118005
219	0x3e3d7176	0.18500313
220	0xbd957349	-0.072973795
221	0xbbc4397b	-0.0059882975
222	0x3dab3570	0.08359802
223	0xbd52bd74	-0.051450208
224	0xbdd082c5	-0.10181192
225	0xbdbfcad7	-0.093648605
226	0x3d7a63a7	0.061130192
227	0xbcb0f8bb	-0.021602979
228	0x3e75dfe3	0.24011187
229	0x3dec34d3	0.11533513
230	0x3e0df3d7	0.13862549
231	0x3e8f099d	0.27937022
232	0x3e37007a	0.17871276
233	0xbd940509	-0.07227523
234	0xbe0c922c	-0.13727635
235	0x3d92dd90	0.07171166
236	0x3d802d3d	0.062586285
237	0xbe24b70b	-0.1608545
238	0x3e05ae0f	0.1305468
239	0x3da2e528	0.07953864
240	0xbdc8fe0e	-0.09814082
241	0xbb29cde8	-0.0025910083
242	0x3d060b64	0.032725707
243	0x3cbe6b84	0.023244627
244	0xbe479076	-0.19488701
245	0xbd944c08	-0.07241064
246	0x3c97b891	0.018520625
247	0xbd514041	-0.051086668
248	0x3d354ec3	0.044264566
249	0xbe589d51	-0.21153761
250	0xbd882088	-0.0664683
251	0xbd2bbce1	-0.041928176
252	0x3cfdb1f5	0.030968646
253	0xbc530791	-0.012880222
254	0xbd5aa965	-0.053384203
255	0xbe1599fd	-0.14609523

lstm.bias_ih_l1 f4 [256]
0	0xbfd95aaa	-1.6980793
1	0xbe08467c	-0.13308138
2	0xbf9b889d	-1.2151066
3	0xbfd55d3d	-1.6669079
4	0xbfcbd840	-1.5925369
5	0xbfe35508	-1.7760324
6	0xbff066f8	-1.8781424
7	0xbf2c3091	-0.67261606
8	0xbf9be9ab	-1.2180685
9	0xbf9be576	-1.2179401
10	0xbfdb5db3	-1.713797
11	0xbfd6a6c3	-1.6769642
12	0xbfdef770	-1.7419262
13	0xbfc9ddcd	-1.5770813
14	0xbfcd35c1	-1.6032029
15	0xbfe195f1	-1.7623883
16	0xbfe27e28	-1.769475
17	0xbfdb8bdf	-1.715206
18	0xbfd32e53	-1.6498512
19	0xbfd51353	-1.6646522
20	0xbfeef6c5	-1.8669058
21	0xbf31011d	-0.69142324
22	0xbff858f7	-1.940215
23	0xbfc586b6	-1.5431736
24	0xbfd5c597	-1.6700925
25	0xbfd2be95	-1.6464411
26	0xbfc145ea	-1.5099461
27	0xbfcf950e	-1.6217363
28	0xbfdba153	-1.7158607
29	0xbfd4b625	-1.6618086
30	0xbfd9770d	-1.6989456
31	0xbfd6265f	-1.673046
32	0xbfe35e5b	-1.776317
33	0xbfdedb1a	-1.7410614
34	0xbfcaf5b9	-1.5856239
35	0xbfe29fad	-1.7704979
36	0xbfc8837b	-1.5665125
37	0xbf917486	-1.1363685
38	0xbfd32acb	-1.6497434
39	0xbfbbec9b	-1.4681581
40	0xbfe1b77a	-1.7634118
41	0xbfdb8ef2	-1.7152998
42	0xbfd1f50e	-1.640291
43	0xbc0698a8	-0.008215107
44	0xbfde1a59	-1.7351791
45	0xbfb10793	-1.3830436
46	0xbe92015a	-0.28516656
47	0xbfd51f42	-1.6650164
48	0xbef7e440	-0.48416328
49	0xbfd51f2d	-1.6650139
50	0xbfcf3c99	-1.6190368
51	0xbfdd0383	-1.7266697
52	0xbfe95677	-1.8229512
53	0xbfe665c5	-1.7999808
54	0xbfd5b2d4	-1.6695199
55	0xbfdb8e27	-1.7152756
56	0xbfcd159f	-1.6022223
57	0xbea01429	-0.3126538
58	0xbfe8b6fc	-1.8180842
59	0xbfcf6ad7	-1.620448
60	0xbfd975c0	-1.698906
61	0xbfdc674d	-1.7219025
62	0xbfe61ca0	-1.7977486
63	0xbf12e917	-0.57386917
64	0xbf8063e6	-1.0030487
65	0xbdc82b79	-0.09773917
66	0xbebf66c9	-0.37383106
67	0xbf7a48fe	-0.9776763
68	0xbf826a86	-1.0188758
69	0xbf990af4	-1.1956468
70	0xbf2a6c68	-0.66571665
71	0xbef20b72	-0.47274357
72	0xbf2ec0e2	-0.68263066
73	0xbecb61a5	-0.39722934
74	0xbf0e3725	-0.55552894
75	0xbf9b2539	-1.2120734
76	0xbf698771	-0.9122229
77	0xbf72cfb5	-0.94848186
78	0xbf8c5637	-1.0963811
79	0xbf91441d	-1.1348912
80	0xbf8d9629	-1.106145
81	0xbfa99049	-1.3247157
82	0xbf8359c4	-1.0261769
83	0xbf8ac29c	-1.084064
84	0xbf81288f	-1.0090503
85	0xbfaf442a	-1.3692677
86	0xbf93d733	-1.1550049
87	0xbf7a5346	-0.97783315
88	0xbf8e6e91	-1.1127492
89	0xbf712aa9	-0.9420572
90	0xbf68a028	-0.9086938
91	0xbf94d005	-1.1625983
92	0xbf94bca1	-1.1620065
93	0xbf8266b6	-1.0187595
94	0xbf4abd51	-0.79195124
95	0xbf29b570	-0.66292477
96	0xbf829cf6	-1.0204151
97	0xbf94768c	-1.1598678
98	0xbf5c6f7c	-0.8610761
99	0xbedd9b12	-0.43282372
100	0xbf5fa56c	-0.8736179
101	0xbf578675	-0.8418954
102	0xbf89a0f7	-1.0752248
103	0xbf9831d1	-1.1890203
104	0xbf90b110	-1.1304035
105	0xbfac3397	-1.3453244
106	0xbf214c79	-0.63007313
107	0x3d257fa1	0.04040492
108	0xbf8f73fa	-1.1207268
109	0xbf7c7f39	-0.98631626
110	0xbe5d4083	-0.2160664
111	0xbf16f10d	-0.58961564
112	0xbe59834b	-0.2124149
113	0xbf6f00b1	-0.9336043
114	0xbf69241f	-0.9107074
115	0xbf2361b3	-0.6382095
116	0xbf8e49e2	-1.1116297
117	0xbfb6923b	-1.4263376
118	0xbf83bb11	-1.0291463
119	0xbfa084c8	-1.2540522
120	0xbf415175	-0.7551492
121	0xbddf0647	-0.10889869
122	0xbf95c7d3	-1.1701607
123	0xbf47d33c	-0.78056693
124	0xbf8d6716	-1.1047084
125	0xbf787199	-0.97048336
126	0xbfa17a7e	-1.2615507
127	0xbe0a6e39	-0.13518609
128	0x3cbe10e6	0.023201417
129	0xbc20221d	-0.009773758
130	0x3d0e7b6a	0.034785666
131	0x3c1bfa18	0.009520076
132	0x3dbd623b	0.092472516
133	0xbd8ea3bc	-0.069648236
134	0x3ca848bc	0.020542495
135	0x3c83a1c2	0.016068343
136	0xbdfe3735	-0.12412874
137	0x3c073aa9	0.008253732
138	0xbd8abc75	-0.067742266
139	0x3d7369e5	0.05942716
140	0xbcd51ba6	-0.02601416
141	0x3d5f2837	0.05448171
142	0x3da48b1c	0.080343455
143	0xbda58aba	-0.080831006
144	0x3d5a9b28	0.053370625
145	0xbd9f24c0	-0.077706814
146	0xbbe51776	-0.006991322
147	0x3d9094e7	0.07059651
148	0x3d0ce36d	0.034396578
149	0xbd973bda	-0.07384463
150	0x3da3d156	0.07998912
151	0x3d12b86b	0.035820406
152	0x3dc38fd4	0.095489174
153	0xbaf244b8	-0.0018483615
154	0x3d0bb81e	0.034111135
155	0xbdbbdceb	-0.09172996
156	0x3c18347a	0.009289855
157	0x3c53643f	0.0129023185
158	0x3cb55268	0.02213402
159	0x3d3a46ea	0.045477785
160	0x3c564544	0.013078038
161	0xbd944940	-0.07240534
162	0xbd14b7e6	-0.03630819
163	0x3d294f9f	0.0413357
164	0x3d6b41ae	0.057435684
165	0xbd7965a9	-0.060887966
166	0xbccd120d	-0.025033021
167	0x3d432fd4	0.047653034
168	0xbc21378e	-0.009839905
169	0xba8d46df	-0.0010778568
170	0x3dc8feb1	0.098142035
171	0xbd77222f	-0.060335334
172	0x3ca2646d	0.019823277
173	0xbd349ca8	-0.04409471
174	0x3d3e4952	0.046456642
175	0x3d1ea4bf	0.038731333
176	0xbd148312	-0.03625781
177	0x3d47f6fc	0.048819527
178	0xbd0b9fe2	-0.034088023
179	0xbd6ba676	-0.057531796
180	0x3d28e363	0.041232478
181	0xbb2db3d7	-0.0026504898
182	0x3cfea8b0	0.031086296
183	0xbdb4e657	-0.08832996
184	0x3de54fbb	0.11196848
185	0x3d6f1a3a	0.05837462
186	0xbc1e9775	-0.009679665
187	0x3c886d06	0.016653549
188	0x3ceefdf4	0.029173829
189	0xbcfd82bc	-0.030946128
190	0x3d88c012	0.066772595
191	0xbba59762	-0.0050534466
192	0xbfdc0bca	-1.7191098
193	0xbd4924a4	-0.04910721
194	0xbf8601a7	-1.0469254
195	0xbfd3f32a	-1.6558583
196	0xbfc73d28	-1.5565538
197	0xbfe791a8	-1.8091326
198	0xbfd9a795	-1.7004267
199	0xbee84224	-0.4536296
200	0xbf904235	-1.1270205
201	0xbfa1ddef	-1.2645854
202	0xbfe18377	-1.7618245
203	0xbfe23296	-1.7671688
204	0xbfdc6b5c	-1.7220263
205	0xbfce1c0f	-1.6102313
206	0xbfe3a83b	-1.7785715
207	0xbffe209a	-1.9853699
208	0xbfd7d581	-1.6862031
209	0xbfebdf3e	-1.8427503
210	0xbfd43946	-1.6579978
211	0xbfda165c	-1.7038074
212	0xbfdf5c23	-1.7449993
213	0xbf449672	-0.7679206
214	0xbfe2a252	-1.7705786
215	0xbfd6c975	-1.678023
216	0xbfd0e3f3	-1.6319565
217	0xbfe57496	-1.7926204
218	0xbfbdba81	-1.4822541
219	0xbfddbed0	-1.7323856
220	0xbfcba31c	-1.5909152
221	0xbfd94433	-1.6973938
222	0xbfce4e97	-1.6117734
223	0xbfe27231	-1.7691098
224	0xbfcd07fb	-1.601806
225	0xbfee5f01	-1.8622743
226	0xbfe47530	-1.7848263
227	0xbfd44eea	-1.6586583
228	0xbfbbfee4	-1.4687161
229	0xbfa4f020	-1.288578
230	0xbfc7bf97	-1.5605344
231	0xbfc29aa7	-1.5203446
232	0xbfcc1a67	-1.5945557
233	0xbfe44f74	-1.7836747
234	0xbfe75f0e	-1.8075883
235	0x3e618b6b	0.2202584
236	0xbfcb7565	-1.5895201
237	0xbf967d18	-1.1756926
238	0xbe80b7f1	-0.25140336
239	0xbfd631c8	-1.6733942
240	0xbef137eb	-0.47112975
241	0xbfe24d2a	-1.7679799
242	0xbfd0c94c	-1.6311431
243	0xbfdeab1b	-1.7395967
244	0xbfefcdd8	-1.8734694
245	0xbfe085e8	-1.7540865
246	0xbfdb274a	-1.7121365
247	0xbfe2210c	-1.7666335
248	0xbfe36212	-1.7764304
249	0xbd910e6d	-0.070828296
250	0xbfde61a2	-1.7373545
251	0xbfe04305	-1.7520453
252	0xbfdd7572	-1.7301466
253	0xbfde9b5b	-1.7391161
254	0xbfe44e71	-1.7836438
255	0xbee5e69f	-0.44902512
