Code/698/10step_5horizon/models/lstm_no_embed/10step_5horizon_RMSE_1.pth (torch, 206922 bytes, 10 tensors)

lstm.weight_ih_l0 f4 [256, 1]
000000 d7 14 b4 be 83 25 73 3f b5 03 d5 3e 2e 29 1f be
       -0.3517215 0.94979113 0.4160439 -0.15543053
000010 e9 fa c2 3f 2d 80 5f be 6d 46 46 3f bb fd 45 3f
       1.5232822 -0.21826239 0.7745121 0.77340287
000020 cc 40 84 3f 01 91 e3 bd a4 d8 bc 3e 07 28 b4 3e
       1.0332274 -0.11111642 0.36884034 0.35186788
000030 69 7f 16 3f 08 77 41 3f cd 74 a2 3f 2f 8b a9 3e
       0.5878816 0.7557225 1.2691895 0.33114
000040 44 d4 9a 3d 98 78 f8 3e 7a df 76 3b 3b ea c7 3f
       0.07560018 0.48529506 0.0037669824 1.5618356
000050 ec 4f 62 3e 67 4f de 3e f8 ff ef be 13 46 95 3e
       0.221008 0.43419954 -0.46874976 0.29155025
000060 09 85 f2 3e a9 f3 6a 3f 37 9b 38 be c8 96 0e 3f
       0.47367123 0.91778046 -0.1802796 0.55698824
000070 21 5d d8 3e f0 73 5a 3f ba 3d 81 3f 19 79 ac 3c
       0.42258552 0.85333157 1.0096962 0.021053838
000080 92 87 e1 3f d2 d5 c4 bd 39 86 3a 3f 2a 9a 7b 3f
       1.7619498 -0.096110955 0.7286106 0.9828211
000090 77 3c 11 3f 45 4d 8f 3f 3f 5c 11 3d 78 f1 36 3f
       0.5673289 1.1195456 0.035488363 0.714622
0000a0 ca 9f 57 3f 79 28 0e 3f 79 f0 fd bd ac 78 34 3f
       0.84228194 0.55530506 -0.12399382 0.7049663
0000b0 71 a4 fd 3e 54 03 69 3f 73 54 70 3f a1 e7 28 3f
       0.4953952 0.91020703 0.9387886 0.6597844
0000c0 25 a0 ae be d6 12 a9 3e 08 b1 59 3f 04 17 fd be
       -0.34106556 0.33022183 0.85035753 -0.49431622
0000d0 e9 55 da 3f 21 0d 93 3f c3 1f 64 bd dc e2 9d 3d
       1.7057468 1.1488382 -0.055694353 0.077092856
0000e0 40 35 98 bf bc 80 9a 3f 4d cd 81 3f 4b fa 0f 3f
       -1.1891251 1.2070537 1.0140778 0.5624129
0000f0 9a 4c 4d be e3 1d 40 3f 18 42 46 3e 50 97 a0 3e
       -0.20048752 0.75045604 0.1936115 0.31365442
000100 eb 9c 36 be 9e 7f d9 3e 8a f9 8f 3e 59 f0 8c bd
       -0.17833297 0.42480177 0.2812007 -0.0688178
000110 92 02 94 3e 02 da 6e be 02 d1 58 3f ed 68 03 bf
       0.2890821 -0.23325351 0.8469392 -0.5133198
000120 77 61 22 be 62 a4 b7 bd c0 77 03 3f 61 5b bf be
       -0.15857492 -0.089669004 0.513546 -0.37374404
000130 c5 54 65 3f 5d 83 0f c0 71 8e 9b bf 8a 49 18 3e
       0.89582473 -2.2423928 -1.2152845 0.14871803
000140 c1 07 68 bd dd bd b0 3e 27 01 c0 bd b6 7d 01 3f
       -0.05664802 0.34519854 -0.0937522 0.50582445
000150 8a cb 36 bf ca 9f 1b 3e 57 32 4b be 40 ee c8 3e
       -0.71404326 0.15197673 -0.19843422 0.3924427
000160 36 b0 05 3f 2f 83 c0 be 08 44 2d be d8 47 f2 bd
       0.52222 -0.37600085 -0.16920483 -0.11830109
000170 7c c0 3d 3e 7e 11 81 bc 8f ce d5 be ba 53 5a 3b
       0.18530458 -0.015755411 -0.41759154 0.0033314065
000180 20 a1 c2 3d fc ae a9 bc c0 81 30 bf 94 c0 80 be
       0.095033884 -0.020713322 -0.6894798 -0.25146925
000190 e5 af 18 3e a0 a4 2b 3f bf 3a 45 3e 9e ab 43 3f
       0.14910848 0.6704807 0.19260691 0.7643374
0001a0 d3 2a 65 bf 9b a9 d6 3e 22 71 7a bf 22 23 d1 3f
       -0.8951847 0.41926274 -0.97828877 1.6338847
0001b0 83 fb 8a bf 83 06 97 3e ae cb bc be 4f 0f c9 3e
       -1.0858005 0.29497156 -0.36874145 0.39269492
0001c0 ea 5c 3d be 95 bf 0b bf 00 94 ff 3e 1c 4f 91 be
       -0.18492475 -0.54589206 0.49917603 -0.28380668
0001d0 64 c8 38 bd a9 9c 29 be 1f 22 59 38 5c 32 b3 3d
       -0.045112982 -0.16563667 5.176861e-05 0.0874984
0001e0 0f 2e 68 c0 75 fb 48 bf e2 ec 3d 3e 71 a7 6a bf
       -3.6278112 -0.7850869 0.18547395 -0.91661745
0001f0 7a 69 33 be 73 78 55 3f b3 15 80 3e 19 19 42 3e
       -0.17520705 0.83386916 0.25016555 0.18954886
000200 98 89 5f be 74 85 4b c0 13 01 b3 bf e1 eb e0 3e
       -0.21829832 -3.1800203 -1.3984703 0.4392996
000210 8f ba 05 40 2e 70 d1 bd 00 ed 28 c0 62 48 94 3f
       2.0895116 -0.10226475 -2.6394653 1.158459
000220 ce 6b 0d c0 c2 15 e1 3e 15 48 b0 3f 19 91 8d 3f
       -2.2097049 0.43961912 1.3771998 1.1059905
000230 b9 4e eb 3f 81 32 1b c0 e9 58 06 40 6d 8d ae bf
       1.8383399 -2.4249575 2.0991766 -1.363691
000240 64 59 1d bf f4 8b 8c 3f 85 2b e1 3f c7 df 05 40
       -0.61464524 1.098021 1.7591406 2.0917833
000250 ed fd c6 bf 26 fc e6 bf 17 4d c7 3e f5 33 9f bf
       -1.5546242 -1.80457 0.38926002 -1.2437731
000260 42 a4 a3 3f 68 12 a2 3f 79 2a 17 bf 9c 46 89 bf
       1.2784503 1.2661867 -0.59049183 -1.0724673
000270 48 6f 7d 3f 1a a6 c5 bf de 18 d9 bf bc 4f 4a 3e
       0.98997927 -1.5441315 -1.6960714 0.19756979
000280 6f 56 f8 3f 50 5d 3d bf 2e 6a ae 3f 84 7f a2 bf
       1.9401377 -0.7397051 1.3626153 -1.2695165
000290 6b a5 a1 3f 37 1a f7 bf bf 73 71 bf ce c0 d6 3f
       1.2628607 -1.9304875 -0.9431724 1.6777589
0002a0 ed 19 cb 3f d7 17 ac bf 6f 06 3b c0 96 c9 71 40
       1.5867287 -1.3444775 -2.9222677 3.7779288
0002b0 ca 72 60 bf 69 dc ce bf a3 db 9e bf 85 96 c0 3f
       -0.87675154 -1.6161014 -1.2410778 1.5045935
0002c0 c8 9e ee bd e4 bc 79 bf a3 ae 37 40 1d a0 11 bf
       -0.11651379 -0.9755385 2.870034 -0.5688494
0002d0 ba 27 01 c0 49 fc d9 3f 9c f7 4e 3f 2d 75 2d bf
       -2.0180497 1.7030116 0.8084657 -0.6775692
0002e0 9e cf 78 c0 f3 e2 00 40 55 26 15 40 f4 7a e1 3f
       -3.887672 2.013852 2.3304646 1.7615647
0002f0 b7 68 c2 3e a1 95 71 c0 14 9f 93 bf da 80 85 3f
       0.37970516 -3.7747576 -1.1532922 1.0429947
000300 96 77 93 be 0d 84 8f 3f c7 80 c8 3e e5 c9 b8 bd
       -0.28802174 1.1212174 0.3916075 -0.09022883
000310 5a 8b ab 3f 82 e0 b2 be ba 7a 6f 3f 30 b5 36 3f
       1.3401902 -0.3493691 0.9354664 0.7137022
000320 53 8d 53 3f 33 5f 5b be bd 1f 0b 3f 91 a6 a4 3e
       0.8263752 -0.21423034 0.54345304 0.3215833
000330 8b 48 3d 3f a2 d3 a0 3f 02 2e c1 3f 6a 83 a0 3e
       0.73938817 1.2564585 1.5092165 0.3135026
000340 d3 61 05 3e a6 5a a7 3e 4d 2c d8 3d 7e 7c ec 3f
       0.13025598 0.32686347 0.10555325 1.8475492
000350 e7 fb da 3e ad fd 06 3f 59 d1 c3 be 5a 01 ce 3e
       0.4277031 0.5273083 -0.38245657 0.40235406
000360 5f 9d c2 3e f0 bd 6c 3f 93 cd 45 be 2d e1 43 3f
       0.3801069 0.9247732 -0.19316702 0.76515466
000370 d3 ae 85 3e ae 5c 72 3f 21 6b bc 3f 8d fa 15 3d
       0.26109943 0.9467267 1.4720193 0.036615897
000380 21 2f ca 3f 02 99 49 be 33 4e 5d 3f f7 dc 49 3f
       1.5795633 -0.19687274 0.8644745 0.7885279
000390 7c 66 e3 3e d9 f6 89 3f e4 9d 86 ba c5 5b 26 3f
       0.44414127 1.0778457 -0.0010270444 0.6498378
0003a0 38 2f 7c 3f 0d a8 fc 3e d8 eb bf bd c8 78 46 3f
       0.9850955 0.49346963 -0.093711555 0.7752805
0003b0 c2 e6 24 3f b2 71 4d 3f 06 65 74 3f ef c2 48 3f
       0.6441461 0.8025161 0.9546665 0.78422445
0003c0 2e d4 92 be 16 a5 ff 3e 86 21 36 3f 27 43 ef be
       -0.28677505 0.49930638 0.711449 -0.4673092
0003d0 72 57 03 40 13 75 94 3f 98 a4 00 3e 1f 8e 87 bb
       2.0522122 1.1598228 0.12562788 -0.004136815
0003e0 8e 4d 73 bf 7b ed b3 3f 12 ae 8d 3f af 29 64 3f
       -0.95040214 1.4056848 1.1068747 0.89126104
0003f0 80 fa 85 be 0d 63 5e 3f e0 39 95 3e f6 9b ad 3e
       -0.2616768 0.8686989 0.29145718 0.3390805

lstm.weight_hh_l0 f4 [256, 64]
000000 41 f5 cb bc 07 7d ca 3d 3f 45 8f bc a9 30 63 bd
       -0.02489722 0.09887128 -0.017489074 -0.055466328
000010 c9 be 12 bd 42 48 9f 3b 86 8e a1 bd 35 45 85 3c
       -0.03582648 0.0048609087 -0.07888512 0.016268352
000020 80 75 a1 bd 60 0e ac b9 e1 ab 35 be e0 16 ab 3d
       -0.078837395 -0.00032817107 -0.17741348 0.083539724
000030 30 69 cd bc 65 39 3a 3e b8 55 e7 bc 5a 51 90 bc
       -0.025074571 0.18185957 -0.028239116 -0.017616916
000040 01 49 6d 3d 52 98 f6 bd 53 c5 e1 3d 8c 1d e5 bd
       0.05793095 -0.120407715 0.11023965 -0.11187276
000050 f4 f6 3e 3e e2 d1 17 3c f5 9d 93 bd ab f8 37 3e
       0.18648893 0.009266349 -0.07207862 0.17965953
000060 71 b6 39 be 34 47 88 3d 6e 84 89 3d 27 06 c1 3c
       -0.18136002 0.06654206 0.06714712 0.023562504
000070 da 4f d5 bd c0 8c d4 3d 8b cf 08 3e 92 ec 21 bc
       -0.10415621 0.103784084 0.13360421 -0.009883063
000080 2a e8 94 bd 58 cc fb 3d 0e aa 03 be d6 59 8d 3a
       -0.07270844 0.12294835 -0.1285784 0.001078422
000090 a7 70 62 bd e9 5f 00 3e 56 9e b0 bb 58 c2 8a 3c
       -0.055283215 0.12536587 -0.005389969 0.016938373
0000a0 9e f2 da bd 53 17 5e 3c 4d 6d 20 3d d3 1a 94 bd
       -0.10690807 0.013555366 0.039166737 -0.07231679
0000b0 5c 75 12 3e 08 b1 a4 3d 81 d8 a4 bd 90 9e e0 3b
       0.14302582 0.080415785 -0.08049107 0.0068548396
0000c0 5a a6 e0 bd af 5e 84 bd 3a 0c cb 3c cc 7f 76 3c
       -0.10969229 -0.06463372 0.024786104 0.015045118
0000d0 ab db ac bd 92 dc 05 bc c9 60 df bc 0a 97 d1 3d
       -0.08440336 -0.008170264 -0.02726783 0.102338865
0000e0 56 58 41 be be 03 db bd 9b 2c 69 3d 18 d6 17 bd
       -0.18881354 -0.10694073 0.056927305 -0.03706941
0000f0 bf 30 86 3c fe fb a3 3d 1f a0 5a 3d 0c bb 09 3d
       0.016380666 0.08007048 0.05337536 0.033625647
000100 c9 29 8b 3d 42 5c 2b 3f 30 8b a3 be fc 97 ed 3c
       0.06795079 0.6693765 -0.3194213 0.029003136
000110 5a 68 bd 3e 7f f3 85 bd cd 9b ec 3e ce 11 ff 3d
       0.36993676 -0.06540584 0.46212617 0.12454568
000120 df c3 2c be b7 1f e3 bc e0 62 1c 3e ff 7a 3f 3e
       -0.16871594 -0.027725084 0.15272093 0.18699263
000130 cd 49 85 bd 08 0e 36 3e c6 7d 43 bf 43 91 de 3c
       -0.06508217 0.1777879 -0.7636379 0.027168876
000140 85 17 9a bd e0 fe 04 3f 8a 5f 08 3d eb fd ad 3e
       -0.07524017 0.5195141 0.03329424 0.33982787
000150 ac db 74 3e 30 2f 90 3d 38 5c 3b 3d 49 08 48 be
       0.23911923 0.0704025 0.045742244 -0.1953441
000160 c6 70 4f 3e 24 2a 00 3f ed c8 9b 3c 29 14 a5 be
       0.20257863 0.500643 0.019016707 -0.32241943
000170 ce 31 95 3e 3c c0 3e 3d c3 68 4a 3e e0 39 2d 3c
       0.2913956 0.046570048 0.19766526 0.0105728805
000180 01 9c 00 bf 27 d8 8a 3b bb 16 27 be e0 22 e2 be
       -0.50238043 0.004237193 -0.16317265 -0.44167233
000190 ed e4 04 3d cf 53 65 be 18 48 72 be 71 b0 77 3d
       0.032444883 -0.22395252 -0.23660314 0.060471002
0001a0 f1 1a 5a be 24 61 8f be db 13 c8 3f 23 04 0c bf
       -0.2129934 -0.280038 1.563106 -0.5469381
0001b0 d5 9d 9c bd 05 36 bb be b0 e8 03 bf 3c 95 9e 3e
       -0.076472916 -0.3656465 -0.5152693 0.30973232
0001c0 1e 33 18 bd e3 00 fa 39 d0 5f 20 bf 8c 2b 9b 39
       -0.037158124 0.00047684376 -0.626462 0.0002959635
0001d0 e4 b0 1a 3e 99 f8 82 3d 17 a7 d9 3c c5 aa 57 be
       0.15106541 0.063950725 0.026568932 -0.21061237
0001e0 2f c7 7c 3f 8a 31 02 bf 2f f5 91 3e 66 41 bc be
       0.9874143 -0.5085684 0.28507373 -0.36768645
0001f0 78 8b 87 3e de e0 28 3f 4e d5 e1 be 5d 50 b3 3e
       0.26473594 0.6596812 -0.4410805 0.3502225
000200 fc e4 1d bb ab 4e d7 bd 45 92 f4 3d 1b f4 20 be
       -0.0024092784 -0.105130516 0.11941961 -0.15718119
000210 f1 fc 0a 3f b1 69 89 3d fa 87 35 be 2a 92 34 be
       0.5429221 0.06709612 -0.17727652 -0.17633882
000220 db 62 2b bf 37 26 e2 3b c4 cd 66 bc 60 a1 31 3e
       -0.66947716 0.006901528 -0.014087144 0.17346716
000230 30 84 19 3e 6d a0 1b 3f 15 62 f8 3e e9 c8 2c 3e
       0.14991832 0.60791665 0.4851233 0.16873516
000240 4e bb 42 3b 67 e8 18 be 75 91 bb bd a4 a5 1a 3f
       0.0029713693 -0.14932404 -0.09158603 0.60409
000250 ef ad 33 3e 1f df 0e 3e b9 df 9d bc 0d fe 08 3e
       0.17546819 0.13952301 -0.019271718 0.13378163
000260 9f e0 8b be 0e ea 96 3e 19 a7 41 3d 3b 88 a6 3b
       -0.2731981 0.29475445 0.047278497 0.005082158
000270 e1 8e c6 bc 43 3c 15 be 6f 8c 04 3e e4 f4 00 be
       -0.024238052 -0.1457377 0.12944196 -0.12593418
000280 3a 58 d2 3e c0 e3 c6 3b 06 fb 8b be c4 f5 2d bd
       0.41082937 0.0060696304 -0.27339953 -0.04247071
000290 a2 c4 18 be 10 64 9a be c5 ff ad 3d 0c 28 b0 3d
       -0.1491876 -0.30154467 0.0849605 0.08601388
0002a0 49 87 4d be 20 8e 3c 3d 15 bc e0 3e c5 e0 8e bd
       -0.20071138 0.04603398 0.43893495 -0.06976465
0002b0 0b 02 83 3e b1 1c 13 3d 03 20 b3 3d 0b 01 bc 3d
       0.25587496 0.035916034 0.0874634 0.091798864
0002c0 a0 72 31 bd 1c a5 c8 3d d2 fc 2c 3e a5 44 b6 bc
       -0.043322206 0.09797117 0.16893318 -0.02224953
0002d0 15 5f 19 bf 5f 98 a4 3e 8d a6 ea bc 5d 54 17 bc
       -0.5991071 0.321475 -0.02864387 -0.009236422
0002e0 83 5e 5b bf 08 f4 61 be fc 73 31 3f 11 04 e2 bd
       -0.8569109 -0.22065747 0.69317603 -0.11035932
0002f0 35 60 29 bc 1d 7a f5 3d 46 e4 5b 3d 4b 93 15 be
       -0.010337879 0.11986182 0.053684495 -0.14606969
000300 f6 69 fa bd f6 92 34 be f4 8e 64 3d f3 37 6d 3d
       -0.12227242 -0.17634186 0.055800393 0.057914685
000310 e6 ce 0f 3e 1e 2a 91 3c c3 cd f3 bd 84 b8 19 3e
       0.14043769 0.017720278 -0.1190448 0.15011793
000320 57 7b 1f be 87 b3 90 3d d0 a3 a6 bd bf 65 bb 3b
       -0.15574394 0.07065492 -0.081367135 0.005718916
000330 ff 28 24 bd 84 b8 8c be c4 40 05 3e 26 8f 8e bd
       -0.04007816 -0.27484524 0.13012987 -0.06960897
000340 8e c2 2f 3d 87 36 ad bd 75 67 16 3e 40 3a 08 bd
       0.04291015 -0.08457666 0.14687903 -0.033258677
000350 15 8c 8d 3d 7a 30 c4 bd cc 34 bd bd 84 2b 11 3e
       0.06911484 -0.09579559 -0.09238586 0.14176756
000360 e7 df cf bd be 6d 2c 3d 97 8a 14 3d a4 32 ae bd
       -0.10150128 0.042096846 0.036264982 -0.08505753
000370 a5 62 aa 3d e0 47 95 3d 3e 54 e4 bc 71 d7 28 3d
       0.08319596 0.072891 -0.027872201 0.041221086
000380 68 74 c6 3d d3 58 a2 3d 32 fb 5b 3d 7f 3f 9c bd
       0.096901715 0.07927098 0.053706355 -0.076292984
000390 54 44 6c 3d 0e 1d 89 bd 97 39 11 3e 56 a0 ba bd
       0.05768235 -0.06694995 0.14182125 -0.09112613
0003a0 51 5a 20 3e fa df cd ba 7d 39 cd bc cf de a7 3d
       0.15659453 -0.0015707009 -0.025051827 0.08196794
0003b0 95 45 31 be cf 46 e9 bc 0a 32 8a bd 13 24 ef 3d
       -0.173117 -0.028476147 -0.067478254 0.116768025
0003c0 f6 bb 9c 3d 32 bf e7 bd 70 ab 99 3d 9c 61 fc bd
       0.07653038 -0.113157645 0.07503402 -0.12323305
0003d0 5e 22 0b bd 0a ed 00 3e 7b 1c 8d 3d af 6d a4 3d
       -0.033968322 0.12590423 0.06890198 0.08028733
0003e0 9b 16 a0 be 75 da b2 3d 79 3f 78 3d 95 a8 16 3d
       -0.31267247 0.087330736 0.060607407 0.036781866
0003f0 bc 22 d0 3d 66 ce ed 3d 5d 12 25 bd 5a 89 de bd
       0.10162875 0.11611633 -0.040300716 -0.108660415

lstm.bias_ih_l0 f4 [256]
000000 8c ac 04 c0 80 95 62 be 06 18 ea bf 38 dc f7 bf
       -2.0730314 -0.22127342 -1.8288581 -1.936408
000010 0a 6e a8 bf 7b 5b f1 bf d5 87 8a bf cf 1e da bf
       -1.3158581 -1.8856043 -1.0822703 -1.7040652
000020 19 13 b1 bf 7c 42 04 c0 7c 01 fd bf 76 2c ee bf
       -1.3833953 -2.066558 -1.9766078 -1.8607318
000030 6d 92 c3 bf c3 8f b1 3e 30 5f 8a bd 61 ca ec bf
       -1.5279061 0.34679994 -0.06756437 -1.8499261
000040 ea 4e f3 bf bc 73 ee bf 98 0d fb bf e0 bb 92 bf
       -1.9008458 -1.8629069 -1.9613523 -1.1463585
000050 74 e2 db bf c6 e4 e7 bf dc d7 f9 bf 02 35 ec bf
       -1.7178483 -1.8116691 -1.9519 -1.8453677
000060 01 2d ec bf 9e 37 d9 bf 72 d8 ff bf 0b 9d ea bf
       -1.8451234 -1.6970098 -1.9987929 -1.8329176
000070 c6 32 f8 bf 76 7f d8 bf 01 1d 98 bf 47 fc 00 c0
       -1.9390495 -1.6913898 -1.1883851 -2.0153978
000080 d9 cb 18 bf 1d 58 07 c0 c0 a8 da bf fb 39 b4 bf
       -0.59686047 -2.114753 -1.7082748 -1.4080194
000090 4c 5b fc bf 5d e3 b4 bf 21 97 07 c0 22 66 e4 bf
       -1.9715362 -1.4131886 -2.1185992 -1.7843668
0000a0 9d 1a b3 bf ba c8 eb bf e2 f3 98 be 19 de 50 bf
       -1.3992497 -1.8420632 -0.29873568 -0.81588894
0000b0 23 14 f9 bf d8 98 e8 bf 2a 0b c8 bf b7 f8 e7 bf
       -1.945927 -1.8171644 -1.5628407 -1.8122777
0000c0 ac c8 eb bf fe 55 f2 bf 28 57 7e bf 3b fa fd bf
       -1.8420615 -1.8932493 -0.9935174 -1.9841989
0000d0 d7 84 25 bf ad bf 80 bf da 4d f1 bf 40 f2 05 c0
       -0.6465582 -1.0058495 -1.8851883 -2.0929108
0000e0 ba ec 5c 3e ba 99 1e bf 6e 66 95 bf 0c b7 91 bf
       0.21574679 -0.6195332 -1.1671884 -1.1383986
0000f0 3f 8a 00 c0 63 63 c5 be 44 30 fd bf 9c 1a ff bf
       -2.0084379 -0.3855239 -1.9780354 -1.9929996
000100 b8 d3 7b bf f0 6a 57 bf 95 25 70 bf 0c 4e 5e bf
       -0.9836993 -0.8414755 -0.93807346 -0.8683784
000110 2e 89 ae be 45 fb 72 bf a0 2a 1c bf 43 c8 54 bf
       -0.34089035 -0.94914657 -0.6100254 -0.83118075
000120 2d d8 dc be 78 20 6f bf 50 3c 23 bf b6 b6 85 bf
       -0.4313368 -0.9340892 -0.63763905 -1.0446384
000130 9d 9b 3a bf 01 8e f2 3c f1 12 a1 3e 8a 5f 4a bf
       -0.728937 0.029608728 0.31459764 -0.7905203
000140 7c da 71 bf 1a ab 6d bf 49 b7 5f bf 34 6f c7 be
       -0.94474006 -0.92839205 -0.87389046 -0.3895203
000150 72 18 13 3d 7a cb 55 bf fb 53 7f bf 30 05 48 bf
       0.035911985 -0.83513606 -0.9973752 -0.78132915
000160 97 7f 58 bf 5a 51 64 bf dd c5 70 bf 72 25 a6 bf
       -0.84569687 -0.8918663 -0.94051915 -1.2980177
000170 78 6b 6c bf 57 23 35 bf 05 90 1c 3e 06 06 80 bf
       -0.92351484 -0.7075705 0.15289314 -1.0001838
000180 93 bc 81 be 46 b9 6f bf 93 1b e6 be ca 98 5f bf
       -0.25339183 -0.9364208 -0.44942912 -0.8734251
000190 b7 d5 0d bf 01 4a 0a bf 84 6e 75 bf 7f 55 0e bf
       -0.5540423 -0.5401917 -0.9587176 -0.55599207
0001a0 ee a9 03 3e 60 89 57 bf d6 ef 5a bd 1d 1f b2 bf
       0.12857792 -0.8419399 -0.05345138 -1.3915745
0001b0 13 c2 46 bf 4e af 19 bf 72 2d 5c bf ef a7 ff be
       -0.77639884 -0.6003312 -0.86006844 -0.4993281
0001c0 45 34 67 bf 1e 3f 5a bf 2f 9a 39 bf 83 8b 84 bf
       -0.9031413 -0.8525256 -0.7250089 -1.0355076
0001d0 a8 11 05 be 51 e6 cb be 10 73 52 bf 70 12 70 bf
       -0.12995017 -0.39824155 -0.8220682 -0.93778133
0001e0 00 6b 29 3e 05 c7 06 3e 90 f9 f5 be 3f 87 6a 3e
       0.16544724 0.13161857 -0.48041964 0.22903155
0001f0 af d2 78 bf 4e 5f c0 bf 98 7b 5b bf 83 87 57 bf
       -0.9719648 -1.5029085 -0.85735464 -0.8419115
000200 99 60 26 3d 0c d6 4d 3e 92 07 49 3d 11 15 99 3c
       0.040619466 0.20101184 0.049079485 0.018686803
000210 d9 82 07 be 1f 28 76 bd 7b 0b ce 3d 41 ac d6 bd
       -0.13233508 -0.060096856 0.100607835 -0.104820736
000220 41 58 f7 3d d1 a3 b2 3c 72 ee a0 bd 36 c4 37 3d
       0.1207738 0.02180663 -0.0785798 0.044864856
000230 c7 6d d3 bd a9 67 55 bd 6e f3 b9 bc bb b8 49 3c
       -0.10323673 -0.05210081 -0.022699084 0.01231211
000240 3f 8f 4b 3b 9e 5c 94 bd ee 04 13 be 29 89 25 be
       0.0031060723 -0.07244228 -0.1435735 -0.16165604
000250 44 da ae 3d 28 bd c3 3b ce 9f 0c 3d 75 dd 02 3d
       0.085377246 0.005973477 0.03433209 0.03194948
000260 f9 d4 5f bd ce ab a8 bd 8c 14 93 3c 37 e9 e2 3b
       -0.054646466 -0.08235894 0.017954133 0.006924774
000270 90 5b 7a bc 8f 1c b2 3d 4c fc 0a 3d 3e 51 88 3c
       -0.015280619 0.08696853 0.033932015 0.016640302
000280 6c 96 6c bd c2 c5 f8 bb a0 a5 10 3d e5 da 3c 3c
       -0.05776064 -0.007591934 0.035314202 0.011526798
000290 f7 c2 8c bd a8 1b f4 bc d2 b2 37 3a e2 80 0f be
       -0.06873124 -0.029798344 0.00070075423 -0.14014009
0002a0 25 2a 86 bc a2 6a 96 3d 6f 76 92 bc 91 f8 11 be
       -0.016377518 0.07344557 -0.01787874 -0.14254977
0002b0 fc e3 80 bb 1b 00 e8 3d dc 26 1b 3c 31 39 a1 bd
       -0.003933428 0.11328145 0.009469714 -0.078722365
0002c0 7b 49 4f 3d 59 fd 60 3d 22 9d 01 be 5b 68 a9 bd
       0.050607186 0.05492911 -0.12657598 -0.08271857
0002d0 00 24 1a 3e 08 0e 61 bc c5 73 69 bd 7c 1a 7a 3d
       0.15052795 -0.0137362555 -0.056995172 0.061060414
0002e0 a5 17 3d 3e 01 43 4b bb ff e3 00 be 77 da 57 3d
       0.18466051 -0.003101528 -0.12586974 0.05269858
0002f0 71 41 cb 3b f8 08 fe 3d 66 c7 ce 3a 02 36 ca bd
       0.0062028696 0.124040544 0.0015775978 -0.098735824
000300 9d 52 f7 bf c6 ca db be 59 20 e9 bf 5f bf 08 c0
       -1.9322087 -0.4292814 -1.8212997 -2.1366804
000310 9a cd 99 bf 81 62 05 c0 a5 de 8a bf d2 8b d6 bf
       -1.201587 -2.0841372 -1.0849196 -1.676142
000320 9c 51 92 bf 68 12 fe bf bf 77 f5 bf c5 f5 e4 bf
       -1.1431155 -1.9849367 -1.9177169 -1.7887503
000330 0b 3f cc bf 0a 6e 51 3e 6f 0d 20 3e 1a bb f2 bf
       -1.5956739 0.20452133 0.15630125 -1.8963349
000340 62 30 05 c0 bb 1a 01 c0 f6 23 ed bf bd e8 7d bf
       -2.081078 -2.0172565 -1.85266 -0.99183255
000350 c8 1a ed bf 52 00 05 c0 6c 66 02 c0 7c eb fe bf
       -1.8523798 -2.0781446 -2.0375013 -1.9915614
000360 53 7d f0 bf 4a 68 d7 bf 28 12 06 c0 52 69 ed bf
       -1.8788246 -1.6828701 -2.0948582 -1.8547766
000370 48 8f 07 c0 b0 5c e2 bf e3 88 49 bf dc 86 fc bf
       -2.1181202 -1.7684536 -0.787245 -1.9728656
000380 e3 a5 07 bf 0b 88 f2 bf a3 55 dd bf 86 1d ad bf
       -0.529875 -1.8947767 -1.7291759 -1.3524635
000390 2b 93 e9 bf 55 70 b3 bf fc 55 00 c0 1a e5 e9 bf
       -1.8248037 -1.4018656 -2.005248 -1.8273041
0003a0 eb ef 87 bf 26 f9 e6 bf 42 ca 3d bd 75 67 35 bf
       -1.0620092 -1.8044784 -0.046335466 -0.7086099
0003b0 ca fb da bf 77 0a d7 bf 0d eb c6 bf 9d 30 f2 bf
       -1.710809 -1.6800069 -1.5540482 -1.8921086
0003c0 98 0d f2 bf 00 02 f3 bf 9f 7d 71 bf 51 d5 04 c0
       -1.8910398 -1.8984985 -0.9433231 -2.0755198
0003d0 1f b3 21 bf 7d 2b 8b bf b8 4e 08 c0 f7 16 04 c0
       -0.6316394 -1.0872647 -2.1298046 -2.0639017
0003e0 8e 80 47 3f 0d 73 c6 be c4 b2 88 bf 8f d2 57 bf
       0.77930534 -0.38759652 -1.0679555 -0.8430566
0003f0 39 ea f2 bf dc 19 f4 be 65 de ee bf 0f 13 01 c0
       -1.8977729 -0.4767598 -1.866162 -2.0167882

lstm.bias_hh_l0 f4 [256]
000000 e7 65 f1 bf 39 1b 96 be ae 42 e3 bf 22 98 f6 bf
       -1.8859223 -0.29317644 -1.7754724 -1.9265177
000010 c2 79 ad bf 97 09 05 c0 31 00 75 bf ed f5 de bf
       -1.3552783 -2.0787103 -0.9570342 -1.74188
000020 b3 3a a9 bf 9c 10 fd bf f3 57 00 c0 bc 1b f2 bf
       -1.3221039 -1.9770694 -2.005368 -1.8914714
000030 9b b2 c5 bf 31 37 bf 3e f7 24 b2 bd c6 02 03 c0
       -1.5445131 0.37346795 -0.08698457 -2.0470443
000040 1a 2b f2 bf 36 11 fb bf 2c 4a 01 c0 e6 af 93 bf
       -1.8919404 -1.9614627 -2.020152 -1.1538055
000050 ac f9 f7 bf d8 58 e9 bf 89 8d 01 c0 88 bd f2 bf
       -1.9373069 -1.8230238 -2.0242636 -1.896409
000060 3f 92 f0 bf b0 df d5 bf b8 d6 04 c0 27 6a ee bf
       -1.8794631 -1.6708889 -2.0756054 -1.8626145
000070 f0 f0 f5 bf 6c 39 e1 bf 53 e7 89 bf 2e 79 05 c0
       -1.9214153 -1.7595649 -1.077372 -2.0855212
000080 9f 05 06 bf 91 05 07 c0 c6 00 d5 bf c7 a0 a5 bf
       -0.5235233 -2.1097147 -1.6640861 -1.293969
000090 ca f7 fb bf 23 78 a7 bf 78 98 04 c0 20 7c e0 bf
       -1.9684994 -1.3083538 -2.071806 -1.753788
0000a0 d5 86 c0 bf 6c 60 d8 bf e8 a4 b0 be eb 01 2e bf
       -1.5041147 -1.6904426 -0.34500813 -0.67971677
0000b0 a9 ef ee bf b6 07 d6 bf be 9a d3 bf 3d 87 e6 bf
       -1.8666888 -1.6721103 -1.6531599 -1.8010021
0000c0 f0 ce 01 c0 dc 51 e4 bf dc 7f 52 bf 0c ae 05 c0
       -2.0282555 -1.7837481 -0.8222635 -2.088748
0000d0 b1 87 30 bf 5a a2 94 bf e1 7f 03 c0 f1 52 fa bf
       -0.6895705 -1.1612046 -2.05468 -1.9556562
0000e0 76 c3 eb 3c da a5 14 bf 1a a6 9b bf bc 7b 92 bf
       0.028779726 -0.5806557 -1.2160065 -1.1444011
0000f0 9c 7e 08 c0 3f 35 9c be e4 b3 f9 bf 49 4a fb bf
       -2.1327276 -0.30509374 -1.9508023 -1.9632045
000100 62 5b 5d bf 04 cc 3d bf fb be 4f bf e9 3e 8a bf
       -0.86467564 -0.7413943 -0.8115079 -1.0800449
000110 ac d2 f5 be 58 b1 83 bf 42 82 4d bf ad 22 32 bf
       -0.48012292 -1.0288496 -0.8027688 -0.6958416
000120 e1 13 00 bf e5 e0 81 bf b4 c2 37 bf ad d3 72 bf
       -0.5003033 -1.0146757 -0.7178147 -0.9485424
000130 cd 1b 32 bf 6a 3c 43 3d b1 eb 64 3e f4 6e 6f bf
       -0.6957367 0.047665037 0.22355534 -0.93528676
000140 ec 1a 71 bf e4 b7 6a bf 89 25 77 bf a6 41 94 be
       -0.94181705 -0.91686845 -0.9654165 -0.28956336
000150 36 86 ca 3d e0 ad 60 bf 2b 7a 5e bf ee 21 48 bf
       0.0988888 -0.8776531 -0.86905164 -0.7817677
000160 d7 b8 5d bf 6c 4f 6e bf 29 e1 7a bf f8 3b 89 bf
       -0.8661017 -0.9308994 -0.9799982 -1.0721426
000170 b5 08 84 bf cd d3 4c bf b5 e8 2c 3d f1 07 7c bf
       -1.0315157 -0.8001068 0.042214114 -0.9844962
000180 4d 42 e1 bd 55 ff 86 bf 1b e8 0e bf 4c d7 7e bf
       -0.10998974 -1.0546671 -0.55822915 -0.99547267
000190 97 6b 41 bf 2d 09 38 bf 62 a7 6a bf 9d f9 1a bf
       -0.75554794 -0.71889 -0.91661656 -0.6053713
0001a0 43 cb 19 bd 58 f3 24 bf 3c 20 87 3d 97 92 b0 bf
       -0.03754736 -0.64433813 0.06597945 -1.3794736
0001b0 e9 de 5a bf 78 e6 23 bf 63 0f 82 bf 8a 3d 2c bf
       -0.85496384 -0.6402354 -1.0160946 -0.672814
0001c0 16 bc 8c bf 86 4c 3d bf 4d 6a 49 bf 81 52 75 bf
       -1.0994899 -0.7394489 -0.7867783 -0.95829016
0001d0 f4 fb 26 be f3 e5 84 be d4 60 76 bf 61 1b 7c bf
       -0.1630705 -0.25956687 -0.962415 -0.98479277
0001e0 ce ee 14 3e 6d a5 8e 3e 89 78 01 bf aa 78 8a 3e
       0.14544222 0.27860585 -0.5057455 0.27045184
0001f0 93 2a 8e bf 0e 63 af bf 16 9b 6b bf bb 09 63 bf
       -1.1106743 -1.3702104 -0.9203352 -0.8868672
000200 07 2b 00 bd d1 c2 11 3d 83 ad 86 3d 85 cd 56 bd
       -0.031291034 0.035586182 0.065760635 -0.052442092
000210 2c 39 47 bc 74 c6 90 3d 65 4d 84 3d 31 c8 a6 3d
       -0.012159627 0.07069102 0.06460074 0.08143652
000220 12 05 03 3d a0 c5 27 bd fc 72 b7 bb de 90 fd bd
       0.031987257 -0.040959954 -0.005598424 -0.12381147
000230 b0 a0 c1 bb 9d ff 65 3d f6 f0 55 bd 6e 03 9b 3d
       -0.005909048 0.056151975 -0.05223175 0.075690135
000240 30 07 f7 3c b7 cd f6 bb fb 9c fe 3b db 03 39 3b
       0.030154794 -0.0075318473 0.0077701784 0.0028231058
000250 ca 42 1b be 8a 2a ed 3d ef 0f 85 bd a1 d3 7b 3d
       -0.15162197 0.11580379 -0.0649718 0.061481122
000260 e3 1a 18 bd d6 9b 87 bc 2b 86 c6 3c 00 4f 4e 3d
       -0.037135016 -0.0165538 0.024233898 0.05036831
000270 90 4b 44 bd 9d 23 f5 bc 12 6a 3f bd 3b cf 18 bd
       -0.047923625 -0.029924208 -0.046732016 -0.037307005
000280 06 e7 a0 bb f5 51 81 3d eb 12 a5 bd e3 70 4d 3d
       -0.0049103526 0.0631446 -0.08060249 0.050156485
000290 cd 0e e6 39 85 4c 0f 3e 50 c0 8d 3d b5 43 58 3d
       0.00043880046 0.13994034 0.06921446 0.052798945
0002a0 41 58 a1 3b e4 8a 23 3d 2a b8 39 39 05 8e 19 be
       0.0049238508 0.03992738 0.00017711581 -0.14995582
0002b0 1e a7 1e 3c 1a cd 5c bc 6b 66 73 3d ff fe e5 3a
       0.0096833985 -0.013476634 0.059423845 0.0017547308
0002c0 f5 4c 02 bd 2e 5e f8 bb 54 ba 84 bd 9b 9e f1 3d
       -0.031811673 -0.0075795865 -0.06480852 0.1179783
0002d0 9f f6 94 bd cf a2 00 bd f7 6a 27 3c 78 5e 01 bd
       -0.07273602 -0.031405266 0.0102183735 -0.031584233
0002e0 47 82 29 3e eb 60 06 bc b6 ce 0e bd d7 d2 38 bd
       0.16553603 -0.008201818 -0.034865104 -0.045122948
0002f0 a9 92 e8 bc ce 5c 19 3e 9c db ba 3d c2 e1 a0 3c
       -0.028390246 0.14976808 0.091239184 0.0196389
000300 9b bb 02 c0 52 d1 e4 be 8d 71 de bf 49 db 04 c0
       -2.0427005 -0.4469095 -1.7378403 -2.075884
000310 68 72 ac bf fe a2 fd bf 97 10 8d bf f8 c2 ea bf
       -1.3472414 -1.9815366 -1.1020688 -1.834075
000320 de 9e 90 bf c4 3d 00 c0 25 f0 f5 bf d1 62 fb bf
       -1.1298482 -2.0037699 -1.9213911 -1.9639531
000330 8b 17 d4 bf a8 a7 aa 3e 07 f0 2a bd a4 b7 f1 bf
       -1.6569685 0.33331037 -0.041732814 -1.8884168
000340 90 34 06 c0 d5 f5 f1 bf 96 b0 01 c0 eb ff 7d bf
       -2.0969582 -1.8903147 -2.026403 -0.99218625
000350 9a bc d1 bf 11 40 f0 bf 46 6b 01 c0 70 e7 f3 bf
       -1.6385682 -1.8769552 -2.0221725 -1.9055004
000360 f1 5f fb bf aa 89 bc bf 58 19 ff bf 36 ba f8 bf
       -1.9638654 -1.4729512 -1.9929609 -1.9431827
000370 c8 c1 00 c0 f6 6a d5 bf 85 1f 27 bf c7 02 01 c0
       -2.0118275 -1.6673267 -0.6528247 -2.0157945
000380 c7 7e d9 be 03 8e fa bf 7d 84 d7 bf ea 85 a8 bf
       -0.42479536 -1.9574589 -1.6837307 -1.3165867
000390 38 5b 02 c0 7f 27 b0 bf 9c 88 04 c0 3a 42 e8 bf
       -2.0368176 -1.3762053 -2.070838 -1.8145211
0003a0 29 70 81 bf dc f9 d7 bf 4d a9 4d be 87 e2 19 bf
       -1.0112354 -1.6873126 -0.20084114 -0.6011128
0003b0 d4 70 d7 bf 55 b0 df bf 73 0a d8 bf 31 81 e0 bf
       -1.6831307 -1.7475687 -1.6878189 -1.7539426
0003c0 14 80 fe bf f6 fa f8 bf 13 21 66 bf 0c 62 f7 bf
       -1.9882836 -1.9451587 -0.8989422 -1.9326797
0003d0 f1 d6 1a bf 9f 41 96 bf e0 3d 08 c0 6e 62 f4 bf
       -0.60484225 -1.1738776 -2.1287766 -1.9092538
0003e0 20 bf 38 3f 3a d6 03 bf 74 58 90 bf 83 ed 81 bf
       0.72166634 -0.5149876 -1.1276994 -1.0150608
0003f0 b1 04 fb bf fc 64 0d bf de 49 ff bf 1c 81 00 c0
       -1.9610807 -0.55232215 -1.9944417 -2.0078802

lstm.weight_ih_l1 f4 [256, 64]
000000 74 4d 62 be 8e c7 15 bd 3f 43 c8 3d 46 da af bd
       -0.22099859 -0.036567263 0.09778451 -0.08586554
000010 d2 2e 32 be f2 33 4f 3a 7f c8 f0 3c bf aa 1d be
       -0.17400673 0.0007904164 0.029392479 -0.15397166
000020 ae 56 85 bc b2 01 c5 3c 04 a6 e3 bc d2 b9 20 3e
       -0.016276684 0.02404866 -0.027789123 0.15695885
000030 28 fb a6 bd a7 00 7a 3d 01 ef 6a bd 6e 1b 14 bd
       -0.08153373 0.06103578 -0.057356838 -0.03615897
000040 e7 c8 2d 3e 14 b0 bd bd a0 2a e6 bd 54 92 2d be
       0.1697117 -0.092621 -0.11238599 -0.16950351
000050 14 8e 00 3e e0 11 de bb ee 53 ce bc b0 a1 bf 3d
       0.12554199 -0.006777033 -0.025186505 0.09357011
000060 b1 8e b8 3c a7 d4 06 be b4 bb e4 bc dc 02 50 bd
       0.022528978 -0.13167058 -0.027921535 -0.050783977
000070 7b 64 09 be 88 9a 9f 3c d6 7c 28 3e 58 f7 73 bd
       -0.13417237 0.019482866 0.16453871 -0.059562057
000080 89 44 47 be 3a 44 00 3e f0 2c 1c 3d 9a 13 3e 3d
       -0.19459738 0.12526026 0.038128793 0.046405412
000090 ce ba 26 3e f2 46 68 3d 86 5b 0a 3b 81 f2 15 be
       0.16282198 0.056708284 0.002111168 -0.14643289
0000a0 45 8a 8e 3d 51 17 9c bd 29 76 74 bc e3 01 5e be
       0.069599666 -0.07621635 -0.01492075 -0.21680407
0000b0 fa 37 8a 3c d1 14 40 3e 22 51 6b 3e 6b 95 60 be
       0.016872395 0.18757941 0.22980168 -0.21931998
0000c0 6f f0 2e 3d be 60 40 be b8 26 52 bd f6 4e bc bd
       0.042709764 -0.18786904 -0.051306456 -0.09194748
0000d0 11 70 f7 3d 68 61 2e be ee bf 9a bd a6 f7 eb 3d
       0.12081922 -0.17029345 -0.07556139 0.115218446
0000e0 6c a3 9f be 1b df 9b bd cd 1d 93 bd 6a 8b ec 3d
       -0.31179368 -0.07610913 -0.071834184 0.115500286
0000f0 d1 82 af 3d 6a 72 47 3d 8d 68 d6 bc be db 78 bc
       0.08569873 0.048693098 -0.0261729 -0.015189109
000100 76 16 02 3d 4d c3 df be 8b 44 cf 3e 18 f5 c9 bc
       0.0317597 -0.4370369 0.40481982 -0.024653003
000110 cc 4b 5c bf 07 6a 74 bd 71 25 49 bf 08 9c db bc
       -0.86053157 -0.059671428 -0.78572756 -0.0268078
000120 92 40 3e 3d 58 0d 60 bd f4 0f b3 3d 82 5a 01 be
       0.046448298 -0.054700226 0.08743277 -0.12632182
000130 31 57 96 3e f3 93 04 3f a1 23 87 be 8f f6 a3 bd
       0.29363397 0.5178825 -0.2639437 -0.08006012
000140 c1 c6 36 bd d6 68 7c be 62 f2 cd 3d 08 57 3d bf
       -0.04462314 -0.24649367 0.100559965 -0.73960924
000150 70 3a 2d 3e 40 57 b6 bd 5d 5f c5 3d b2 ae 80 bb
       0.16916823 -0.0890336 0.0963733 -0.0039270753
000160 af 24 e9 bd 2f bd 96 be 2f eb 80 bd 51 80 2b 3e
       -0.1138395 -0.2944121 -0.06294858 0.16748168
000170 70 3e 45 be 6f f8 77 be 65 e1 c9 3e e0 c5 6d bd
       -0.192621 -0.24215864 0.39429775 -0.058050036
000180 a9 c9 34 bf 82 a9 bc 3c aa 26 82 bd 29 a0 94 3e
       -0.7062021 0.023030046 -0.06355031 0.29028443
000190 6d 4e cb 3d 5b e9 7a 3d 28 61 cd 3d 84 10 d4 3e
       0.09927068 0.0612577 0.10028297 0.4141885
0001a0 48 70 a0 be 4b d9 80 3e 19 3a 43 bd 11 a3 a7 3f
       -0.31335664 0.2516578 -0.047662828 1.3096639
0001b0 db 09 e5 3d 43 79 b8 3d 7f f6 6b 3e aa 73 3c 3e
       0.111835204 0.09007504 0.2304325 0.18403497
0001c0 14 d1 8e 3c b6 a7 e1 3d 97 99 72 3f 51 0b 0c bd
       0.01743368 0.110183164 0.9476561 -0.03419048
0001d0 be 47 1b 3f aa 05 2b bf 78 a5 13 be 0d d7 3e bd
       0.60656345 -0.6680552 -0.1441859 -0.046591807
0001e0 60 d7 1e 3f 8c 57 68 be 9b dd a7 be a1 f1 3d be
       0.62047386 -0.22689646 -0.3278626 -0.18549205
0001f0 ed a9 0c bd 5b 8b 93 bf 5c df 3c 3e ef a5 30 bd
       -0.03434174 -1.1526903 0.1844458 -0.043126997
000200 e3 18 6e 3c ee b3 53 3e 35 61 ee 3c ec f6 9d bd
       0.014532301 0.20674106 0.029099086 -0.07713112
000210 dd f9 8a be c6 eb 94 bd ce f0 6a 3e 51 8c 31 be
       -0.27143756 -0.07271533 0.22943422 -0.17338683
000220 0e 66 cc bc 3a 01 ff 3d 00 6d 17 be 30 0c fa 3d
       -0.024951007 0.12451406 -0.14787674 0.12209356
000230 58 5e 8c bd e0 14 f7 3c 0b 09 ca bd 72 17 30 be
       -0.06853932 0.030161321 -0.09865006 -0.17196444
000240 c4 58 d5 3d 98 b7 22 bb 55 e6 bf bd 2a d2 56 bd
       0.10417321 -0.0024828669 -0.09370104 -0.05244652
000250 0d 90 48 bd 7e 41 88 3d 1b f2 88 bd 70 2e 31 3d
       -0.048965503 0.06653117 -0.06686803 0.043257177
000260 69 fe 3a 3d 15 af b7 3c 64 cd 65 3d 9d 21 95 3d
       0.04565278 0.022422353 0.05610408 0.07281802
000270 15 cb e4 bd 95 1b 0c 3e bd 8e 37 3e 61 e3 25 be
       -0.11171547 0.13682397 0.17925544 -0.1620002
000280 41 68 35 be ce d8 28 3e 00 1d 52 3d 5c a0 ce 3c
       -0.17715551 0.16488954 0.051297188 0.02522295
000290 6d 2f a4 3c dd a5 5b 3e 3e a6 f8 3d 23 47 57 be
       0.020042146 0.2144999 0.12141083 -0.2102323
0002a0 01 f3 ac bc cf 67 a8 3d 66 84 fe bd a8 49 6c be
       -0.021111967 0.08222925 -0.12427597 -0.23074973
0002b0 3f 20 31 3c 7d b8 97 3d 05 c4 92 3d dd 86 94 bd
       0.010810911 0.07408235 0.07166294 -0.07252286
0002c0 6a 33 8c 3a 4e fa 97 3d 6c 87 c7 bc de 3e 84 3d
       0.0010696475 0.07420789 -0.024356566 0.064573035
0002d0 e2 b0 0c 3e bd ad c0 bd b7 fc 29 3c 04 91 a3 3d
       0.1373935 -0.09408138 0.010375193 0.07986644
0002e0 e9 d8 ef bd 73 31 61 bd 8a ae 37 be e9 b4 00 3d
       -0.11711294 -0.0549788 -0.17937675 0.03142253
0002f0 4a 28 9b bd fb 47 7d 3e c0 e4 22 3d 8c 00 2c be
       -0.07576044 0.2473449 0.039768934 -0.16797084
000300 80 73 ba 3c ea b3 cd bd f7 6f 29 be 2b be b3 3d
       0.022760153 -0.100440815 -0.16546617 0.08776506
000310 44 b4 ae 3e 7b 33 29 be 91 44 18 be a6 73 e9 3e
       0.34121907 -0.16523544 -0.14869906 0.45596045
000320 63 07 9c be ca d7 ce bc 09 b2 87 3e 52 c9 91 3e
       -0.30474386 -0.02524938 0.26503018 0.28473908
000330 db 8a 9d 3d f0 c6 10 3f 99 7c 6a 3d 2c 5c bc bd
       0.076925 0.56553555 0.05724773 -0.09197268
000340 0b 7f 62 be b6 4b 00 3e 92 db 42 3d b0 07 86 3e
       -0.22118776 0.12528881 0.04757268 0.2617774
000350 b7 fc c0 bc f0 e7 e8 3b bc 08 31 3d 35 66 87 be
       -0.023558004 0.007107727 0.04322122 -0.26445165
000360 18 fb 91 3e 77 ed bf 3e 72 b8 c4 bd 21 79 b1 be
       0.28511882 0.3748586 -0.09605493 -0.34662727
000370 0b 3c 9e 3d fa 7f ab be 79 a1 fc bd 2e c5 43 3b
       0.07726296 -0.33496076 -0.12335486 0.0029872167
000380 f8 01 12 3e 49 50 9a bc 8a 19 bd 3e d1 fb 18 bf
       0.14258564 -0.018837111 0.36933547 -0.5975924
000390 11 74 4f 3e 51 f4 1b be 00 19 38 be 7d b6 77 3e
       0.2025912 -0.15229918 -0.17978287 0.24190708
0003a0 86 54 8a 3e 1e 9b 86 be 55 76 82 3f 51 1e 9b be
       0.2701761 -0.2629022 1.0192362 -0.30296567
0003b0 e6 99 c6 be 97 49 19 be ea 0c 10 bf e5 a3 93 3e
       -0.3878929 -0.14969479 -0.56269705 0.2883598
0003c0 b3 09 0b be a9 b7 83 be e4 5f 73 bd 07 c4 d6 3d
       -0.13577919 -0.2572606 -0.05941762 0.10486608
0003d0 40 3b 32 be 81 5b 44 3e 93 67 83 3e e7 b6 92 be
       -0.17405415 0.19175531 0.25664958 -0.28655168
0003e0 62 f0 9a bf ab 2a 94 bb 01 42 b4 3e be 20 1a 3d
       -1.2104609 -0.004521688 0.35206607 0.03762888
0003f0 bf 7b 03 3e 40 12 02 3f 75 77 8b be b8 c2 0c 3e
       0.12840174 0.508091 -0.27239576 0.13746154

lstm.weight_hh_l1 f4 [256, 64]
000000 ee ae a3 3d 30 c9 be 3d 23 c0 f1 bd c4 9f d6 3e
       0.079923496 0.09315717 -0.11804225 0.41918766
000010 42 6a 95 3d b9 06 3d be af ed 34 3e d1 ac 51 3e
       0.07295658 -0.18459596 0.17668794 0.2047608
000020 99 0b d0 3e 46 19 eb 3d d2 1d ca bd eb ce 29 3d
       0.40633848 0.1147943 -0.09868969 0.041457098
000030 0d 5b 88 3d 80 fa 7a 3e 69 1f 1c 3e d2 89 c0 bd
       0.066579916 0.2450962 0.15246357 -0.09401287
000040 19 b3 51 3e f0 38 9e 3e 28 60 b9 3d ed b9 2a be
       0.20478477 0.30902815 0.090515435 -0.16672488
000050 9c 30 b6 3b 03 c6 0b be fb 00 e2 bd ee 9e 40 3c
       0.005559994 -0.13649754 -0.11035343 0.011756642
000060 12 5b 1c 3d dd 7c cc bd 72 99 a1 bd e2 cd c9 3e
       0.03817279 -0.09984753 -0.078905955 0.3941489
000070 40 25 97 3e 0f db 83 3d f9 6a 68 bd 46 21 5b 3e
       0.29520607 0.064382665 -0.056742642 0.21399412
000080 00 5e 1d be d3 35 3f be 2a 22 2d 3e fb db 04 3c
       -0.1536789 -0.18672876 0.16907564 0.008109088
000090 d6 5a 68 bd 90 1f 15 be e0 75 75 3e ee c8 7d 3e
       -0.056727253 -0.14562821 0.23970747 0.2478368
0000a0 0b 3d 8c bc 5e 74 12 3e a3 cc bf be 4a 06 43 bd
       -0.017118951 0.14302203 -0.37460813 -0.04761342
0000b0 07 48 44 bd f3 4a 45 3d 8a fd 8a 3d ec bb 46 bc
       -0.047920253 0.04816718 0.0678664 -0.012129765
0000c0 6b b3 99 3d 77 87 5d be 72 9c a4 3d c2 b8 c9 3d
       0.075049244 -0.21633707 0.08037652 0.09849693
0000d0 5f a7 70 3c 83 b2 0d bd 2c e4 37 3d 45 e3 68 3d
       0.014688342 -0.03459407 0.044895336 0.056857366
0000e0 70 3d 10 bc 7e 3e b1 be ea 85 0a be be 88 e2 3d
       -0.00880371 -0.3461799 -0.13527647 0.11061238
0000f0 f7 cd c4 3d 0c 9b 29 be ad 45 ed 3d 27 51 dc bd
       0.09609597 -0.16563052 0.11585555 -0.10757666
000100 12 93 0c be 79 c7 88 3f 68 07 b2 bd 81 82 73 3f
       -0.13727978 1.0685874 -0.08692819 0.9512101
000110 8e 8b 0c bf c3 1b 5e be ce a2 4c 3e b2 39 64 3e
       -0.54900444 -0.21690278 0.1998398 0.22287634
000120 d5 70 15 3f fb ef a2 be 8d 26 99 3d c3 d6 cb be
       0.58375293 -0.31823716 0.07478056 -0.39812288
000130 da b6 0b 3e d0 19 21 3e 5a 02 52 3f e4 1b f5 3c
       0.13643971 0.15732503 0.8203484 0.029920526
000140 d8 e6 90 3f 69 b0 76 bf 4b 98 02 3d e4 04 76 be
       1.1320448 -0.9636293 0.03188352 -0.24025303
000150 99 9f f1 be 76 91 56 3e 2f a2 93 bc e1 32 11 3e
       -0.47192076 0.20953926 -0.018021671 0.14179565
000160 9e 18 47 3e aa 35 f7 3d 7d d4 2e be d4 e6 6a 3f
       0.19442984 0.120707825 -0.17073245 0.91758466
000170 5c 42 41 be 50 3a 88 3d ce 25 bc bc bc 21 20 be
       -0.1887297 0.06651747 -0.022967245 -0.15637869
000180 b6 bc c6 3d b9 37 71 bd 53 c9 ad 3b 20 60 5c bf
       0.097039625 -0.058891032 0.0053035407 -0.86084175
000190 a7 26 00 be e1 6e 19 bc e6 56 a2 bd 9a 34 c5 bd
       -0.12514745 -0.0093648145 -0.07926731 -0.096291736
0001a0 5e 18 04 3e 24 93 42 3f a2 66 5b be 61 ac 2a bf
       0.1289992 0.7600577 -0.2142587 -0.6666928
0001b0 d1 bf 93 bd 40 36 7a 3d be af ce 3e 2b 25 15 3f
       -0.072143205 0.061086893 0.40368456 0.5825984
0001c0 03 6f 10 bf 0c 7f 56 be b4 2f de bd 32 45 a2 3e
       -0.5641939 -0.20946902 -0.108489424 0.31693417
0001d0 16 89 c8 be 8f 22 a9 be c2 5b 23 3e 54 f3 c0 3e
       -0.39167088 -0.3303418 0.15952972 0.37685645
0001e0 45 01 55 3d 5c 79 9f bf 0a ca 73 bf ab 0f ba 3d
       0.052003164 -1.2458911 -0.9523016 0.0908502
0001f0 ec 77 be be 7a 9e 14 bf 06 f0 86 be a3 43 f9 bd
       -0.37200868 -0.58054316 -0.26354998 -0.12171104
000200 33 36 48 bd cd 8b 1a 3e e7 62 94 bd 3b 85 cd 3e
       -0.048879813 0.15092392 -0.072454266 0.4014071
000210 3a da f3 bd 4b 2c e4 bd 4f 66 98 3e a6 0d 98 3e
       -0.11906858 -0.11141261 0.29765555 0.29697913
000220 57 4d 92 3e f5 e1 f7 bc 05 d5 78 bd f2 f4 4c 3d
       0.2857463 -0.030259112 -0.060750026 0.050038286
000230 27 91 a8 bb 45 74 67 3e 3b b2 75 3e 3d d8 01 bd
       -0.0051442566 0.22602947 0.23993771 -0.03170036
000240 89 75 ac 3d 71 bd 5a 3e af 04 c8 bd d4 63 88 be
       0.084208556 0.21361329 -0.09766518 -0.26638663
000250 92 ec 0a 3e 05 3a a3 bd 0e e4 70 be 89 1e 18 bd
       0.13566807 -0.07970051 -0.23524496 -0.037138496
000260 de 44 0a bd fb dd f7 bd 99 1b b9 bc da ac 0c 3f
       -0.033757083 -0.12102886 -0.022596167 0.5495125
000270 ba c7 0e 3e f7 20 20 bc b2 95 a8 3d 94 d2 73 3c
       0.13943377 -0.009773484 0.08231677 0.014881749
000280 c1 33 8e bd 29 fe ca bd 75 bb c3 bc 0d 3e a3 3b
       -0.06943465 -0.099117585 -0.023893097 0.0049817623
000290 90 d6 d5 3d 57 35 e2 bc e0 54 02 3d 2b 54 9d 3d
       0.10441315 -0.027613325 0.031819224 0.076820694
0002a0 6b 59 30 bd f2 0a 5a 3c 4a f6 0e be 8d 2f 24 bd
       -0.043054026 0.013308274 -0.1396114 -0.04008441
0002b0 7c f8 cd bd 5f 6d 97 bd f8 61 85 bd 2f 24 33 bd
       -0.1005716 -0.07393908 -0.06512827 -0.04373568
0002c0 4e 8a 5b 3d 22 ab 40 be b9 b9 d3 bd 6a 53 c5 bd
       0.053598695 -0.18815282 -0.10338158 -0.096350506
0002d0 ff c0 a6 3d aa 10 0c be b4 42 83 3e 53 a2 fe bc
       0.0814228 -0.13678232 0.25636828 -0.031083262
0002e0 e0 55 09 be e8 29 13 bf 7d b6 53 be ef 1c ed 3d
       -0.13411665 -0.5748582 -0.20675083 0.11577784
0002f0 61 26 25 3a bc ca 35 be 75 8d f6 3c cf 82 0b be
       0.00062999694 -0.17753118 0.030096749 -0.13624118
000300 56 36 41 be e5 b4 44 bf 0a ae 5a be 98 f7 c8 3e
       -0.18868384 -0.76838523 -0.21355453 0.392514
000310 ab 82 0b bd 05 81 e1 3c 31 02 76 3e ef 3c 2d 3e
       -0.03406016 0.027527342 0.24024273 0.16917776
000320 7e f6 81 be f4 57 9f 3d bf 21 22 be ef ba 09 3d
       -0.2538337 0.077804476 -0.15833186 0.03362554
000330 56 64 63 be 14 6d 65 3e 96 b5 8c 3e d1 52 06 3d
       -0.22206244 0.22404891 0.2748229 0.032793824
000340 a0 41 00 3f e1 b7 9b 3d cc c7 6d be af 13 7b 3e
       0.50100136 0.076034315 -0.23220748 0.24519227
000350 cf 49 34 3f cf c4 69 3d e6 72 da bd 1a bc f1 bc
       0.7042512 0.057072457 -0.106664464 -0.02950864
000360 f5 69 3b be fd 54 e0 bd cc eb af bd b1 6e ec 3d
       -0.18302138 -0.1095371 -0.085898966 0.1154455
000370 08 e8 eb 3e 20 71 8d 3d 3a 4f 2c bc 92 ba a8 3e
       0.46075463 0.069063425 -0.010516936 0.32954842
000380 2d ce 22 3e 94 57 70 be b1 3c 76 3e c2 82 11 bf
       0.15898962 -0.23470908 0.2404659 -0.56840146
000390 8b 1b 8c 3e 48 7d 2a bd 8e 38 e9 bc cb 07 44 3e
       0.27364764 -0.041623384 -0.02846935 0.19143598
0003a0 49 10 8a bd e8 2e 13 bf 68 6f 32 3e 4d 3e 16 3f
       -0.067413874 -0.5749345 0.1742531 0.58688813
0003b0 f0 d9 7b bd 79 9d 6e 3e 00 26 6d bf dc d2 18 bf
       -0.06148714 0.23302259 -0.9263611 -0.59696746
0003c0 c9 77 79 3f 54 20 af 3d 4a fb 12 3d 07 be e8 bc
       0.974484 0.08551088 0.03588418 -0.028410925
0003d0 be c5 d6 3e d6 06 69 3d bc 8c 10 be 49 5a 5c 3b
       0.4194774 0.056891285 -0.14116186 0.003362315
0003e0 7f 68 85 3d 99 c1 88 bc 0d 44 3a be d8 1f bb 3d
       0.06514072 -0.016693877 -0.18190022 0.09136933
0003f0 55 cd e0 3d d7 4c 8e 3c 04 48 30 be 38 1d 8f 3e
       0.10976664 0.017370624 -0.17214972 0.2795198

lstm.bias_ih_l1 f4 [256]
000000 9d 48 07 c0 a4 b9 7f bd dd 12 08 c0 21 63 46 bf
       -2.113807 -0.0624329 -2.1261513 -0.7749501
000010 7c 0c e8 bf 0d c4 07 c0 5b 76 01 c0 33 3a 05 c0
       -1.812881 -2.121341 -2.0228488 -2.0816772
000020 26 5a f7 bf 0e 37 ca bf 93 1b 03 c0 b2 ae d3 bf
       -1.9324386 -1.5798051 -2.048558 -1.6537688
000030 b8 c6 02 c0 95 64 09 c0 5c b9 72 bc 82 06 08 c0
       -2.0433788 -2.146764 -0.014814701 -2.1253972
000040 cb 26 9c 3d 00 77 00 bf e1 03 f9 bf 82 a4 00 c0
       0.07624587 -0.5018158 -1.9454309 -2.0100408
000050 cb 1f e4 bf 86 6b 03 c0 2a 40 0b c0 31 fd 04 c0
       -1.7822202 -2.0534377 -2.1757913 -2.0779536
000060 e1 25 02 c0 55 f9 a9 bf 4d 51 f7 bf 09 c5 95 be
       -2.033562 -1.3279215 -1.9321686 -0.29251888
000070 97 a4 f9 bf 6a 20 02 c0 77 83 f6 bf 80 40 e3 bf
       -1.9503354 -2.0332284 -1.925887 -1.7754059
000080 4f 78 0c c0 aa 5a 0f c0 fe 18 e0 bf 4d c0 ad bf
       -2.194843 -2.2399087 -1.7507627 -1.357431
000090 0d 5c 0c bf d3 64 07 c0 70 66 05 c0 a1 46 02 c0
       -0.5482796 -2.1155288 -2.0843773 -2.0355608
0000a0 28 cc 05 c0 51 b4 64 bf c1 8c ff bf 7b 42 93 bf
       -2.0905857 -0.8933764 -1.996483 -1.1504663
0000b0 af 96 00 c0 13 cd f3 bf a1 a1 c1 be 7b 4f fd bf
       -2.009197 -1.9046959 -0.37818626 -1.978988
0000c0 a7 c1 30 bf 75 19 fb bf e7 67 e7 bf 4d c8 e9 bf
       -0.6904549 -1.9617144 -1.8078583 -1.8264252
0000d0 8b e2 b0 bf 61 27 ac bf 4e 4e e1 bf 44 2f ff bf
       -1.3819135 -1.3449517 -1.7602022 -1.9936299
0000e0 cf ff 08 c0 53 d6 c8 be 42 c3 1a bf bb 95 09 c0
       -2.1406133 -0.39226016 -0.6045419 -2.1497638
0000f0 bb 1d c2 bf e6 72 e3 bf e4 b0 04 c0 2a 1f e3 bf
       -1.5165323 -1.7769439 -2.0732965 -1.7743886
000100 06 4b 61 bf 09 7d 37 c0 cf 0c 75 bf 68 d5 3a bf
       -0.880051 -2.8670065 -0.9572267 -0.7298188
000110 63 e0 db bf d4 0b 8d bf 81 ba 85 bf e7 c5 76 bf
       -1.7177852 -1.1019235 -1.0447541 -0.96395725
000120 f7 74 48 bf 85 09 d5 bf 5f 1a 9a bf 15 71 d5 bf
       -0.78303474 -1.664353 -1.2039298 -1.6675135
000130 88 05 71 bf f2 67 8b bf d0 50 2e bf 29 4f 78 bf
       -0.94149065 -1.0891097 -0.6809206 -0.9699579
000140 25 25 fb bf 33 88 aa bf 0d bc 82 bf 58 f0 67 bf
       -1.9620711 -1.3322815 -1.0213639 -0.9060111
000150 2b b2 d5 bf 5a 77 8d bf 33 57 8a bf 33 67 9a bf
       -1.6694998 -1.1052048 -1.0807861 -1.2062744
000160 42 63 83 bf c1 90 fa bf 9e 11 4e bf ae c5 88 bf
       -1.0264666 -1.9575425 -0.8049563 -1.0685327
000170 49 6e 81 bf a8 cd 6a bf f1 62 86 bf a9 53 bb bf
       -1.0111781 -0.91720057 -1.0498945 -1.4634906
000180 76 c2 73 bf 98 d8 96 bf 91 b6 d6 bf 42 0b 99 bf
       -0.952186 -1.1784849 -1.6774465 -1.1956561
000190 76 98 15 c0 92 01 73 bf 4b 32 5f bf a2 b6 83 bf
       -2.3374305 -0.9492427 -0.87186116 -1.029011
0001a0 65 71 a4 bf 90 b1 32 bf 18 03 75 bf d3 2e 19 c0
       -1.2847105 -0.6980219 -0.95707846 -2.393483
0001b0 e4 76 73 bf 5e c2 47 bf 97 c8 11 c0 d1 ff b5 bf
       -0.9510329 -0.78030956 -2.277868 -1.4218694
0001c0 57 9a 0d c0 da b3 61 bf 7c 7a 42 bf dc 98 b0 bf
       -2.2125452 -0.88165057 -0.75968146 -1.3796649
0001d0 eb 45 de bf e9 25 44 bf 69 dd 48 bf 07 c3 82 bf
       -1.7365087 -0.76620346 -0.78462845 -1.0215768
0001e0 b6 d6 84 bf c8 0a 78 bf 85 71 ce bf 74 d4 62 bf
       -1.0378025 -0.9689145 -1.6128393 -0.8860543
0001f0 64 c7 e3 bf 46 bd c5 bf 18 c1 56 bf 61 1a c1 bf
       -1.7795224 -1.5448387 -0.8388839 -1.5086175
000200 ac b0 f3 bc af 06 11 be ec 5a 00 bd 5d ba 29 bd
       -0.02974733 -0.14162706 -0.03133671 -0.041437495
000210 1d 5d 31 3e be 0a a9 bb 4e 05 50 3d 9c a6 10 3d
       0.17320676 -0.0051587513 0.05078631 0.03531514
000220 60 3a 23 bd 10 8e 3c 3e 70 25 0a bd 1c d9 5c 3d
       -0.039850593 0.18413568 -0.03372711 0.05391799
000230 75 43 78 3d a1 c6 69 3c 7e 7b 50 3c ba 64 43 3d
       0.060611207 0.014268548 0.012724755 0.047703482
000240 a2 0c 97 bd b6 af 4c bd 0f 7d aa bc 15 e1 3c bd
       -0.073754564 -0.04997226 -0.020811586 -0.046113092
000250 be 96 b9 3d 19 f2 a9 bd 6b 0e 96 bd ce 7a aa bb
       0.09061955 -0.082981296 -0.07326969 -0.0052026277
000260 07 a3 b3 3d cf 95 a5 bd 58 9c f4 bd 88 a8 45 bc
       0.087713294 -0.08085214 -0.11943883 -0.012064107
000270 fe 01 ac 3d 69 d4 d2 3d ca f3 e6 3c 03 43 cb 3d
       0.083988175 0.1029442 0.02819242 0.09924891
000280 e3 25 d8 bd be f1 46 bd eb e7 0d 3e ab 69 78 3d
       -0.10554101 -0.048570387 0.13858001 0.060647648
000290 00 2b 12 3e 92 d0 ab bd 14 7f 0a 3e cc 52 8d 3c
       0.14274216 -0.08389391 0.13525039 0.017251395
0002a0 30 5f a5 bd e9 6d bf bd 2d 89 e9 3c 1c 76 e5 3d
       -0.08074796 -0.093471356 0.028507793 0.11204168
0002b0 2b 8f 0e 3d cd 41 f5 bd 8e 4d 00 be 37 fa 64 bd
       0.034804504 -0.11975441 -0.12529585 -0.055902686
0002c0 a8 30 a1 3d f7 94 19 bd c2 36 05 3d 62 37 43 3c
       0.078706086 -0.03749558 0.032522924 0.01191506
0002d0 43 84 ee 3c 72 7f b3 3d c5 ff 5c bc 9d 28 b5 bd
       0.029115802 0.08764543 -0.013488715 -0.08845637
0002e0 34 86 99 bd 6c ad 6e 3c 03 d0 06 3e e7 65 35 3c
       -0.074963 0.014567714 0.13165288 0.011071659
0002f0 2e 69 04 3e b3 4c 2f 3d 13 60 6d 3c 61 9b c6 bd
       0.12930748 0.042797755 0.014488238 -0.09697605
000300 ed 68 10 c0 7e 3c 03 3c b3 e0 01 c0 ff f6 31 bf
       -2.2564042 0.008010028 -2.0293396 -0.6951751
000310 0a 6c ee bf 71 3a 05 c0 a4 48 02 c0 12 97 08 c0
       -1.8626721 -2.081692 -2.0356836 -2.1342206
000320 b8 13 f2 bf 2b 44 df bf 73 fe fc bf 58 9f eb bf
       -1.8912268 -1.7442678 -1.9765152 -1.8408003
000330 09 20 02 c0 b4 f4 00 c0 5d da 15 3f b6 a2 0f c0
       -2.0332053 -2.0149355 0.5853632 -2.244306
000340 2b 48 09 3e 4c a3 04 bf 7d 5e f6 bf eb b1 01 c0
       0.13406436 -0.5181167 -1.9247586 -2.0264843
000350 81 e3 fe bf 10 0d 02 c0 e5 99 07 c0 e8 5e 08 c0
       -1.9913179 -2.0320473 -2.118768 -2.1307926
000360 a0 57 07 c0 00 f4 8f bf 9c 00 f7 bf f7 1b 79 be
       -2.1147232 -1.1246338 -1.9297061 -0.24327074
000370 1d de 07 c0 1e a0 03 c0 63 87 02 c0 4e 74 e3 bf
       -2.1229317 -2.0566478 -2.0395133 -1.7769868
000380 da 9e 0f c0 2b fc 02 c0 82 0f ee bf 8c 21 ca bf
       -2.2440705 -2.046641 -1.8598483 -1.5791488
000390 79 de 29 bf 4c aa 02 c0 c8 64 f8 bf 83 fb f7 bf
       -0.6635509 -2.041644 -1.9405756 -1.937363
0003a0 cd 49 fe bf e4 09 60 bf d6 2b f1 bf ec 1b 92 bf
       -1.9866272 -0.8751509 -1.8841503 -1.1414771
0003b0 01 cb 07 c0 3b 1c f6 bf 59 a5 f7 be 9c 2f f6 bf
       -2.1217654 -1.9227365 -0.48368338 -1.9233279
0003c0 72 1d 38 bf 4d fe 00 c0 fe 21 c5 bf 53 25 fd bf
       -0.7191993 -2.0155213 -1.5400999 -1.9777015
0003d0 ea 1e b7 bf 4e f5 b0 bf 9c 9f d9 bf 4b 8a fe bf
       -1.4306309 -1.3824861 -1.7001834 -1.9885954
0003e0 4f bf 0b c0 8c 53 57 be 73 d1 13 bf 88 f0 01 c0
       -2.1835515 -0.21027964 -0.5774147 -2.0303059
0003f0 78 07 cd bf ef e6 dd bf bd 1a 07 c0 8e d9 dc bf
       -1.6017904 -1.73361 -2.111007 -1.7253892
