Code/698/10step_5horizon/models/lstm_no_embed/10step_1horizon_RMSE_1.pth (torch, 205898 bytes, 9 tensors)

lstm.weight_ih_l0 f4 [256, 1]
000000 48 5d 02 bf be a5 2a be 57 b1 d5 bd 8e 58 63 bd
       -0.50923586 -0.16664788 -0.104342155 -0.055504374
000010 7b be 90 3d 42 01 fa be eb d9 96 be 68 99 e7 3b
       0.07067581 -0.48829085 -0.29463133 0.007067848
000020 5d 8e 96 be 15 9f 90 be b9 17 4b bd f8 c6 91 be
       -0.2940549 -0.2824637 -0.04958317 -0.28472114
000030 98 3e 12 be 54 d1 4a 3d c5 15 4c bc a3 f7 ee bd
       -0.1428169 0.049516037 -0.012456362 -0.11668327
000040 94 ff 05 be 3f fa d4 be db d3 c5 3c 2c f6 75 be
       -0.13085777 -0.41597173 0.024148872 -0.24019688
000050 b6 a0 19 3e 4b 13 38 be 97 64 df 3d d2 bd 91 be
       0.15002713 -0.1797611 0.10907858 -0.28465134
000060 3a db 01 be 79 4c d2 3e 3c 28 30 3e 1f 72 9c be
       -0.12681285 0.4107397 0.17202848 -0.30555817
000070 1f 4c 93 3e cc 7c 34 be c1 d6 20 3d 97 69 8e 3d
       0.28769013 -0.17625731 0.039267305 0.069537334
000080 51 24 3d 3e 28 39 1c 3e 62 38 ce 3c 32 80 89 3e
       0.18470885 0.15256178 0.02517337 0.26855618
000090 39 68 07 3d 98 a2 57 be 36 dc 1f bd 2d d8 f5 bd
       0.03305838 -0.21058118 -0.03902837 -0.12004123
0000a0 bb 05 a8 3e 49 56 d8 3d 13 88 2e bf 31 ab 1f bf
       0.32816872 0.105633326 -0.6817638 -0.6237059
0000b0 2e 34 16 be bd be 5d be e5 c2 18 3f 78 22 38 3e
       -0.14668342 -0.21654792 0.59672385 0.17981899
0000c0 06 72 ca bd 3e c2 e3 3e e1 10 c6 3e b2 53 c5 3d
       -0.098850295 0.44484133 0.38684753 0.09635104
0000d0 cc b2 de bc 96 d5 a7 3e 1a c1 b9 bd 59 3a c1 3d
       -0.027184866 0.3278014 -0.09070034 0.09434957
0000e0 5b b4 b2 be 10 42 15 3e 07 a6 95 3e d6 12 07 be
       -0.34903225 0.14575982 0.2922823 -0.13190779
0000f0 77 9d 80 3d 5c cf 10 be c6 f7 6a be 28 0a 10 3b
       0.06280034 -0.14141601 -0.2294608 0.002197871
000100 f9 24 35 be 42 e0 82 be d6 3b c2 3d 96 02 70 bd
       -0.17689885 -0.2556172 0.09484069 -0.058596216
000110 77 a1 af 3d cc fb 3c be 2b a4 05 be 41 4e 0e 3e
       0.08575719 -0.18455428 -0.13050906 0.13897039
000120 c7 c8 14 be 7c df 35 be 89 15 be 3d 9c 35 37 be
       -0.14529715 -0.17761034 0.09281451 -0.17891544
000130 05 18 ee bc 1b 9f 16 3e 8a fd b2 3d f0 1d b4 bd
       -0.029064188 0.14709131 0.08739765 -0.087947726
000140 23 6d 51 3c 0e 08 0e be 85 15 29 3e bc a6 44 3b
       0.012782368 -0.1387026 0.16512115 0.0030006608
000150 d1 2d 65 3e 17 12 8c bd 08 b7 6f 3e bd 48 06 be
       0.22380759 -0.06839388 0.23409665 -0.13113685
000160 52 84 98 bd 2a 75 02 3f eb 27 4f bd 91 41 21 be
       -0.07447113 0.5096003 -0.050575178 -0.15747668
000170 52 37 a8 3e 6e af dc bd 38 0e 98 3d c4 5f 90 3e
       0.32854706 -0.10775648 0.07424587 0.28198063
000180 aa 3c 91 3e 53 ff 9f 3d 87 28 6b 3d b8 ed be 3d
       0.28366596 0.07812371 0.057411697 0.09322685
000190 87 14 df 3d 81 d4 ae bd e5 0e 57 3c 0f 37 d1 3d
       0.10892587 -0.08536626 0.01312611 0.1021558
0001a0 45 33 2f 3e bb 34 f9 3d 58 54 2c bf 37 c2 2c bf
       0.17109402 0.12168261 -0.673162 -0.6748385
0001b0 98 f7 ec 3c fd c1 f7 bd 31 ba c4 3e bc 9f 8f 3e
       0.028926656 -0.12097547 0.38423303 0.28051555
0001c0 f9 cf 73 3d ce 88 8f 3e 62 41 e0 3e 95 79 3c 3e
       0.05952451 0.2803406 0.43799883 0.18405755
0001d0 a7 f7 73 be e2 74 20 3d c9 a3 93 bd 57 d5 96 3e
       -0.2382494 0.039173968 -0.07208974 0.2945964
0001e0 af 1f 57 be a3 af 8e 3e 6c 2f b1 3e 9a e0 ac 3d
       -0.2100818 0.27868375 0.34606493 0.08441277
0001f0 8f 7d 86 3e 69 dd 70 bd 06 1e 3f 3c 3c 30 63 be
       0.2626767 -0.058804903 0.011664873 -0.22186369
000200 55 68 ee bd 62 3a 23 be 64 7d 5d 3f 49 4a 46 be
       -0.116409935 -0.1594024 0.86519456 -0.19364275
000210 a8 20 f1 3e c3 fb 97 bf f5 c3 ab be f8 eb 22 3f
       0.47095227 -1.1873707 -0.3354794 0.6364131
000220 95 64 0a be 9c 46 4c bf 5d cd 1f bf ba a4 1d bf
       -0.13514931 -0.7979524 -0.62422734 -0.6157948
000230 31 9a 57 bd ab eb 9c 3e 1e dd 09 bf 39 e7 80 be
       -0.052637283 0.3064855 -0.53853023 -0.2517641
000240 27 ee 7c 3f 80 48 1a bf e3 7e 56 bf 14 29 c6 be
       0.9880089 -0.60266876 -0.83787364 -0.38703215
000250 a5 d7 7a 3f ce 95 cc 3d 3d c7 a9 3e 62 88 6d bf
       0.979853 0.099895105 0.3315982 -0.9278623
000260 95 a3 4e 3f df b1 61 3f 83 54 62 3f ed 67 36 3f
       0.80718356 0.88162035 0.88410205 0.7125233
000270 bf 5b 79 bf 5e 57 97 3f 92 ac 0f bf a5 d3 51 3f
       -0.9740562 1.1823537 -0.56122696 0.8196357
000280 ab 3a 6c bf 22 ad e3 be f9 71 62 3e 60 4d 70 3f
       -0.9227702 -0.44468027 0.2211379 0.93868065
000290 2b be d6 3e 57 2e 64 be 7e 9f 5d bf 0f a8 86 bf
       0.41941962 -0.22283302 -0.8657149 -1.0520037
0002a0 47 2f 15 bf 46 1f 86 3f 4b 1f 96 3f 8c ad 91 3f
       -0.58275265 1.0478294 1.17283 1.1381087
0002b0 1f 3e 4c bf 8a 75 11 bf 8b d5 33 bf b2 db 0a bf
       -0.7978229 -0.56819975 -0.70247716 -0.5424148
0002c0 7a aa ce 3e 2b e5 44 3f 10 6c 5f 3f e1 f5 7a bf
       0.40364438 0.7691218 0.87274265 -0.9803143
0002d0 d8 57 7c 3f 33 28 67 3f f6 e6 5d bf e5 a5 4f 3f
       0.9857154 0.90295714 -0.86680543 0.8111251
0002e0 ed 9e a6 3e fe a6 45 bf d4 be 88 3f 76 a2 be be
       0.32543126 -0.77207935 1.0683236 -0.37233323
0002f0 3c 78 79 3f eb 5f 0f bf 1c 79 6e 3e bb 6b 8a 3f
       0.9744909 -0.56005734 0.23288387 1.0814127
000300 b0 16 91 be 17 91 2c be ba eb 17 ba cf 89 1f bd
       -0.28337622 -0.16852222 -0.0005795319 -0.038949784
000310 3b 20 2a bc 4a 3b f1 be 18 85 8d be ca 14 3a 3d
       -0.010383661 -0.47115546 -0.27640605 0.045429982
000320 b7 d5 20 be ad 4b 64 be fc b1 11 3d ba 31 53 be
       -0.15706526 -0.22294493 0.03557013 -0.20624438
000330 47 4f a7 bd bb ec e3 bd 47 ac f8 3c 16 53 79 be
       -0.08169418 -0.11129137 0.030355586 -0.24348101
000340 fc 14 37 3c a5 26 02 bf 42 76 22 3e a9 5f 2f be
       0.011174437 -0.50840217 0.15865424 -0.17126335
000350 03 29 a3 3e 89 c9 23 be ea 67 eb 3d 29 1d 19 be
       0.31867227 -0.15994848 0.114944294 -0.1495253
000360 d7 a5 9b bd 89 14 f5 3e 1f 5b 93 3d f8 d1 98 be
       -0.07599991 0.4786723 0.07195114 -0.29847693
000370 97 21 d5 3e 02 f1 9b 3c 10 b4 5a bb fa 91 74 bd
       0.4162719 0.01903582 -0.0033371486 -0.059709527
000380 35 95 93 3e 95 98 5b bd 78 d1 cd bd 57 b0 88 3e
       0.28824773 -0.05361231 -0.100497186 0.26697037
000390 b8 11 32 bd 61 cc 8c be 22 c8 d2 3d 38 30 9f bd
       -0.04347393 -0.2749968 0.102920786 -0.07772869
0003a0 8f 00 ad 3e 59 d8 da 3c ab 38 19 bf d0 bf 0e bf
       0.3378949 0.02671449 -0.59852093 -0.5576143
0003b0 30 27 87 bd 6a 23 67 be 67 5e 10 3f ef 46 ad 3d
       -0.06599271 -0.22572103 0.56394047 0.08460795
0003c0 6a 3f 45 bd 74 81 f4 3e c7 ed 1c 3f d7 f1 99 3d
       -0.04815618 0.47755015 0.6130032 0.075168304
0003d0 8e 5f 6b be 4d 34 50 3e ff 2e 59 be 53 db 07 3e
       -0.2298567 0.20332451 -0.21209334 0.1326726
0003e0 4b 22 a6 be 8b 19 89 3d bd 2c fc 3e f8 97 db bd
       -0.32448038 0.06694325 0.49252883 -0.10722345
0003f0 dd 17 b0 bd 1f e9 12 be d7 55 26 be 84 93 80 bd
       -0.085983016 -0.14346741 -0.16243683 -0.062781364

lstm.weight_hh_l0 f4 [256, 64]
000000 2e ee c6 3d cd 1c 46 be 31 f6 ad bd a2 81 ed 3d
       0.09713398 -0.19346924 -0.08494223 0.11596991
000010 22 8f 36 be 98 24 81 bc 9e df a6 bd ee 21 8d bd
       -0.17828038 -0.01576452 -0.0814812 -0.06891237
000020 6b e5 29 39 ba a8 12 be 2d c9 8d 3c db 82 c3 3d
       0.00016202561 -0.14322177 0.017307842 0.09546443
000030 bc 58 d4 3d 15 7e f2 bd a5 76 89 bd e6 bf fc 3d
       0.10368487 -0.118404545 -0.06712083 0.12341289
000040 98 ad b6 bb ed ca 83 3d 87 29 85 3e 25 ea 07 be
       -0.005574893 0.064351894 0.26008245 -0.13272913
000050 d7 6d 43 be e6 e7 90 3d 73 4a 1f be e0 4f d4 3d
       -0.1908487 0.07075481 -0.15555744 0.103667974
000060 fe 8f 6b bd 84 25 38 be 4c c9 ee 3d 9e 82 0a 3b
       -0.05751037 -0.17983061 0.11659488 0.0021134983
000070 27 31 92 3d e9 91 b0 bc 42 b4 46 3e 8d 4d 6f be
       0.07138281 -0.02155395 0.194047 -0.23369427
000080 df 8a 42 3e e7 fd 3c 3e 27 04 ab 3a a3 8f 36 be
       0.18998288 0.18456231 0.0013047502 -0.1782823
000090 4c 23 59 be 34 56 0d 3d 78 31 fd 3b 87 8b 44 3e
       -0.21204871 0.034506038 0.0077268444 0.1919385
0000a0 50 b7 20 3e 18 f7 73 bd 92 45 d5 3d 2e 91 f5 3c
       0.15694928 -0.05956182 0.1041366 0.029976454
0000b0 46 4c e7 3d 14 57 eb bd 1e 6d ae 3d 1f 46 8a 3e
       0.11293845 -0.11491218 0.08516906 0.27006623
0000c0 70 1e cc bd 26 fd 5d bd 82 ac 1e be a3 26 e8 3d
       -0.09966743 -0.0541965 -0.15495494 0.11335494
0000d0 a7 b1 94 bd fd f8 f1 bd 29 92 96 3c b5 a1 f8 bd
       -0.07260447 -0.11815069 0.018380241 -0.12140218
0000e0 a7 d8 0d 3e 17 fd 20 3e 62 f9 a8 3d f6 b1 8b 3d
       0.13852178 0.15721546 0.08250691 0.06821053
0000f0 d6 b0 1c bd 55 ce 5c 3d 4a 5f 08 3d fd d3 c7 bd
       -0.03825458 0.05390771 0.033294 -0.097572304
000100 7d 02 96 bd 15 8a df bc 0f 17 84 bc 75 49 dd 3c
       -0.07324693 -0.027287522 -0.016124276 0.027012566
000110 ca 9b 4d 3b 19 b0 c8 bd 7c f5 f5 bc 8e ea 82 bd
       0.0031373375 -0.09799213 -0.030024283 -0.06392394
000120 0f 01 92 3d a3 b5 80 3c e6 2c 0b 3e 0b 8d 83 3d
       0.07129108 0.015711611 0.13591346 0.06423386
000130 fb bf 7d bc 3d 79 f9 bd b5 14 b4 3d 53 17 ca 3d
       -0.015487666 -0.121813275 0.08793012 0.0986773
000140 d6 60 a1 3d 34 47 59 bd a4 19 53 3e d3 35 a4 3d
       0.07879798 -0.05304642 0.2061525 0.08018079
000150 ee fc f6 bd 66 ea d8 3d ed a7 d1 bd bd 85 f9 bb
       -0.12059961 0.10591583 -0.102371074 -0.00761482
000160 f7 a8 c1 bd 09 ae 3a be 53 52 43 3d 10 87 86 3d
       -0.094560556 -0.18230452 0.047685932 0.0656873
000170 6c df 05 3e 32 31 bc bd f3 a3 35 3e 01 8f f3 bd
       0.1307351 -0.09189071 0.17738323 -0.1189251
000180 a0 65 07 3e aa 7a 24 bd 5c 64 58 3d 94 1d a4 3d
       0.1322236 -0.040156044 0.052830085 0.08013454
000190 4f 0c e5 3c 7d 9f a8 bc 23 91 c9 39 2a 2d 53 bd
       0.02795997 -0.020583862 0.00038445843 -0.051556744
0001a0 a4 13 89 3d bd 00 64 3d 82 f2 b0 bd 44 b9 08 3d
       0.06693199 0.055664767 -0.08640005 0.033379808
0001b0 3b fb f9 3d 2f ca e1 bd af fa be bc 58 41 27 3e
       0.122061215 -0.110248916 -0.023312895 0.1633352
0001c0 43 f4 f8 bd 48 71 de bd 9e f6 6d bb 5e c8 c4 3d
       -0.12155964 -0.108614504 -0.0036310325 0.096085295
0001d0 56 c8 64 3d 4c 04 41 bc f4 87 85 3d e6 8b 55 3c
       0.055855118 -0.01178081 0.065200716 0.013033843
0001e0 20 8e 0e 3e 16 1e ef bc 0c 31 5f 3d 3a 67 2b 3e
       0.13921404 -0.02918915 0.054490134 0.16738597
0001f0 7b fe 8b bd 8b 70 86 3d 31 c2 fc bd c7 e1 c1 3d
       -0.06835648 0.065644346 -0.123417266 0.09466892
000200 d3 f1 52 bd 9a 84 ef 3c 5e c6 f3 3d e5 96 23 3d
       -0.051500153 0.029238034 0.1190307 0.039938826
000210 e8 f3 a2 bd b8 f0 3c be 79 0d 95 3c b1 51 17 3e
       -0.07956678 -0.18451202 0.0181949 0.14777257
000220 4b e4 08 bd 95 ec fb bc 64 f9 cc bd ab 6d 0f 3d
       -0.033420842 -0.03075246 -0.10008505 0.035016697
000230 df 7d bc bd 39 09 5f bd 3c 6a 7d bc 33 7b 1d be
       -0.092036955 -0.054452155 -0.015467223 -0.15379028
000240 b4 dd 2a 3d 8c 58 fe 3d 16 57 11 be bd d4 95 3d
       0.04171534 0.12419233 -0.14193377 0.07315967
000250 54 e2 13 be a6 08 e4 3d 6d 67 ec 3d ac 8a e4 bd
       -0.14441806 0.11134462 0.115431644 -0.11159262
000260 67 51 e7 3d ce e8 91 3d 38 fe 04 bd c6 fd ef bd
       0.11294823 0.07124482 -0.032469004 -0.11718325
000270 e7 74 56 3e 02 ab 38 bd a6 62 18 be 28 6e 2c 3c
       0.20943032 -0.04508496 -0.14881381 0.01052431
000280 06 15 59 bd b4 bb 12 be 33 1e 69 3d fa 10 a2 bd
       -0.052998565 -0.14329416 0.056913566 -0.07913394
000290 e6 b4 e9 bc 30 95 3a bd 17 00 24 bd 73 9c 41 3d
       -0.028528642 -0.045552433 -0.04003915 0.047268342
0002a0 bd b7 bc bd 9c 3a 2c 3e 7c e8 2d 3c 02 2b 23 bd
       -0.09214733 0.16819233 0.010614511 -0.039835937
0002b0 bb 57 ef bd 0d 49 3d 3d ab 69 ef 3d 69 48 a3 bd
       -0.11686655 0.046212245 0.116900764 -0.079727955
0002c0 ee 2c 5c 3d ea f1 c4 bd 8e 96 b6 bc 62 b9 d9 bc
       0.053753786 -0.09616454 -0.022288587 -0.026577655
0002d0 4f 14 9b 3d b7 b8 4a 3e bd 8d c4 bd a6 64 12 3e
       0.07572233 0.19797026 -0.09597347 0.14296207
0002e0 af 4c 9f bd 35 5c 04 be f1 7a 11 be a9 14 2d be
       -0.07778298 -0.12925799 -0.14207055 -0.16902412
0002f0 7e 23 d2 3c 33 63 62 3d 19 ed ba bd 5e a6 01 3e
       0.02565169 0.055270385 -0.09127254 0.1266112
000300 68 e8 d9 3d c3 45 d4 3c 93 1e 71 3d fd 20 ee bc
       0.10640031 0.025912171 0.05886705 -0.029068464
000310 6b 02 e2 3c 82 88 27 be 91 c4 d8 3d 96 64 6c 3d
       0.027589044 -0.16360667 0.10584367 0.057713114
000320 47 50 a8 bc a9 38 81 3d 9d 4b 82 3d 38 76 cd bd
       -0.020546092 0.06309635 0.06362078 -0.10032314
000330 a3 0c 0f bd 9d fa 94 bd 29 94 57 3d d1 29 c7 bb
       -0.03492416 -0.07274363 0.05263153 -0.006077983
000340 9b 0e f7 3d bf 5b 06 be 0c 7b 92 bd 57 ca c4 3d
       0.12063333 -0.13120936 -0.071523756 0.09608906
000350 62 97 dc 3d e7 0d 17 3d 14 c3 bc bd f1 2d 4d bd
       0.107710615 0.036878493 -0.09216896 -0.05009264
000360 83 fc b4 3d 23 99 fd bd 4a 1c e3 3d 49 00 0c bd
       0.08837225 -0.12382724 0.1108938 -0.03417996
000370 f7 7e 09 3e e0 e9 8c bc 2e c9 02 bd cc dc 8b 3b
       0.1342734 -0.017201364 -0.03193014 0.0042682644
000380 6b 34 4a 3c 33 e8 5a bd 10 90 e1 3b 56 f8 a5 ba
       0.012341599 -0.0534441 0.0068836287 -0.0012662511
000390 20 ed 4c 3a 58 4b f1 bd 34 9b 0f be 3e 08 92 3c
       0.0007817317 -0.11781949 -0.14024049 0.017826196
0003a0 61 a6 37 3c ff 4d 90 3d ef 6e 10 3e 5d 9e 49 3e
       0.011209101 0.070461266 0.14104818 0.19689317
0003b0 a4 7c a6 3d e7 82 bb bc 15 0c 0a 3d bb 57 41 bc
       0.08129242 -0.022889568 0.03370293 -0.011800702
0003c0 5b 2a 7a bd ac f1 27 bc fe c0 b0 bd e4 81 ea 3d
       -0.06107555 -0.01025049 -0.0863056 0.11450556
0003d0 4f 12 22 3e 24 1c 56 3d a0 7a 25 3d f3 0e 35 be
       0.15827297 0.05227293 0.040400147 -0.17681484
0003e0 03 aa 13 bd aa f7 4d bd f8 01 88 bd 49 6b 05 3e
       -0.036050808 -0.05028502 -0.066410005 0.13029207
0003f0 e2 48 b8 bc 61 95 b5 bd ca b6 a6 3d 80 b9 16 3d
       -0.02249569 -0.088663824 0.08140333 0.036798

lstm.bias_ih_l0 f4 [256]
000000 aa b6 a8 bf db 78 ac bf 61 6d 78 bf 2e 3d b6 bf
       -1.3180745 -1.3474382 -0.970419 -1.423742
000010 53 3b 38 bf 62 cb 4f 3e 12 e5 aa bf 6e 2c 98 bf
       -0.7196552 0.20292428 -1.3351157 -1.1888559
000020 01 95 b8 bf 75 a0 a7 bf f3 be b1 bf 5d 28 99 bf
       -1.4420472 -1.3095843 -1.3886398 -1.1965443
000030 a6 a8 b5 bf b9 8d ab bf 79 56 b6 bf dc 37 ae bf
       -1.4192092 -1.3402625 -1.4245139 -1.3610797
000040 08 f6 5b bf 5b 85 a8 be 4a 1c 8d bf 02 3f a0 bf
       -0.8592229 -0.32914242 -1.1024258 -1.2519228
000050 ba 3c 17 3c a6 4f 9d bf 61 70 a8 bf 3d a5 7a bf
       0.009230787 -1.2289932 -1.3159295 -0.97908384
000060 19 21 a0 bf 67 7c 81 be c0 35 8a bf f9 04 a5 bf
       -1.2510101 -0.25290224 -1.0797653 -1.2892143
000070 3e 8b df 3a b5 04 34 3e b5 39 82 bf 50 39 8f bf
       0.0017055047 0.1757992 -1.0173861 -1.1189365
000080 ed a5 a3 3c de c7 a9 bf 97 ae ae bf 49 89 19 bf
       0.01997658 -1.326412 -1.364703 -0.59975106
000090 85 94 ba bf 81 c3 a6 bf 56 a2 68 bf 64 36 97 be
       -1.4576575 -1.3028413 -0.90872705 -0.29533684
0000a0 d3 99 50 bf 2f 6f 4a bd 28 bc ef be 0f cc 04 be
       -0.8148472 -0.04942244 -0.4682324 -0.12968467
0000b0 38 6c 81 bf 79 1a af bf 44 75 8b bd b4 0b af bf
       -1.0111151 -1.3679954 -0.06809476 -1.3675447
0000c0 39 af 93 bf 72 7c b9 bd 14 48 0b 3e 75 c7 ff be
       -1.1537849 -0.09056939 0.13601714 -0.4995686
0000d0 43 90 e6 bd 94 fa f6 be 61 8e 8e bf c2 f3 8f bf
       -0.112579845 -0.4823805 -1.11372 -1.1246264
0000e0 64 c6 a3 bf 55 c9 36 bf ee af 27 3e 7d d7 a8 bf
       -1.2794919 -0.7140096 0.16375706 -1.3190762
0000f0 e7 55 80 bf 82 47 af bf 9a 48 aa bf a3 ef 46 be
       -1.0026215 -1.3693697 -1.3303406 -0.19427352
000100 c1 e0 33 bf a3 5a 39 bf ba f3 9b be c5 f9 48 bf
       -0.7026482 -0.72403926 -0.30459386 -0.7850612
000110 04 ed 41 be 57 37 45 3e db 32 44 bf 1c 79 0a bf
       -0.1893807 0.19259392 -0.766401 -0.5409105
000120 b1 2d 60 bf 2d d6 d3 be bb 81 0f bf 71 16 35 bf
       -0.8756972 -0.4137434 -0.5605733 -0.7073737
000130 8e 54 3a bf fd ea 30 bf 99 61 38 bf 55 f4 48 bf
       -0.7278527 -0.69108564 -0.7202392 -0.7849782
000140 57 5b d9 be 10 fa a0 be 16 44 f2 be 14 ed 2d bf
       -0.424525 -0.31440783 -0.4731757 -0.6793988
000150 0a 5e 17 be f3 2b 44 bf e4 fe 14 bf 2c 15 83 be
       -0.14781967 -0.7662956 -0.5820143 -0.2560209
000160 c1 38 a6 be 8b 6c 2b bd f8 cb 8f be 6d ad d7 be
       -0.32465175 -0.04185156 -0.28085303 -0.421245
000170 02 d8 05 bc 15 e3 5e 3e c9 7c ac be 0f 22 9f be
       -0.008169176 0.21766312 -0.33688954 -0.31080672
000180 93 84 e8 3c 95 84 43 bf fb 05 4a bf c1 6f 64 be
       0.028383529 -0.7637418 -0.78915375 -0.22308256
000190 e1 c0 1e bf 50 9a 4a bf e9 b1 35 bf 73 43 90 be
       -0.6201306 -0.7914171 -0.70974594 -0.2817646
0001a0 f5 1c bf be ae f4 27 3d ed ff fe be e5 a5 c6 bd
       -0.3732678 0.04100483 -0.4980463 -0.096996106
0001b0 43 3d a4 be c0 86 13 bf ee f5 a1 3e 05 4f 35 bf
       -0.3207799 -0.5762749 0.31632942 -0.708237
0001c0 ac 92 42 bf 3c 9a 15 bd 6f 84 f8 bd 88 d3 c9 be
       -0.76005054 -0.036524042 -0.12134635 -0.39419198
0001d0 5e 61 86 be 6c af 94 be 37 55 ca be 65 8c 20 bf
       -0.2624616 -0.29040086 -0.3951814 -0.62714225
0001e0 1e 82 4f bf 50 d4 ce be cf 81 85 3e 05 d0 21 bf
       -0.8105792 -0.40396357 0.260756 -0.6320804
0001f0 d2 be f2 be 8e 2f 23 bf cc 64 5a bf a5 06 ac bd
       -0.4741121 -0.6374444 -0.85310054 -0.08399705
000200 55 bf ef 3c 50 57 41 3d 00 b3 09 be a1 9d 4b bc
       0.029266039 0.04720241 -0.1344719 -0.012427718
000210 da 51 f8 3c 22 5e 61 3d 34 b8 28 bd 87 cf 36 bc
       0.030312467 0.055021413 -0.041191295 -0.011157877
000220 dd ee 10 bd a5 1c 81 3d d8 7c 5d 3d 99 9c a7 3d
       -0.035384048 0.06304292 0.05407414 0.081841655
000230 91 b7 04 3d 49 6b e0 bc 64 a5 be 3d 3c c8 78 3d
       0.032401625 -0.027394908 0.093088895 0.060737833
000240 65 72 0a be 80 c0 94 3d 94 ba 25 3d b2 8f 9c 3d
       -0.135202 0.07263279 0.040461138 0.07644595
000250 bf 25 e3 bd 76 2b 50 bd 43 e4 6e bd 4b ae d9 3d
       -0.11091184 -0.050822698 -0.058323156 0.10628947
000260 36 b5 6e 3d af 91 46 bb 24 fd 65 bd bc f1 ea bd
       0.058278285 -0.0030299237 -0.056149617 -0.114718884
000270 82 85 47 bd d1 0b 86 bd 73 42 b8 3d cd 85 31 bd
       -0.048711307 -0.065452226 0.08997049 -0.043340493
000280 00 cb de 3d c3 03 a1 3c 28 07 69 bd 68 d0 e0 bd
       0.10878563 0.019655114 -0.05689159 -0.1097725
000290 50 7c 3b 3d 8c 36 16 3c 39 1f 4a 3d 36 27 66 bd
       0.04577285 0.009168278 0.049346182 -0.05618974
0002a0 12 86 4a bc e9 bb 02 bd 7d 5f 87 bd 25 3e c7 bc
       -0.012361066 -0.031917486 -0.0661001 -0.024321625
0002b0 6e 46 c1 3d 16 43 24 3d b4 cd 55 3b 6f b4 93 3c
       0.094372615 0.04010304 0.003262383 0.018030373
0002c0 5c 99 45 3b 96 72 4e bd b5 57 7a bd d4 4f 76 3d
       0.0030151224 -0.050402246 -0.0611188 0.060134724
0002d0 35 67 02 3d bf 8a 6d bd 7d fd 00 3e 4b 1f 09 bd
       0.031836707 -0.057993647 0.12596698 -0.03347711
0002e0 ee 9d b3 bd fd 84 eb 3d ce 4d b4 bd 37 1d b2 3d
       -0.08770357 0.11499975 -0.088039026 0.086969785
0002f0 ba 0b d7 bd a6 44 46 bd b9 34 49 bd 47 79 2e bd
       -0.105002835 -0.048405312 -0.049122546 -0.042596128
000300 38 af b5 bf 9e b6 97 bf e2 c9 8c bf 27 03 a4 bf
       -1.4194098 -1.1852605 -1.099911 -1.2813462
000310 f6 e2 6c bf fc fd b5 3d 0b 5b b1 bf f6 6d 93 bf
       -0.92533815 0.08886334 -1.3855909 -1.1517932
000320 b7 60 a6 bf 08 86 b4 bf 61 45 a1 bf 95 d8 9e bf
       -1.2998265 -1.4103403 -1.2599298 -1.2409846
000330 c5 83 a3 bf 30 49 b1 bf 55 e8 bf bf 83 89 a8 bf
       -1.2774588 -1.385046 -1.4992777 -1.3166965
000340 53 88 5e bf 47 87 71 be e0 60 92 bf 9e 6c a7 bf
       -0.86926764 -0.2358676 -1.1435814 -1.3080022
000350 ef de 1b bb c0 e6 aa bf 93 f1 ab bf 34 21 7d bf
       -0.0023784002 -1.3351669 -1.3433098 -0.9887879
000360 bf 04 85 bf a9 4a 66 bd 2d d1 7e bf 1a 3a 86 bf
       -1.0392073 -0.056223545 -0.99537927 -1.0486481
000370 a9 86 2d 3c b2 4b 53 3e 52 63 6c bf c9 7b 9a bf
       0.0105911875 0.20634344 -0.9233905 -1.2069026
000380 13 c1 5a 3e f1 a3 9d bf d6 9a a0 bf ba 08 fa be
       0.21362714 -1.2315656 -1.2547252 -0.48834783
000390 d1 cb aa bf 44 66 b6 bf fd 9f 73 bf 53 cc fd be
       -1.334345 -1.4249959 -0.95166 -0.4956995
0003a0 af b3 4d bf 78 40 7f bd 14 7b c7 be f6 d3 92 be
       -0.803523 -0.06231734 -0.3896109 -0.28677338
0003b0 56 8c 72 bf db 90 a6 bf 85 fa 44 3e 8a 8a b1 bf
       -0.94745386 -1.3012956 0.1923619 -1.3870404
0003c0 e8 35 9f bf 6d 7f c5 bd fa 3d 48 3d b8 8e d7 be
       -1.2438326 -0.09643445 0.04888723 -0.42101073
0003d0 ea a0 88 be 1a 04 d1 be ff 89 89 bf 59 3b 9d bf
       -0.26685268 -0.40823442 -1.0745238 -1.2283736
0003e0 ef 17 a9 bf 92 6e 35 bf d3 36 ba 3e 01 ef a9 bf
       -1.3210429 -0.7087184 0.36369953 -1.3276063
0003f0 5e 5d 8b bf 5e 39 b6 bf d2 80 ae bf c8 bd fb bd
       -1.0887868 -1.4236257 -1.3633063 -0.12292057

lstm.bias_hh_l0 f4 [256]
000000 92 81 b5 bf c7 a9 ab bf bf f9 89 bf 3a 3a b4 bf
       -1.4180167 -1.3411187 -1.0779341 -1.4080269
000010 33 32 2f bf a7 4f e7 3d 00 fd a5 bf cf 9f 88 bf
       -0.6843597 0.11294489 -1.2967834 -1.067377
000020 ed 13 a7 bf 95 b3 98 bf 49 f0 a7 bf f7 14 a2 bf
       -1.3052956 -1.1929804 -1.3120204 -1.2662648
000030 7a 43 a4 bf d3 b2 ac bf 37 1e 9f bf f6 ac a7 bf
       -1.2833092 -1.3492073 -1.2431096 -1.3099658
000040 02 48 66 bf 66 97 28 be 35 1d 87 bf ba 32 9e bf
       -0.89953625 -0.16464004 -1.0555788 -1.235923
000050 01 0e d8 3d 80 4f a9 bf ab 7f b1 bf c7 93 46 bf
       0.10549546 -1.3227386 -1.3867086 -0.7756924
000060 31 b3 9d bf b3 30 e8 bd d2 0e 80 bf e3 de 8c bf
       -1.232031 -0.11337414 -1.0004523 -1.100552
000070 d5 ec e0 bd 98 ee 72 3d f1 75 85 bf 4e 6b 89 bf
       -0.10982672 0.059309572 -1.0426618 -1.0735872
000080 e3 08 9c 3d f2 81 b8 bf 10 46 9d bf e3 d5 07 bf
       0.076188825 -1.4414656 -1.2287006 -0.5306074
000090 43 7a ab bf 83 8f a9 bf 34 57 66 bf f8 5b c0 be
       -1.3396686 -1.3246921 -0.8997681 -0.37570167
0000a0 7f 09 38 bf 0b ca 12 be 78 70 d2 be 73 06 b6 bd
       -0.7188949 -0.14334886 -0.41101432 -0.08887949
0000b0 e3 e6 6a bf c3 9e a2 bf f2 0e 91 3d 26 97 98 bf
       -0.91758555 -1.27047 0.07082929 -1.1921127
0000c0 91 d5 b2 bf c5 61 89 be 28 0d 77 3d 3e 95 ee be
       -1.3971425 -0.26832405 0.06031528 -0.46598238
0000d0 fc 1a 5b be 8b b5 06 bf 40 0c 8a bf 0c ed 8f bf
       -0.21397012 -0.5262076 -1.0784988 -1.1244216
0000e0 42 f4 b8 bf 61 8e 3c bf 3a 2e 3c 3e 11 e8 a1 bf
       -1.4449542 -0.7365475 0.18377009 -1.2648946
0000f0 53 60 8c bf 6e c4 a5 bf 84 31 af bf 37 d5 24 be
       -1.0966896 -1.295057 -1.3686986 -0.1609696
000100 c5 a0 54 bf b0 c3 5e bf a6 54 b7 be 7d ea 35 bf
       -0.83057815 -0.87017345 -0.3580677 -0.71060926
000110 72 9e 2c be ad 07 3a 3e 05 90 2a bf ae 33 2a bf
       -0.16857317 0.1816699 -0.66626006 -0.66485107
000120 37 70 57 bf 82 76 0c bf 99 0c 13 bf ab e8 12 bf
       -0.841556 -0.5486833 -0.574411 -0.57386273
000130 98 c6 36 bf f3 05 34 bf e3 06 3b bf dd 0b 48 bf
       -0.7139678 -0.7032158 -0.73057383 -0.781431
000140 a7 1b c5 be 38 62 10 be eb e4 03 bf 4e 27 00 bf
       -0.3849766 -0.14099967 -0.51521176 -0.50059974
000150 cc 2c 0b be 95 0f 4c bf 14 db 49 bf 18 cb 30 be
       -0.13591307 -0.79711276 -0.7884991 -0.17264974
000160 d7 2a 9d be 89 6e 14 be 02 d4 dd be 32 80 09 bf
       -0.30696747 -0.14495291 -0.43325812 -0.53711236
000170 e8 a4 a0 3c 61 d8 5a 3e ff fb 10 bf 99 ee cb be
       0.019609883 0.21371605 -0.56634516 -0.39830473
000180 b9 ee fd bd 41 3e 28 bf da 3f 30 bf f9 fc 81 be
       -0.12399048 -0.6571999 -0.6884743 -0.25388315
000190 2f 4d 12 bf 52 ce 40 bf 61 9d 2b bf 80 ff bc be
       -0.5714902 -0.7531482 -0.67037016 -0.3691368
0001a0 f7 1c c0 be 35 d5 d9 bb ca 2f f3 be 06 1e e2 3c
       -0.37522098 -0.0066477307 -0.47497398 0.027602207
0001b0 53 02 23 be ba ce 19 bf 11 af 3b 3e c7 74 3b bf
       -0.15918855 -0.60081065 0.18328501 -0.73225063
0001c0 0c 19 25 bf 99 6d 73 bd 5b e6 81 3d 33 ae 64 be
       -0.64491343 -0.059430692 0.06342765 -0.22332077
0001d0 08 a6 94 be 5c ff bb be 09 33 eb be ad b6 16 bf
       -0.29032922 -0.3671826 -0.45937374 -0.5887249
0001e0 9e 3b 31 bf 22 3e f9 be 8b 73 4d 3e 91 cd 22 bf
       -0.69231594 -0.48680216 0.20063607 -0.6359492
0001f0 68 ba d3 be 38 c6 20 bf 34 6c 2b bf 39 db 38 be
       -0.41353154 -0.6280246 -0.6696198 -0.18052377
000200 6e 1d ac bc c2 78 03 bd 19 87 1f 3d be 8f 0b 3d
       -0.021010127 -0.032097585 0.0389472 0.03407263
000210 1b 7b a2 bd 19 0b 96 3d a4 39 99 3d cd 9e 65 bd
       -0.07933637 0.073263355 0.07481697 -0.056059647
000220 05 f8 55 3d 05 36 bb 3c 75 29 72 3c 7e f0 8c bc
       0.052238483 0.022852907 0.014780392 -0.01720452
000230 c1 cc c9 bc 06 6d 08 bc 33 72 0c bd cb 05 07 bd
       -0.024633767 -0.008326774 -0.034288596 -0.03296451
000240 02 de fe 3c 9a cb b0 bc ec cc 4b 3d 64 63 1c bd
       0.031111721 -0.02158146 0.049755976 -0.038180724
000250 b4 88 c4 3b 88 40 18 3d ef c4 a9 3c 57 ee fb bb
       0.0059977416 0.037170917 0.020723788 -0.0076883244
000260 0e 4c 17 be 84 53 c6 bd c0 7b 1b bd 47 59 1c 3d
       -0.14775106 -0.09683898 -0.037959814 0.03817108
000270 ac 4d 14 3e 56 ca 70 bd 59 13 eb bc 97 3b 3e bd
       0.14482754 -0.058786713 -0.02869575 -0.046443548
000280 56 22 40 bc 66 e0 ff 3c 45 c0 fa 3c a4 06 0f 3c
       -0.011726936 0.031234931 0.03060926 0.008729611
000290 93 e1 bb bd dd b3 9e 3c a7 4a 2f 3d 7f 3a 2c 3e
       -0.09173884 0.019372875 0.042795803 0.1681919
0002a0 51 bb 96 3d 66 20 99 bd 61 be 7b bd 83 ae c9 bd
       0.073599465 -0.07476883 -0.061460856 -0.098477386
0002b0 57 e9 17 bc b8 28 94 3c 4e 6e 4a 3d 0d 78 31 3d
       -0.009271941 0.018085822 0.0494216 0.04332738
0002c0 c2 43 47 bd 3c 80 04 bd 0c 81 02 bd d8 ef 36 3d
       -0.048648603 -0.032348856 -0.03186135 0.044662327
0002d0 cd c4 02 be 03 48 18 bd a2 fe 03 bd f7 31 68 bd
       -0.12770386 -0.03717805 -0.03222526 -0.056688275
0002e0 54 d8 60 3d 0d 6c 0c bd ce 5b 9c bb fd ba 36 bd
       0.054893807 -0.034282733 -0.004771686 -0.04461192
0002f0 f1 70 82 3a 0b c1 e1 3d fb 1c b8 3c 66 af 93 bd
       0.0009951872 0.11023148 0.022474756 -0.07211189
000300 9a 79 a1 bf 89 fa aa bf f2 c3 96 bf 59 56 a5 bf
       -1.2615235 -1.3357707 -1.1778548 -1.2916976
000310 38 cc 69 bf 75 4b 84 3d c5 78 a8 bf a3 20 96 bf
       -0.9132724 0.06459705 -1.3161856 -1.172871
000320 31 55 a3 bf ec 74 b5 bf 0b 73 a1 bf b7 d1 9f bf
       -1.2760373 -1.4176307 -1.2613233 -1.2485875
000330 07 4c ae bf f4 6f ad bf 3d 77 aa bf 09 b9 a7 bf
       -1.3616952 -1.354979 -1.3317639 -1.3103343
000340 cb 68 53 bf da f3 9b be 2e 4f 93 bf 3a ce a7 bf
       -0.82581776 -0.3045948 -1.1508539 -1.310981
000350 e9 97 3a bd 30 7e aa bf 1d 34 a5 bf a8 73 4b bf
       -0.04555503 -1.3319759 -1.2906529 -0.7947335
000360 fd 7e 94 bf c6 8b 86 bd 8b e2 6d bf a2 0f 97 bf
       -1.1601254 -0.065696284 -0.929238 -1.1801646
000370 dd 54 9b 3d de d5 94 3e ec de 8c bf 11 b2 8b bf
       0.07584546 0.29069418 -1.100553 -1.0913717
000380 c5 51 2e 3e 05 55 b5 bf 18 2c b6 bf 79 24 24 bf
       0.1702338 -1.4166571 -1.4232206 -0.6411815
000390 e7 03 b7 bf 20 4c ba bf 72 d0 88 bf af 9c ac be
       -1.4298066 -1.4554482 -1.0688612 -0.3371329
0003a0 33 6b 64 bf 5e 11 27 be 7f 44 01 bf bf 02 1b be
       -0.89226073 -0.16315219 -0.5049514 -0.15137766
0003b0 6e ca 5e bf 8b a9 9d bf 3b c9 cf 3d 7a f5 a5 bf
       -0.87027633 -1.2317365 0.101458035 -1.2965539
0003c0 98 7d b0 bf b4 dc 77 be 14 91 5c 3e 78 91 f0 be
       -1.3788328 -0.24205285 0.21539718 -0.46985984
0003d0 e1 7d 30 be d2 1b a9 be 71 89 9c bf 88 1c 85 bf
       -0.17235519 -0.33029038 -1.2229444 -1.0399332
0003e0 01 d2 b9 bf 08 2d 36 bf 05 b4 29 3e c3 7f a8 bf
       -1.4517213 -0.7116246 0.16572578 -1.316399
0003f0 64 7a 8d bf cc 41 99 bf 80 f3 ad bf cd 64 54 bd
       -1.1052976 -1.1973205 -1.3589935 -0.051853944

lstm.weight_ih_l1 f4 [256, 64]
000000 d4 8a 74 3d 98 2f f5 3d 57 6d 83 3c d7 34 a0 3d
       0.05970271 0.119719684 0.016043348 0.078225784
000010 7c 11 d5 3d 3e 38 38 bd 93 dc 5a 3c e2 86 6a 3d
       0.104037255 -0.04497551 0.013358253 0.05725754
000020 bc 6f 8e 3d c8 d8 3d 3d 36 78 b8 3c 60 6d d6 bd
       0.069549054 0.046349317 0.022518259 -0.104700804
000030 39 85 80 bd af 41 90 bd 48 d4 16 bd 42 84 28 3b
       -0.0627541 -0.07043778 -0.03682354 0.0025713597
000040 6c 04 d0 3d 43 c4 8a bd 8c 7d 15 be 13 64 13 be
       0.101570934 -0.06775715 -0.14598674 -0.14393644
000050 6e e6 b6 3d 09 81 38 bc 27 03 11 3e 66 cd 1d be
       0.0893067 -0.011261233 0.14161359 -0.15410385
000060 ed da 03 3e 7b 2b 9d 3e 0a 39 ea 3d fd 26 38 3e
       0.12876482 0.30697235 0.114366606 0.17983623
000070 ce 0a 67 be 6c db 4c 3e bd a7 e6 3c fe 64 e1 3d
       -0.22562715 0.20005578 0.028156156 0.11005591
000080 91 0c 93 be 3e c7 e8 bd 4a 9d 75 bd 3a 8e 1c 3e
       -0.28720525 -0.113661274 -0.059964456 0.1528863
000090 4e 68 2a bd 36 8d 2d 3d 20 2e e7 bc 65 47 50 be
       -0.04160338 0.042370997 -0.028220236 -0.20339735
0000a0 2a 1f 3e be dd ed 9d 3d f9 14 d5 3d d9 36 93 3e
       -0.18566576 0.077113844 0.10404391 0.28752783
0000b0 a0 38 31 be 9b a6 44 be a7 9d 62 be 7f f3 af bd
       -0.17306757 -0.1920418 -0.22130452 -0.08591365
0000c0 87 b5 1d bc c5 8e 12 3e 7b 4a 41 3e ff 8a 4e be
       -0.009625799 0.14312275 0.18876068 -0.2017021
0000d0 29 6b 15 3e 7c 99 a1 bc 60 05 30 bd 44 d4 d1 3c
       0.1459166 -0.019726507 -0.042973876 0.025613911
0000e0 15 10 d2 3d 7c 0b 18 be d3 6a 66 3e fa be b5 bc
       0.10256974 -0.14848131 0.22501688 -0.022185791
0000f0 2a 78 1c 3e ba df d6 bd 87 4b 35 bd 99 a4 50 3e
       0.15280214 -0.10491891 -0.04426148 0.20375289
000100 92 6d 9f 3c b4 5b d3 bc af 00 6a bd eb 88 22 bd
       0.019461427 -0.025800563 -0.05712956 -0.039681356
000110 44 15 60 3d da 9d 33 be e5 17 e0 bd 9c b2 11 bd
       0.05470778 -0.17540684 -0.109420575 -0.035570726
000120 81 46 ae bd 90 c3 b2 3d 18 04 cc 3d 73 84 47 bd
       -0.08509541 0.08728707 0.09961718 -0.048710298
000130 c9 0d e5 bc c7 56 bb bd d6 0b c4 3d d9 71 4d 3d
       -0.027960675 -0.09147411 0.0957257 0.0501574
000140 2e e9 3f 3e 56 f8 4b 3b 41 d9 bf bd cf e9 9e 3d
       0.18741295 0.0031123362 -0.0936761 0.07759439
000150 fd f2 20 3c 23 80 19 bc f9 02 c1 3d fe e1 8e bd
       0.009823558 -0.009368929 0.09424395 -0.06976698
000160 41 2e 21 3e b7 9d 1f 3e b3 d1 06 3d d8 91 d4 bc
       0.157403 0.15587507 0.03291483 -0.02594845
000170 28 cf 02 be 5e 20 c0 3c 7e 85 30 bc 94 55 41 3c
       -0.12774336 0.023452934 -0.0107740145 0.011800189
000180 18 da c8 bd b0 ae bd bd 67 3b a3 bd 4e f9 4e 3e
       -0.09807223 -0.092618346 -0.079703145 0.2021229
000190 ca 6c 83 bc 68 90 b8 bc dd a1 bc 3d 7d a9 a5 bc
       -0.016043086 -0.022529796 0.092105605 -0.02022242
0001a0 a0 a8 23 be b4 d1 ee ba 0e e5 3c 3d 0e e9 0c 3e
       -0.15982294 -0.0018220455 0.04611688 0.13760778
0001b0 43 2b 0f be e5 4c 92 3d e7 69 91 3b a7 d2 54 bd
       -0.13981347 0.07143573 0.0044376734 -0.051958706
0001c0 43 ce 9c bc 68 66 28 3d f3 d3 58 3e 5e d7 8c bd
       -0.019141322 0.041113287 0.21174602 -0.068770155
0001d0 75 ae cf 3d c8 03 cc bc 7b 1e 20 be 61 c3 38 bc
       0.10140697 -0.024904147 -0.15636627 -0.011277051
0001e0 d4 ff 99 bc ea de c4 bd 3f f3 1e 3e 1d ab eb bd
       -0.018798746 -0.0961283 0.15522479 -0.11507247
0001f0 9f 27 e9 3d 8e 45 f2 bc 44 d8 fe 3c 97 ba 0a bc
       0.1138451 -0.029574182 0.031108983 -0.008467338
000200 cb bb d1 bd 08 88 30 bd 25 44 b6 3d 61 0a 91 3c
       -0.10240897 -0.04309848 0.08899716 0.017705144
000210 f6 fd e8 3c 65 10 31 bc 7f 7a c9 b9 d0 f7 b0 3d
       0.02844141 -0.010807131 -0.00038428974 0.086410165
000220 ea fd 62 bd 40 40 e3 bd d9 57 d8 3d 9e a1 76 bd
       -0.055417933 -0.11096239 0.105636306 -0.060212724
000230 77 92 f7 bd f9 b8 bb 3d 2f a8 f7 bc e5 38 91 bd
       -0.12088483 0.0916614 -0.030231563 -0.0709093
000240 b9 2a b0 3d 6e 3d ec 3c 87 8e 38 be 2c 1d 68 bd
       0.08601899 0.028837886 -0.1802312 -0.056668445
000250 6b e6 49 3e 12 8a ff bd 47 b3 f1 3d 54 8c 9f bd
       0.19716804 -0.12477507 0.118017726 -0.07790437
000260 18 72 2c 3e 04 26 83 3e aa 32 e4 3d b6 59 51 3d
       0.16840398 0.2561494 0.11142476 0.051110946
000270 4d 35 3a be 5b 73 0a 3e b7 90 a8 3a b0 98 19 3e
       -0.18184395 0.13520567 0.0012860511 0.14999652
000280 85 2d 1f bb 02 97 1b bc 8b fa 2f 3d e3 8b 6b 3c
       -0.0024288606 -0.009496452 0.042963546 0.014376613
000290 3b ff 00 3e f8 70 04 bd 93 07 ff bd ef 7c ad bc
       0.12597363 -0.032334298 -0.124526165 -0.021177737
0002a0 e7 45 07 be 0f 7d 18 3c f5 84 8a bc 63 59 fd 3d
       -0.1321026 0.00930716 -0.016909102 0.12370565
0002b0 7f 11 6b 3c ae d0 eb bc 14 0e 12 be 4e 3b aa bb
       0.014347433 -0.02878603 -0.14263183 -0.005195058
0002c0 bb cf c7 3d 58 de a6 3b 0a 92 f9 3c fe a1 2c be
       0.09756418 0.0050924234 0.030465145 -0.1685867
0002d0 08 87 a6 3c 0a cd 39 3e 4f 85 43 3b da 3a 05 bd
       0.02032806 0.18144622 0.0029834097 -0.03252683
0002e0 52 78 aa bd fe 6d 3d 3c b0 88 35 3e 95 02 fb bd
       -0.083237305 0.011561869 0.17727923 -0.12256352
0002f0 1a b3 9d 3d 9d 2e 5d bd 46 b3 3a 3d a2 fa 38 3d
       0.077001765 -0.053999532 0.045581125 0.045160897
000300 9c 38 50 3d ff 0b 3d 3d 72 fc 08 bc cc 7b 64 bd
       0.050835237 0.04615402 -0.008360969 -0.055782124
000310 57 01 31 be 32 6e df bb c3 de 60 3d db ad 2f bd
       -0.17285667 -0.006818556 0.054899942 -0.04289041
000320 57 71 7e bb c2 00 cc bd 8c f7 53 3e 12 1d 05 be
       -0.003882488 -0.09961082 0.206999 -0.1299937
000330 b0 bd 5f bd 02 2e db bd 14 41 54 bd 2d 4b ee 3c
       -0.05462426 -0.10702135 -0.051819876 0.029088581
000340 03 d6 d1 3b 90 c2 e5 3d 8b 12 73 3d e3 7a 35 bd
       0.006403686 0.112187505 0.059343856 -0.044306647
000350 90 c6 ad 3c ca 39 3c bd 15 54 77 bd e9 3d ce bd
       0.021212846 -0.04595355 -0.06038292 -0.10070402
000360 cc fc 94 bd e4 a1 89 be a4 31 7b 3d 46 e6 30 3c
       -0.0727478 -0.26881325 0.061326638 0.010797089
000370 77 de 0f 3e e4 d5 62 bd 62 70 0f 3e d8 8c 4e be
       0.14049707 -0.055379763 0.14007714 -0.20170915
000380 db ee f1 3d cf 8e cd 3c 8e 7d 01 bd af 5e 35 be
       0.11813136 0.02509251 -0.03161388 -0.177119
000390 fb df ec bd 22 84 31 3c 70 af a4 bd 32 e6 16 3e
       -0.115661584 0.010834726 -0.080412745 0.1473625
0003a0 76 af 8a ba 94 d7 a0 bd 7d 4e 3b 3d c5 9a a2 bc
       -0.0010580856 -0.07853618 0.04572915 -0.01984919
0003b0 ae 99 7e bd 7a 0a e4 3d 58 21 1a 3e f9 de 64 3e
       -0.06215828 0.11134811 0.15051782 0.22350682
0003c0 07 ba bc bd 6c 33 64 be ec 91 bc bd bb 1e d3 3d
       -0.092151694 -0.22285241 -0.0920752 0.10308596
0003d0 c2 65 ae 3d a1 50 c7 bd ef 93 84 bd 2a df c8 bd
       0.085155025 -0.097321756 -0.064735286 -0.0980819
0003e0 98 7b 97 3d d3 ec 72 3d 5c 4d c8 bd d7 b5 b2 3c
       0.073966205 0.059307884 -0.0978038 0.021815224
0003f0 e2 0f 3c be 67 1d 0c 3e 83 16 fc bd 9f 9a 17 bd
       -0.18365434 0.13683091 -0.12308981 -0.037012693

lstm.weight_hh_l1 f4 [256, 64]
000000 83 5f 8c 3d 26 02 f3 bd 34 1b 2b 3e 7a 41 fa bd
       0.06854155 -0.11865644 0.16709596 -0.1221952
000010 8d 1d 95 3b 9a 1b 26 3d ef 4c c7 bd 7f ee 4b 3e
       0.004550642 0.040553667 -0.09731471 0.19915198
000020 93 40 4e be ae 9c e9 3d 06 a1 01 bd 11 8f 2a 3e
       -0.2014182 0.114068374 -0.031647705 0.16656138
000030 54 08 f1 bd 3b 24 ba bd 8f 1b af 3d fe 9a 28 3e
       -0.117691666 -0.09088942 0.08550178 0.16465375
000040 02 6f 81 3b 12 2e c3 bd 68 e4 f5 3d 33 e1 07 be
       0.0039500007 -0.095302716 0.12006456 -0.132695
000050 ae 40 16 bd 98 f1 98 bd e8 d9 a3 bc 60 28 34 3d
       -0.036682777 -0.07467955 -0.020001367 0.043983817
000060 da 3d a8 3d 2c 22 e3 bd 0d f1 0d 3e ce 44 87 3c
       0.08214922 -0.11090502 0.13861485 0.0165123
000070 78 a6 2c 3e 39 62 09 3e 2d a7 1e be 22 f0 3b bd
       0.16860378 0.13416375 -0.1549346 -0.045883305
000080 c2 62 7d bc b9 cd 12 be ce b3 95 3d b8 ab 1b 3e
       -0.01546544 -0.1433629 0.07309686 0.15202224
000090 c2 40 f4 3b 0c de bb bd 3d 90 39 3d 1c 48 07 3e
       0.007454009 -0.091732115 0.045303572 0.13211101
0000a0 af 8a 18 be a9 85 62 3d 71 ce 16 3e 01 9b 07 be
       -0.14896654 0.05530325 0.14727189 -0.13242723
0000b0 48 10 22 3e 0f 92 df 3d b8 c8 bf 3d 26 f2 ca bd
       0.15826523 0.1091653 0.09364456 -0.099094674
0000c0 da fe 6e bd 81 19 25 bd cc e0 b4 bd 84 13 c9 3d
       -0.058348514 -0.040307526 -0.08831939 0.098181754
0000d0 4a 5d f5 bd e8 5f 28 be 4f 3d 76 3c 3d fd 4b bb
       -0.11980684 -0.16442835 0.015029266 -0.0031126284
0000e0 f1 89 83 bc b2 5b d8 3d a5 90 43 3d 15 b8 1b bd
       -0.016056987 0.105643645 0.047745366 -0.03801735
0000f0 1e 19 bb bc b1 68 15 be 69 90 1d be 0d 96 ca bd
       -0.022839125 -0.14590718 -0.1538712 -0.09891901
000100 f1 97 86 3d e6 dd 37 3c 69 d9 b2 3d bc 45 a2 bd
       0.06571949 0.011222338 0.08732874 -0.07923457
000110 5e 69 f1 3c 3c d4 dd bd b5 c8 e1 bc 2f 1b 0b bc
       0.029469188 -0.10831496 -0.027561525 -0.008490368
000120 63 3c 22 be 50 1d bd 3d 55 e0 24 bc 08 db 21 3e
       -0.15843348 0.092341065 -0.010063251 0.1580621
000130 4e 7d d7 bd f6 39 1a be 93 b1 bc bc b4 65 e5 3d
       -0.10521947 -0.15061173 -0.023033893 0.11201039
000140 4f 8d 05 3d 63 95 15 be 17 50 09 3c bb ae 40 3d
       0.032605466 -0.14607768 0.008380911 0.047041636
000150 7a e0 01 be aa a8 f0 bd 9d 93 1b be c9 aa 90 bd
       -0.12683287 -0.1175092 -0.15193029 -0.07063825
000160 4e b6 b1 3c 94 14 aa 3c 2e 63 f9 bb 00 a8 54 bd
       0.021693375 0.020761766 -0.0076107 -0.05191803
000170 29 10 fb 3b c2 3a 37 bd 4a ea 86 bc 56 8e 24 bd
       0.0076618386 -0.04473377 -0.01646914 -0.040174805
000180 b0 02 61 3d 76 37 4e 3c 12 d7 a5 bd e0 41 54 3c
       0.054934204 0.012586465 -0.08097662 0.012955159
000190 c0 45 c0 bc 2b 59 18 be 31 ce 68 3d 0f ab d6 3b
       -0.02347076 -0.14877765 0.056837264 0.0065511535
0001a0 b2 3e b1 bd e5 a2 37 3a 81 81 b0 bc 18 7c 23 3c
       -0.08654536 0.0007005169 -0.021546127 0.009978317
0001b0 6a aa a4 3d 15 6e 87 3b b3 40 c5 bd 97 b4 cf bd
       0.080403164 0.004132996 -0.09631481 -0.10141867
0001c0 a9 38 08 3d 9b 6f ff bd e2 2d 17 3c 9a c2 01 3e
       0.03325716 -0.12472459 0.009227248 0.12671891
0001d0 6f ea 52 bc 6f eb 0b be a5 70 88 bd 46 c5 46 3d
       -0.012873276 -0.1366403 -0.0666211 0.04852798
0001e0 99 f0 8b 3d f6 e0 58 bb f8 5a 3e 3e ab 1b e6 bd
       0.06833 -0.0033093072 0.1858939 -0.11235746
0001f0 0a c7 f8 bc 2e 55 20 bd d6 27 3a bd f2 3e 34 3d
       -0.030368347 -0.039143734 -0.045448147 0.04400534
000200 d9 42 03 3e e0 34 d1 3c 91 46 f1 bd f1 4f 16 3b
       0.12818469 0.025537908 -0.117810376 0.0022935832
000210 60 be bb bd 77 dd d3 3d 79 b0 82 bd 8d af 14 3e
       -0.091671705 0.103449754 -0.06381316 0.14520092
000220 2e f1 d8 3c 23 81 45 3d 1c 59 c1 3c f6 9e c0 bd
       0.026482191 0.048218857 0.023602061 -0.094053194
000230 78 00 d0 3c 31 cc 34 bd 7e 8b 42 bd 72 2c 82 3c
       0.025390849 -0.044140045 -0.04749631 0.015890334
000240 77 09 89 bd 31 8f d1 bd 44 43 f6 3c c4 57 e9 3d
       -0.066912584 -0.1023239 0.030061372 0.11393693
000250 8b 49 f9 3b 14 d4 09 3e 4b 8c 7d 3d 4e a2 2f bd
       0.007607644 0.13459808 0.061901372 -0.042879395
000260 79 47 b6 3d 15 87 8d 3d e3 d9 2c bd d8 ec 7b 3d
       0.08900351 0.069105305 -0.04219998 0.06150517
000270 6c 91 07 3e 98 90 2c 3d 99 bb 23 3d a0 8e c4 bd
       0.13239068 0.042130083 0.03997383 -0.09597516
000280 22 10 c7 3d 67 53 86 3c 2c 6c a7 bd c2 87 c8 bd
       0.09719874 0.016397191 -0.08174929 -0.09791519
000290 65 8b 99 3d 4b 3b ba bd 49 fe c2 bd 1d 56 9d 3c
       0.074972905 -0.090933405 -0.09521157 0.019206101
0002a0 37 c0 d3 3d 50 46 51 3d 86 71 f3 3c 37 87 45 3d
       0.103393964 0.051092446 0.029717218 0.048224654
0002b0 27 99 25 be 60 0c 80 bd 2e e9 77 bc c0 4c 95 bd
       -0.16171704 -0.0625236 -0.015131278 -0.072900295
0002c0 80 0e aa 3d c0 8b ae 3c 45 9e 74 3d b9 02 5f 3d
       0.08303547 0.021306872 0.05972125 0.054445956
0002d0 06 86 c3 3c 1e 10 9c bd 85 ea b3 3d ce 58 dc 3c
       0.023867618 -0.076202616 0.087849654 0.026897814
0002e0 7c 27 19 3d 74 95 2e bd ce 35 11 3e e5 ab dc bc
       0.03739117 -0.042623 0.14180681 -0.026937434
0002f0 5e 89 09 3d b2 4d 3c 3d f1 0a 5d bd ac 08 32 3d
       0.03357827 0.045972534 -0.053965513 0.0434653
000300 bb 80 0f 3e 80 a8 1a be ee a5 af 3d 28 bf bf 3d
       0.1401395 -0.1510334 0.085765705 0.09362632
000310 2a 16 9c bd b2 05 ae 3d 18 1d 1e bd c9 57 e7 bc
       -0.07621415 0.0849718 -0.038601965 -0.028240101
000320 7f 3b b7 bd 37 48 ab bd ba 04 c3 bd 21 e7 1a 3e
       -0.08946895 -0.08363383 -0.09522386 0.15127231
000330 be 1d 1e bd 61 0f 82 bd 2f 1b 11 be ce e7 06 3e
       -0.038602583 -0.063505895 -0.14170526 0.13174364
000340 5e b6 75 3d 3f c0 27 bc 2a 37 f2 3c 3a d5 68 be
       0.059988372 -0.010238706 0.02956732 -0.2273759
000350 5f 80 65 bc 32 1c 4d 3d 9f 6f 11 3a 9f f9 a4 3d
       -0.014007657 0.050075717 0.0005547944 0.08055424
000360 51 28 8d 3e c2 e6 07 3d 16 77 22 bd 1a a8 60 3d
       0.2756982 0.033179052 -0.03966435 0.054847814
000370 27 33 06 bd 44 20 ad 3c 80 c5 e2 bd d2 f5 8e bb
       -0.032763626 0.02113355 -0.110728264 -0.0043628
000380 bf 68 74 3e 9e 24 9c bd cf ea a8 3b e8 b6 f1 3d
       0.23868082 -0.07624172 0.0051549445 0.11802465
000390 0d e7 31 bd 41 32 0f bd c2 a7 4a 3d bb 12 ab 3b
       -0.043433238 -0.034960035 0.049476393 0.0052207387
0003a0 d4 9d 26 be 98 1c 7a 3c 98 af 73 bd 6a 93 a3 bd
       -0.16271144 0.015265606 -0.05949363 -0.079871014
0003b0 da 6e b7 3d 3a 00 c3 3d 9a a2 4f bd 8a d1 e2 3c
       0.0895669 0.095215276 -0.05069218 0.027687807
0003c0 aa c1 e5 bd a6 63 81 3d 18 30 49 be d9 bb 21 bc
       -0.11218579 0.063178346 -0.19647253 -0.0098714465
0003d0 47 a6 07 be 0b 72 b8 bd 99 d4 eb 3c 0f 42 20 3e
       -0.13247024 -0.09006127 0.028787898 0.156502
0003e0 ce 61 68 bc 7a ac 03 3e 78 92 d3 bd c9 c7 0b ba
       -0.014183475 0.12858763 -0.10330671 -0.00053321995
0003f0 58 2e 1a bd 7c a3 a9 bd da 9a 4b 3b 3e 07 94 bc
       -0.037641853 -0.08283135 0.003106764 -0.01806986

lstm.bias_ih_l1 f4 [256]
000000 39 7a b3 bf 2a c0 c0 bf 7b 5b ad bf b6 cf bb bf
       -1.4021674 -1.5058644 -1.3543543 -1.4672763
000010 35 d9 b7 bf ea d8 cf bf 85 c1 97 bf 01 2d 99 bf
       -1.4363161 -1.6238072 -1.1855932 -1.1966859
000020 8b 53 d0 bf f2 48 b5 bf 5a bc b1 bf 75 bb 59 bf
       -1.6275495 -1.4162886 -1.3885605 -0.8505166
000030 f5 0a 6e bf 3c 09 b6 bf 4f d2 b4 bf b8 94 5a bf
       -0.9298547 -1.4221568 -1.4126681 -0.85383177
000040 05 4c b7 bf 84 9c bd bf 47 b1 b7 bf fb ab c4 bf
       -1.4320074 -1.481339 -1.4350976 -1.5364984
000050 f4 70 b9 bf 32 6d 32 3f 32 55 aa bf c3 69 a6 bf
       -1.4487596 0.6969787 -1.330725 -1.3001026
000060 1a 94 c7 be 52 f8 b7 bf 90 b1 c3 bf 87 d2 66 be
       -0.3898018 -1.4372656 -1.5288563 -0.22541247
000070 e5 f6 12 bf b4 12 c6 bf c5 7b c9 bf 0f 74 ac bf
       -0.5740798 -1.5474458 -1.5740896 -1.3472918
000080 68 92 1e bf c5 af 61 bf 54 9f c0 bf 5f 8f 4e bf
       -0.6194215 -0.8815883 -1.5048623 -0.80687517
000090 9e 82 87 bf 31 9d b2 bf b2 7c ca bf 41 72 b1 3e
       -1.0586736 -1.3954221 -1.5819304 0.3465748
0000a0 33 f4 b3 bf 99 00 a5 bf 30 6d c2 bf 2a 88 c7 bf
       -1.4058899 -1.2890807 -1.5189571 -1.5588429
0000b0 ba 54 c5 bf 68 28 b2 be a2 d0 54 bf fe a2 ae 3e
       -1.5416481 -0.34796453 -0.8313085 0.34108728
0000c0 86 42 bf bf 60 e3 b9 bf b0 4e bb bf 02 32 89 bf
       -1.4942176 -1.4522514 -1.4633389 -1.0718386
0000d0 71 b6 35 bf 2b c6 b5 bf b2 95 c7 bf 3c 40 87 bf
       -0.7098151 -1.4201101 -1.5592558 -1.0566478
0000e0 eb a5 d0 bf b7 78 a0 bf d7 18 1c bf fc 61 b9 bf
       -1.6300634 -1.2536839 -0.609754 -1.4483027
0000f0 e6 9c 64 bf a0 bf c1 bf 02 5e c1 bf 02 4d c2 bf
       -0.8930191 -1.5136604 -1.5106814 -1.5179751
000100 19 e5 58 bf 7a ef 2a bf ac d1 21 bf 25 73 35 bf
       -0.84724575 -0.6677166 -0.6321056 -0.7087882
000110 ed 8a 3c bf 1c 33 39 bf 3b f2 86 bf 60 f3 3f bf
       -0.73649484 -0.7234361 -1.0542673 -0.74980736
000120 d6 34 36 bf 73 e5 33 bf 0b 7a 36 bf 0b 90 0a bf
       -0.7117437 -0.70271987 -0.7127997 -0.5412604
000130 95 85 36 bf 10 c9 4b bf d5 46 4e bf 00 22 f3 be
       -0.7129758 -0.7960367 -0.8057683 -0.47486877
000140 38 d3 51 bf 11 70 45 bf 22 3c 3e bf 2c 2c 33 bf
       -0.8196292 -0.77124125 -0.74310505 -0.69989276
000150 8c 0a 12 bf f9 d5 74 be 25 05 0b bf eb 9a 3c bf
       -0.57047343 -0.23909749 -0.54304725 -0.73673886
000160 5b bb 4a be 17 59 3b bf 57 52 52 bf 12 3e 32 3e
       -0.19798033 -0.73182815 -0.8215689 0.1740649
000170 e2 e9 13 bf 75 29 4c bf a2 49 55 bf 42 d7 31 bf
       -0.5777875 -0.7975076 -0.8331548 -0.6946908
000180 fa 34 b6 be f1 fe 38 bf 92 82 33 bf 20 7d 00 bf
       -0.35587293 -0.7226401 -0.7012111 -0.50190926
000190 5c f2 49 bf 17 e5 2d bf f4 b4 34 bf 24 a8 0b be
       -0.78885436 -0.6792769 -0.7058861 -0.1363836
0001a0 80 6e 3b bf 81 dd 0f bf b9 8a 5e bf da 3e 44 bf
       -0.73215485 -0.56197363 -0.86930424 -0.76658404
0001b0 9c 1b 64 bf 7c 83 d7 bd 51 02 5c bf fa 00 24 be
       -0.8910463 -0.105231255 -0.85941035 -0.16015998
0001c0 96 10 48 bf 02 e3 3d bf 7a fd 2f bf 40 4e 34 bf
       -0.7815031 -0.7417451 -0.6874615 -0.704319
0001d0 b8 d2 64 bf 67 51 1c bf d4 91 55 bf 68 22 33 bf
       -0.8938403 -0.6106171 -0.8342564 -0.69974375
0001e0 04 cd 60 bf 06 bc 4d bf ba fc de be 84 a3 86 bf
       -0.8781283 -0.80365026 -0.4355219 -1.0518651
0001f0 82 06 1e bf 3d 20 4e bf a0 78 36 bf 21 f9 47 bf
       -0.6172868 -0.8051794 -0.7127781 -0.78114516
000200 cb 1f 3d bc cd 19 81 bc dc 50 86 bd b1 75 3c 3d
       -0.011543225 -0.015759373 -0.065583915 0.046010677
000210 23 e5 ae 3b 79 3e aa 3b 7e a2 34 bd 45 72 1e 3d
       0.005337374 0.0051954356 -0.044100277 0.038683195
000220 8a eb c7 bb 8f 85 4d bd 0c 72 3b bc e0 4c 3d bd
       -0.0061010765 -0.0501762 -0.011440765 -0.04621589
000230 a5 19 8f 3c dc c9 ae 3c e0 2f 03 bd 45 75 08 bd
       0.017468283 0.021336488 -0.03202808 -0.033314962
000240 63 74 97 3d 31 73 00 3c f9 f6 31 bd e2 8d 45 3d
       0.07395246 0.007839964 -0.043448422 0.048231013
000250 35 9c 53 3d 37 2f f2 3d c8 f8 aa bd d3 14 bf bd
       0.051662643 0.11825412 -0.083482325 -0.09330144
000260 7d 81 bd bb 0f f9 dc 3c cb 51 35 bd 77 9c 98 bd
       -0.0057832585 0.02697423 -0.044267457 -0.07451718
000270 d7 14 58 bd aa 79 03 3c ea e6 96 3d a0 95 d0 bd
       -0.05275425 0.008024612 0.07368262 -0.10184789
000280 06 b8 0a bd 52 02 3e bd 83 b0 fc bc a5 ae 8f bd
       -0.033866905 -0.04638893 -0.030845886 -0.07015733
000290 b2 1e 1a bd 56 5f 33 bc 5a 53 2e 3c f1 45 04 3d
       -0.03762693 -0.010948023 0.01063999 0.032293264
0002a0 3a f7 3c bd 87 82 b5 3d 85 8d 31 3d 33 f7 23 3d
       -0.04613421 0.08862787 0.043347854 0.04003067
0002b0 c8 4d 54 3d 75 7e 90 3c bd 11 94 3d 80 00 6c 3c
       0.05183199 0.017638424 0.07229946 0.014404416
0002c0 83 c2 d7 bc 81 18 a3 3d 92 21 09 3d a2 a4 b6 bb
       -0.026337868 0.07963658 0.03347928 -0.005573825
0002d0 f1 52 fe 3d 8d bb 78 bd 0c 91 57 bd 11 da 6b bc
       0.124181636 -0.060725737 -0.05262856 -0.014395253
0002e0 28 6f 9f bc fe 0d 20 3c 7d ab 57 3d 6a 0a 84 3d
       -0.019462183 0.009768961 0.05265378 0.06447299
0002f0 61 54 b5 3d 89 cc e0 bb e8 a7 14 3d 84 ff 36 bd
       0.088539846 -0.00686032 0.03629294 -0.044677272
000300 53 51 ca bf 59 32 b7 bf a2 67 c4 bf 8f 32 c1 bf
       -1.5806068 -1.431224 -1.5344126 -1.5093554
000310 99 0e be bf c6 5d d1 bf 23 74 a0 bf 67 09 99 bf
       -1.4848205 -1.6356742 -1.2535442 -1.1955994
000320 03 eb bf bf 27 6b c7 bf 5e 41 aa bf 70 68 63 bf
       -1.4993595 -1.5579575 -1.3301198 -0.88831234
000330 e3 c3 7e bf 80 6c b6 bf 58 92 ca bf fd 80 68 bf
       -0.9951765 -1.4251862 -1.582591 -0.9082182
000340 68 13 c4 bf b0 08 b8 bf 7d c2 a1 bf dc d1 aa bf
       -1.5318422 -1.4377651 -1.2637478 -1.3345294
000350 1d c6 99 bf 74 3f 25 3f 81 ad b5 bf 18 53 af bf
       -1.2013584 0.64549947 -1.4193574 -1.3697233
000360 d2 df 76 be 81 84 a8 bf 33 f1 b7 bf 94 ed a5 bd
       -0.24108818 -1.3165437 -1.4370483 -0.08101955
000370 7c b7 ff be f4 1c d6 bf 1e 7a c0 bf 9d 53 c2 bf
       -0.49944675 -1.6727586 -1.5037267 -1.5181767
000380 6b b8 2c bf 2f 60 7d bf 77 53 cc bf f7 5a 5e bf
       -0.674689 -0.9897489 -1.5962971 -0.8685755
000390 18 6f 9d bf 01 a2 b5 bf f9 a6 d4 bf 3a b4 2b 3e
       -1.2299528 -1.4190065 -1.6613456 0.1676797
0003a0 a6 3f cb bf ee 48 ac bf a3 7b cd bf 0f c5 c7 bf
       -1.5878799 -1.3459756 -1.6053356 -1.5607013
0003b0 c0 b2 b7 bf e2 ae 86 be a2 02 44 bf 9f e8 90 3e
       -1.4351425 -0.263053 -0.7656652 0.28302476
0003c0 f0 e6 c7 bf 15 f6 c9 bf 91 57 c0 bf fd 1a 9b bf
       -1.5617352 -1.5778223 -1.5026723 -1.2117611
0003d0 a9 af 1d bf c1 a0 ba bf 28 26 bc bf 85 5f a0 bf
       -0.6159616 -1.4580308 -1.4699144 -1.252915
0003e0 48 fe c4 bf a0 85 bb bf a4 62 3b bf 83 46 bf bf
       -1.53901 -1.4650154 -0.7319739 -1.4943393
0003f0 16 e6 5e bf e1 3e c8 bf 95 08 c6 bf 55 12 b6 bf
       -0.87069833 -1.5644189 -1.5471369 -1.4224344
