Code/698/10step_5horizon/models/lstm_no_embed/1step_1horizon_RMSE_1.pth (torch, 205820 bytes, 9 tensors)

lstm.weight_ih_l0 f4 [256, 1]
00000000: ffeb 563f 7b21 32be 91c0 3a3e d96e 35be
00000010: 9222 4e3f 035b 8c3e 2cd9 12bf f9a1 b83e
00000020: 23ab 583c c62c 643f 9b5d 643e b478 c1be
00000030: ddef 5b3e 7bf5 dbbf 6873 33be 4cbf 893f
00000040: 6872 613f 98fb f33f 433d 353e e982 babe
00000050: 8874 b13f 853f 2ebd 48a2 053f 1378 05bd
00000060: 938e 3dbf 37ba 36be 9ac1 943f 6126 20be
00000070: 6d11 283d c062 b93f 614e 233f 029f dfbe
00000080: eefc 1cbe 8d8a d33f 325c 973f 3aa7 7ebf
00000090: 4885 87be c294 683e ad43 b0bd ef6f 113f
000000a0: c4e4 cfbf acc8 09be cc24 0d3f 0372 1b3f
000000b0: 32da ef3f f908 d13f 51c4 223e c6bd 643f
000000c0: dd76 a93f 0d11 6e3e 5d5d 813d f882 8b3e
000000d0: 0e22 463f a1d7 d13f 0759 d93f 5ed9 4bbe
000000e0: 2f39 2fbe 164d 903f 2291 8f3e 425d 7a3e
000000f0: eec4 673f 49fd 3abe f477 a63e 100c 3a3d
00000100: 7cc0 7f3d f029 e4bd 802f 9bbc 1026 f3bd
00000110: 2cea 5c3d 58a5 b53d 409e 2bbc 888b 003d
00000120: b4a5 f83d e80c 913c 1ed4 de3d ea18 8fbd
00000130: 467d f73d 84c7 b2bd bcbe 593d 0c98 713d
00000140: 2657 aebd 10af b13d 70f2 2ebd 9863 a13d
00000150: c067 e13b 3acc dabd 18cd a0bc 6e1c a8bd
00000160: 1015 db3d 7eaa 92bd 804a 303d a01e 45bd
00000170: 1ad1 c4bd 88d9 b5bc e848 d03c c230 81bd
00000180: 4659 e03d 863a e1bd 9438 73bd 6840 bbbd
00000190: b086 953d 186f 86bd aa32 8b3d 8065 80bb
000001a0: cac5 c8bd 0c42 e63d fc67 483d 88fe 95bc
000001b0: 70e3 94bc c859 0bbd 50ce 53bd faaf a4bd
000001c0: c885 c7bd d42c a1bd d485 f1bd 80ab 9d3a
000001d0: 72c9 813d 8884 e0bc a052 e03c a0d1 9cbc
000001e0: c260 bbbd c012 e2bb 88cd a53c 0202 e43d
000001f0: e09e 893d 5e28 ed3d c0f8 3abc f476 45bd
00000200: 1a30 e23e a35f 16bd 7d82 20be 2013 80bc
00000210: 90c9 a0be 8d05 963f 2fda 51bc ba7f 823d
00000220: f7e4 48bf bd3d 6f3f 2c26 b3bb b8a8 a3bc
00000230: 9fa5 00bc 7560 34c0 93ab e73f 18dd 443f
00000240: 336e 73bf 0e6f 35bf fd53 8e3c 7f10 d83c
00000250: ffee 013f b979 c839 9630 69be 6413 e4bf
00000260: dabd 843c 1e54 943c 13fb f53e abf5 c8bf
00000270: 0994 a53f 1558 073f baf3 97be d11f 903c
00000280: 1886 243d 2ae9 08bf 4286 e5be 3825 e9bf
00000290: ac55 c53f 0582 bcbc e373 adbf 0d75 283f
000002a0: c642 4cc0 2cdc f9bc a141 3c3e 41c8 453f
000002b0: c414 343f e4c4 10bf 534a b1bc a282 49bf
000002c0: bb8a 10bf 0ae8 803d 4005 efbb 7d14 e83d
000002d0: 0541 ab3e be18 12bf 0d78 0c3f c4d3 4abc
000002e0: 61a1 dc3f bf2b 1e3f 438a ccbc 7cf6 84bd
000002f0: 8f8d dbbe 490f bebb fe91 dc3d 7572 c73a
00000300: 29c2 6d3f 196b cdbe 0369 4d3e 9a42 0bbd
00000310: fe71 1f3f a076 db3e 2781 10bf 93d3 563e
00000320: 60a1 49bb 1511 7d3f 9cbb 9f3d 2c8f e6be
00000330: 572a 793e 0529 d9bf 79cd 4abb d80e a13f
00000340: bd8f 713f de65 ea3f d04b 183e 96f1 b2be
00000350: e6fc ac3f 5699 f0bc a1fa 103f f82c 593e
00000360: eddf 24bf b835 45be 8af9 913f cd25 8c3c
00000370: 1e67 4a3e d12c bf3f d5da 3e3f 6467 fdbe
00000380: 94cb 993c faac bb3f 85f5 863f 0916 8abf
00000390: df56 04be 4d25 bf3d 244e fcbc 7b97 293f
000003a0: 8a2c b0bf aa42 82bd d0e8 ef3e 1699 433f
000003b0: 0c18 ea3f f257 d23f abd6 f93d 205c 5b3f
000003c0: 3772 b93f 9286 073d 3d13 1f3e b6ed bc3e
000003d0: 3c04 3d3f 91fb d73f 6258 c53f cc97 84bd
000003e0: 4eb3 d33d f72c 8b3f 4ba2 b23d b280 853e
000003f0: 0b77 883f 3068 81be f99e b93e 30f9 20be
0.8395385 -0.17395584 0.18237521 -0.17718066 0.805215 0.27413186 -0.5736263 0.36061075
0.013224396 0.8913082 0.22301333 -0.37787402 0.2147822 -1.718429 -0.17524493 1.0761504
0.88065195 1.9061155 0.1769915 -0.36428002 1.3863688 -0.042541046 0.52200747 -0.032585215
-0.74045676 -0.17844473 1.1621583 -0.1563964 0.041032244 1.4483261 0.6379147 -0.43676
-0.1533086 1.6526657 1.1825011 -0.9947392 -0.26468873 0.22712997 -0.08606658 0.5681142
-1.6241689 -0.13455456 0.5513427 0.60720843 1.8738463 1.6330863 0.15895201 0.8935207
1.3239399 0.23248692 0.06316636 0.2724836 0.77395713 1.639393 1.6980294 -0.19907138
-0.17111658 1.1273525 0.28040415 0.24449638 0.90534866 -0.18260683 0.32513392 0.04542166
0.062439427 -0.111408114 -0.018943548 -0.11872494 0.05393426 0.088694274 -0.010474741 0.031383067
0.1214098 0.01770635 0.10880302 -0.06987174 0.12084441 -0.08729461 0.053160414 0.058982894
-0.08512716 0.08675969 -0.042711675 0.07880324 0.006878823 -0.106834844 -0.019629046 -0.082085475
0.10697377 -0.07161425 0.0430398 -0.04812491 -0.096101955 -0.022198454 0.02542539 -0.06308128
0.109545276 -0.109974906 -0.05938013 -0.09143144 0.0730108 -0.06564158 0.06796773 -0.0039183497
-0.0980335 0.11243066 0.048927292 -0.018309847 -0.018174857 -0.03402117 -0.051710427 -0.08041377
-0.097423136 -0.078698784 -0.11793104 0.001202926 0.06337251 -0.027406946 0.027383149 -0.019142926
-0.091493145 -0.006899208 0.020239606 0.111331955 0.06719756 0.11579965 -0.011411846 -0.048209146
0.44177324 -0.0367123 -0.15674777 -0.01563412 -0.3140378 1.1720444 -0.012808367 0.06372018
-0.7847437 0.9345358 -0.005467197 -0.019977912 -0.007851987 -2.8183873 1.8099235 0.7689986
-0.95090026 -0.7087258 0.017374033 0.026375053 0.50755304 0.00038237663 -0.2277244 -1.7818418
0.01620381 0.018106516 0.48043117 -1.5699972 1.2935802 0.5286878 -0.29678136 0.017593296
0.040166944 -0.5348078 -0.44828993 -1.8214483 1.541677 -0.023011217 -1.3550991 0.65803605
-3.1915755 -0.030500494 0.1838441 0.7725869 0.70344186 -0.5655043 -0.021641886 -0.78714955
-0.56461686 0.06294258 -0.007294327 0.11332033 0.33448043 -0.57069004 0.5487068 -0.01237959
1.7236749 0.617855 -0.024968272 -0.06492326 -0.42881438 -0.005800162 0.10770033 0.0015216606
0.9287439 -0.40120772 0.2005959 -0.033999063 0.62283313 0.4286394 -0.5644707 0.20979147
-0.0030766353 0.9885419 0.077994555 -0.45031106 0.24332558 -1.6965643 -0.0030945225 1.2582655
0.9435995 1.8312337 0.1487267 -0.3494994 1.3514678 -0.029369991 0.5663243 0.2120856
-0.64404184 -0.19258773 1.1404278 0.017107869 0.19765899 1.4935552 0.7455266 -0.49492943
0.018773831 1.4662163 1.0543677 -1.0787975 -0.12923764 0.093332864 -0.03079898 0.66246766
-1.3763592 -0.063603714 0.4685731 0.76405466 1.8288589 1.6433089 0.12199148 0.85687447
1.4487981 0.03308732 0.15534683 0.3690011 0.73834586 1.6873647 1.5417597 -0.064742655
0.10336934 1.0873097 0.08722361 0.2607475 1.0661329 -0.252748 0.362541 -0.15720057

lstm.weight_hh_l0 f4 [256, 64]
00000000: 9ca4 d63d 18a7 a53c d4de 993d 5492 a3bd
00000010: 2038 75bd 72e3 e5bd b2ae 8ebd a0b4 b9bb
00000020: aad7 cebd 8cbd 3abd 4c3b 11bd f0f6 313d
00000030: e828 35bd 5c11 14bd 5008 75bc e4a7 1ebd
00000040: 207b 8cbb 927e f7bd f0ee d73d 6492 f33d
00000050: 165a e43d e228 f43d ec9d 883d 601f edbc
00000060: 48d4 f13d 12c3 afbd 30bc f03d f4a9 8e3d
00000070: 8e88 bfbd 6415 683d 88b6 3a3d 32d4 c53d
00000080: 0cf9 66bd d01f 10bd ecd2 4ebd d015 8b3c
00000090: 2a24 a4bd 402e 12bb dc42 3fbd e029 f3bc
000000a0: 74f1 303d 18bc 65bd f860 9d3c cc95 39bd
000000b0: f434 e7bd 8c1e ac3d c0cc 053b ce60 acbd
000000c0: 2e2a 923d 60c3 ecbd b843 563d f49b 6abd
000000d0: d03f 2fbd 6001 2bbd 8079 acbd d640 abbd
000000e0: 34e0 153d ec0c 893d 2675 e0bd aa4d c73d
000000f0: 30f9 0c3d f8c0 f3bc 5053 383c b04d c03d
00000100: 5af1 963d 9cd4 5c3d 7c73 f33d c8e9 1dbd
00000110: 8428 c2bd b422 8e3d 3a95 f0bd 90ac 453d
00000120: b018 453d 4067 593c 8056 c13c 6a3a db3d
00000130: cc03 6ebd 6447 4b3d 301a aabd 1c0e 85bd
00000140: d0ae 40bd 549e 103d d640 c0bd 88f4 68bd
00000150: 40e4 18bb 9844 d2bc 202a 893b 1090 f43d
00000160: 9cf5 af3d d0e3 08bc cc08 6fbd 8cd0 903d
00000170: a8da 073d dc82 913d 7872 ccbc 5800 ac3d
00000180: 3039 33bc 4832 b1bc d4de ca3d d8de 3cbd
00000190: 3eb7 9abd c2a5 e2bd 8069 10bb 8062 38bb
000001a0: 580f a7bd 60bf 9ebc 9af8 8bbd 00a8 6c3b
000001b0: 86d6 883d 804c f53c 68c3 733d 8e1a 903d
000001c0: a2bb a13d 8e96 8c3d e8fd 893c f0ef 923d
000001d0: 9c31 4f3d d0a6 4ebd 1088 2bbc bcad dabd
000001e0: a049 b63d e438 f8bd d8da e8bc 7293 c3bd
000001f0: 5c83 23bd 5804 08bd 2e2e aebd d030 213c
00000200: 38a4 393d 008c 99ba 0c76 a53d 8000 303d
00000210: f60b ddbd 0603 acbd 9efd 8fbd e86b 4c3d
00000220: 76a3 b23d 52c6 89bd fc19 a9bd 3a19 d73d
00000230: 8ec3 dbbd 142d 493d 3471 4dbd b48e f6bd
00000240: 04bb 4cbd dc15 5f3d 46ec 9c3d e831 e43c
00000250: 9841 9ebd 8603 bfbd e869 8dbc 40ae cbbc
00000260: 6eab cdbd 742f 57bd dcff 313d 50c6 4e3d
00000270: 900b ca3d 2873 bd3c 3201 d43d f4cb 42bd
00000280: 7093 ccbd 944d 78bd 62e4 cc3d e806 c9bc
00000290: 60c3 253d f87b 583d 6a15 aabd 1876 eb3d
000002a0: 3ce5 29bd bcce 2d3d 5818 37bd 6c6d 1a3d
000002b0: 8a36 d13d 60ae 4a3c 50fa 393c 3219 db3d
000002c0: 00cd a73b 40d2 d93b dcad d4bd 8e67 9c3d
000002d0: 844f 8ebd 1cc6 f13d 803c 3abc 78cc febd
000002e0: 1476 bcbd 4699 dc3d 20e0 1e3d 3044 9abc
000002f0: 24d3 78bd 6834 a43c 5053 113c 1ce8 2d3d
00000300: a26d 9dbd a05e 063d 4827 b83c 423b 94bd
00000310: 4662 94bd d083 5b3c 6cdc 8c3d fc73 ba3d
00000320: c8d3 6b3d 5ed8 843d 20ad a03c 5c16 b33d
00000330: 8adc b9bd 904d 9dbc c033 f33c 742b 36bd
00000340: 08ba 9cbc 50d9 35bd 7879 533d 7021 263c
00000350: 002f eabd 50ca afbc 6ec5 863d 58ea 3fbd
00000360: 8099 3f3d a8ab a2bc da7a d2bd 88a9 84bc
00000370: f8f6 22bd 50dc d9bc d6d0 d33d b416 d4bd
00000380: 80f8 b93c a82f e43c 4c6d b63d 26e0 b3bd
00000390: 3449 14bd a4e4 663d 8aeb c73d 70f6 1d3c
000003a0: 0024 4abc 7054 84bd 1899 793d 160a d4bd
000003b0: f8a3 ed3c f0d1 14bc 58bd f03c 648b 433d
000003c0: 00c2 f53b c82b 573d 589a 7cbd 3e61 fbbd
000003d0: 9c6c 19bd d8f1 df3c 2aca e1bd d8fe b9bd
000003e0: f828 1ebd e0d1 a9bd 4c2d 3abd 0c48 4e3d
000003f0: 86d3 f6bd 8c5b 52bd aaa8 da3d d4dd 4d3d
0.104806155 0.020221278 0.07513204 -0.07986894 -0.059867978 -0.112250224 -0.06966914 -0.005667284
-0.100997284 -0.045590922 -0.03545694 0.04344839 -0.044228464 -0.036149368 -0.014955595 -0.03873433
-0.0042871386 -0.12084688 0.105436206 0.11893156 0.11149995 0.1192186 0.06670746 -0.028945625
0.118080676 -0.085821286 0.11754644 0.0696601 -0.093522176 0.056661025 0.04558423 0.09659614
-0.056389853 -0.03518659 -0.05049412 0.016978174 -0.0801471 -0.00223054 -0.04669462 -0.029683053
0.043199018 -0.056087583 0.019211277 -0.045308873 -0.11289397 0.08404264 0.002041623 -0.084169015
0.071369514 -0.11560702 0.052310675 -0.057277635 -0.042785466 -0.04174936 -0.08421612 -0.08361976
0.03659077 0.06691918 -0.10959844 0.0973161 0.03441733 -0.0297551 0.011250332 0.09389818
0.07370253 0.053913698 0.11887261 -0.03855303 -0.09480384 0.06940213 -0.11747213 0.04826027
0.048119247 0.013269246 0.023600817 0.10704501 -0.05810909 0.04962863 -0.08305776 -0.06496832
-0.047041714 0.035307243 -0.093873665 -0.05687383 -0.0023329407 -0.025667474 0.00418593 0.1194154
0.08591768 -0.008355096 -0.058358 0.07071027 0.03316751 0.071050376 -0.024956927 0.08398503
-0.0109389275 -0.021630421 0.09905782 -0.046110958 -0.07554482 -0.11066772 -0.002203554 -0.0028134882
-0.081572235 -0.019378364 -0.06834526 0.0036110878 0.06681542 0.029943705 0.059512526 0.07036315
0.07897116 0.068646535 0.016844705 0.07174671 0.05058442 -0.050452054 -0.010469452 -0.106776685
0.089007616 -0.12120226 -0.028424665 -0.09549607 -0.039920196 -0.033207268 -0.08504902 0.009838298
0.045322627 -0.0011714697 0.08079156 0.042969227 -0.10793297 -0.08399014 -0.070307955 0.049907595
0.08722584 -0.0672728 -0.08256909 0.105028585 -0.107306585 0.049115255 -0.050156787 -0.12038937
-0.04998304 0.054464206 0.07662253 0.027855828 -0.07727355 -0.09326844 -0.017262414 -0.024863362
-0.10042463 -0.05253549 0.043456897 0.050482094 0.098654866 0.0231262 0.103517905 -0.047557786
-0.09989059 -0.06062086 0.10004498 -0.024539426 0.040469527 0.0528526 -0.08304866 0.11497134
-0.04147838 0.042433485 -0.04470095 0.03770201 0.102154806 0.012370676 0.011351183 0.10698165
0.0051208735 0.006647378 -0.103847235 0.07636939 -0.0694876 0.118053645 -0.011366963 -0.12441343
-0.09202209 0.10771422 0.03878796 -0.018831342 -0.060748234 0.02004452 0.008869961 0.042457685
-0.076869264 0.032805085 0.022479668 -0.07237865 -0.07245307 0.013398126 0.0687798 0.091041535
0.057575017 0.06486581 0.019613802 0.08744499 -0.090752676 -0.019202024 0.029687762 -0.044475034
-0.019131675 -0.0443967 0.051629514 0.010139808 -0.11434746 -0.021458775 0.065806255 -0.046854347
0.04677725 -0.019857243 -0.10277338 -0.01619412 -0.03978631 -0.026594311 0.10342567 -0.10355893
0.022701502 0.027854756 0.089075655 -0.08782987 -0.036202624 0.056370392 0.097617224 0.009641275
-0.012337685 -0.06461418 0.060937017 -0.10353486 0.02900885 -0.009083256 0.029387161 0.047740355
0.0074999332 0.052531987 -0.06167063 -0.12274407 -0.037457094 0.027337 -0.11024888 -0.09081811
-0.03861329 -0.082919836 -0.045453355 0.050361678 -0.12052064 -0.051356837 0.10676701 0.05026038

lstm.bias_ih_l0 f4 [256]
00000000: 2deb a7bf f68c 99bf 5dfd c4bf 7399 91bf
00000010: ebf9 b2bf 1dfe a4be e3d8 9bbf d21b afbf
00000020: 337b 9dbf 127d 38bf ae73 a8bf 437e 92bf
00000030: 900d a0bf 8d6b c1bd 55b5 103f 2c87 70bf
00000040: 6b61 3abf 65b5 6ebf 506c 9ebf 56ad a4bf
00000050: 7d33 a6bf 2c9b afbf 885b b2bf fe46 153f
00000060: f041 a7bf 6bf3 8dbf e018 babf e49f fd3e
00000070: f010 c0bd fb3a a3bf 8634 9dbf b4cd 9fbf
00000080: 7ec1 a6bf a60d 99bf a58f c5bf 0a04 20bf
00000090: 1e90 6f3e 3fb3 aabf 4897 92be 8818 a4bf
000000a0: d72a 9e3e bc57 a1bf eafe abbf c158 68bf
000000b0: a8a6 75bf 9bf6 96bf 8c96 a6bf 008a 85bf
000000c0: ab0d aabf 563e b4bf 9d5d aebf 489a a7bf
000000d0: 2ddb b2bf d464 87bf 2b66 92bf 1f86 a3bf
000000e0: 5b78 263f 576f 92bf f275 a3bf 3775 9ebf
000000f0: 800a a7bf 7256 95bf c059 acbf 57bd a5bf
00000100: da18 b8bd a4aa b93d 4813 11bd 58bd f1bc
00000110: f83e 19bd b8ba 8b3d 9ecb 883d 8895 efbd
00000120: c83a 9c3c a4f9 ffbd 7015 08bd f07b aebd
00000130: 1838 d53d fcaa d9bd 200b 3bbc 9cfd b9bd
00000140: 7ccb 2abd 10f0 1a3d 80e4 abbb 2ad8 833d
00000150: ae63 d63d f8a9 be3d 8204 e3bd b8d8 bc3d
00000160: e0db 3fbd 40ac fdbb d849 633d d878 873d
00000170: 4c1f 7bbd 5009 623d f88b 2d3d 4ecd f43d
00000180: 4093 59bb 0080 c4bc 00d6 2d3a 60c4 c5bb
00000190: e063 c13d 4c26 cfbd b048 bdbc b02a a3bd
000001a0: 8085 b1bc 000e 233b 2c15 89bd 3cf2 2ebd
000001b0: 0070 e03a 7ca4 d6bd a094 2cbc c81f a4bd
000001c0: 90fc 7fbd b24a cabd 8055 b1bb 5406 ce3d
000001d0: 20af a1bd 789b ebbc e050 f13b 4054 a3bc
000001e0: 082f 3f3d b8e5 dabc a01d f0bd 001f ebbb
000001f0: dc7f 093d 42dc b4bd 40ed aebd 50a5 b2bd
00000200: 406e 2b3d 066c c2bd 0000 383d fd89 6c3d
00000210: 37cb 2b3e a0e2 71be b92d 1c3d 8061 923a
00000220: f0a8 283e dfc7 d1bd 2497 4cbc a78a 423d
00000230: a466 3c3d 5495 1b3e e1c1 88be 72ce 80bd
00000240: da3e cb3d a81f 593e 05b9 353d 053c eebc
00000250: 3efd b0bd 7f3c 35bd bfac 9b3d 5276 4e3e
00000260: 2938 7e3d 5da0 5e3d 3543 f83a 79c2 753e
00000270: 87da 25be 9dbf 9fbc 961c 8a3c 14fe d3bc
00000280: d1ca cd3d 9448 f13d 0926 c63d 9cae 593e
00000290: 92a9 55be 4544 273c e26a c13d e925 53be
000002a0: ba77 0e3e f83d d53b 55a9 e3bc 271c dcbd
000002b0: 5952 823c fd9f 023e 63c7 783d 7f8d 313e
000002c0: 02d2 6c3e 6694 1fbc e66c 24bd b76f b3bd
000002d0: bd20 783c 42f6 0c3d af73 e7bd 4537 63b9
000002e0: 648a b4be cc63 62bd eb4f 843d c870 68bd
000002f0: f1c5 0e3e eebd bf3d 0b31 2cbd bde9 e93c
00000300: 2a66 b1bf 83a5 9cbf ff2e abbf de44 99bf
00000310: 8cf8 adbf 6eda 24be 85fb a7bf 428b 9dbf
00000320: eba0 8cbf 91bd 12bf 7f60 b2bf 6f09 a3bf
00000330: 6db9 b4bf ca05 cdbd 55f3 5b3f 60fa 8bbf
00000340: aea2 35bf 2952 74bf 864c a0bf 46d9 b0bf
00000350: 0dd5 a1bf 7f39 a1bf 7704 a8bf a82c 673f
00000360: b257 acbf b2b3 b3bf 863c b1bf 9c47 4a3f
00000370: 3cb1 e73d 9d5b a2bf c798 b7bf 1692 8dbf
00000380: 7f6a a4bf 35dc a5bf 32b0 a4bf ed28 18bf
00000390: 0cb5 1a3e 5aec abbf b735 dabd f23b a5bf
000003a0: 2675 0a3f 08bf aabf bdc2 b8bf c457 7fbf
000003b0: 340f 8dbf 92c7 8dbf 560e a6bf 51d0 6ebf
000003c0: d678 a1bf 7144 abbf 4224 b1bf 9c41 c1bf
000003d0: 8053 acbf 1707 98bf efcd 9dbf 2f3f 9fbf
000003e0: 4b21 483f 3624 99bf c0b0 bbbf 0f69 b4bf
000003f0: 9e40 bdbf 333c 99bf a9fd b8bf ebaf a6bf
-1.3118645 -1.1996143 -1.538982 -1.1374954 -1.3982519 -0.32225123 -1.2175564 -1.3680365
-1.2303222 -0.7206584 -1.3160303 -1.1444782 -1.2504139 -0.09444342 0.5652669 -0.93956256
-0.728049 -0.93245536 -1.2376804 -1.2865398 -1.2984463 -1.371923 -1.3934183 0.5831145
-1.3066998 -1.108991 -1.4538841 0.4953605 -0.093782306 -1.2752374 -1.2281654 -1.2484651
-1.3027799 -1.195729 -1.5434462 -0.62506163 0.2339482 -1.3335952 -0.28631043 -1.2819986
0.3089206 -1.26049 -1.3437169 -0.9076043 -0.9595742 -1.1794008 -1.3014693 -1.0432739
-1.3285421 -1.4081523 -1.3622319 -1.3093958 -1.3973137 -1.0577645 -1.1437429 -1.2775306
0.650274 -1.1440228 -1.2770369 -1.2379521 -1.3050079 -1.1667006 -1.346489 -1.2948407
-0.08989115 0.0906575 -0.03541878 -0.029509231 -0.037413567 0.06822723 0.06679462 -0.11698443
0.019070998 -0.12498787 -0.03322357 -0.08519733 0.1041109 -0.10628316 -0.011416227 -0.09081575
-0.041697964 0.037826598 -0.005245745 0.064377144 0.10468231 0.09309763 -0.11084844 0.09221023
-0.04684055 -0.007741481 0.055490345 0.06614846 -0.061309144 0.055184662 0.042369813 0.11953221
-0.003319934 -0.023986816 0.0006631315 -0.0060353726 0.09442878 -0.101147264 -0.02310595 -0.07967126
-0.021670103 0.002488017 -0.06693491 -0.04271148 0.0017123222 -0.10480592 -0.010533482 -0.08013874
-0.06249672 -0.09877528 -0.0054118037 0.10059801 -0.078947306 -0.028760657 0.0073643774 -0.019937634
0.046675712 -0.026720867 -0.117244005 -0.0071753263 0.0335692 -0.08831073 -0.085413456 -0.08722937
0.04185319 -0.0949326 0.044921875 0.057748783 0.16776739 -0.23621607 0.038129542 0.0011167973
0.16470695 -0.102432005 -0.012487207 0.04749551 0.045996323 0.15193683 -0.26710418 -0.06289376
0.09924097 0.21203482 0.0443659 -0.029081354 -0.08642052 -0.044247147 0.07601308 0.20162323
0.062065277 0.054352153 0.0018940928 0.23999967 -0.16196643 -0.019500548 0.016859334 -0.02587799
0.1004845 0.11781421 0.096752234 0.21258014 -0.20865467 0.010209148 0.094442144 -0.2061993
0.1391286 0.0065076314 -0.027790705 -0.10747557 0.015908407 0.12756343 0.060737025 0.17339133
0.23126987 -0.009739971 -0.040142916 -0.08761542 0.015144524 0.034414537 -0.11301362 -0.00021668996
-0.35261834 -0.055270955 0.06460556 -0.05674818 0.13942696 0.09362398 -0.04203896 0.028553838
-1.3859303 -1.223801 -1.3373717 -1.1974142 -1.3591475 -0.1609895 -1.3123633 -1.2308123
-1.0986608 -0.57320505 -1.3935698 -1.2737254 -1.4119087 -0.1001087 0.8591817 -1.0935783
-0.70951355 -0.95437866 -1.2523353 -1.3816307 -1.2643143 -1.2595671 -1.3126363 0.90302515
-1.3464262 -1.4039214 -1.3846595 0.7901552 0.11313102 -1.2684208 -1.4343499 -1.1060207
-1.2845 -1.2957827 -1.286627 -0.5943745 0.15108126 -1.3431504 -0.106547765 -1.2908919
0.54085004 -1.3339548 -1.443443 -0.99743295 -1.1020265 -1.1076529 -1.2973125 -0.93286616
-1.2615001 -1.3380262 -1.383919 -1.5098147 -1.3462982 -1.1877164 -1.2328471 -1.2441157
0.781758 -1.1964176 -1.4663315 -1.4094561 -1.4785345 -1.1971496 -1.4452411 -1.3022436

lstm.bias_hh_l0 f4 [256]
00000000: cbca b1bf e0d3 95bf 8158 b2bf db6d a5bf
00000010: afe4 bcbf e5f9 adbe f411 9dbf 4258 c0bf
00000020: 5d5f 9dbf 3897 42bf dbf6 a1bf bb17 81bf
00000030: 4cac a7bf 066e 61be cb6d 243f 7470 70bf
00000040: 33d9 3cbf fdd3 80bf 1a8a a7bf b4d2 94bf
00000050: a9cd b8bf d30d a3bf 82ed b7bf 06be 1b3f
00000060: 3c73 bcbf bc97 8cbf 1ac5 b2bf 95b1 da3e
00000070: 3d0a af3c 5b0d 98bf bc37 a8bf 690e 8bbf
00000080: 97c9 a0bf a273 b2bf 83a9 c7bf 77af febe
00000090: d362 d23d dd7a acbf 834b f3bd 64a4 99bf
000000a0: cfa0 913e 4afa 9cbf c068 c2bf ab0f 82bf
000000b0: 1154 82bf 67a7 9dbf ca89 a5bf 8081 6cbf
000000c0: 138b 9abf d624 afbf 44f3 96bf 96f4 a8bf
000000d0: 5bbc a7bf d6c5 95bf dd47 97bf 9abb a1bf
000000e0: 310e 283f 95ee a4bf f441 a3bf 766e b9bf
000000f0: 0056 9ebf ef14 a0bf 9087 a3bf b7e1 97bf
00000100: b4da a1bd ac09 e5bd 582d 84bc c622 df3d
00000110: a493 b2bd 8464 b7bd 0018 e2ba da1a e4bd
00000120: b882 49bd e083 80bb c83d f6bc fa5e abbd
00000130: 1c17 49bd 2070 3ebc 807c 3fbc a0fa bd3c
00000140: 5c9c b53d 76d3 c2bd a404 9bbd 002f 7cbd
00000150: 4e9d 823d 781c dbbd bc4a 553d 70ba 53bc
00000160: 18b8 4c3d a6ce f7bd 40cc ea3c 6cdb b5bd
00000170: e042 2e3c 7038 51bc 305e 113c c832 cc3d
00000180: 086f a73d 1c2f dc3d 983f 90bc de37 883d
00000190: 28f1 56bd 9ac4 933d 865b c4bd 841c 2cbd
000001a0: d843 863d c09e 3a3d 8011 11bc 900b f03d
000001b0: 7876 f13d 4080 663d 34ec 19bd cea4 f6bd
000001c0: 1214 ddbd 5812 69bd 2c97 ba3d 4ab7 843d
000001d0: 768c 923d 9cc2 f2bd b031 63bd f412 b3bd
000001e0: 98b7 e03c c0d9 2f3d 2a16 f93d aad4 a83d
000001f0: d4a6 d63d 800c c1bc 7833 1b3d 105a ca3d
00000200: 9192 08be 441c 883d 0f36 103d 4ddd 5bbd
00000210: 8dcb 78bd 428d 34bd e03c 77bc 5e9e 8dbd
00000220: 54fb 083c 4349 02be da1e 983c c681 b6bc
00000230: e88f 5b3b acfe 143e 4c92 2cbe 7516 37be
00000240: 8d89 fe3d 11aa a83b 69d8 9dbd 0b59 4f3d
00000250: 3e2f 57bd 1888 933d 1d50 053d f924 813e
00000260: 79f9 7fbd c9e2 a2bd 1329 2bbe b57e 763e
00000270: 0bb3 2ebe 9d25 b6bd dff9 a83d 286b f73b
00000280: 9b6f bbbd bd36 063c dabc a23c 0eaf b63d
00000290: 841c 6bbe 6468 c73c 4f17 863e 163c 1f3c
000002a0: 66a8 123e 181d c5bc 3322 abbd f549 b0bd
000002b0: 5e1b 42be 712e 143d 731d 91bd 3697 673d
000002c0: 5332 903c bee3 dfbc de86 a83d ce04 e93b
000002d0: bb7d eabd c4b9 0a3e d66b 3abd fb8a 63bd
000002e0: 92ab 12be a44e 3fbe f666 27bd 27e2 f83d
000002f0: 3cef 0fbd 8259 d5bd f9c7 64bd 8c49 773c
00000300: 04d0 9abf d9df acbf ef24 afbf 3251 a8bf
00000310: 4a9c aabf 7ad3 2abe ea9f 8dbf c6e8 b6bf
00000320: ff75 93bf 9133 43bf a3dc a8bf ef90 a4bf
00000330: b378 b0bf fc19 fd3c 9371 433f a633 8cbf
00000340: eb8b fdbe 44fe 82bf 52b5 bdbf 5e6d 9ebf
00000350: 2f02 acbf ef48 9abf 5d5c b1bf c86a 673f
00000360: 0826 a4bf 3c5f b1bf 26e3 aabf 22e6 383f
00000370: 31c7 6e3e 6fbd a0bf 6d49 bfbf f636 99bf
00000380: 0b96 adbf bdc3 8abf dc95 a4bf 33d6 18bf
00000390: 2060 633e a676 a9bf d6eb 84bd fefd 9bbf
000003a0: f027 123f cfa0 aabf bd52 a6bf 5e18 82bf
000003b0: 5222 84bf 3413 86bf 6a0f abbf 23b4 4fbf
000003c0: 44c1 9abf 683e 9bbf b4f1 a8bf 2655 b0bf
000003d0: 2833 b6bf 036e 87bf 733d a3bf 8081 a2bf
000003e0: 695c 553f 4cee 93bf 8f5e b1bf b753 b1bf
000003f0: 0258 b4bf f5d5 a1bf abfd c5bf f507 a8bf
-1.3890013 -1.1705284 -1.3933259 -1.292415 -1.4757289 -0.33979717 -1.2271104 -1.5026934
-1.2294728 -0.7601199 -1.2653459 -1.0085367 -1.3099456 -0.22014627 0.6423003 -0.9392159
-0.7376892 -1.0064694 -1.308902 -1.1626801 -1.4437762 -1.2738594 -1.4369357 0.6083683
-1.4722667 -1.0983806 -1.3966401 0.4271361 0.021367187 -1.1879076 -1.3142009 -1.0863773
-1.256152 -1.3941538 -1.5598606 -0.49743244 0.102727555 -1.3474995 -0.11879637 -1.2003293
0.28443 -1.2263882 -1.5188217 -1.0161031 -1.0181905 -1.2316712 -1.2932675 -0.923851
-1.2073692 -1.3683116 -1.1792989 -1.3199642 -1.3104357 -1.1701 -1.1818806 -1.2635376
0.65646654 -1.288531 -1.2754502 -1.4486835 -1.2369995 -1.2506388 -1.2775745 -1.1865758
-0.079030424 -0.111834854 -0.016134903 0.108953044 -0.087195665 -0.08954719 -0.0017249584 -0.11137934
-0.04919693 -0.0039219707 -0.030058756 -0.08367725 -0.049094304 -0.011623412 -0.011687398 0.023190796
0.08867714 -0.09512989 -0.075692445 -0.06156826 0.0637766 -0.10698789 0.052073225 -0.012922868
0.049980253 -0.12099962 0.028661847 -0.08879742 0.010636061 -0.012769803 0.008872554 0.09970623
0.081754744 0.10751173 -0.017608449 0.06651281 -0.05247608 0.07215233 -0.09587769 -0.042019382
0.06555909 0.045561552 -0.00885427 0.11720955 0.11790174 0.056274652 -0.037578776 -0.12043153
-0.10794844 -0.05690226 0.09110865 0.06480272 0.07155697 -0.11853525 -0.055467308 -0.087438494
0.027431294 0.042932272 0.121624306 0.082436875 0.10481039 -0.02356553 0.03789088 0.09880459
-0.1333716 0.06646016 0.035207804 -0.053677846 -0.060740996 -0.044080026 -0.015090197 -0.06914972
0.008360703 -0.1272326 0.018569399 -0.022278678 0.0033502523 0.14550275 -0.16852683 -0.1787966
0.124285795 0.0051472266 -0.077072926 0.050622027 -0.052535288 0.07203692 0.032547105 0.2522352
-0.062493775 -0.07953412 -0.16714887 0.24071772 -0.17060487 -0.08893893 0.08250784 0.007550616
-0.091521464 0.008191762 0.019865442 0.08920108 -0.22960097 0.02434177 0.26189658 0.009718915
0.14322051 -0.024061725 -0.08356132 -0.08607856 -0.18955752 0.036177102 -0.07085695 0.05654069
0.017602121 -0.027330276 0.08228849 0.0071111685 -0.114497624 0.13547426 -0.045512997 -0.055552464
-0.14323261 -0.18682343 -0.040869676 0.1215251 -0.03514026 -0.10417463 -0.05585477 0.015093219
-1.2094731 -1.3505813 -1.3683146 -1.3149779 -1.3328946 -0.16682234 -1.1064427 -1.4289787
-1.1520385 -0.7625056 -1.3192333 -1.285673 -1.3786834 0.03089618 0.76345176 -1.0953262
-0.4952081 -1.0233846 -1.482096 -1.2377126 -1.3438166 -1.2053508 -1.3856312 0.9039731
-1.2824106 -1.3857188 -1.335057 0.72226155 0.23318173 -1.255781 -1.4944283 -1.1969898
-1.3561414 -1.0840985 -1.2858233 -0.5970184 0.22204638 -1.3239334 -0.06490295 -1.2186887
0.5709219 -1.3330325 -1.2994 -1.0163686 -1.0322974 -1.047461 -1.3364079 -0.8113424
-1.209023 -1.212842 -1.3198762 -1.3775985 -1.4234362 -1.0580448 -1.2753128 -1.269577
0.8334413 -1.1557097 -1.3856982 -1.3853673 -1.4089358 -1.264342 -1.5468038 -1.3127428

lstm.weight_ih_l1 f4 [256, 64]
00000000: 2dbd 293d 8d36 03be 4a7e 26be 05ef 01be
00000010: 7ca6 3bbd 3ca8 c83e b80e afbd 3ded 063d
00000020: 4e25 71be 1b2c 933e 9d52 003d 6d9c f0bd
00000030: a570 6a3d bb68 103f 458d 313e e928 7d3e
00000040: 974a 8fbe 5def 57be 59be 97bc 008b 4b3d
00000050: 9e93 ed3d eafc d43d 435b 15be 5454 4bbe
00000060: 6ec3 4cba 1558 fcbd 627e 083e 6a79 babe
00000070: e1c8 bc3e 7851 8e3d 9dcf f1bd a697 c9bd
00000080: 1793 953d 1569 77be f233 8fbe c317 753e
00000090: 2458 493e 1180 0dbe 9366 1dbe 40b6 883e
000000a0: 1f6c 4a3f add1 02bb ee30 94bc bce6 a93e
000000b0: 9803 4f3e e78b 0bbe 7517 a13d d33e 85be
000000c0: b89f 56be 97c5 843d bb06 123e 417c 81bd
000000d0: ab20 1b3e 827e 84be 99fc de3d 48a6 013e
000000e0: 6d88 c23e f3af 293e 5bc7 4e3b 672a 253d
000000f0: ee0f 0abe 82d5 d1bd 37ca 203d 42da 683d
00000100: 3611 97bc 066a c5bd ebe4 16be 5565 0f3d
00000110: 298b 0abe 1910 0e3e 8cfc 14bd e96c 9ebd
00000120: e093 63bd ac33 0b3e d2bb 9c3d e528 3bbd
00000130: 62e7 f73d 3cfe 7d3d e31e b53d da59 3e3d
00000140: 7d1b dd3b e354 463c 72ed 85bd de4a 91bd
00000150: 3de5 d73d 9d50 de3b 2f16 583d 3f2f 43be
00000160: b3bc 163c 0ec6 c6bd 5cea 1d3e 99e9 41be
00000170: 690d 6f3e b673 113e 8cb7 5e3d c805 0abd
00000180: 2dd1 d03d f671 6b3c e875 1cbe 0a6b c1bd
00000190: d43a ec3d 0cb6 ad3a 5a8a 7cbc 1f33 2cbd
000001a0: 5d1b e73d 7399 c8bd 9d18 e73c 451d 243e
000001b0: d78e 073e 6574 463d 0688 c93d b10f 52be
000001c0: 3ab6 8dbc 0eb6 a2bd d05d e5bd 644a 38bb
000001d0: 34cb 77bd 9e18 1abd a849 4e3c c6ac e13c
000001e0: dba5 903e 02e1 403e 9bb7 2abd 553c d7bd
000001f0: a352 9fbd 20f6 823d 7332 0e3e 4c05 a0bd
00000200: ef26 283d 8feb 15bc 2c44 17be 98e9 e4bd
00000210: 7e5a d8bd 44a5 8f3c 798e c03d 1cd5 70bd
00000220: 250d 82bd ce2c af3b 2319 c43d 39d3 0dbd
00000230: ec34 663d 4844 74bd 03ac 943e 33ce 823d
00000240: cf89 43be c9ff 53be 1716 263d 84cc d83b
00000250: b3bf a4bc 0ff3 6f3d b728 be3d adbf 99be
00000260: c3e2 f83d b213 463d a8e5 d83b 9413 84be
00000270: ff94 9b3e 2468 0a3d a319 13bc 5b9a 6abd
00000280: 225f 913d 4c39 27bd 65ef 48bc cee1 5dbc
00000290: 9eb1 8e3e df87 eebd 3005 63be 9c37 f13d
000002a0: 587a dc3d f87b 08be ba34 963d 4491 303e
000002b0: c8a8 0a3e 5dda 08be ee4c 503d ed40 9cbd
000002c0: 0656 44be 06ce efbc 39ac bc3c 5b84 0fbd
000002d0: 0c9e f8bb 2025 13be 4b7c 1e3e 37f4 9b3d
000002e0: 5409 763e c152 493e 91c8 7a3d 14ab 7d3d
000002f0: 9351 9cbd e474 253d 1823 9bbc f9e6 25bc
00000300: 70c1 2dbe b989 ef3c b1af 663e a762 92bd
00000310: 8280 833d 9c02 66be a451 eabd 1bfe 143d
00000320: 9389 983e 41fc c1bd ee99 80bd f355 89bd
00000330: 4014 ecbd cdeb f03d 472c 45be c0da 0ebe
00000340: 87bf fd3d 616a ec3d 9ed5 1f3e fb98 22be
00000350: a333 15be 7680 b23d 5ad7 323e 3144 bb3e
00000360: 6781 c9bc b181 b0bd 1dec 19be 6711 ab3e
00000370: 3dfb bcbe 182d 69bd fba3 7abd 8886 0cbd
00000380: 61e3 9cbd 1c5c 813e 8509 533e 1792 793e
00000390: c1f5 cdbe 3c5e 58bd 1520 a13e 0730 0cbe
000003a0: 71bd b03d f86d 053d be0a 0abe 5a00 b4be
000003b0: 60f1 43be 6c78 2b3e c0aa fbbd abce 753e
000003c0: da59 813e 4f3b 4ebe 6c22 a73d 8489 bdbd
000003d0: fccb 95bc 551d d73c 971c 20bd 363c 98bd
000003e0: 86de 53be 75c7 88be 6213 303e 3262 213b
000003f0: 2412 633e 1275 b23d eeff 2d3c f61d c73d
0.041440178 -0.12813778 -0.16259113 -0.12688835 -0.04581307 0.39190853 -0.08547729 0.03294109
-0.23549387 0.28744587 0.031328786 -0.11748586 0.057236332 0.56409806 0.17339046 0.24722637
-0.27986595 -0.21087404 -0.018523382 0.049693108 0.11600421 0.10399802 -0.14585595 -0.19856387
-0.0007811104 -0.12321488 0.13329461 -0.36420757 0.36872008 0.06949133 -0.11807177 -0.09843378
0.07303446 -0.2416118 -0.2796932 0.23934846 0.19662529 -0.13818385 -0.1537116 0.26701546
0.7907123 -0.0019961402 -0.018089738 0.3318385 0.20216215 -0.13627587 0.07865802 -0.26024494
-0.20959365 0.06483 0.1426038 -0.06322528 0.1514918 -0.25877768 0.10888023 0.12661088
0.3799471 0.16571026 0.003155193 0.04032364 -0.13482639 -0.102458015 0.039255347 0.056848772
-0.018440824 -0.09639363 -0.14735763 0.035008747 -0.13529648 0.13873328 -0.03637366 -0.07735617
-0.055560946 0.1359393 0.076530114 -0.045693297 0.1210468 0.062010035 0.08843782 0.046472408
0.0067476616 0.0121051995 -0.0653943 -0.07094358 0.105417706 0.006784512 0.05275553 -0.19060992
0.009200263 -0.09705745 0.15421432 -0.18936767 0.2334496 0.14204296 0.054374263 -0.03369692
0.10196147 0.014370432 -0.15279353 -0.09444244 0.11534658 0.0013253107 -0.015413845 -0.04204094
0.11284516 -0.09794893 0.028209979 0.1602679 0.13238083 0.048450846 0.098403975 -0.20513798
-0.017298806 -0.079448804 -0.11199534 -0.0028120512 -0.060496524 -0.037621133 0.012590803 0.027548205
0.28251538 0.18835834 -0.041679006 -0.10509554 -0.077794336 0.06394601 0.13886432 -0.0781351
0.041052755 -0.0091504 -0.147721 -0.11177367 -0.10564135 0.01753486 0.094021745 -0.058796987
-0.06350163 0.0053459173 0.09575107 -0.034625266 0.056202814 -0.05963543 0.29037485 0.06386986
-0.19095539 -0.20703043 0.04054841 0.006616177 -0.02011094 0.058581408 0.092851095 -0.3002905
0.12152626 0.048358627 0.006619174 -0.25796187 0.30387112 0.033790722 -0.00897828 -0.05727611
0.07098223 -0.040826127 -0.012264107 -0.013542606 0.27869886 -0.11647009 -0.22169948 0.11778185
0.10765523 -0.1332854 0.073342755 0.17242914 0.13540947 -0.13364549 0.050854616 -0.07629571
-0.1917344 -0.029273044 0.02303134 -0.035038333 -0.0075872 -0.14369631 0.15477102 0.0761494
0.24026996 0.19660474 0.06122643 0.06193073 -0.076327465 0.04039468 -0.018937632 -0.010125869
-0.16968322 0.029240476 0.22527958 -0.07147723 0.06420995 -0.22461933 -0.11441353 0.036375146
0.2979246 -0.09471942 -0.0627936 -0.06705847 -0.115273 0.117637254 -0.19255172 -0.13950634
0.123900466 0.11543728 0.15608832 -0.1587867 -0.14570479 0.08715908 0.17464963 0.36575463
-0.024597837 -0.08618487 -0.15031476 0.33411714 -0.3691043 -0.05692777 -0.06119154 -0.034307986
-0.076605566 0.25265586 0.206091 0.24372135 -0.40226558 -0.052824244 0.3146979 -0.13690196
0.08629883 0.032575577 -0.1348066 -0.35156518 -0.19135046 0.16745156 -0.12288427 0.24004619
0.25263864 -0.20139812 0.08160862 -0.09254745 -0.018285744 0.026259104 -0.039089765 -0.07433359
-0.20690355 -0.26714674 0.17194894 0.002462518 0.22174889 0.08713736 0.0106201 0.097225115

lstm.weight_hh_l1 f4 [256, 64]
00000000: 209c 86bb 303f 0cbd da67 d83d a0fc bebd
00000010: 5810 2e3d 44a4 ba3d bc52 f53d 2cb6 90bd
00000020: 2481 e23d b667 99bd 66df 813d f040 a43d
00000030: 827b eb3d f030 cb3d 1060 793d b0dc 3f3d
00000040: fc03 fdbd b0be 37bd 7260 ba3d cc5c ebbd
00000050: e803 4cbd 36fb ca3d 7820 2a3d c281 87bd
00000060: a034 58bd 6cea 77bd fc60 ebbd 1202 cbbd
00000070: 7a54 c33d 88cc ac3d 703e f73c dcf4 783d
00000080: 40d8 a73b 4c2f 2b3d f0c2 64bc 04f0 40bd
00000090: ae24 c1bd ceb1 c6bd bc57 fdbd 9a70 c03d
000000a0: d8f1 d73d f6f8 b13d 4475 d6bd dc6c 8cbd
000000b0: e007 573d 7e9f eebd 7cc1 e0bd 9c63 d53d
000000c0: d0e9 b8bc dc40 89bd 2462 a43d 200c 6a3c
000000d0: 0044 a43a b666 c43d c255 923d 58e5 f13c
000000e0: 408b 7d3d 7415 5f3d 00d8 26ba 70c5 933d
000000f0: 0c9b 14bd 7cf5 423d a42a 9abd 20b5 debb
00000100: 38ab 513d f6d7 aa3d d289 993d c073 b1bc
00000110: 4c0c 413d c8a5 a43c 80c7 d0ba 6c4d af3d
00000120: 8c5c cfbd 0c69 483d 9ca6 393d 861e 8c3d
00000130: e455 823d 6030 a8bc 5c66 b73d 94ec 68bd
00000140: 341b 07bd d20b 8fbd 3236 c93d bed8 d6bd
00000150: 3ef9 ce3d 4898 9bbc 3cb1 44bd d883 8ebc
00000160: 2e21 8fbd 6cc5 55bd 70dc 93bc e2a5 bfbd
00000170: 6013 e9bb e613 a9bd 8cf2 76bd be31 dd3d
00000180: 2029 983c 807d 04bb e0f1 a83c 7a56 83bd
00000190: 18c8 4e3d a030 a5bb 0871 90bd 504c f33c
000001a0: a88b 17bd 9cc0 ba3d a21f d9bd 4aa1 9ebd
000001b0: f403 e53d f47f 993d 0698 b8bd 5c7a 7ebd
000001c0: 10b2 e13d eab5 83bd 7493 b1bd 9ee7 b23d
000001d0: 7063 d9bd 4c46 45bd acf2 433d d245 dbbd
000001e0: 38b5 e33c 0099 89bb 18b6 343d 1829 fbbd
000001f0: 54d0 68bd c4e0 9cbd e470 9ebd 5000 4ebd
00000200: a8d0 85bd e210 ae3d d0ca 263d 20ee 973b
00000210: 0861 323d 7808 1fbd 009d 7bbc 48a6 d13c
00000220: b07d 0d3d a036 623d 9012 83bd 1031 723d
00000230: 382b c43c 6036 ae3c 50ec 8ebd 7479 77bd
00000240: b45c 5abd 20d0 5d3c a673 aa3d 005d 233c
00000250: 5ab5 8fbd 2035 11bd 6c0d 3bbd a2a6 e5bd
00000260: 6421 e43d 1a18 e13d 80bc ee3c 8ef7 84bd
00000270: 844c 003d 5032 eb3c b0e8 62bc f87c fa3d
00000280: 28a1 8d3c 005c d83c 821f b5bd d08d b13c
00000290: e8b0 bebc 80be 0e3d bc5c 7f3d 9015 f1bc
000002a0: f015 f2bd 1014 43bc a026 8bbc c618 a2bd
000002b0: f40e d6bd 4013 13bd 70b7 d33d 00ad 5dba
000002c0: 0e65 b8bd 20af 0e3c 9cb7 d9bd 08d1 9b3d
000002d0: 14f5 ee3d 8083 e03b a0c6 8dbc 2c99 9cbd
000002e0: c873 b1bc eaf8 efbd e481 4d3d a4e9 75bd
000002f0: 2cbe 283d 3ee0 8cbd 5e56 a5bd 2039 253d
00000300: a071 30bd fa60 d83d 4220 ddbd 2474 fa3d
00000310: 9e0a edbd 8a06 ffbd 5c32 efbd 041e a4bd
00000320: 80c1 7c3b 66f2 a53d bcbe 6abd 22c0 a13d
00000330: 0ca0 7e3d b8d2 103d 0053 f63c dc7b eabd
00000340: f8bd 773d c08b 4ebb 9053 ba3d c096 c03c
00000350: b63b 90bd 64e8 b6bd 5cb1 4fbd 289a dc3c
00000360: 18f1 6bbd a883 ffbd 909c c03c 0842 86bc
00000370: c0ff 433b 44c9 8b3d 428f f7bd 2885 81bd
00000380: 349c 613d 9861 dc3d 1c1b a73d 0881 d33c
00000390: bc87 c93d fc94 71bd 84a6 15bd 28b1 903c
000003a0: 24f8 9bbd b09e ae3d 322e cebd c40a 1f3d
000003b0: 8a65 bcbd 6ce1 c5bd 02e2 b5bd 06f3 c53d
000003c0: 9c6e 5e3d cce5 713d ecc4 a63d 0673 d7bd
000003d0: 802d f73a f057 243d 88cf f6bc 5451 113d
000003e0: c0b0 ef3c 9011 4cbd 10f4 98bc 102f 8a3c
000003f0: befc c6bd 2040 82bc d8c9 4d3d 4415 1ebd
-0.004107967 -0.034239948 0.10566683 -0.09325528 0.042496055 0.091133624 0.11978671 -0.070659965
0.11059788 -0.074904844 0.06341438 0.08020198 0.114981666 0.099214435 0.060882628 0.046841323
-0.123542756 -0.04485959 0.09100427 -0.11492309 -0.049808413 0.09911196 0.04153487 -0.06616546
-0.052784562 -0.060526296 -0.11493108 -0.09912504 0.09537597 0.08437449 0.03018114 0.06078039
0.0051222146 0.041793153 -0.013962492 -0.047103897 -0.09430824 -0.09701882 -0.1237025 0.09396477
0.10544175 0.08690064 -0.104715854 -0.06856701 0.052497745 -0.116515145 -0.10974404 0.104193896
-0.022572428 -0.06701824 0.08026531 0.014285117 0.0012532473 0.09589903 0.07145263 0.029528305
0.061900377 0.05446382 -0.0006364584 0.072153926 -0.036280677 0.047597393 -0.07527664 -0.006796494
0.051188678 0.083419725 0.0749699 -0.02166164 0.047130868 0.020098582 -0.0015928596 0.08559689
-0.10125074 0.048928306 0.045324907 0.068417594 0.063640386 -0.02053088 0.089550704 -0.056866243
-0.032984927 -0.069846764 0.0982479 -0.10490559 0.10106133 -0.018993512 -0.048020586 -0.017396852
-0.069887504 -0.05219023 -0.018049449 -0.093578115 -0.0071129054 -0.082557485 -0.060289904 0.10800503
0.018574297 -0.0020216405 0.020623147 -0.064129785 0.050483793 -0.005041197 -0.07052809 0.029699475
-0.03699842 0.091187686 -0.106017366 -0.07745607 0.111823946 0.07495108 -0.09013371 -0.06212841
0.11020291 -0.06431182 -0.086707026 0.08735584 -0.10614669 -0.048162743 0.04783885 -0.107066765
0.027796373 -0.004199147 0.04411897 -0.122636974 -0.056839302 -0.07660058 -0.07736376 -0.050293267
-0.06533939 0.08499314 0.04072076 0.004636541 0.043549567 -0.038826436 -0.015357256 0.025591984
0.034543693 0.055227876 -0.06400025 0.05912882 0.02394639 0.021266162 -0.06978667 -0.06041856
-0.053311065 0.01353839 0.083228394 0.009970903 -0.07017012 -0.035451055 -0.045667097 -0.11213423
0.11139181 0.10990925 0.029142618 -0.0649253 0.03132297 0.028710514 -0.013849422 0.12230867
0.01728876 0.026411057 -0.088439 0.021674067 -0.023277715 0.034849644 0.062344298 -0.029429227
-0.118205905 -0.011906639 -0.016986191 -0.079148814 -0.10452071 -0.03590703 0.10337722 -0.000845626
-0.0900365 0.008708745 -0.10630724 0.07608229 0.11667839 0.0068516135 -0.017306626 -0.07646403
-0.021661654 -0.117173985 0.0501727 -0.06003727 0.041196987 -0.06878708 -0.08073114 0.04033768
-0.04307711 0.10565372 -0.10797168 0.12229183 -0.11574291 -0.12452419 -0.11679527 -0.080135375
0.0038567483 0.081028745 -0.057310805 0.078979746 0.06216435 0.035357207 0.030068874 -0.114494056
0.060483903 -0.0031516403 0.090979695 0.023509383 -0.07042639 -0.08931044 -0.050706252 0.026928976
-0.05760297 -0.12476283 0.023512155 -0.016388908 0.0029907078 0.06825498 -0.12087871 -0.06324226
0.055080608 0.10760802 0.081594676 0.025818363 0.098403424 -0.058979973 -0.036535755 0.0176626
-0.076156884 0.08526361 -0.10067405 0.038828626 -0.091990545 -0.096621364 -0.08880998 0.09665494
0.054304704 0.059057042 0.081430286 -0.10519986 0.0018858165 0.040122926 -0.030128255 0.03547795
0.029259086 -0.049821436 -0.018671066 0.016868144 -0.097161755 -0.015899718 0.05024132 -0.0385945

lstm.bias_ih_l1 f4 [256]
00000000: dda4 d0bf c18d d8bf a498 debf f7e4 f3bf
00000010: 97ae d8bf 6874 c3bf ec6a cbbf 30f6 c7bf
00000020: 1452 bdbf 4ce4 ebbf c3e8 c6bf b190 d0bf
00000030: 2890 f7bf 6012 d7bf 3e18 d6bf 786b d3bf
00000040: cfc4 cdbf 1754 21bf 2642 d5bf c4d3 babf
00000050: 2a72 e9bf 096a 82bf 5614 abbf bdea d4bf
00000060: 929e 98bf 245d debf d6bf a8be d962 f2bf
00000070: a985 d5bf 0c0d b9bf 0c2f 5cbf 8af3 9ebe
00000080: 30f3 d2bf 7790 dcbf 0fc7 e2bf 0608 cabf
00000090: ca1c cdbf d957 9cbf 1f90 dabf 8cf4 f5bf
000000a0: a5ea cebf cf07 d4bf 792f dabf 048f dabf
000000b0: 8103 a3bf 577f febf 0451 a1bf 7e6b dcbf
000000c0: 4a34 cdbf a4df d5bf 34a1 dcbf 5488 ccbf
000000d0: 76a3 d2bf eb4a 6dbf 25db dabf 54b9 dabf
000000e0: ff99 d1bf 0a93 9abf 3338 e7bf c753 81bf
000000f0: 090f 64bf 28d6 debf cc65 08bf ddeb d4bf
00000100: a017 90bc 3cd8 463d 88d9 6e3d c0b3 7fbd
00000110: 9a2b bc3d 3020 9b3d 58f0 473d 7062 5cbc
00000120: 4054 1b3b 34a5 edbd e258 e5bd 5a98 d93d
00000130: 008c a23b ec9d 0d3d c04e e63b 8085 7bbd
00000140: 5088 e9bc 7036 bb3c 003f 783a c456 903d
00000150: c052 cc3c d04f 943c 9056 7bbc 96b6 ccbd
00000160: d832 a43d 9071 b53c 7447 cd3d 6c38 71bd
00000170: 1c3c 723d d0ab c8bc c093 7a3c a80a f43d
00000180: 3023 ffbc 6247 b33d 6eaf c5bd c845 cd3d
00000190: b0f3 62bc 3047 123d 98ce b8bd a8e0 9bbc
000001a0: 88d5 31bd e044 e0bc a076 913b 1262 e4bd
000001b0: e012 37bd a264 b03d b8c3 60bd 5cfa a53d
000001c0: 7032 67bc e0ad 56bd f824 1e3d 00f8 113a
000001d0: 603a c13d 60e2 5b3c 507a 013d 9cf9 55bd
000001e0: 704d 283d 06c1 c6bd a092 23bc dc7a adbd
000001f0: 7454 d2bd 0030 d1b8 6209 da3d 6815 343d
00000200: 9cb2 cf3c d2ff 1fbd d4a0 0a3d 220b 6bbd
00000210: ee96 893c c85e d23d 84cd 3c3d 8171 143d
00000220: c780 183d be8f 413d a519 e0bc 4b2b 38bd
00000230: 9007 703d 94ff 883d c076 7e3c d8ad 103c
00000240: 9ee5 a6bd c145 713d cf1c 92bd 6c2a 843c
00000250: 66e7 ce3d 0311 3d3e d151 f73d 5b43 8b3d
00000260: 0a23 32be 8efc 8f3d 5b28 263e 7df9 2d3d
00000270: 8d57 cd3c adba ebbc e1ad 29be a4c0 143e
00000280: 0ffa a4bd 4e7a d0bd aa14 933d 4b1e 7ebd
00000290: 1976 dabd f5e5 aa3d 6e1b 2c3d 5eec 3e3d
000002a0: 3a1d d5bd 77e8 07bd 007a e43d 172b 573d
000002b0: a68c 68bd d5ad 0e3d 9d3b 3ebe 01fd b63c
000002c0: a2b0 89bd a2f5 c3bd 38e6 a3bd f574 dc3d
000002d0: a391 773d 5143 87bd ea98 8ebd 8bd7 83ba
000002e0: 8e1d 03bd 3ad6 6f3d 1ca4 473d 0a2c e8bd
000002f0: 05c3 e03d 483b f03c 007b fabd 2301 b3bd
00000300: c352 cabf da93 c7bf 3b27 cdbf 919a e8bf
00000310: fd09 d3bf 8314 d5bf 9d91 dfbf 8e1e debf
00000320: 5228 d1bf ad8c d6bf 8be8 d1bf bd45 e4bf
00000330: 5650 ecbf 3b5c dabf 3175 d9bf 1408 cabf
00000340: ae55 c1bf a936 ebbe 8236 d5bf fd00 a9bf
00000350: f5bf c6bf 6ffc 7dbf 5e5a 90bf c0f0 cbbf
00000360: f634 aabf 0703 eabf e352 adbe a09f f1bf
00000370: 376d c1bf 4d75 cabf 56cc 52bf ee98 7bbe
00000380: 397e bcbf 5c1c ddbf 7fa7 d8bf 9f24 cebf
00000390: c34e d9bf 54e8 97bf 8a9e c4bf a087 ecbf
000003a0: ae20 e1bf 17a4 e1bf 43c0 c6bf cc66 f6bf
000003b0: da25 a0bf 7659 e2bf 00d7 9dbf 7bbe e0bf
000003c0: 5a66 d9bf e60a d0bf f78c d6bf a92c d3bf
000003d0: 7137 e0bf 1750 77bf 3e24 d1bf 3750 d1bf
000003e0: c660 d2bf dae4 8dbf 03bf e9bf 09a6 86bf
000003f0: 0b33 60bf 0f52 ddbf 3709 d6be eda5 cbbf
-1.6300312 -1.691826 -1.7390332 -1.905425 -1.692828 -1.5269899 -1.5892005 -1.5622005
-1.4790673 -1.8429046 -1.5539783 -1.6294156 -1.9340868 -1.6802483 -1.6726148 -1.6517172
-1.6075686 -0.63018936 -1.6660812 -1.4595876 -1.8237965 -1.0188609 -1.3365581 -1.6634136
-1.1923392 -1.7372174 -0.3295886 -1.8936416 -1.6681415 -1.4457107 -0.8600929 -0.3104518
-1.6480465 -1.7231587 -1.7716998 -1.5783699 -1.6024411 -1.2214309 -1.7075232 -1.9215255
-1.6165358 -1.6564883 -1.7045738 -1.7074895 -1.2735444 -1.9882611 -1.2602849 -1.7220304
-1.6031582 -1.6708875 -1.7236695 -1.5979104 -1.6456134 -0.9269244 -1.7098128 -1.7087808
-1.6375121 -1.2076123 -1.8064026 -1.0103692 -0.8908544 -1.7409105 -0.5328033 -1.663448
-0.01758939 0.04854606 0.058312923 -0.062427282 0.09188004 0.07574499 0.048813194 -0.013451204
0.002370134 -0.116037756 -0.11198594 0.10624762 0.004960537 0.034574434 0.0070284307 -0.061406612
-0.028507382 0.022853106 0.0009469837 0.07047799 0.024941802 0.018104464 -0.015340462 -0.09995763
0.0801751 0.022148877 0.10023394 -0.0588917 0.059139356 -0.02449599 0.015294015 0.11916095
-0.031144708 0.087538496 -0.09652601 0.10023075 -0.013852045 0.03571242 -0.0902378 -0.019028023
-0.04341653 -0.027376592 0.00443919 -0.11151518 -0.044695735 0.08612944 -0.054874152 0.08104393
-0.014111146 -0.052411914 0.038609475 0.0005568266 0.09434962 0.013420671 0.031610787 -0.05224
0.041089475 -0.09704785 -0.009983689 -0.08470699 -0.102700144 -9.974837e-05 0.10646321 0.043965727
0.025353722 -0.03906233 0.033844784 -0.057383664 0.016795602 0.10271984 0.046094432 0.03624106
0.037232187 0.047256224 -0.027355978 -0.044963162 0.058600962 0.06689373 0.015531242 0.00883051
-0.08149265 0.058904413 -0.07134401 0.01613351 0.101027295 0.1846352 0.12076152 0.067999564
-0.17396179 0.07030593 0.16226332 0.04247426 0.025066162 -0.028775537 -0.16570236 0.14526612
-0.080555074 -0.10179578 0.07181676 -0.06204061 -0.106670566 0.08344642 0.042018346 0.046612136
-0.10405965 -0.03318068 0.11156082 0.052531328 -0.056774758 0.034833748 -0.18577428 0.022337439
-0.06723143 -0.09568335 -0.08002895 0.10764495 0.060441624 -0.066046365 -0.0696276 -0.0010058744
-0.032010607 0.05855391 0.04874049 -0.11336525 0.10974697 0.029325143 -0.12230492 -0.08740451
-1.5806507 -1.5591996 -1.6027597 -1.817217 -1.6487423 -1.6646885 -1.7466313 -1.7353075
-1.634043 -1.6761681 -1.6399091 -1.7833782 -1.8462017 -1.7059397 -1.6988889 -1.5783715
-1.5104272 -0.4594014 -1.665726 -1.3203427 -1.5527331 -0.9921331 -1.1277578 -1.5932846
-1.3297412 -1.8282174 -0.338523 -1.8876839 -1.5111455 -1.5817047 -0.8234304 -0.24570057
-1.472602 -1.727428 -1.6926116 -1.6104926 -1.6977161 -1.1867776 -1.5360882 -1.847889
-1.7588098 -1.7628201 -1.5527424 -1.9250121 -1.2511551 -1.7683551 -1.2331238 -1.755813
-1.698436 -1.6253326 -1.6761769 -1.6498004 -1.7516919 -0.9660658 -1.6339185 -1.6352605
-1.6435783 -1.1085465 -1.8261417 -1.051942 -0.87577885 -1.7290667 -0.41803905 -1.5910012

lstm.bias_hh_l1 f4 [256]
00000000: d69e cfbf 8cdb cbbf 60b9 dbbf 48a4 e1bf
00000010: 183b d1bf 7262 d3bf 96b1 d0bf 6cc8 dbbf
00000020: 0b0b c8bf 52fe e6bf 3635 dfbf 89f6 c3bf
00000030: 4adb fabf f87a e6bf 1b36 e1bf 7285 ddbf
00000040: 6f92 dabf dfec debe 1667 cfbf 74e4 a2bf
00000050: 8aab e7bf a760 8bbf bacd a5bf 5eb4 e6bf
00000060: 2e92 a6bf eecf ebbf 609b 8dbe 6d1b e5bf
00000070: 51e8 d1bf cbfc c0bf 72ba 61bf 4c14 b8be
00000080: 843c dfbf 87f5 d4bf d23e d1bf 6639 e3bf
00000090: 995b e8bf 116e 9fbf b108 ddbf 62bb dbbf
000000a0: 935c ccbf 9bd2 d6bf 2928 d7bf e83e e1bf
000000b0: b794 9fbf 5393 f1bf b422 8cbf 28c7 d1bf
000000c0: 62a5 d7bf 8678 c4bf 32cc d1bf 9a36 ccbf
000000d0: 1c77 d3bf fe62 87bf 4045 d8bf e795 eebf
000000e0: 91e8 e4bf cc16 9ebf 941d f2bf 5f46 85bf
000000f0: 8e00 81bf f8e3 edbf acbc acbe c718 dabf
00000100: c4e7 8d3d 96f1 d93d b4c8 5f3d 68f5 ebbc
00000110: 60eb adbd fc02 afbd ee23 bc3d d802 d7bc
00000120: 4c9a c93d 8834 57bd 56a2 debd f241 d73d
00000130: 368b a33d d88b 823c c87c 673d ec22 37bd
00000140: f079 8a3d c653 c2bd bc3a cf3d 4828 56bd
00000150: 78f7 7c3d 40e3 1d3c cef9 babd a832 733d
00000160: b852 f2bd d265 d53d 4028 19bc 3eee fe3d
00000170: c083 a7bb 408b c83b 0c5d 053d a01c d3bd
00000180: 8852 07bd b6ce 85bd 0084 c7b9 f0d0 80bd
00000190: ca82 cb3d d00c 793d 5011 e43c 46ab ab3d
000001a0: 9cda a03d 5c67 58bd 802b 2dbb 1c94 af3d
000001b0: d0e1 d13d 1695 d1bd f2a6 bcbd 3070 c53d
000001c0: ca9f cfbd 18d4 b93d 3e33 b4bd 580b ca3d
000001d0: d673 e63d cc8e 90bd 24db b0bd e4f6 acbd
000001e0: c0dd 15bd 208c d3bc 90d9 0bbc 1cc9 f9bd
000001f0: 0409 18bd 7077 723c 503c 203c 582d 9abc
00000200: 60f1 d13c 1884 de3c d371 b3bd a421 ac3c
00000210: e60f b6bc 62c9 e5bd 31b7 30bc 6156 f0bc
00000220: 1613 ddbc b8aa 9fbc ac40 543d 89e0 2c3d
00000230: e978 ae3c d2e2 97bb be3e 8dbd 08c7 d2bc
00000240: e342 fd3c fdce 063d ab8f b73d ade0 313c
00000250: d0bd b8bd 0f8b 853d 994b bd3d 2e27 5b3c
00000260: ef1d a2bc 2683 27bd 81b7 0d3e 5bdd 72bc
00000270: 7ddd 32bd 97ab 0f3d 96bc a3bd 4077 063e
00000280: 4dc2 9b3d 0a23 243d 882b bdbc 12da 493d
00000290: 2385 923d 0e21 273e 9286 44bd 3349 1f3b
000002a0: 4885 083e 377e 04bd aae6 90bd eeb7 2b3c
000002b0: 48d5 003e 5f35 d3bd 07c3 63bd d3ea acbc
000002c0: bd71 823d b0ae cb3d 20a8 ee3c 81d6 d2bd
000002d0: a0fd 41bc 1dab 3bbe 1e8e 893d af5d 4a3c
000002e0: 08dd 383d ab75 213e 905d 67bc 9761 10be
000002f0: 2a76 143e b02f f2bc a5e0 19be 0ff2 e53d
00000300: 518f c2bf 8a9e d7bf af4a d8bf 4f94 f4bf
00000310: bb1f d1bf b795 cbbf 91c1 d5bf aa1b e6bf
00000320: a122 cabf f267 ddbf 1dd2 d5bf f549 d2bf
00000330: d395 00c0 c3f3 eabf 5d95 d3bf 38d6 d2bf
00000340: 7e74 d5bf d480 1fbf 08a5 c6bf e522 adbf
00000350: f9a5 c4bf 4ff0 87bf 0049 99bf f4a7 ddbf
00000360: 08b4 92bf 494d e1bf 11a7 adbe a7b4 e2bf
00000370: fa37 dabf ab8b dbbf 809b 7dbf b6ea aebe
00000380: 4f1b d3bf 7653 ddbf b7e7 ccbf 937e ccbf
00000390: 2962 c8bf e4cb 98bf 395b c8bf 7cd1 f3bf
000003a0: d656 d0bf 7c1e dfbf ca4b d8bf cc94 f3bf
000003b0: acc7 b3bf 855b dfbf 64e0 90bf f546 ddbf
000003c0: 3a13 ccbf 8437 dbbf 5845 d1bf 4d17 cebf
000003d0: 102c dfbf 2f43 76bf 5e15 c1bf e933 cfbf
000003e0: ee76 d1bf 0895 8abf 0b35 efbf 2982 82bf
000003f0: f91e 62bf ace1 c8bf 82b1 0dbf fd90 c7bf
-1.6220348 -1.5926375 -1.7165947 -1.762826 -1.6346159 -1.6514418 -1.6304195 -1.7170539
-1.562837 -1.8046362 -1.7438114 -1.5309612 -1.9598172 -1.8006277 -1.7594637 -1.7306349
-1.7075938 -0.43540093 -1.6203334 -1.2725968 -1.8099225 -1.0888871 -1.2953408 -1.8023794
-1.301336 -1.842283 -0.27657604 -1.7898995 -1.6399022 -1.5077146 -0.8817512 -0.35952985
-1.7440343 -1.6637429 -1.6347296 -1.7751892 -1.8152953 -1.2455465 -1.7268277 -1.716656
-1.5965751 -1.6783022 -1.6809131 -1.7597322 -1.2467259 -1.8873085 -1.094809 -1.6388903
-1.6847346 -1.5349281 -1.639044 -1.5954163 -1.6520724 -1.0577085 -1.6896133 -1.8639497
-1.7883474 -1.2350707 -1.8915277 -1.04121 -1.0078294 -1.8585196 -0.33737695 -1.7038811
0.069289714 0.10641782 0.054634765 -0.028803542 -0.0849216 -0.08545491 0.091865405 -0.026246473
0.09843883 -0.052540332 -0.10870807 0.10510625 0.07985537 0.015935823 0.056515485 -0.04471104
0.06761539 -0.09488635 0.101186246 -0.05228451 0.061759442 0.0096367 -0.09129678 0.05937448
-0.118321836 0.10419811 -0.009347975 0.12447785 -0.0051121414 0.0061201155 0.03255944 -0.10308194
-0.033037692 -0.065335676 -0.00038054585 -0.06289852 0.099370554 0.060803235 0.027840286 0.08382277
0.078541964 -0.052832946 -0.0026423633 0.085731715 0.102481484 -0.10233514 -0.0921153 0.09640539
-0.10137899 0.09073657 -0.08798836 0.09865445 0.11252563 -0.07058486 -0.08635548 -0.08445528
-0.03658843 -0.025823653 -0.008535758 -0.12196562 -0.037117973 0.014798984 0.009780005 -0.01882045
0.025627792 0.027162597 -0.087619446 0.021012135 -0.022224378 -0.11220051 -0.010785864 -0.029338064
-0.02698664 -0.019490585 0.05181949 0.04220632 0.021297889 -0.0046351934 -0.06896733 -0.025729671
0.030915683 0.032912243 0.08962949 0.01085679 -0.09020579 0.06520664 0.09242935 0.01337604
-0.019789664 -0.040896557 0.13839532 -0.014823283 -0.04366826 0.03507575 -0.07994954 0.13131428
0.07605419 0.04007248 -0.023092046 0.049280234 0.071543 0.16321203 -0.0479799 0.0024305105
0.13332093 -0.03234693 -0.07075246 0.010480864 0.1258136 -0.10312914 -0.055605914 -0.021108067
0.0636935 0.09945428 0.029132903 -0.102948196 -0.011840254 -0.18326993 0.0671656 0.0123514375
0.045132667 0.15767543 -0.014121428 -0.14099728 0.14498201 -0.029563755 -0.15027101 0.1122781
-1.5199987 -1.6845257 -1.6897792 -1.910776 -1.6337808 -1.5905064 -1.6699697 -1.7977192
-1.5791818 -1.7297347 -1.6704746 -1.642882 -2.0091445 -1.835564 -1.6529957 -1.6471624
-1.6676176 -0.6230595 -1.5519114 -1.3526274 -1.5363151 -1.0620211 -1.1975403 -1.731688
-1.1461191 -1.760171 -0.33916524 -1.7711381 -1.7048333 -1.7151998 -0.990654 -0.34163445
-1.6492709 -1.7291095 -1.6008214 -1.5976127 -1.5654956 -1.1937222 -1.5652839 -1.9048305
-1.62765 -1.7431178 -1.6898129 -1.9029784 -1.404531 -1.7449805 -1.1318479 -1.7287279
-1.5943367 -1.7126317 -1.6349287 -1.6100861 -1.7435322 -0.96196264 -1.5084646 -1.6187717
-1.636442 -1.0826731 -1.8688062 -1.0195972 -0.8832851 -1.569387 -0.5534898 -1.5591122
