Code/698/10step_5horizon/models/lstm_no_embed/5step_5horizon_RMSE_1.pth (torch, 206844 bytes, 10 tensors)

lstm.weight_ih_l0 f4 [256, 1]
000000 7f 83 24 3f 47 58 38 3f 31 d8 8b 3f 3b a7 87 3f
       0.6426315 0.720097 1.0925351 1.059791
000010 2e 7d 27 3f 81 b9 99 3f d5 7b c3 3e ea b2 87 3f
       0.65425384 1.2009736 0.38180414 1.0601475
000020 29 69 53 c0 35 30 88 3f 39 e8 81 3f 4c 17 67 3f
       -3.3032935 1.0639712 1.0148994 0.90269923
000030 6b 5a 95 3f 7a f9 7a 3f 2a 70 14 3f 40 9f 92 3f
       1.1668218 0.9803692 0.5798365 1.1454849
000040 89 80 22 3f 38 52 3a c0 b3 05 8d 3f f7 e3 20 3f
       0.6347738 -2.9112682 1.1017364 0.62847847
000050 7d 52 99 3f 65 de 80 3f d3 bd 7b 3f 66 08 60 3f
       1.1978298 1.006787 0.98336524 0.87512815
000060 ed 97 ce bd 6e bc 27 3f 59 20 86 3f e6 72 7c 3f
       -0.10087571 0.65521896 1.0478622 0.9861282
000070 18 8e f8 bc f1 0f 8c 3f 6c 10 82 3f 8b 6d 83 3f
       -0.030341193 1.0942365 1.0161262 1.0267805
000080 e9 49 1f 3e 9c 44 0e bd 2f fe 69 bf af ed 73 3f
       0.15555538 -0.0347334 -0.9140348 0.9528455
000090 15 65 9c 3f e1 31 86 3f ac 38 40 3f 6c 0f 99 3f
       1.2218348 1.0483972 0.75086474 1.1957831
0000a0 ab 0c 96 3f 60 2a 3e 3f 52 6a 76 bf d4 ec a3 3f
       1.1722616 0.7428341 -0.9625598 1.2806649
0000b0 7f 71 40 3f 92 1b a0 3f 21 c2 97 3f af a6 5c 3f
       0.7517318 1.2508414 1.1856118 0.8619184
0000c0 0e 51 83 3f eb 34 5f 3f a0 20 88 3f ab 64 57 3f
       1.0259111 0.8719012 1.0634956 0.8413798
0000d0 93 1e 93 3f ad 56 10 bd 39 4f 20 3f 8e 6e 2d 3f
       1.1493706 -0.03523891 0.62620884 0.6774682
0000e0 2f d2 51 3f 1f 2b 8f 3f 0b b7 7c 3f 46 18 84 3f
       0.8196134 1.1185035 0.987168 1.0319908
0000f0 30 58 5d 3f 7b 9e 8f 3f 8b 8b 8b 3f 16 df a1 3f
       0.8646269 1.1220239 1.090196 1.2646205
000100 2e f7 b0 bd 78 0c d9 3d a2 5f 90 bd 4a e6 be bd
       -0.08640896 0.10598081 -0.070494905 -0.09321268
000110 80 d6 b1 bc d0 76 2f 3c 8c af 7c bd 74 8b 26 bd
       -0.021708727 0.010709479 -0.061690852 -0.040660337
000120 90 7b dd bd e0 d3 04 3c 92 74 87 3d 60 fb 81 bd
       -0.10814583 0.008107156 0.06614031 -0.06346774
000130 b0 9c d7 bd 94 52 10 3d cc c0 cb bd 76 ad de 3d
       -0.10527933 0.035235003 -0.099488825 0.10872929
000140 5e 55 c0 bd 2a f4 d0 3d e0 55 65 bd 54 19 53 3d
       -0.093912825 0.102028206 -0.0559901 0.051537827
000150 de ce bc bd ec 0f f0 bd 1c b9 9a 3d 70 dd 08 bd
       -0.09219144 -0.11721787 0.07554838 -0.033414304
000160 c0 ad e0 bc 44 59 8a 3d 24 53 9e 3d 20 68 a7 bb
       -0.0274266 0.06755307 0.077307016 -0.005108848
000170 62 60 e6 3d 20 13 2b 3d 40 4b 36 bc 2e 30 88 bd
       0.11248852 0.041766286 -0.011126339 -0.066498145
000180 e2 d5 8f bd e8 ad ed 3d 72 71 f2 bd 10 62 12 bd
       -0.07023217 0.116054356 -0.11838044 -0.03573805
000190 94 b4 5b 3d 94 61 bb bd ec 2a 34 bd b8 92 57 3d
       0.05363901 -0.09149471 -0.043986246 0.052630156
0001a0 d0 34 ed 3c b4 39 20 bd f8 41 d2 3c 6c bc e3 bd
       0.028955847 -0.03911753 0.025666222 -0.11119923
0001b0 38 91 f2 3d 50 79 ca 3d 50 b0 1d bd 04 0a 4a 3d
       0.118441045 0.0988642 -0.038498223 0.049325958
0001c0 dc ff 47 3d cc 8d ff 3d 38 42 6e 3d a6 46 f0 3d
       0.04882799 0.124782175 0.05816862 0.11732225
0001d0 0e d7 fd 3d e8 7b a1 3d a4 0e f5 bd 20 90 13 bc
       0.12394534 0.07884961 -0.11965683 -0.00900653
0001e0 f8 77 98 3d d4 1c 03 bd 94 e2 3b 3d 2e 5e dc bd
       0.07444757 -0.032009915 0.04587038 -0.10760151
0001f0 50 c2 7f bc 56 0d 9e bd 22 77 95 3d 40 92 e7 3d
       -0.015610293 -0.077173874 0.072981134 0.11307192
000200 50 1f 02 40 13 a7 5c c0 c9 e8 36 bf 1d 0a d5 3e
       2.0331612 -3.4476974 -0.7144895 0.41609278
000210 3d a6 7f be 4d 8a 00 bf 8b 5b 82 3e 08 7c e2 be
       -0.24965759 -0.5021103 0.25460467 -0.44235253
000220 82 2e ca c0 fb 51 86 3f 2e f8 06 c0 32 24 32 3f
       -6.318177 1.0493768 -2.1088977 0.6958648
000230 0d 13 05 3f 14 5e 8c bf 09 30 8f 3e c3 5c 37 40
       0.51982194 -1.096621 0.27966335 2.8650367
000240 f5 a5 b9 3f 29 2d df c0 0d eb f3 3e ab 43 58 3f
       1.4503771 -6.9742627 0.47640267 0.84478253
000250 a7 0f d5 be 5b fc 0e c0 f7 64 7c bf 71 85 ef bf
       -0.41613504 -2.2341526 -0.9859156 -1.8712598
000260 71 a9 da 3d 37 aa 91 3f 24 55 bf 3e 44 a3 0c bf
       0.1067685 1.138007 0.37369645 -0.54936624
000270 f0 4e f1 bd 68 66 2d 40 8b 1c b5 3e ba 01 53 c0
       -0.11782634 2.7093754 0.3537334 -3.2969804
000280 e9 db 87 be b0 7a ca 3f 68 b0 90 3f e3 ba 03 3f
       -0.26534966 1.5818691 1.1303835 0.5145704
000290 81 e0 14 bf a9 f9 2b c0 88 a5 f0 3f de b9 19 3f
       -0.58155066 -2.687113 1.8800516 0.60049236
0002a0 94 c0 eb 3e fc c7 7e bf cd d8 40 be ba e2 23 3f
       0.46045363 -0.995239 -0.18832703 0.6401783
0002b0 c9 af d8 3e 57 e9 01 bf 53 e6 cf be db 7b 15 c0
       0.42321613 -0.50746673 -0.4060541 -2.3356845
0002c0 59 55 f5 be cf 1c 62 bf d9 9e 8e 3f e9 8f 94 3e
       -0.47916678 -0.8832521 1.1142226 0.29016045
0002d0 58 e5 ce 3e 4c 68 d4 bf 7e dd 22 bf 78 8d 4a bf
       0.4040935 -1.6594329 -0.6361922 -0.79122114
0002e0 5f fc a9 3e 6d 32 3f c0 e8 33 04 c0 99 97 c8 be
       0.33200356 -2.9874527 -2.065668 -0.3917816
0002f0 4f 82 aa 3f 62 d0 f1 3e b5 01 43 3f 50 6b 02 3f
       1.3321017 0.47229296 0.7617448 0.50944996
000300 1b a5 48 3f 5d 94 5d 3f b7 46 97 3f 42 b0 8c 3f
       0.7837693 0.8655451 1.1818455 1.099129
000310 86 59 35 3f ea e8 8d 3f b5 3d 0c 3f e2 e8 8b 3f
       0.70839727 1.1086705 0.5478166 1.0930445
000320 ae 89 3d c0 a4 19 88 3f 77 52 8a 3f 12 87 69 3f
       -2.9615283 1.0632825 1.0806416 0.91221726
000330 20 e2 85 3f c6 eb 7c 3f 62 48 07 3f c2 71 9b 3f
       1.0459633 0.9879726 0.5284482 1.2144091
000340 a3 bd 4a 3f ea 8f 1f c0 e2 c6 a4 3f f8 da 24 3f
       0.7919561 -2.4931588 1.2873194 0.6439662
000350 f4 da 7f 3f 4d 6f 93 3f 8c 22 8d 3f 7d 87 62 3f
       0.9994347 1.1518341 1.1026168 0.8848799
000360 3e 2e 03 be 9f 77 45 3f b0 e5 82 3f 1b 4d 82 3f
       -0.12810609 0.7713565 1.0226345 1.0179781
000370 9f f8 19 3e f8 e9 9a 3f 55 ca 82 3f c9 0a 96 3f
       0.15036248 1.2102652 1.0217997 1.1722041
000380 d5 31 82 3e 25 ea c4 bd e8 05 89 bf 5c 06 78 3f
       0.25428644 -0.09614972 -1.0704927 0.96884704
000390 06 a7 92 3f 1e 49 8e 3f b5 78 3f 3f f0 cb a2 3f
       1.1457222 1.1116064 0.7479356 1.2718487
0003a0 bf 57 7f 3f 44 27 72 3f d9 68 6c bf 70 da a4 3f
       0.99743265 0.94591165 -0.92347485 1.2879162
0003b0 c2 e4 4d 3f 36 1e 96 3f ee 06 89 3f cc 52 8a 3f
       0.8042718 1.172797 1.070524 1.0806518
0003c0 d8 45 92 3f a7 df 5e 3f 91 4c 83 3f ae 02 75 3f
       1.1427565 0.87060016 1.0257741 0.95707214
0003d0 fe fc 96 3f 3b 83 a8 3d 99 40 34 3f ff ad 37 3f
       1.1795957 0.08228155 0.7041107 0.7174987
0003e0 c4 e3 34 3f 02 5c 99 3f 5c 49 8b 3f 84 33 85 3f
       0.7066004 1.1981204 1.0881763 1.0406346
0003f0 8d 5c 74 3f fb 0a a4 3f d8 10 87 3f 21 12 8f 3f
       0.9545372 1.2815851 1.0552015 1.1177408

lstm.weight_hh_l0 f4 [256, 64]
000000 60 04 2c bc f8 06 52 bd f0 65 64 bd 2c ee a5 3d
       -0.01049909 -0.051276177 -0.055761278 0.08102068
000010 c8 25 f2 3d 32 2a e8 3d 48 61 d8 bc 28 7d d5 bd
       0.118236125 0.11336173 -0.026413575 -0.10424262
000020 94 c3 9e bd f0 4e e7 3d 3e 90 e5 bd 20 38 9b bb
       -0.07752147 0.11294353 -0.11209153 -0.004736915
000030 20 8c 87 bd 48 26 11 3d 10 8b ee 3d 36 c6 a5 3d
       -0.066185236 0.0354369 0.11647618 0.08094446
000040 46 99 93 3d ee a4 dd bd ce 54 e7 3d 28 74 46 3d
       0.07206969 -0.108224735 0.11295472 0.04845062
000050 9a fd a4 bd fa c9 a7 3d dc 20 da bd b0 57 e7 bc
       -0.08056183 0.08192821 -0.10650799 -0.028240055
000060 f8 5a d0 3d f6 18 e2 3d 02 09 92 bd 30 00 85 3c
       0.10173601 0.11039917 -0.07130624 0.016235441
000070 38 55 c3 bc 96 61 c9 bd 9e 48 f5 3d 58 32 e2 3d
       -0.023844346 -0.09833066 0.11976741 0.110447586
000080 9c b0 c6 bd f4 41 39 3d e0 08 a5 3c a8 aa e6 bc
       -0.09701654 0.045228913 0.020145833 -0.028157547
000090 f6 56 e2 3d c4 7e 2a 3d a0 e4 9a 3c a8 f9 80 3d
       0.11051743 0.0416248 0.018907845 0.06297618
0000a0 00 08 a1 3d 50 16 21 3d 80 3d 8b 3b 00 24 d9 3a
       0.07862854 0.03932792 0.0042492747 0.0016566515
0000b0 be ca e4 3d 90 a2 b8 bc b0 cf a6 bd d6 18 cc 3d
       0.111714825 -0.022538453 -0.08145082 0.099656746
0000c0 78 00 4f 3d 80 c3 aa bc 54 d2 46 3d 5a 3a d9 3d
       0.050537556 -0.020845175 0.04854043 0.10606833
0000d0 90 c1 68 bd 08 8b 87 3c 38 6d c0 3d c2 4d a3 bd
       -0.05682522 0.016545787 0.09395832 -0.079738155
0000e0 dc 5c 42 3d b6 9c b1 bd 18 61 f8 3d 60 c6 b8 bd
       0.04745184 -0.08672468 0.12127894 -0.09022212
0000f0 60 03 53 3d 08 13 6a 3d 26 ef e5 3d 80 2c 34 bb
       0.05151689 0.057147056 0.112272546 -0.0027492344
000100 30 38 fd 3d 00 34 30 bc 80 ed 12 3c f4 9b 09 3d
       0.123642325 -0.010754585 0.008967757 0.033595994
000110 40 4f 95 3b 66 64 e4 bd 54 c4 b1 bd ec ca 81 3d
       0.0045565665 -0.11151962 -0.08680025 0.063375324
000120 0c 4d 6b 3d d8 74 83 bc ec 5d e7 3d e0 bc 7a bd
       0.057446525 -0.016046926 0.11297211 -0.06121528
000130 5c 99 09 3d 48 ef 75 bd 3c b8 81 3d f0 ce ec 3c
       0.03359352 -0.06004265 0.06333968 0.02890727
000140 00 3e 31 bc 70 2f 53 3d 54 d8 c4 bd d2 36 d1 bd
       -0.010818005 0.05155891 -0.09611574 -0.10215534
000150 68 e9 ad bc 52 43 9e bd e2 b0 b9 3d 64 b0 b8 3d
       -0.02122946 -0.07727684 0.09066941 0.09018019
000160 40 01 b2 bd f8 95 9b bc 80 f4 d1 3a 4c ce f1 bd
       -0.08691645 -0.01899241 0.0016018301 -0.11806926
000170 ac c7 cf bd a8 2e 5a 3d f8 89 93 bd 20 c6 b8 3b
       -0.10145506 0.05326715 -0.0720405 0.0056388527
000180 00 c0 21 b8 90 7d db bd d4 f2 70 3d 20 42 51 bc
       -3.8564205e-05 -0.107173085 0.05882533 -0.012772113
000190 12 fe bd bd e0 db 3f 3d 74 cf 61 3d 20 5b f1 3c
       -0.09276976 0.04684055 0.055129483 0.029462397
0001a0 22 d2 ce bd 74 4d 10 bd 70 43 42 3d d0 8f 88 3d
       -0.100986734 -0.035230115 0.047427595 0.06668055
0001b0 4a 11 f0 3d 76 d9 a9 bd 74 e9 af 3d 00 02 bf b9
       0.117220476 -0.082934305 0.085894495 -0.0003643185
0001c0 80 94 22 3d 00 36 f0 3c 4c 7b 84 3d 76 98 dc bd
       0.039692402 0.029322624 0.064688295 -0.10771267
0001d0 be 15 af 3d 5e c7 e1 3d 1a c5 ab bd 20 b1 fa bd
       0.08549069 0.110243544 -0.083872035 -0.12240815
0001e0 5c a8 24 3d f0 98 43 bc 78 32 cf 3d c8 df 49 3d
       0.040199623 -0.011938319 0.10117048 0.04928568
0001f0 30 50 0b 3c d0 86 7d bc ea 59 dd bd 70 5f 3d 3d
       0.008503005 -0.015474036 -0.10808165 0.046233594
000200 00 4b 7c bd 54 84 7c 3d 34 0c 79 bd 0a 70 db 3d
       -0.061594963 0.061649635 -0.060802653 0.10714729
000210 de df 9d bd 00 a0 75 3b d0 86 28 3d 7c 08 5e 3d
       -0.07708715 0.00374794 0.041144192 0.05420731
000220 5e 68 a0 3d b0 08 d7 3d 62 07 aa bd 18 b2 8e bd
       0.078324065 0.10499704 -0.083021894 -0.069675624
000230 e8 e4 5a 3d 18 be ba bc f0 31 aa bc 5c a3 a5 3d
       0.05344096 -0.022795722 -0.020775765 0.08087799
000240 d0 d9 ad 3d f0 e2 63 3c f2 3a be 3d 4e a9 f0 bd
       0.0848881 0.013909087 0.09288587 -0.11751042
000250 70 c1 73 3c cc e6 f0 3d 80 88 80 3d 24 14 31 3d
       0.014877662 0.11762771 0.06276035 0.0432321
000260 50 ea 54 3c 04 05 02 3d bc 8f 43 bd 96 28 9c bd
       0.012995318 0.031743065 -0.047744498 -0.07624929
000270 1e d2 c2 3d be c7 9f bd b2 a8 91 3d c2 a8 ae 3d
       0.09512733 -0.0780177 0.07112254 0.08528282
000280 0a 66 8e bd 20 fd 70 bc 4c b4 74 3d 40 aa c6 bb
       -0.06953056 -0.014708787 0.059742257 -0.006062776
000290 80 94 dd 3c 10 70 61 3c d0 5c a2 3c be 98 f9 bd
       0.02704835 0.013759628 0.019819647 -0.121873364
0002a0 e0 ce dd 3b 38 d2 55 3d 50 6c 47 3d 90 1a c0 bc
       0.006769046 0.052202433 0.04868728 -0.023450166
0002b0 00 98 bb 3a c8 5c 2c bd cc 13 bd bd b2 50 8d bd
       0.0014312267 -0.04208067 -0.092322916 -0.06900157
0002c0 f2 4c 9f 3d 9e 4d ff bd 70 4b f6 3d e0 ae c4 3b
       0.07778348 -0.12465976 0.12026107 0.006002292
0002d0 40 79 37 3d fc 8d 1e bd ac c1 40 bd 1e a3 f8 bd
       0.044793367 -0.038709626 -0.0470597 -0.12140487
0002e0 f0 38 dc 3d 34 01 8a bd 92 1a 86 3d b8 55 c7 bc
       0.107530475 -0.06738511 0.06548037 -0.024332866
0002f0 70 b3 5a 3d 20 94 6c bd 72 a5 b6 3d d6 16 f7 3d
       0.05339378 -0.05775845 0.08918275 0.120649025
000300 90 12 eb 3c 80 56 e1 3d 70 eb c1 3c ea 0f 97 bd
       0.028695375 0.11002827 0.023671836 -0.07376082
000310 6a 53 db 3d 1c 57 f3 bd 9c f4 e8 bd 88 7a 2a 3d
       0.10709269 -0.11881849 -0.113747805 0.04162076
000320 b0 5e b9 bd 90 12 fa bc 7c d6 f3 3d 8a 4a e0 bd
       -0.09051263 -0.03052643 0.11906144 -0.10951717
000330 80 7d e8 bc 9c 70 19 3d 68 fc 78 3d 6a 26 9c 3d
       -0.028380156 0.03746091 0.06078759 0.076245144
000340 a2 72 e6 bd 66 bf 99 bd 08 f0 87 bd 40 b3 58 3c
       -0.11252333 -0.075072095 -0.06637579 0.01322633
000350 7c b9 b5 3d 20 04 54 bc 56 69 a2 bd 10 bb 80 3c
       0.08873269 -0.012940437 -0.079302475 0.015714198
000360 5e d2 a3 3d 36 ee be 3d a8 5f a0 3d 68 90 b8 bd
       0.07999109 0.09322779 0.07830745 -0.09011918
000370 c0 58 76 3c b0 b0 5f bd 5c 5e bf 3d de 1d f8 bd
       0.015035808 -0.05461186 0.093441695 -0.12115072
000380 a8 69 f2 bc a8 d9 1b bd 66 b9 b9 bd 70 c0 55 3c
       -0.029591396 -0.03804937 -0.09068565 0.013046369
000390 54 a7 32 bd 76 ca d2 bd ac c6 94 3d e0 38 7f bd
       -0.043616608 -0.102925226 0.07264456 -0.0623101
0003a0 58 03 d1 3c 96 32 ec bd a0 25 5e 3c e8 95 83 3d
       0.02551429 -0.11533086 0.013558775 0.06425077
0003b0 e6 e9 af bd e0 22 06 3c da b9 84 bd 34 1d b5 3d
       -0.085895345 0.008187026 -0.06480761 0.08843461
0003c0 90 cf 17 3c 0e 21 8e bd ec e1 69 3d 7c 6d fd 3d
       0.009265795 -0.069398984 0.05710022 0.12374398
0003d0 38 f4 94 bc 80 2b 80 3c a0 8a 21 bd d8 54 0d 3d
       -0.018182859 0.015645742 -0.039438844 0.03450474
0003e0 44 7a e2 3d e4 89 c0 3d a6 ac c3 bd 34 6c 4e bd
       0.110584766 0.094013005 -0.095544145 -0.05039616
0003f0 a4 0e 04 bd 50 cc 2b bd d8 52 37 3d 9a 5a a4 bd
       -0.032240525 -0.041942894 0.04475674 -0.080250934

lstm.bias_ih_l0 f4 [256]
000000 6c e5 92 bf 8e f4 b2 3d 7d 08 d1 bf 8a d7 e3 bf
       -1.1476264 0.08738051 -1.6330715 -1.7800152
000010 d3 eb eb bf d3 2f e0 bf 9b 16 e4 bf cf e8 da bf
       -1.8431343 -1.7514595 -1.7819399 -1.7102298
000020 9e 70 4a 3f 14 c2 bf bf 66 0f 7e bf 9f d6 dc bf
       0.7907809 -1.4981103 -0.99242246 -1.7252997
000030 ad 33 db bf 93 86 be bf 97 27 e8 bf 1a f4 9f be
       -1.7125145 -1.4884819 -1.8137082 -0.31240922
000040 46 26 a7 bf 12 ed a3 3f 5d bb d6 bf 14 22 d8 bf
       -1.3058555 1.2806723 -1.6775929 -1.68854
000050 31 a7 f7 bf b2 38 3b bf 25 8b aa bf 46 86 7f bf
       -1.9347898 -0.73133385 -1.3323714 -0.9981426
000060 12 3c d7 bf af 64 b9 bf 4c 67 fa bf a9 38 e5 bf
       -1.6815207 -1.4483851 -1.9562774 -1.7907916
000070 70 6c df bf fa 2e c0 be bd ef ec bf 44 61 c6 3e
       -1.7454967 -0.3753584 -1.8510662 0.38746083
000080 a6 53 d8 bf f5 6f fa bf 42 07 02 c0 85 a4 dd bf
       -1.6900527 -1.9565417 -2.031693 -1.7315832
000090 04 12 d7 bf 4d a5 10 bf 77 fa 9f bf 01 0f e2 bf
       -1.6802373 -0.5650223 -1.2498311 -1.7660829
0000a0 41 06 ea bf 07 8c af bf b4 f8 dc bf 49 b3 e6 bf
       -1.8283159 -1.3714608 -1.7263398 -1.8023463
0000b0 9f 86 e6 bf d8 3c e3 bf 27 1e e7 bf 22 0e 39 bf
       -1.8009833 -1.7752943 -1.8056077 -0.7228719
0000c0 85 45 d7 bf 5d ce bf bf a8 d9 b7 bf f0 99 db bf
       -1.6818091 -1.4984852 -1.4363298 -1.7156353
0000d0 cc 61 db bf 74 75 e3 bf a9 6a f2 bf e8 8b ce bf
       -1.713922 -1.7770219 -1.89388 -1.6136446
0000e0 19 00 dd bf 91 ee 56 be e7 a6 75 bf 63 ab e5 bf
       -1.7265655 -0.20989443 -0.959578 -1.7942928
0000f0 dc ed 94 bf ff 7a e5 bf b9 1f d3 bf 66 ec df bf
       -1.1635089 -1.792816 -1.6494056 -1.7494018
000100 64 81 5d 3d 08 55 98 bc 2a 4b f3 bd 88 87 aa 3c
       0.054078475 -0.018595234 -0.11879571 0.02081658
000110 8c 9d 1d 3d 12 57 ad bd 58 2c a2 3d 4a 76 c8 bd
       0.038480327 -0.08463873 0.07918614 -0.09788187
000120 40 fd c0 3b 10 4f 63 bc b0 da 58 3c d8 54 4d bd
       0.0058895648 -0.01387383 0.013235733 -0.05012974
000130 3c 23 28 bd f4 37 8b 3d ee 4c ac 3d 24 42 a3 bd
       -0.041049227 0.067977816 0.08413111 -0.079716
000140 c0 59 66 bb 80 eb 08 3b 60 dd 98 bc 00 c2 2c bc
       -0.003514871 0.0020892322 -0.018660247 -0.0105443
000150 80 58 a9 3b 26 fb bd bd 86 b6 fe bd 82 67 f4 bd
       0.0051680207 -0.092764184 -0.12437157 -0.11933805
000160 8c 6e f9 bd 40 85 06 3b dc 29 79 bd 68 dc c6 bc
       -0.12179288 0.00205262 -0.060830936 -0.02427502
000170 b4 71 59 3d e0 01 d4 bc e8 a4 3e 3d d0 84 07 bc
       0.05308695 -0.0258798 0.046543986 -0.008271411
000180 d4 c4 c1 3d 48 a2 91 bc 38 f1 54 bd 18 a8 17 3d
       0.0946137 -0.017777577 -0.051987857 0.03702554
000190 aa cf e1 3d 64 86 9d 3d 92 93 90 3d b4 d2 0f 3d
       0.11025937 0.076916486 0.07059397 0.03511305
0001a0 90 c0 ba 3d c2 3b f1 bd 18 d0 ad 3d 48 0e f7 3d
       0.0911876 -0.11778976 0.08486956 0.12063271
0001b0 80 67 87 ba 06 5e d4 bd c0 73 2d bd c4 d8 36 3d
       -0.0010330528 -0.10369496 -0.042346716 0.044640318
0001c0 40 10 e5 bd 02 5e a1 bd 50 ac d7 bd 58 3a de bd
       -0.1118474 -0.07879259 -0.10530913 -0.10850972
0001d0 08 8c dc bd 82 93 da 3d c2 e1 de bd b4 9f f7 3d
       -0.10768896 0.10672666 -0.10882904 0.12091008
0001e0 1e 9f ea 3d 1a ba f4 bd 58 4b ad bc a0 b3 21 3c
       0.114561304 -0.119495586 -0.02115409 0.009869486
0001f0 00 2a b0 3b b0 d8 95 3c 3c a7 f3 bd 50 2f 21 3c
       0.0053761005 0.018291801 -0.11897132 0.00983794
000200 f0 1e 51 3c 90 1b 7d 3e b9 9e a5 3d f8 1f f9 bc
       0.012763724 0.24717546 0.080869146 -0.030410752
000210 51 64 79 3d 72 a2 73 3d 7c e1 33 bc 20 44 da 3d
       0.060886685 0.05948109 -0.010979053 0.10657525
000220 65 04 26 3e af 3f e6 3b 7e cb 83 bb f3 c0 f3 bd
       0.16212614 0.0070266346 -0.004022061 -0.119020365
000230 c3 12 31 3c 64 c7 dd 3d 7b 79 53 bd b6 0e 5e be
       0.010807696 0.10829046 -0.051629525 -0.216853
000240 45 c4 a2 bd 54 56 1a 3e 57 5e 3a bd 9f 61 c9 bd
       -0.07947592 0.15071994 -0.045500126 -0.09833073
000250 98 ba 11 3d 31 7e dd 3d b8 d3 2c 3d ea ec 85 3b
       0.03557834 0.10815085 0.0421941 0.0040870802
000260 bf 21 8a 3d a3 ae e5 3a 38 19 5e 3d 41 23 a3 3d
       0.06744718 0.0017523359 0.05422327 0.079657085
000270 58 72 9a bc a9 d7 4f be c1 d7 bd bd a2 72 8c 3e
       -0.018853351 -0.20297112 -0.092696674 0.27431208
000280 e8 11 9c bd c1 f9 42 3c b3 da 9a bd 8f 78 83 bd
       -0.07620603 0.011900366 -0.07561245 -0.06419479
000290 09 68 f7 3c 0c c1 f1 3d ba 61 ff bd 7a a5 0e bd
       0.030200975 0.11804399 -0.12469812 -0.03482578
0002a0 c5 22 92 bc 77 0d 26 3b 0a b8 11 bd 16 c7 e5 bd
       -0.017838845 0.0025337616 -0.035575904 -0.11219613
0002b0 0a a0 93 bd 56 c4 4d 3c 3b 0e 8e 3d 3d 4c 43 3d
       -0.072082594 0.012559017 0.06936308 0.04768013
0002c0 af 90 4b bc 68 3d 9b 3d ad 60 24 3c ed f9 d1 bd
       -0.012424632 0.07580072 0.010032815 -0.10252748
0002d0 2a 7c 50 bd 8c 64 92 3d dc 27 9e 3d 41 36 2c 3d
       -0.050899662 0.07148084 0.07722446 0.042043928
0002e0 9b 44 24 3d f9 77 96 3e c2 4e 29 3e 56 44 d0 3c
       0.04010449 0.29388407 0.1653395 0.02542321
0002f0 9d da 16 bd ab 43 87 bd d6 99 19 bd f3 4b 25 bd
       -0.03682958 -0.066047035 -0.037500225 -0.040355634
000300 aa 9f 88 bf c3 27 d7 3e 52 9a cb bf 92 63 e2 bf
       -1.0673726 0.42022523 -1.590647 -1.7686636
000310 0b df e4 bf 58 00 e7 bf c9 45 d5 bf 89 9c de bf
       -1.7880567 -1.804698 -1.6661922 -1.7391521
000320 a7 43 76 3f fa e2 bc bf 26 05 3e bf 0b f5 d3 bf
       0.9619698 -1.4756768 -0.74226606 -1.6559156
000330 79 4a ed bf 32 20 ac bf e7 59 dd bf 4c 3e e7 bd
       -1.8538352 -1.3447325 -1.7293061 -0.11291179
000340 1c 3b a0 bf fb ea ca 3f b5 23 ef bf cc 37 d6 bf
       -1.2518039 1.585296 -1.8682772 -1.6735778
000350 ac 88 df bf 70 10 63 bf ee 4f b2 bf 12 f5 61 bf
       -1.7463584 -0.88696957 -1.3930643 -0.8826457
000360 15 d4 e8 bf e6 9d ac bf d2 db e2 bf ed be ef bf
       -1.8189722 -1.3485687 -1.7723334 -1.8730141
000370 31 41 dd bf db d4 bf be fc c7 df bf f3 65 f5 3e
       -1.728552 -0.37467083 -1.7482905 0.47929344
000380 58 d9 e5 bf fe e2 00 c0 4a c7 0d c0 c0 c5 e9 bf
       -1.7956953 -2.0138545 -2.2152886 -1.8263474
000390 b8 b7 eb bf 14 83 b3 be 85 db 8e bf bc a2 ce bf
       -1.8415442 -0.35060942 -1.1160742 -1.6143413
0003a0 c4 83 d6 bf 83 a1 ba bf 3b fc f1 bf a4 8f e5 bf
       -1.6758962 -1.458054 -1.89051 -1.7934461
0003b0 f3 e1 e7 bf bf 3d db bf 20 3b db bf 4a 35 4c bf
       -1.8115829 -1.7128218 -1.7127419 -0.7976881
0003c0 bd aa e1 bf a1 a3 d3 bf cd ed 98 bf 50 28 ea bf
       -1.763023 -1.653431 -1.1947571 -1.8293552
0003d0 d1 c1 f2 bf fe 2d fb bf 83 e7 ec bf 07 4c e1 bf
       -1.8965398 -1.9623411 -1.8508152 -1.7601327
0003e0 f7 64 eb bf 80 a6 46 3e 75 bd 55 bf b1 12 e3 bf
       -1.8390187 0.19399452 -0.83492213 -1.7740079
0003f0 dc 48 a4 bf 29 56 df bf 9c 7d cb bf 50 46 e9 bf
       -1.2834735 -1.7448169 -1.5897708 -1.8224583

lstm.bias_hh_l0 f4 [256]
000000 e8 11 86 bf 8f 54 1a 3e bb 99 c2 bf d8 22 e1 bf
       -1.0474215 0.15071319 -1.5203165 -1.7588758
000010 b5 29 e1 bf a1 26 ed bf ad 26 ea bf 63 d3 ec bf
       -1.7590853 -1.8527414 -1.8293053 -1.850201
000020 a4 cd 4e 3f 20 51 ba bf dc 09 75 bf 23 82 ce bf
       0.8078253 -1.4556007 -0.9571817 -1.6133465
000030 37 8d e2 bf 3d 2e a1 bf 3f dc e0 bf 46 fc 63 be
       -1.7699345 -1.2592236 -1.7567214 -0.22264203
000040 02 ea ba bf d2 31 a9 3f 9f 16 f0 bf 5c a5 dc bf
       -1.4602664 1.3218329 -1.8756903 -1.7237964
000050 73 b8 ea bf 1c e0 67 bf a7 c7 c2 bf b1 c3 9a bf
       -1.833754 -0.9057634 -1.5217179 -1.209097
000060 b9 7b d6 bf c5 92 be bf 26 a9 e0 bf 43 13 d7 bf
       -1.6756507 -1.488854 -1.755162 -1.6802753
000070 ac 32 e3 bf 79 76 04 bf ed 64 e7 bf 6e 7d 8c 3e
       -1.7749839 -0.51743275 -1.8077675 0.27439445
000080 f4 23 db bf 43 86 ff bf 18 87 0b c0 e3 56 ee bf
       -1.7120347 -1.9962848 -2.1801205 -1.8620266
000090 0a b8 e5 bf 4d 44 1e bf 27 d6 8c bf 8b 8c e7 bf
       -1.7946789 -0.6182297 -1.1002854 -1.8089765
0000a0 a3 e6 ee bf c9 57 b0 bf d2 d7 f0 bf 91 5c e2 bf
       -1.8664135 -1.377679 -1.8815863 -1.7684499
0000b0 15 f5 dc bf 90 00 f0 bf cf 26 eb bf 8e 71 3a bf
       -1.7262293 -1.8750172 -1.8371218 -0.7282952
0000c0 85 77 eb bf fd 1f d7 bf 6c 23 ba bf 04 3b db bf
       -1.839585 -1.6806637 -1.454206 -1.7127385
0000d0 b4 64 f0 bf 2a d5 f5 bf dd 5b f0 bf d8 ed d3 bf
       -1.8780732 -1.9205678 -1.8778034 -1.6556959
0000e0 6b 7f e2 bf ca 94 8d bd 26 b3 85 bf 13 69 ed bf
       -1.7695135 -0.06913145 -1.0445297 -1.8547691
0000f0 6c c6 94 bf 6d 30 e1 bf e7 2e c2 bf c4 d9 dd bf
       -1.1623054 -1.7592903 -1.5170563 -1.7332082
000100 6c 52 85 bd f4 45 44 bd bc 33 74 bd b0 a2 cd 3c
       -0.06509861 -0.047918275 -0.05961965 0.02510199
000110 6a 87 8d bd de 8a ee bd 20 3b 7d bc c4 a4 39 3d
       -0.06910594 -0.116475806 -0.015455991 0.04532315
000120 b8 eb 25 bd 0e 53 fc 3d 10 10 9a 3d 60 b6 10 3c
       -0.040508002 0.12320529 0.07522595 0.008832544
000130 a6 ec d5 bd 40 97 2a 3b 00 8f 7d bd 78 37 bf bc
       -0.10445528 0.0026030093 -0.061903954 -0.02334188
000140 70 bd 0d bd 1a e2 87 3d 50 95 08 bc 1a 8d fd 3d
       -0.03460449 0.06634922 -0.00833638 0.123804286
000150 08 96 07 3d 00 c0 2c 3d 08 7c 92 3d 20 4a 3e 3d
       0.033102065 0.042175293 0.07152563 0.04645741
000160 90 d9 01 bd 40 50 ae bd 70 f2 0b bc 9a 79 cd bd
       -0.031701624 -0.085114 -0.008541688 -0.10032959
000170 50 3c f4 3c 00 52 a1 bd 58 e6 80 3c 08 88 ef bd
       0.029813915 -0.078769684 0.015734836 -0.11695868
000180 30 e7 70 bc e6 69 ce bd 30 3b dd bd 00 bc 3f 3d
       -0.014703557 -0.10078792 -0.10802305 0.04681015
000190 24 bf 09 3d fe 3f 98 bd ea 43 de 3d 92 96 be bd
       0.03362955 -0.074340805 0.10852797 -0.09306063
0001a0 92 b9 a9 3d 4c b8 7a bd 7a 84 c6 3d de a4 ad bd
       0.08287348 -0.061210915 0.09693237 -0.084787115
0001b0 20 af ae 3d 6c 24 b5 bd c0 c7 bb bc 20 e3 1c bd
       0.08529496 -0.088448375 -0.022922397 -0.03830254
0001c0 40 0f f0 3d 7c 6b f3 3d a8 f4 f8 3c 9c ae 70 bd
       0.11721659 0.118857354 0.030390099 -0.05876027
0001d0 0e 3e da bd 7a 87 ff 3d 00 05 e6 3b 40 1b df bc
       -0.10656367 0.12477012 0.007019639 -0.027234674
0001e0 4c 9b f3 bd ba 62 c4 bd dc 72 bb bd 20 5a b3 bb
       -0.11894855 -0.09589143 -0.09152767 -0.00547339
0001f0 58 0d e1 3d 20 6c 86 bd f0 47 b6 3c 3c 53 c5 3d
       0.10988873 -0.06563592 0.0222511 0.09635016
000200 7d 1e 2c be 96 6b 51 3e b4 8e f0 ba 3b 10 1b bd
       -0.16808505 0.20451197 -0.0018353076 -0.037857275
000210 b9 9c 5d bc fc dc 6e 3c c8 fe d4 bc cd 0a 1b bd
       -0.013526135 0.014579054 -0.026000395 -0.037852097
000220 0c 24 9d 3e 5f 23 c5 bd a1 d6 25 3e 3a 22 1f 3d
       0.30691564 -0.09625887 0.16195156 0.038851
000230 de 9e ae bd d1 36 8b bc 28 16 09 3c 92 ae 0e be
       -0.08526395 -0.016993912 0.008367099 -0.13933781
000240 f7 a9 d7 bc bc dc 6c 3e 9c 4b e3 bc b4 52 89 3c
       -0.026326163 0.23131078 -0.027746014 0.016763069
000250 10 1c ff 3c 9c d4 88 3d a4 63 42 3d 7e 87 05 3e
       0.03114131 0.06681177 0.047458306 0.13039967
000260 cd 20 9e bd d6 70 ca bd 04 e8 f0 bd d8 d9 ab bb
       -0.077211 -0.09884803 -0.117630035 -0.005244475
000270 bc ea f1 3c ea 37 ea bd 9b 1b 03 3d de 74 21 3e
       0.029530875 -0.11436446 0.03200875 0.15767238
000280 78 57 dd 3d 17 a5 ef bd ef aa 26 3c f1 34 d5 bb
       0.10807699 -0.1170141 0.01017259 -0.0065065552
000290 11 44 3f 3d 59 16 3b 3e fc 0d 2a bc 9e 0c 34 bd
       0.046695773 0.18270244 -0.010379311 -0.043957345
0002a0 3d d8 56 bd 74 22 b7 3d 58 a3 3f 3d 87 16 06 3d
       -0.052452315 0.08942118 0.046786636 0.032736327
0002b0 2f 05 47 3c 1a 86 7f 3d 43 01 51 bb cc fd 18 3e
       0.012147232 0.06238375 -0.0031891621 0.14940566
0002c0 10 e6 a8 3d 0d 9c 47 3c 8e 40 d1 bd a9 90 4a 3d
       0.08247006 0.0121832015 -0.10217391 0.049454365
0002d0 7b 69 85 bc 0d 4b 3e 3d c9 06 30 bb af f7 23 3d
       -0.016285649 0.046458293 -0.0026859513 0.04003113
0002e0 ac 21 c1 bd b2 6a b7 3d 6a 66 79 bc be c6 17 3d
       -0.094302505 0.089558974 -0.015222171 0.03705477
0002f0 75 fd 8a bd ef 71 be bb 16 5d 38 bd ad ac 11 bd
       -0.06786624 -0.005811922 -0.04501065 -0.035565067
000300 fc 9a 83 bf ed 6d da 3e 98 8d d2 bf f8 7a e4 bf
       -1.0281672 0.42661992 -1.6449461 -1.7850027
000310 01 c6 e1 bf 26 40 dd bf df 9a d9 bf b9 26 ec bf
       -1.7638551 -1.7285202 -1.7000388 -1.8449317
000320 c5 ed 71 3f b8 6e a5 bf 58 a7 58 bf 17 c6 c8 bf
       0.9450343 -1.2924414 -0.84630346 -1.5685452
000330 59 e7 df bf ae 28 aa bf 77 c2 db bf 48 4f b2 bd
       -1.7492477 -1.3293664 -1.7168721 -0.08706528
000340 98 30 ac bf fd eb bb 3f c5 41 dc bf ca f6 d7 bf
       -1.345233 1.4681393 -1.7207571 -1.6872189
000350 74 f4 d7 bf 68 6c 2c bf e8 6e c1 bf 53 d8 83 bf
       -1.6871476 -0.67352915 -1.5111971 -1.0300392
000360 e9 63 dd bf 5e 25 ae bf 16 97 e2 bf 95 3d d7 bf
       -1.7296115 -1.3605154 -1.7702358 -1.6815668
000370 9e fd e0 bf 13 fd 40 be 56 76 e4 bf e5 22 10 3f
       -1.7577398 -0.1884654 -1.7848613 0.56303245
000380 20 7d e0 bf 9b 13 f9 bf ac a5 08 c0 44 8c d6 bf
       -1.7538185 -1.9459108 -2.1351118 -1.6761556
000390 d0 e8 d5 bf 82 a4 06 bf ae 90 8b bf 86 59 ec bf
       -1.6711674 -0.5259477 -1.0903528 -1.846482
0003a0 4a 94 d8 bf 17 1f c2 bf b1 1e ef bf 00 d3 cf bf
       -1.6920254 -1.5165738 -1.8681241 -1.6236267
0003b0 43 ee e7 bf 95 85 e9 bf 98 bc ef bf e6 42 5b bf
       -1.8119587 -1.8243891 -1.8729429 -0.85648954
0003c0 db bd de bf 9b 99 b8 bf 9d ef a7 bf 22 3e f4 bf
       -1.7401689 -1.4421877 -1.3119999 -1.9081461
0003d0 93 6c d8 bf 7c 8a f2 bf 45 47 d3 bf 0b 45 cc bf
       -1.6908134 -1.8948512 -1.6506125 -1.595857
0003e0 6f 4d f1 bf c8 a9 40 3e 21 c2 5a bf f9 66 e4 bf
       -1.8851756 0.18814766 -0.8545247 -1.7843925
0003f0 0a f1 9d bf 43 ce eb bf 40 c2 cb bf 98 9d db bf
       -1.2339184 -1.8422321 -1.5918655 -1.7157469

lstm.weight_ih_l1 f4 [256, 64]
000000 51 fa e4 3c 9b bb 2a bc af 42 68 bd c9 11 fb bc
       0.027951391 -0.010420705 -0.05670422 -0.030648129
000010 a8 3a d6 bd 3f a6 94 bd 5e 3e bf bd e0 7c af 3d
       -0.104604065 -0.072582714 -0.093380675 0.0856874
000020 35 13 70 3e 38 89 c7 3d 3a 01 de 3c 3c 9a 8e bd
       0.23444827 0.09742969 0.027100194 -0.069630116
000030 76 5f b4 3d 72 57 71 bd 28 e9 f5 3d 6d 92 84 3d
       0.0880727 -0.058921285 0.12007362 0.06473241
000040 62 a1 b3 bd 83 3a 7d 3e 17 23 37 3c 76 b1 89 bb
       -0.08771016 0.24729352 0.0111778 -0.004202063
000050 2c 25 0b be 5c 99 39 3d 72 0d cf bd 09 51 3c 3d
       -0.13588399 0.04531227 -0.10109986 0.04597572
000060 2a 37 80 3d 3f 68 95 bd c1 50 0d bd fd 5f 67 bd
       0.06260522 -0.07295274 -0.03450084 -0.056488026
000070 50 a3 e4 3d 87 d2 d8 bc 6e e7 78 3d 12 16 8b be
       0.11163962 -0.026467575 0.060767584 -0.27165276
000080 fc 9d 8c 3d d8 d0 38 be 07 ae fe 3c fd 1f cc 3d
       0.06866071 -0.18048418 0.031088842 0.09967039
000090 2b bd 80 bd da ee 63 3d aa 09 95 bd ba 47 58 bd
       -0.06286081 0.05564771 -0.07277234 -0.05280278
0000a0 09 5f 29 3c 71 b0 90 bd c8 ba 40 3e c5 48 46 3d
       0.0103376 -0.070649035 0.18821251 0.048409242
0000b0 01 74 ab bc ac 45 3a 3d e3 eb 4b bd 59 82 13 be
       -0.020929338 0.0454766 -0.049785506 -0.14405192
0000c0 16 fb 8f 3c 29 51 7f bb dc a6 e7 bd 55 09 73 3d
       0.017575782 -0.0038958287 -0.11311123 0.05933507
0000d0 9a 18 88 bd be c5 1f 3e 7d 1d d4 3c e1 c9 83 3d
       -0.066453174 0.15602776 0.025892967 0.0643499
0000e0 4a c0 c6 3d a9 eb c2 bd c1 ff 09 be 60 90 a2 bd
       0.09704645 -0.09517605 -0.13476469 -0.079376936
0000f0 fd da f7 3c aa f0 be 3c 1f f7 d0 3b e6 81 ac 3d
       0.030255789 0.023308117 0.0063771154 0.08423214
000100 34 7d 08 be d3 3c c5 3e d9 d5 ad bd ae d4 4b 3d
       -0.13329011 0.38522968 -0.08488054 0.049763374
000110 f8 f0 14 3e 80 78 ed 3c 43 6b 9d bd 08 34 d0 bd
       0.14545047 0.028988123 -0.07686474 -0.10166174
000120 7c 77 a2 3e c8 33 0f bd 2c 1b f3 3d ba 8e d4 bd
       0.31731784 -0.03496149 0.11870417 -0.103787854
000130 e1 16 21 bc 93 de ad bc eb f4 7a bd 67 19 90 be
       -0.009832115 -0.021224296 -0.06126873 -0.2814438
000140 d4 83 7c be ac a1 ec 3e f4 ab 06 3e 07 13 f2 bd
       -0.24659663 0.46217096 0.13151532 -0.118200354
000150 98 01 5f 3c f6 c4 ed 3d b0 3b ed 3d 35 f3 a5 3d
       0.01361122 0.11609833 0.1158365 0.08103029
000160 5a f9 66 bd d8 db ba bd ac 88 23 3c 92 e8 ce 3d
       -0.056390144 -0.09123963 0.009981316 0.10102953
000170 c7 ec c0 3d 0c d2 85 be fd 76 cd bd 9c 51 ac 3e
       0.09420162 -0.26136816 -0.10032461 0.33656013
000180 28 c5 ec 3d 01 a4 9d be 0b 4d b8 be e1 4b e6 bd
       0.11561042 -0.30789188 -0.3599628 -0.112449415
000190 59 dd 50 bc 37 d5 63 3e 22 36 30 be 5e 0d f3 3d
       -0.012748086 0.22249304 -0.1720815 0.11867784
0001a0 e5 40 9c bd 44 36 06 bd 8c 45 7d 3e cc 55 01 3e
       -0.07629565 -0.032766595 0.24733561 0.12630385
0001b0 a9 23 2e be b8 9d 38 3d 28 88 17 3d 28 90 a4 3e
       -0.17005791 0.045072287 0.036995083 0.32141232
0001c0 e3 e4 70 3d 00 d2 5f bd af c0 78 3d 61 9c 0e 3c
       0.058812033 -0.05464363 0.060730632 0.008704276
0001d0 61 04 f7 3d 4e ac c4 3e 52 dd 4a 3e 29 6b e9 3d
       0.12061382 0.38412708 0.1981099 0.11397392
0001e0 d6 1d 2e bd 95 4a c1 3e ce 40 91 3e bf 45 46 bd
       -0.042508923 0.37752214 0.28369755 -0.04840636
0001f0 4f a3 1a 3d 83 84 ec bc 7c 3e db 3d dd a6 06 3d
       0.0377534 -0.02887178 0.10705277 0.032873977
000200 4f 91 24 3c f0 9f 96 bc 5b a3 9c bd 49 fc 06 be
       0.01004441 -0.018386811 -0.07648345 -0.13182177
000210 e7 01 7a bd c5 99 03 be 58 d4 45 3d f7 61 87 bd
       -0.06103697 -0.12851627 0.04829821 -0.06610482
000220 4a 78 5b 3d 63 ef f4 3d 82 b3 b0 3d 11 4d f4 3c
       0.053581513 0.11959722 0.086279884 0.029821904
000230 ec d2 5e 3d 26 13 a5 bd 8a b5 11 3d 45 2b f4 3d
       0.05440037 -0.08060293 0.03557352 0.119223155
000240 78 35 1a bd b8 1c 9a 3d 03 a4 14 be 2c ed ee bd
       -0.037648648 0.07525009 -0.1451569 -0.11666331
000250 e2 15 1a be d2 3a b2 3c b9 69 5a bc 00 1f 32 3c
       -0.1504741 0.021756563 -0.01333087 0.010871649
000260 99 82 66 3d 46 67 d9 3d 55 73 57 3d 48 9b da bc
       0.05627689 0.10615401 0.052600224 -0.026685372
000270 6d c5 d8 3d c4 87 5a 3d 8e f0 fa 3d 60 72 7e be
       0.10584531 0.053352132 0.122529134 -0.24848318
000280 66 26 89 3d 64 80 0d 3d ba 6b 7c bd c2 fc af bc
       0.06696777 0.03454627 -0.061626174 -0.021482829
000290 5a ac 1d bd dd 35 c8 bd 4d 12 fe 3c bf d2 b7 3c
       -0.038494445 -0.097758986 0.031014586 0.022439359
0002a0 07 1f cd 3c 7f 97 8a 3d bb 6b 9f 3d 7e 1c 98 bd
       0.025039209 0.06767177 0.0778422 -0.074273095
0002b0 31 13 ac bd cb 07 d6 3d a6 7f e5 3c b5 1f 73 bd
       -0.08402098 0.10450705 0.02801497 -0.05935641
0002c0 e8 c4 6a bd 3e fe 3f bd 35 87 4d 3d 83 a5 30 3d
       -0.05731669 -0.046873324 0.05017777 0.043126594
0002d0 e4 bd e9 bd 48 b4 d9 3d be 39 69 3d 16 17 d2 bc
       -0.11413172 0.10630089 0.056939833 -0.025645774
0002e0 9d b5 8e bd 06 04 b0 bd 69 72 61 3d 9c e1 9d bd
       -0.06968234 -0.085945174 0.05504075 -0.07709047
0002f0 42 e1 3e bd 53 30 2c bd 16 57 83 3d c4 c5 af bd
       -0.04660154 -0.042038273 0.06413095 -0.08582643
000300 64 70 f2 bc dc 48 f9 3d 2f 23 4b be c8 a5 45 3e
       -0.029594608 0.121721 -0.1983764 0.19301522
000310 53 95 87 bd 3d 2a ef bd 4b 54 b0 3d e5 af 99 be
       -0.06620278 -0.11677978 0.086098276 -0.3001701
000320 49 cc a5 3e 12 81 8d 3d 32 a8 83 bd a0 07 27 3e
       0.3238242 0.06909384 -0.06428565 0.16311502
000330 ad b5 18 3e 90 21 2b be 0a e5 82 bc 56 64 6e 3c
       0.14913054 -0.16712022 -0.015978355 0.014550289
000340 e7 7f 79 3d 99 67 f8 3e b4 c1 e3 3d 01 4c df 3d
       0.060912993 0.4851654 0.1112093 0.109031685
000350 64 22 12 be 6e 12 13 3d 10 47 96 bc 91 1f 02 be
       -0.14270931 0.035906248 -0.018344432 -0.12707354
000360 ac 9f 40 3d 40 4e f8 3d 07 e7 ef 3d 3d f4 1f be
       0.047027275 0.121243 0.11713987 -0.15620513
000370 b1 ef c5 3d 55 43 89 3d b9 74 88 3e 25 13 da 3c
       0.09664858 0.06702296 0.26651552 0.026620457
000380 2d b0 05 3d 0e 62 d6 3c 69 fb 94 bc a7 09 8a 3d
       0.032638717 0.026169803 -0.018186288 0.06740122
000390 f8 3a 8d be ce d7 02 be 43 5f 3d bd 45 41 59 3e
       -0.27584052 -0.12777635 -0.046233427 0.21216305
0003a0 6b 53 c6 3d 04 fa 91 bc 65 a3 1b 3c 11 69 57 3e
       0.096838795 -0.017819412 0.0094994055 0.21036173
0003b0 e5 b5 5e 3e 9a 64 a2 bd fe 3f 0f be f9 75 e9 bd
       0.21749075 -0.079293445 -0.13989255 -0.113994546
0003c0 a4 16 d0 bd 25 99 0c be 5b 0c f8 3c 4b 36 1b 3e
       -0.10160568 -0.13730295 0.030279329 0.1515743
0003d0 37 45 82 3e 8a 09 4b bd 1e 08 22 be 8c 53 7b be
       0.25443432 -0.049569644 -0.15823409 -0.2454359
0003e0 41 7b 0a 3d 43 65 54 3b 24 2a cc bd fc 51 5f bd
       0.03380895 0.003240899 -0.09968975 -0.054521546
0003f0 e3 8e 0d 3e 6d 66 84 3e 95 a7 54 3d 12 11 8e 3e
       0.13824038 0.25859395 0.05191763 0.277474

lstm.weight_hh_l1 f4 [256, 64]
000000 06 c4 e5 3d 28 9b 66 bd b0 af 85 3c 40 a4 71 bc
       0.11219029 -0.056300312 0.016319126 -0.014748633
000010 0c 07 6d 3d 00 b0 db bd 4a c3 e1 bd 94 c1 76 bd
       0.05786805 -0.10726929 -0.110235766 -0.060243204
000020 3a 12 ea 3d dc 11 ff 3d b4 62 ed bd 50 7d eb bd
       0.11429258 0.12454578 -0.11591092 -0.11498511
000030 a0 c0 da bd b4 5f 4e bd 40 e9 da bd 56 06 ea 3d
       -0.106812716 -0.05038424 -0.1068902 0.1142699
000040 a0 62 88 3d 60 76 81 bb 64 31 48 bd 52 22 8e 3d
       0.06659436 -0.003950879 -0.048875228 0.0694014
000050 50 54 3a 3d ee d8 ec bd 2c 35 f1 3d f8 ef c1 3d
       0.045490563 -0.115648136 0.1177772 0.094695985
000060 14 0a b1 bd 0c 90 74 3d bc 8a dd bd 14 70 34 3d
       -0.086445004 0.059707686 -0.10817477 0.0440522
000070 72 c5 ed bd cc 12 49 bd ea 56 d1 3d e8 27 c1 bd
       -0.11609925 -0.04909019 0.10221656 -0.0943144
000080 b4 16 81 bd 40 7e a3 bb 98 3a b9 3c 6a 2f dd 3d
       -0.063031584 -0.0049894154 0.022610947 0.10800059
000090 ce 52 e6 3d 86 46 8c bd 88 9a 62 3d 3c cd 5d bd
       0.112462625 -0.06849389 0.055323154 -0.054150805
0000a0 80 e6 60 bc 5e b3 80 3d 3e 51 99 3d 86 e1 de bd
       -0.0137268305 0.062842116 0.07486199 -0.10882859
0000b0 80 4f f3 3a 80 db e5 3c 00 2f 1b ba a8 ce da bd
       0.0018563122 0.028058767 -0.00059197843 -0.10683948
0000c0 80 7e 51 bb e6 2d db bd 78 21 9b 3c 50 1b e2 bd
       -0.003196627 -0.10702114 0.018936858 -0.11040366
0000d0 48 33 77 3d 7e 39 a0 bd 00 13 4b 3a 3c 48 d8 bd
       0.06035164 -0.07823466 0.00077466667 -0.105606526
0000e0 10 5f e2 3c 10 24 d2 3d 80 62 70 3b e8 80 82 3c
       0.02763322 0.102607846 0.0036679804 0.015930608
0000f0 42 1f d6 bd 1a 56 aa bd 40 4a f7 3b a0 6a 32 3c
       -0.10455181 -0.08317204 0.007546693 0.010889679
000100 fc f0 f4 3d 50 d3 ff 3d d8 02 99 bd ee 10 f6 bd
       0.119600266 0.124914765 -0.074712455 -0.12014948
000110 8c 4b ef 3d 4e 76 83 3d 9c 25 4f 3d 0a 23 ae 3d
       0.11684331 0.06419049 0.050572976 0.08502777
000120 72 fe a9 bd 48 6d 92 bd 88 c8 c8 bd b4 5f ee 3d
       -0.08300485 -0.0714975 -0.09803873 0.11639348
000130 90 85 e9 bc e0 6b dc 3b d8 fa fa 3d 20 13 65 bc
       -0.02850607 0.006726727 0.12254876 -0.013981611
000140 5a d1 8a bd 40 1b 04 bc 00 20 5c b9 90 d4 6a 3d
       -0.06778212 -0.0080631375 -0.00020992756 0.05733162
000150 86 36 e7 3d 80 ca 89 bd 92 5a 80 bd 2a e4 bf 3d
       0.112896964 -0.06728077 -0.06267275 0.09369691
000160 28 f8 8d bc 5c 22 32 3d c6 8b ca bd 56 18 93 bd
       -0.017330244 0.0434898 -0.09889941 -0.07182376
000170 38 1a 1f 3d 9c a6 11 3d d0 da 28 bd d8 b6 82 3c
       0.038843364 0.03555928 -0.0412243 0.015956327
000180 d0 50 75 3c d8 54 85 3c 60 86 ce bd 8c 07 f5 3d
       0.0149728805 0.016275808 -0.10084224 0.1196433
000190 3e ea a4 bd 68 a1 f5 bc 28 34 a7 bd ee ae a2 bd
       -0.08052491 -0.029984191 -0.08164245 -0.079435214
0001a0 44 90 c9 bd 10 3b 4a 3c d2 13 f3 3d c4 ed b1 3d
       -0.098419696 0.012343183 0.11869015 0.08687928
0001b0 2c 59 fc 3d 00 21 8e ba 30 5c 65 bd 40 86 6c 3d
       0.12321696 -0.0010843575 -0.05599612 0.05774522
0001c0 00 42 01 bc 34 5a af 3d 2c df 7b bd 86 01 90 3d
       -0.007889271 0.08562127 -0.06149213 0.070315406
0001d0 26 e6 be bd 98 78 e9 3c 60 6a dd bc ee 9b d4 bd
       -0.09321241 0.028499886 -0.027028263 -0.10381304
0001e0 cc 34 ff 3d 98 0c d9 bc 1c ca 3d bd d0 c9 1f 3d
       0.12461242 -0.026495263 -0.046335325 0.039010823
0001f0 80 83 bb bd e0 00 d9 3b 40 6c 50 bc c0 56 0f 3d
       -0.09155941 0.0066224188 -0.012721121 0.03499484
000200 a4 74 77 3d ce cb a1 3d c8 64 7e 3d 32 8d 91 3d
       0.06041397 0.07900201 0.06210783 0.07107009
000210 7c 40 99 3d e4 8f a4 bd d0 84 da bd b8 33 ba bc
       0.074830025 -0.080352575 -0.10669863 -0.02272974
000220 fe 7a d2 bd 80 67 b4 bc 28 dd bb bc c8 ff 95 3c
       -0.10277365 -0.022022009 -0.022932604 0.018310443
000230 c4 31 12 3d 4e cd ac bd ba 35 9d bd e8 c8 e5 3d
       0.03569199 -0.08437596 -0.07676263 0.112199605
000240 38 47 e5 bc 50 b7 1d 3d 40 dc f1 bc 5c b7 20 3d
       -0.027988061 0.0385049 -0.029523969 0.039237365
000250 28 75 40 3d d8 fb f7 3d 10 22 e2 3c 40 39 41 bd
       0.04698673 0.12108582 0.027604133 -0.04717374
000260 5e 6a 97 bd 00 52 2a ba 44 8d 3e bd d2 a5 8f 3d
       -0.07393335 -0.00064972043 -0.04652144 0.070140496
000270 08 3b 4c 3d 60 b1 ba bb d0 c5 30 3d 08 89 8c bc
       0.049860984 -0.0056974143 0.0431574 -0.017155185
000280 18 cb d8 3c 94 0a fb bd 20 c1 01 bd 90 0e 08 3c
       0.02646403 -0.12257877 -0.03167832 0.008304253
000290 00 a4 2e 39 a0 31 82 bb 00 ba 32 bc 34 08 8d bd
       0.00016655028 -0.003973201 -0.010908604 -0.0688633
0002a0 76 da b6 3d 22 50 b5 bd 80 cd 37 3d 8e f4 d4 3d
       0.08928387 -0.08853175 0.044873714 0.103982076
0002b0 02 a8 b7 bd a8 69 96 bd 44 d1 68 bd f0 66 65 bd
       -0.08967592 -0.07344371 -0.056840196 -0.056006372
0002c0 cc 1b 24 3d 72 b0 9c 3d 3a fb f2 bd 74 37 e5 bd
       0.04006557 0.07650842 -0.11864324 -0.111922175
0002d0 90 28 20 bd ba e1 cf 3d d0 8f fd 3d 98 85 c4 bd
       -0.039101183 0.10150476 0.12380946 -0.095957935
0002e0 84 fe 68 3d 76 64 b3 3d 80 6b 8f 3d 0a 5d c8 3d
       0.05688335 0.08759396 0.07002926 0.09783371
0002f0 d8 dc 8a bd 9a ef f5 bd d8 4b f0 3d bc d0 c4 3d
       -0.06780404 -0.12008591 0.11733216 0.096101254
000300 c0 fb 55 3c 20 32 20 bc a8 76 87 3c 20 2c c9 3c
       0.01306051 -0.009777576 0.016536072 0.024557173
000310 e8 2e f4 3c 88 f1 76 3d 78 19 33 bd 36 65 fb 3d
       0.029807523 0.060288936 -0.04372546 0.12275164
000320 1c 3c 77 bd b4 72 56 bd 94 39 e0 bd 22 b8 ad bd
       -0.06036006 -0.052355483 -0.10948482 -0.08482386
000330 f6 2a c7 bd 4e 45 fa 3d b0 00 91 bd c0 3f 8c bb
       -0.09724991 0.1222025 -0.07080209 -0.0042800605
000340 b6 7f 9b 3d 9e c1 a0 bd 66 4a 98 3d 64 e3 f6 3d
       0.07592718 -0.078494295 0.074360654 0.1205509
000350 84 7d 12 bd 08 c3 b7 3c 84 cc 18 bd 92 f6 ae bd
       -0.035764232 0.022431865 -0.037304416 -0.08543123
000360 14 c1 cd bd 8a 71 d9 bd b4 94 c0 bd c0 74 97 bb
       -0.10046592 -0.10617359 -0.09403363 -0.004622072
000370 a0 8c 62 3d f4 17 54 3d c8 4e 74 bd 50 09 4a 3d
       0.05530989 0.051780656 -0.059645444 0.049325287
000380 fe ad 9c 3d 00 dd 86 bc 60 98 d1 bc e4 91 b9 3d
       0.07650374 -0.016462803 -0.025585353 0.090610296
000390 40 e9 9e bd c0 ec 09 3c c8 24 be bc ee c0 bc 3d
       -0.07759333 0.008418262 -0.023210898 0.09216486
0003a0 f0 1b 33 bd d8 b4 ea bd a8 7c 17 3d a0 05 16 3d
       -0.043727815 -0.114602745 0.036984116 0.03662646
0003b0 20 68 9a bc 98 95 52 bd 44 60 ab 3d fe a3 85 bd
       -0.018848479 -0.051412195 0.083679706 -0.0652542
0003c0 40 5f f1 bb d8 c9 8a 3c 20 60 d1 3d fe 9d d9 3d
       -0.007366091 0.01694195 0.102234125 0.10625838
0003d0 58 4a d5 bd ac 3b 39 3d 00 82 3f 3c 04 45 dd 3d
       -0.104145706 0.045222923 0.011688709 0.10804179
0003e0 8c af 62 bd 2c d3 d0 3d 42 79 e2 3d 80 e0 90 bd
       -0.055343196 0.10196528 0.11058284 -0.0707407
0003f0 c0 24 29 bb d0 e1 7e 3d 6a e4 c2 3d 64 62 04 bd
       -0.0025809258 0.06222707 0.09516223 -0.032320395

lstm.bias_ih_l1 f4 [256]
000000 c9 43 0e c0 09 9b 14 c0 b5 c7 15 c0 42 5b 1a c0
       -2.2228873 -2.3219626 -2.3403141 -2.41182
000010 36 99 1e c0 b0 b4 0c c0 d0 09 17 c0 8a d9 17 c0
       -2.4781013 -2.1985283 -2.359974 -2.3726525
000020 71 84 1c c0 74 0c 18 c0 ce a4 11 c0 b3 73 8f bf
       -2.4455836 -2.37576 -2.2756839 -1.1207184
000030 5d b3 11 c0 b5 a1 11 c0 d6 1a 0d c0 d3 04 17 c0
       -2.2765725 -2.2754948 -2.204763 -2.3596694
000040 c0 ff 17 c0 4b 7a 1a c0 29 c1 11 c0 ef e5 15 c0
       -2.3749847 -2.4137142 -2.2774146 -2.342159
000050 72 3f c9 bf 7b 60 17 c0 3c ea 12 c0 27 cb 89 bf
       -1.5722487 -2.3652637 -2.2955465 -1.0765122
000060 ac 11 13 c0 4c ac 08 c0 38 1e ed bf e8 a8 0c c0
       -2.2979536 -2.1355162 -1.8524847 -2.1978092
000070 34 11 17 c0 9f 09 18 c0 14 1d 11 c0 eb 3c 16 c0
       -2.360425 -2.3755872 -2.2673998 -2.3474681
000080 5e ca 12 c0 c4 f4 e2 bf 25 2b 16 c0 52 62 14 c0
       -2.2936015 -1.7730947 -2.3463833 -2.318501
000090 3e 30 18 c0 e1 3a 47 bf 86 ff 10 c0 c0 8f 1d c0
       -2.3779445 -0.7782422 -2.265596 -2.4618988
0000a0 0a 58 fb be e3 f1 1c c0 7f 9e 16 c0 75 e4 16 c0
       -0.49090606 -2.4522636 -2.3534238 -2.357694
0000b0 29 bf ca bf 31 a1 0f c0 96 9b 19 c0 36 60 0b c0
       -1.5839587 -2.2442133 -2.4001212 -2.1777472
0000c0 fe 10 02 c0 6a 5a 13 c0 5d d8 0f c0 3d 4d dc bf
       -2.0322871 -2.3023934 -2.2475808 -1.7211071
0000d0 68 7a 0f c0 a8 f8 0e c0 2a da 0f c0 d1 ec 18 c0
       -2.241846 -2.2339268 -2.2476907 -2.3894541
0000e0 96 1a 13 c0 b7 ea 10 c0 d4 61 12 c0 c8 18 0d c0
       -2.2984977 -2.2643259 -2.287221 -2.2046375
0000f0 10 a9 0a c0 ac dd e4 bf 45 74 13 c0 ce a5 13 c0
       -2.1665688 -1.7880149 -2.3039715 -2.306995
000100 0e f0 f3 bd 30 53 7a bc 66 b5 e2 bd 4c 1f 23 bd
       -0.11911021 -0.0152786225 -0.11069755 -0.03982477
000110 98 36 47 bd f0 b0 16 bd 08 ae 86 3c d4 3d a1 3d
       -0.04863605 -0.036789834 0.016440406 0.07873121
000120 c8 c7 00 3d 6c 1b 54 3d 00 d1 cb bd bc 0c c9 3d
       0.031440526 0.051783964 -0.09951973 0.09816882
000130 d8 b9 09 bd b8 21 d7 bc bc b9 0e 3d 04 7d 48 3d
       -0.0336245 -0.026261196 0.0348451 0.04894735
000140 04 6a 1e 3d f0 4e 7b 3d a0 e6 89 3c 30 d7 f4 bd
       0.038675323 0.061354578 0.016833603 -0.11955106
000150 ae fc b1 bd 40 26 fa 3b 3e a6 91 bd 00 4b 78 3c
       -0.08690773 0.0076339543 -0.07111786 0.0151546
000160 28 bc f3 bd ce f8 93 bd 34 13 a4 3d 7c 2d e9 3d
       -0.11901122 -0.0722519 0.08011475 0.113856286
000170 dc 2c 20 3d 8c ad 85 3d 18 30 71 bd 9a 93 fd 3d
       0.03910528 0.06527242 -0.058883756 0.123816684
000180 da 3e 92 bd c0 6b 46 3d aa 20 b6 bd 3e e2 9a 3d
       -0.07140894 0.048442602 -0.08892949 0.075626835
000190 70 27 e0 3d a0 1b 45 bd 2c 4b 65 3d 54 fb d7 bd
       0.10945022 -0.04812205 0.055979893 -0.10545984
0001a0 68 4c f3 bd b0 ac 86 3c a0 4e 9c 3c 72 50 81 3d
       -0.11879808 0.016439766 0.01908046 0.06314172
0001b0 02 ae 8c bd a0 8f 03 3c 38 b1 15 bd 00 e1 eb 3b
       -0.06869127 0.008029848 -0.036545962 0.007198453
0001c0 e0 5b b5 3d d4 68 95 bd 00 5a 25 ba c0 e5 dd bb
       0.088554144 -0.07295385 -0.00063076615 -0.006771773
0001d0 70 d1 08 3d e0 42 da bd 00 02 aa bb 9e 13 fc 3d
       0.03340286 -0.10657287 -0.0051882267 0.12308429
0001e0 80 13 6b bd c0 4b db 3c ec 39 10 3d 70 f9 2d 3d
       -0.057391644 0.026769519 0.03521149 0.04247421
0001f0 58 f7 65 3d 80 c6 d7 ba 20 23 9b 3d 08 2e 96 bc
       0.05614409 -0.0016462356 0.07575059 -0.018332496
000200 03 54 a1 bd 10 53 a1 3c 9b 3f 59 3d b0 f9 27 3d
       -0.07877352 0.019692928 0.053039175 0.041009605
000210 02 60 d8 bc be ea b6 3d 4b b1 83 3c ee de c0 bc
       -0.026412968 0.08931492 0.01607575 -0.023543801
000220 6b 45 41 3c 05 77 fe bb 60 f0 be 3d 96 09 b0 be
       0.011796336 -0.007765653 0.09323192 -0.34382313
000230 0d bc 86 3d e2 55 88 3d c3 ec 70 bc ef 17 f6 bb
       0.065788366 0.06657006 -0.014704886 -0.0075101773
000240 f8 85 c7 3d 2d 46 a8 3d 67 41 53 bd d8 e9 36 bd
       0.097423494 0.0821651 -0.051576044 -0.044656605
000250 0a ee c1 3e f1 0d b3 3d 47 ad 7f 3d 06 be e0 3d
       0.37876922 0.087428935 0.06242111 0.10973744
000260 62 cd b2 bd 86 5c 74 bd bb fd 35 3e 68 8a 30 bd
       -0.0873058 -0.05965855 0.17772572 -0.043100744
000270 28 98 ca 3d d5 d8 0d bc f5 4a b3 3c 49 4d 9c bc
       0.09892303 -0.008657654 0.021886328 -0.019079821
000280 d1 19 42 3d d7 9d 41 3e 3f c7 15 3d 9b 99 c5 bc
       0.0473879 0.18907867 0.03656697 -0.024121096
000290 56 10 9f bc 36 e6 77 3c 90 62 52 3c ea 92 b9 3c
       -0.01941697 0.01513057 0.012840882 0.022653062
0002a0 50 4e 65 3d 57 39 6a 3d 2c e0 9a bb ae ae 12 bb
       0.055982888 0.05718359 -0.0047264304 -0.002238195
0002b0 0f 78 98 be 5a 14 3e 3d 77 7a bb 3d e6 00 b4 bc
       -0.29779097 0.046406128 0.09154218 -0.021973085
0002c0 96 fa 65 3d 47 da 74 3c de c0 60 ba 4e 67 1b bd
       0.05614718 0.0149446195 -0.00085736613 -0.037940316
0002d0 39 f7 7e bc 79 2f 03 bd 63 e7 7f 3d 2b f5 ae bc
       -0.015561872 -0.032027695 0.062476527 -0.02135714
0002e0 2b 99 41 bc e5 42 bc bc 98 ea 0b bc f2 5c 82 bd
       -0.011816303 -0.022981117 -0.008539818 -0.06365384
0002f0 e3 50 06 bb d7 aa e5 be 1a a7 2c bd 38 7c 14 bd
       -0.002049499 -0.44856903 -0.042151548 -0.036251277
000300 13 16 0f c0 c5 ab 1c c0 da f5 0c c0 1e cb 0e c0
       -2.2357223 -2.447984 -2.2025056 -2.2311473
000310 1d 45 24 c0 d1 66 10 c0 c0 e3 0d c0 6b 55 0a c0
       -2.5667183 -2.2562754 -2.2170258 -2.1614635
000320 4e d2 13 c0 f5 b3 10 c0 10 8f 18 c0 cf 5a 9b bf
       -2.309711 -2.2609837 -2.3837318 -1.2137088
000330 b3 91 11 c0 11 57 10 c0 a6 f9 16 c0 e0 2b 18 c0
       -2.2745178 -2.255314 -2.3589873 -2.377678
000340 ce 04 0e c0 c1 23 13 c0 5c 67 17 c0 1e 74 12 c0
       -2.2190433 -2.2990572 -2.3656836 -2.2883372
000350 bb c5 cf bf 97 88 11 c0 95 cf 11 c0 46 0b 88 bf
       -1.6232218 -2.2739618 -2.2782948 -1.062844
000360 0c 59 10 c0 6d ff 16 c0 04 68 e4 bf 8e b1 15 c0
       -2.255435 -2.35934 -1.7844243 -2.338962
000370 ee 49 11 c0 d0 1d 0b c0 23 af 0f c0 2d 53 15 c0
       -2.2701373 -2.1736946 -2.2450645 -2.3332016
000380 33 36 17 c0 56 c1 f2 bf 10 05 14 c0 9b 9b 10 c0
       -2.362683 -1.8965251 -2.312809 -2.2594974
000390 aa 00 19 c0 a4 09 86 bf 50 83 19 c0 56 fb 10 c0
       -2.3906655 -1.0471692 -2.3986397 -2.2653403
0003a0 b7 b9 ff be 7c 2c 12 c0 64 ba 16 c0 68 bd 24 c0
       -0.49946377 -2.283965 -2.3551264 -2.5740604
0003b0 8d 71 c9 bf 77 74 13 c0 c6 7d 10 c0 7a b0 18 c0
       -1.5737778 -2.3039834 -2.2576766 -2.3857713
0003c0 10 09 07 c0 19 36 16 c0 a4 39 1f c0 58 82 e4 bf
       -2.1099281 -2.3470519 -2.487893 -1.7852278
0003d0 13 29 14 c0 a0 fa 12 c0 2a 85 14 c0 bb 13 12 c0
       -2.315007 -2.296547 -2.3206277 -2.2824543
0003e0 6d 47 15 c0 03 a9 10 c0 c9 f0 16 c0 90 95 16 c0
       -2.3324845 -2.2603157 -2.3584464 -2.3528786
0003f0 46 80 02 c0 c3 db e4 bf 99 ff 17 c0 92 2e 1a c0
       -2.0390792 -1.7879566 -2.3749754 -2.4090924
