Code/698/10step_5horizon/models/lstm_no_embed/5step_1horizon_RMSE_1.pth (torch, 205820 bytes, 9 tensors)

lstm.weight_ih_l0 f4 [256, 1]
0.13861854 -0.4510733 0.051229175 0.2491382 -0.19305842 0.46899816 -0.19599417 -0.003020488
-0.4299796 -0.41793394 0.061306003 0.06291302 0.16761953 0.032082528 -0.2899298 0.32713252
0.18246979 0.18035002 0.27116936 -0.0014996646 0.471886 0.07259866 -0.3305356 0.40175775
-0.058481153 -0.22595061 -0.20730837 0.44316345 0.23516284 0.23606391 0.20492767 0.085552976
0.12267428 -0.22132033 0.22969082 0.14752294 0.05334069 0.08636463 0.16917858 -0.053838942
0.165826 0.27590767 0.25761783 0.10097824 -0.3943541 -0.2606736 -0.19278231 -0.16422002
0.2845661 0.28552285 0.13687488 -0.3327394 -0.39853567 -0.35171428 0.22828342 0.078592196
0.28602126 0.11630178 0.21525681 0.23022486 0.20035388 -0.31956342 0.3473735 -0.26140442
0.29418457 -0.86624074 0.23785222 0.23513617 -0.09857682 0.11809519 -0.12884337 -0.0060076066
-0.19609822 -0.2926535 -0.11261087 -0.07015224 0.14552398 0.065655805 -0.19148275 0.3737518
0.20224826 0.35112897 0.17032956 0.13174 0.2618166 0.26868302 -0.23222946 0.30857298
0.25546357 -0.14344893 -0.117898524 0.35365033 0.18807323 0.15302196 0.095733546 0.20892194
0.11287048 -0.32487136 0.10156194 0.28791797 -0.06527456 0.1403055 0.25209844 0.14721441
0.259942 0.26007414 0.22580498 -0.17419323 -0.30781996 -0.24219109 -0.20883435 -0.021284055
0.28102833 0.20301257 -0.051499877 -0.5653307 -0.0890677 -0.25841618 0.17377068 0.28868136
0.3358222 0.2934496 0.20934716 0.32696843 0.17490329 -0.1617913 0.0033819687 -0.028684197
0.56400996 -0.9008561 -0.4567322 -0.4099557 -0.039685465 -0.5452025 -0.16105057 0.15395062
0.041341193 -0.23967797 -0.21069326 -0.39802644 0.40694746 -0.46680123 -0.2622575 -0.3559637
-0.5046015 0.49546614 1.097116 -0.40163207 -1.193445 -0.13660257 -0.46883777 -0.21973425
0.23488821 -0.42778715 -0.039058533 1.1064373 0.15224367 0.70536697 0.6630379 0.31809253
0.015327597 -0.6101056 0.93172777 0.49722123 -0.5226915 0.57442623 0.16818728 0.5349652
0.49979886 -0.19873181 0.27294946 -0.5949745 0.020842744 0.3101649 0.07582363 0.14042911
0.13166673 -0.6618271 0.7301816 -1.3168701 -0.066431314 0.2113129 0.6350596 -0.28295857
-0.22774875 0.34028935 -0.270529 0.3598564 0.3172125 0.7534901 -0.7342314 -0.048071794
0.23134981 -0.5530398 0.16130987 0.10831625 -0.23161831 0.3535996 -0.3949684 0.055172298
-0.30092162 -0.43367833 -0.14371854 -0.12131008 0.2240161 0.2201253 -0.38378295 0.28698483
0.20207267 0.20789893 0.39159694 0.07498303 0.6277211 -0.024222141 -0.36606538 0.2790507
0.052267358 -0.22994299 -0.16076276 0.49166572 0.19412588 0.25409836 0.25550446 0.17685807
0.15092802 -0.21000548 0.1892553 0.12376671 0.073118806 0.20529422 0.20515674 -0.093411975
0.12811321 0.22248974 0.23649801 0.06757073 -0.44524914 -0.29069528 -0.22968426 -0.18510604
0.30263704 0.33123213 0.068121135 -0.3181778 -0.29232678 -0.36840302 0.3024408 0.2166843
0.35034716 0.0197574 0.35210434 0.16070607 0.26166013 -0.39012593 0.45680752 -0.29771033
00000000: 05f2 0d3e 14f3 e6be afd5 513d 161e 7f3e
00000010: 1bb1 45be 8720 f03e b2b2 48be 61f3 45bb
00000020: 4926 dcbe 70fb d5be 011c 7b3d 8bd8 803d
00000030: 74a4 2b3e f868 033d ae71 94be ea7d a73e
00000040: 5cd9 3a3e adad 383e b6d6 8a3e 6590 c4ba
00000050: 0b9b f13e 9bae 943d f63b a9be 31b3 cd3e
00000060: ef89 6fbd 995f 67be a548 54be 52e6 e23e
00000070: 87ce 703e bdba 713e 8fd8 513e 6636 af3d
00000080: a73c fb3d cca1 62be 1234 6b3e 4110 173e
00000090: c47b 5a3d f0df b03d 263d 2d3e 3986 5cbd
000000a0: 4ace 293e c543 8d3e 7ce6 833e aecd ce3d
000000b0: c8e8 c9be 0377 85be ba68 45be 4b29 28be
000000c0: a6b2 913e 0d30 923e ee28 0c3e d25c aabe
000000d0: de0c ccbe e513 b4be 21c3 693e f2f4 a03d
000000e0: 6171 923e a12f ee3d 486c 5c3e 11c0 6b3e
000000f0: 9129 4d3e d19d a3be f0da b13e cdd6 85be
00000100: 5c9f 963e f4c1 5dbf 888f 733e 89c7 703e
00000110: a5e2 c9bd e4db f13d 84ef 03be 75db c4bb
00000120: f9cd 48be aed6 95be 87a0 e6bd faab 8fbd
00000130: 3d04 153e 8d76 863d 0e14 44be 655c bf3e
00000140: 2b1a 4f3e 2dc7 b33e df6a 2e3e dae6 063e
00000150: d30c 863e d290 893e 8fcd 6dbe 47fd 9d3e
00000160: 1fcc 823e 47e4 12be c874 f1bd a811 b53e
00000170: 4596 403e cab1 1c3e f30f c43d a2ef 553e
00000180: a328 e73d 8a55 a6be b5ff cf3d fc69 933e
00000190: abae 85bd 3fac 0f3e 0c13 813e 60bf 163e
000001a0: 1e17 853e 7028 853e 6c39 673e b65f 32be
000001b0: 949a 9dbe f100 78be acd8 55be e65b aebc
000001c0: f2e2 8f3e 87e2 4f3e 89f1 52bd 83b9 10bf
000001d0: 2069 b6bd 204f 84be f1f0 313e 0bce 933e
000001e0: e3f0 ab3e 073f 963e 1a5f 563e 6868 a73e
000001f0: d919 333e 9eac 25be 05a4 5d3b 1ffb eabc
00000200: f562 103f 819e 66bf ced8 e9be b7e5 d1be
00000210: 3a8d 22bd 6492 0bbf 71ea 24be 3ba5 1d3e
00000220: 6255 293d 246e 75be f9bf 57be 1fca cbbe
00000230: 6b5b d03e 9200 efbe 9d46 86be e040 b6be
00000240: 902d 01bf bdad fd3e 4c6e 8c3f b8a2 cdbe
00000250: cec2 98bf 8be1 0bbe 810b f0be 0402 61be
00000260: 8986 703e eb06 dbbe d7fb 1fbd bd9f 8d3f
00000270: c4e5 1b3e ee92 343f dabc 293f 06dd a23e
00000280: 9a20 7b3c e12f 1cbf b685 6e3f c893 fe3e
00000290: 1ccf 05bf 990d 133f 4939 2c3e 7bf3 083f
000002a0: a3e5 ff3e 5a80 4bbe 08c0 8b3e 4050 18bf
000002b0: 67be aa3c efcd 9e3e 6b49 9b3d a6cc 0f3e
000002c0: a5d3 063e 806d 29bf 2eed 3a3f 338f a8bf
000002d0: 240d 88bd 6962 583e 4493 223f f2df 90be
000002e0: f836 69be 683a ae3e c782 8abe 193f b83e
000002f0: ad69 a23e bae4 403f 97f6 3bbf eee6 44bd
00000300: f7e6 6c3e 0494 0dbf 6a2e 253e e9d4 dd3d
00000310: 5a2d 6dbe 020b b53e 4c39 cabe 59fc 613d
00000320: 6612 9abe 160b debe f42a 13be 6b71 f8bd
00000330: 7a64 653e 8768 613e 337f c4be adef 923e
00000340: 23ec 4e3e 75e3 543e 657f c83e b490 993d
00000350: 54b2 203f 836d c6bc ec6c bbbe bcdf 8e3e
00000360: 4c16 563d 2d76 6bbe fe9e 24be 9cbb fb3e
00000370: efc8 463e 2e19 823e 7bd1 823e 481a 353e
00000380: e08c 1a3e ad0b 57be 24cc 413e 6779 fd3d
00000390: 50bf 953d a638 523e 9c14 523e c74e bfbd
000003a0: 1c30 033e 5ad4 633e 892c 723e 8662 8a3d
000003b0: b2f7 e3be 03d6 94be 5a32 6bbe 708c 3dbe
000003c0: 3ef3 9a3e 4297 a93e 1883 8b3d 33e8 a2be
000003d0: dbab 95be 529f bcbe 85d9 9a3e 7de2 5d3e
000003e0: b460 b33e 45da a13c 0547 b43e 2290 243e
000003f0: 51f8 853e 96be c7be ade2 e93e 7d6d 98be

lstm.weight_hh_l0 f4 [256, 64]
0.15757458 0.01078052 -0.11047663 -0.12444829 0.12770079 -0.082357235 -0.05149853 0.09014116
-0.14033987 0.017353633 -0.009299729 -0.124844715 0.25376755 -0.124909736 -0.07825792 -0.044642664
-0.100567676 0.20583609 0.16314672 0.0760887 -0.28668094 -0.15985455 -0.110866174 -0.16040343
0.10391302 -0.12305889 0.07750247 0.22194807 -0.04130257 -0.08088579 0.1130288 0.19167198
0.021866526 0.021213558 0.07758534 0.1940696 0.044411168 0.1499811 0.06898304 0.0107041765
0.09924978 -0.21610884 0.068824016 0.0999766 -0.12390223 -0.014705073 0.050823867 0.1479805
0.12967099 -0.096533135 0.14138791 0.23147191 -0.083404124 -0.03622813 0.112204805 -0.07232531
-0.15673421 0.15031095 -0.063243926 0.2401419 0.2286896 -0.2817023 -0.016465534 0.1479615
-0.118305 0.049153663 0.30141547 0.14755177 0.12395042 0.1246348 0.20213445 -0.056112114
0.012730745 -0.08038357 0.090782896 0.091507114 -0.082794726 0.04755058 0.15401947 0.040507074
0.07906508 -0.11892341 -0.018181028 0.28247693 -0.24364358 0.15849887 -0.08744423 -0.049014866
0.027921522 0.14189467 -0.10748664 0.11720565 -0.09294541 -0.06747293 -0.084935084 -0.16543084
-0.117894106 -0.014665917 -0.038922068 -0.2533064 0.26011798 -0.06578924 -0.033501726 -0.24596417
-0.28961614 0.19702944 -0.24204607 0.06631038 0.056386746 -0.015612941 -0.05481995 -0.07049563
-0.23467048 0.39339077 -0.13451213 0.18511125 0.044025753 0.072777756 -0.27660412 0.09459737
0.17103857 -0.24670021 0.14846604 -0.17969169 -0.12099307 0.053879283 -0.13782284 -0.17809424
0.104794905 0.14406498 -0.10574781 -0.16301501 -0.05189021 -0.25241596 -0.13539651 -0.08379491
0.028458396 0.10541449 0.08966086 0.09439587 0.19634084 -0.12441825 -0.0053870818 -0.0048085367
0.115890756 0.08117867 0.15553887 0.033220746 -0.08191925 -5.626526e-05 0.06651311 0.0061872797
0.13608746 -0.13066514 -0.013053012 0.16910747 0.09172819 0.08501926 0.06076827 0.024286542
0.15828922 0.008742598 0.12861831 0.15211827 0.13619055 0.19820234 -0.027299158 -0.12318393
0.06834682 -0.041572336 0.12572739 0.19646524 0.024708334 -0.057591513 0.15254265 0.050118964
0.04422262 -0.12662056 0.021679144 0.25952736 -0.111785196 0.06886984 0.07291699 -0.12123432
-0.096105166 -0.012401233 -0.05588678 0.008628522 0.17558533 -0.37323633 -0.009340366 0.15180764
0.07518222 -0.024652282 -0.16175926 0.028138071 0.12476102 -0.16818336 -0.06350409 -0.08316183
-0.04581145 0.10306275 -0.11927863 0.0033011916 -0.018414589 -0.19356735 -0.017078953 -0.06187389
-0.06263903 0.1240986 0.022568138 -0.13538904 -0.03869299 0.04691696 0.08411811 -0.07614948
0.15445247 -0.109680004 0.047883295 -0.03662657 -0.029386811 0.06410954 0.08821578 -0.03251856
0.011154957 -0.14082447 0.020463364 0.009084929 0.08505874 -0.0025517093 -0.04640391 -0.01816225
-0.08071858 -0.09991879 -0.016375862 -0.018151848 -0.056266908 0.12959924 -0.10766348 0.13970944
-0.036272045 0.03588567 0.044758413 0.18009016 -0.11775874 -0.012530356 0.01788595 -0.1312795
-0.16317447 -0.020624835 -0.052207675 0.0073714075 0.003655352 -0.20317762 0.09375023 0.05455697
00000000: 3b5b 213e c7a0 303c 9241 e2bd bfde febd
00000010: ffc3 023e e9aa a8bd 1ff0 52bd ee9b b83d
00000020: 41b5 0fbe 3529 8e3c e45d 18bc 96ae ffbd
00000030: d2ed 813e add0 ffbd b045 a0bd 3adb 36bd
00000040: 6df6 cdbd b2c6 523e ef0f 273e 64d4 9b3d
00000050: d8c7 92be e9b0 23be ce0d e3bd cc40 24be
00000060: 59d0 d43d 4d06 fcbd 9db9 9e3d 5b46 633e
00000070: e22c 29bd 73a7 a5bd a57b e73d a945 443e
00000080: 6e21 b33c 0ec8 ad3c 10e5 9e3d 2eba 463e
00000090: 7ce8 353d a594 193e fb46 8d3d 9260 2f3c
000000a0: 7843 cb3d a34b 5dbe 9bf3 8c3d 88c0 cc3d
000000b0: 74c0 fdbd 8ced 70bc b02c 503d 3388 173e
000000c0: 79c8 043e 2ab3 c5bd fec7 103e f906 6d3e
000000d0: c8cf aabd f363 14bd a2cb e53d 4b1f 94bd
000000e0: ef7e 20be 1deb 193e 0886 81bd c2e7 753e
000000f0: 9b2d 6a3e 493b 90be bae2 86bc 3883 173e
00000100: e449 f2bd 5a55 493d 2153 9a3e d017 173e
00000110: b8d9 fd3d 8840 ff3d 55fc 4e3e d1d5 65bd
00000120: 9d94 503c 24a0 a4bd 62ec b93d 1568 bb3d
00000130: 4890 a9bd 66c4 423d 48b7 1d3e bfea 253d
00000140: dfec a13d 1e8e f3bd 61f0 94bc d1a0 903e
00000150: b47d 79be 874d 223e f615 b3bd d0c3 48bd
00000160: adbb e43c d64c 113e f521 dcbd 8409 f03d
00000170: 2a5a bebd 3f2f 8abd 72f2 adbd b466 29be
00000180: 7772 f1bd 5049 70bc bf6c 1fbd 60b1 81be
00000190: 2f2e 853e 82bc 86bd 1b39 09bd 08de 7bbe
000001a0: 9148 94be 16c2 493e edda 77be bdcd 873d
000001b0: caf5 663d 6ccd 7fbc e28a 60bd 0360 90bd
000001c0: 754d 70be 846a c93e 8cbd 09be ce8d 3d3e
000001d0: 5954 343d 810c 953d 0e9f 8dbe 44bc c13d
000001e0: bc24 2f3e fb9e 7cbe 7b07 183e 1901 38be
000001f0: 37cb f7bd 86b0 5c3d 6e21 0dbe 565e 36be
00000200: b69e d63d c585 133e 4f92 d8bd 68ed 26be
00000210: d48a 54bd aa3c 81be 62a5 0abe aa9c abbd
00000220: 9521 e93c 8de3 d73d 1da0 b73d 9f52 c13d
00000230: 930d 493e ffce febd 1e86 b0bb ee90 9dbb
00000240: 2258 ed3d 0141 a63d 9545 1f3e 7a12 083d
00000250: 48c5 a7bd 5dfe 6bb8 0738 883d aabe ca3b
00000260: 835a 0b3e 15cd 05be 4ddc 55bc 822a 2d3e
00000270: fddb bb3d 941e ae3d 26e8 783d 92f4 c63c
00000280: 9216 223e 1d3d 0f3c 85b4 033e e4c4 1b3e
00000290: 8975 0b3e 8ef5 4a3e 7ca2 dfbc db47 fcbd
000002a0: 6bf9 8b3d c147 2abd aebe 003e 2f2e 493e
000002b0: 2269 ca3c 14e5 6bbd 2434 1c3e 8b49 4d3d
000002c0: c722 353d d2a8 01be 7698 b13c c5e0 843e
000002d0: a3ef e4bd a10b 8d3d 8155 953d b349 f8bd
000002e0: c9d2 c4bd 8b2e 4bbc 89e9 64bd a55e 0d3c
000002f0: a4cc 333e d518 bfbe 5608 19bc 7673 1b3e
00000300: 23f9 993d 95f3 c9bc 38a4 25be d081 e63c
00000310: b582 ff3d 4238 2cbe 6f0e 82bd c050 aabd
00000320: c9a4 3bbd 9012 d33d 5b48 f4bd ce58 583b
00000330: 31da 96bc 8536 46be 29e9 8bbc 7a6f 7dbd
00000340: e448 80bd 6827 fe3d d1e0 b83c 6da3 0abe
00000350: 8a7c 1ebd 002c 403d 1e46 ac3d 42f4 9bbd
00000360: ca28 1e3e e99f e0bd 4621 443d be05 16bd
00000370: 9cbc f0bc dd4b 833d 7aaa b43d 2e32 05bd
00000380: 48c3 363c 4a34 10be c9a2 a73c f4d8 143c
00000390: 4733 ae3d 943a 27bb 0712 3ebd 00c9 94bc
000003a0: c84f a5bd 39a2 ccbd ac26 86bc 2fb3 94bc
000003b0: 2178 66bd aab5 043e ac7e dcbd fe0f 0f3e
000003c0: ff91 14bd dafc 123d 9954 373d 8e69 383e
000003d0: 7f2b f1bd 1f4c 4dbc 8e85 923c 226e 06be
000003e0: 3517 27be 6af5 a8bc b7d7 55bd d98b f13b
000003f0: a18e 6f3b cb0d 50be 1f00 c03d 2177 5f3d

lstm.bias_ih_l0 f4 [256]
-0.8222491 -0.75987834 -0.6880606 -1.1173028 -1.2558339 -0.74326724 -1.2025893 -1.1526406
-1.2751259 -1.1730628 -1.2269348 -1.1575311 -1.2070088 -1.159496 -1.2135514 -1.2140908
-0.87060076 -0.9984861 0.54131526 -1.1091632 0.8724589 -1.1478004 -1.1355253 -1.2151905
-1.1735855 -1.0612413 -1.1012042 0.25989616 -1.2608544 -0.27817696 -0.24023867 -1.2799897
-1.1898166 -0.81022084 0.20387422 -0.98251605 -0.82204777 -0.8860449 -1.2068968 -0.6983092
-0.67713314 -1.1956542 -0.9053448 -1.0405636 -1.1529812 -1.1650323 -1.2358558 -1.1610267
-1.1722713 -0.36967087 -0.89050645 -0.13545212 -1.1710817 -1.2856102 -0.33845428 -1.13003
-1.1777049 -1.2420422 -1.0889704 -1.0686753 -1.0685592 -0.070230976 0.17320798 -1.3144572
-0.18890391 -0.8733707 -0.5753344 -0.42047942 -0.6344807 -0.5175743 -0.85157657 -0.62509096
-0.7289198 -0.7853369 -0.5976482 -0.5362349 -0.5374786 -0.6329776 -0.64005107 -0.6942453
-0.4229539 -0.82319754 -0.021642229 -0.54348075 -0.065753795 -0.78414726 -0.7361899 -0.5796863
-0.59342057 -0.73165035 -0.76085067 -0.17364605 -0.74646616 -0.023851015 0.0051089064 -0.4499448
-0.74855816 -0.7900314 -0.27965906 -0.3298503 -0.65313697 -0.63129616 -0.76487917 -0.64003366
-0.3490889 -0.5819189 -0.70114356 -0.5961204 -0.77721655 -0.7241474 -0.7135373 -0.7637325
-0.75339067 0.027157493 -0.6917792 -0.18826182 -0.7438475 -0.743831 -0.008428357 -0.6972118
-0.5939463 -0.7555308 -0.7126124 -0.54375994 -0.5966937 0.005504602 0.070409656 -0.66232497
0.038178366 0.040781427 0.056092493 0.08289081 -0.079528056 0.11455301 0.033403065 -0.044702042
0.072140284 0.011699372 0.068570584 0.05464209 -0.04976998 0.06446662 -0.030315684 0.017992968
0.016595235 0.045608275 -0.060547043 0.065971486 0.13384695 0.014085111 -0.04386668 -0.021607924
-0.0017927302 -0.027781 0.11185051 0.03875533 -0.0030774288 0.07690923 -0.092580006 -0.019710103
0.020617617 0.03691486 0.041679397 -0.057923824 -0.032390986 -0.0026368205 -0.08528627 -0.012845775
-0.1067508 0.01054835 -0.0022045877 -0.01574045 -0.012074536 0.0008039622 0.027115908 -0.03504109
0.002261831 0.15287812 -0.00210284 0.0019111594 -0.0041000866 0.082317896 0.067660324 0.09953983
0.04006977 -0.035761327 0.031076893 0.025450908 -0.02948273 0.00084089546 0.13401547 -0.043124314
-0.77944493 -0.5987451 -0.6537965 -1.0050299 -1.181531 -0.83545196 -1.2373 -1.2623914
-1.1721961 -1.2476788 -1.0378892 -1.0882661 -1.0164392 -1.1378495 -1.2509717 -1.0479984
-0.9159459 -1.0136715 0.55261654 -1.0979478 1.102278 -1.1676238 -1.128998 -1.1155299
-1.1250007 -1.1968408 -1.2200627 0.33954376 -1.1319914 -0.30830246 -0.3153774 -1.1396383
-1.3038758 -0.6328996 0.30254593 -0.7721313 -0.82644314 -0.79116136 -1.1830579 -0.65793484
-0.7193981 -1.2187115 -1.1009867 -0.9354181 -1.2107406 -1.0525496 -1.2311916 -1.1593083
-1.1475405 -0.50087196 -0.8727442 0.10358262 -1.2676442 -1.1048331 -0.30182567 -1.0433931
-1.2116189 -1.1269277 -1.3476299 -1.133732 -1.054997 -0.032836627 0.17111166 -1.1701187
00000000: eb7e 52bf 6387 42bf bd24 30bf c703 8fbf
00000010: 2abf a0bf c346 3ebf 72ee 99bf ba89 93bf
00000020: 5337 a3bf ec26 96bf 330c 9dbf fb29 94bf
00000030: 447f 9abf 5d6a 94bf a755 9bbf 5467 9bbf
00000040: b1df 5ebf c99c 7fbf a393 0a3f 0ff9 8dbf
00000050: 7759 5f3f 20eb 92bf e558 91bf 5d8b 9bbf
00000060: 0d38 96bf c1d6 87bf 42f4 8cbf 1c11 853e
00000070: ad63 a1bf 366d 8ebe 2001 76be b4d6 a3bf
00000080: e94b 98bf a26a 4fbf 67c4 503e 2c86 7bbf
00000090: b971 52bf d7d3 62bf 987b 9abf 64c4 32bf
000000a0: 9958 2dbf 320b 99bf adc4 67bf 3031 85bf
000000b0: e394 93bf c71f 95bf 8630 9ebf 869c 94bf
000000c0: fc0c 96bf 8045 bdbe 3bf8 63bf f6b3 0abe
000000d0: 01e6 95bf e08e a4bf e149 adbe d3a4 90bf
000000e0: 09bf 96bf 3dfb 9ebf 6263 8bbf 5aca 88bf
000000f0: 8cc6 88bf 42d5 8fbd 6f5d 313e 2240 a8bf
00000100: 0770 41be 3995 5fbf 1e49 13bf 1449 d7be
00000110: 546d 22bf c07f 04bf ec00 5abf f605 20bf
00000120: 7d9a 3abf d70b 49bf 79ff 18bf b146 09bf
00000130: 3398 09bf d20a 22bf 63da 23bf 0fba 31bf
00000140: 6a8d d8be 13bd 52bf 0b4b b1bc 8e21 0bbf
00000150: eda9 86bd e0bd 48bf f176 3cbf 5266 14bf
00000160: 69ea 17bf 704d 3bbf 1cc7 42bf 45d0 31be
00000170: 6818 3fbf 3463 c3bc 9d68 a73b 2a5f e6be
00000180: 82a1 3fbf 7f3f 4abf 792f 8fbe 23e2 a8be
00000190: fc33 27bf a09c 21bf 1fcf 43bf 3fd9 23bf
000001a0: c8bb b2be a3f8 14bf 257e 33bf 599b 18bf
000001b0: aaf7 46bf b961 39bf 61aa 36bf f983 43bf
000001c0: 36de 40bf 6479 de3c 7118 31bf b5c7 40be
000001d0: ca6c 3ebf b56b 3ebf 1717 0abc 797c 32bf
000001e0: dd0c 18bf 776a 41bf c46d 36bf da33 0bbf
000001f0: ebc0 18bf f35f b43b f032 903d 218e 29bf
00000200: eb60 1c3d 6d0a 273d 3ec1 653d a8c2 a93d
00000210: 9bdf a2bd c59a ea3d a7d1 083d 7d19 37bd
00000220: 49be 933d b9ae 3f3c bc6e 8c3d 62d0 5f3d
00000230: 9bdb 4bbd 1307 843d 9958 f8bc fd65 933c
00000240: bbf2 873c becf 3a3d 2d00 78bd 0f1c 873d
00000250: 2d0f 093e 3dc5 663c 8cad 33bd 1a03 b1bc
00000260: 0bfa eaba fb94 e3bc e111 e53d e9bd 1e3d
00000270: b0ae 49bb 9682 9d3d 969a bdbd 1577 a1bc
00000280: 47e6 a83c 0934 173d 04b8 2a3d 8841 6dbd
00000290: 69ac 04bd 82ce 2cbb 91aa aebd 1677 52bc
000002a0: 2aa0 dabd fdd2 2c3c d87a 10bb 1ef2 80bc
000002b0: 46d4 45bc fdc0 523a 2e22 de3c 3f87 0fbd
000002c0: 3a3b 143b 158c 1c3e cdcf 09bb de7f fa3a
000002d0: 055a 86bb 4996 a83d 7f91 8a3d 8adb cb3d
000002e0: 3320 243d 787a 12bd f894 fe3c 6c7e d03c
000002f0: c485 f1bc 8a6f 5c3a 5a3b 093e 1fa3 30bd
00000300: b489 47bf 5c47 19bf 355f 27bf d2a4 80bf
00000310: 683c 97bf 2ee0 55bf d95f 9ebf 0b96 a1bf
00000320: 860a 96bf f0b3 9fbf 8ed9 84bf 4e4c 8bbf
00000330: ae1a 82bf 0da5 91bf d71f a0bf d024 86bf
00000340: 6e7b 6abf fdbf 81bf 4778 0d3f 8e89 8cbf
00000350: 7217 8d3f b274 95bf 0283 90bf afc9 8ebf
00000360: 0600 90bf 1432 99bf 042b 9cbf aed8 ad3e
00000370: 18e5 90bf d2d9 9dbe 2679 a1be abdf 91bf
00000380: 67e5 a6bf b505 22bf 4de7 9a3e 66aa 45bf
00000390: c791 53bf 8d89 4abf 716e 97bf 6b6e 28bf
000003a0: 792a 38bf bdfe 9bbf 22ed 8cbf 9077 6fbf
000003b0: 8cf9 9abf f2b9 86bf b097 9dbf 3764 94bf
000003c0: 9be2 92bf 2539 00bf 2a6c 5fbf 2023 d43d
000003d0: 2a42 a2bf 2c6b 8dbf e588 9abe e88d 85bf
000003e0: 5416 9bbf 2b3f 90bf 237f acbf 211e 91bf
000003f0: 240a 87bf b37f 06bd e537 2f3e 73c6 95bf

lstm.bias_hh_l0 f4 [256]
-0.7020517 -0.6869127 -0.52735084 -1.0901555 -1.2901564 -0.5863978 -1.2197355 -1.2526937
-1.387992 -1.144181 -1.279218 -1.0696157 -1.2602134 -1.1108981 -1.1643053 -1.152123
-0.8820513 -0.9413896 0.6166082 -1.0027788 1.0033461 -1.2575802 -1.0888858 -1.2551883
-1.0820181 -1.2393444 -1.2826856 0.26489097 -1.2004172 -0.26967198 -0.42435154 -1.124701
-1.208928 -0.68539786 0.2494847 -0.93435526 -0.8955417 -0.97630924 -1.2943299 -0.825977
-0.5832904 -1.1268296 -0.9583879 -0.950532 -1.1689056 -1.2954735 -1.2407367 -1.275651
-1.2095579 -0.55984074 -0.86178297 0.07015184 -1.2823406 -1.157058 -0.30129936 -1.1344188
-1.0509467 -1.2274994 -1.1979935 -1.0708454 -1.1431974 -0.033897627 0.089746 -1.1744013
-0.41789412 -1.0211658 -0.7172608 -0.5880881 -0.82068557 -0.46213606 -0.713361 -0.54164314
-0.8205741 -0.78966886 -0.6439253 -0.6032499 -0.5137313 -0.69607115 -0.7380793 -0.48584086
-0.27642876 -0.83258504 0.05078006 -0.50961 0.11273662 -0.75356364 -0.72797745 -0.5126022
-0.6320222 -0.8811579 -0.70085955 -0.14166097 -0.6270757 0.18555447 0.05871654 -0.33649045
-0.6741853 -0.81938845 -0.3098345 -0.30010656 -0.53609985 -0.65259016 -0.55277866 -0.8279126
-0.41935873 -0.55939114 -0.64036185 -0.48211488 -0.70285 -0.7773412 -0.86857367 -0.60980105
-0.7664883 -0.09011558 -0.63996845 -0.27104542 -0.7228468 -0.70906264 0.040302575 -0.7616281
-0.48366186 -0.8171641 -0.68624926 -0.6269871 -0.5612027 -0.16422106 0.069002256 -0.5992103
-0.089273185 0.044128347 -0.0139536 -0.043314468 0.08546222 -0.06510311 -0.013080223 0.028407887
-0.07587544 0.011537894 -0.048657365 -0.019545663 0.012506228 -0.018215215 0.05823603 0.013369528
0.028612606 -0.090282254 -0.04061945 -0.027681246 -0.027829729 -0.0012421937 0.09144639 0.038358882
-0.021486744 0.06992159 -0.10631361 -0.13921206 -0.011367366 -0.13893142 0.035328664 -0.009472075
-0.020426502 0.022692783 -0.12670918 0.01311817 0.082264505 -0.05253622 0.06831046 -0.03953104
0.06422013 0.007173775 -0.020613827 0.068241 0.012176815 -0.032987367 -0.034710694 0.020415332
-0.013425762 -0.091466576 -0.06696438 0.08409454 0.010479304 -0.10350893 -0.12228762 -0.07573897
-0.04170632 0.00046329002 -0.016060658 -0.05901926 0.0029682333 -0.01259106 -0.074579276 0.050668973
-0.6097797 -0.61881924 -0.5595801 -1.0857809 -1.1481384 -0.62170196 -1.2725029 -1.2482182
-1.2222482 -1.2661958 -1.2791603 -1.1073934 -1.068127 -1.0855254 -1.292193 -1.1186264
-0.7239145 -1.0594418 0.5549789 -1.2217844 0.912611 -1.1036725 -1.2039164 -1.0444269
-1.1916162 -1.0444379 -1.0891821 0.44712323 -1.1084857 -0.34856766 -0.23429854 -1.2017599
-1.2063643 -0.6222635 0.14450306 -0.77589417 -0.9398598 -1.0036534 -1.1946875 -0.71919197
-0.7706036 -1.1323743 -0.96814567 -0.9670179 -1.3464197 -1.2403094 -1.2263211 -1.3425729
-1.2334989 -0.35162938 -0.8715372 -0.009819395 -1.2274466 -1.2744961 -0.32258353 -0.95769066
-1.1167727 -1.0192424 -1.3104355 -1.1233205 -1.1485384 -0.057246037 0.28279367 -1.2666265
00000000: a9b9 33bf 83d9 2fbf 7700 07bf 378a 8bbf
00000010: d823 a5bf 2b1e 16bf 4b20 9cbf 4458 a0bf
00000020: b9a9 b1bf 8674 92bf 6abd a3bf 2be9 88bf
00000030: ac4e a1bf e931 8ebf f507 95bf c478 93bf
00000040: 1dce 61bf e9fe 70bf 09da 1d3f 0e5b 80bf
00000050: a56d 803f 63f8 a0bf 9c60 8bbf 03aa a0bf
00000060: 927f 8abf d6a2 9ebf 0b2f a4bf ca9f 873e
00000070: 45a7 99bf 7212 8abe 9b44 d9be 34f6 8fbf
00000080: 27be 9abf 3c76 2fbf eb78 7f3e e831 6fbf
00000090: 3942 65bf 67ef 79bf 9aac a5bf 3b73 53bf
000000a0: 8552 15bf f43b 90bf e958 75bf 1156 73bf
000000b0: b39e 95bf 13d2 a5bf 76d0 9ebf 8848 a3bf
000000c0: cbd2 9abf b951 0fbf cf9d 5cbf c5ab 8f3d
000000d0: bd23 a4bf 7a1a 94bf e943 9abe a334 91bf
000000e0: 6c85 86bf b31e 9dbf da57 99bf 7611 89bf
000000f0: 4b54 92bf 3dd8 0abd c0cc b73d c852 96bf
00000100: 38f6 d5be 90b5 82bf 679e 37bf f18c 16bf
00000110: 7318 52bf 199d ecbe d49e 36bf 20a9 0abf
00000120: 2511 52bf bd27 4abf 4ad8 24bf 966e 1abf
00000130: e583 03bf b831 32bf c4f2 3cbf 22c0 f8be
00000140: 1288 8dbe 4b24 55bf c1fe 4f3d cd75 02bf
00000150: 75e2 e63d 8ce9 40bf bb5c 3abf e639 03bf
00000160: 35cc 21bf 9093 61bf 886b 33bf 930f 11be
00000170: 0888 20bf fe01 3e3e c180 703d 7a48 acbe
00000180: 6897 2cbf 71c3 51bf a1a2 9ebe 91a7 99be
00000190: d73d 09bf 2610 27bf e782 0dbf 15f2 53bf
000001a0: 30b6 d6be 4234 0fbf c1ee 23bf c3d7 f6be
000001b0: faed 33bf d5ff 46bf d85a 5ebf ec1b 1cbf
000001c0: 9438 44bf 848e b8bd f9d4 23bf 77c6 8abe
000001d0: 7d0c 39bf 2185 35bf 5014 253d 0ffa 42bf
000001e0: 87a2 f7be ab31 51bf 08ae 2fbf 3a82 20bf
000001f0: fbaa 0fbf 9129 28be 0e51 8d3d d965 19bf
00000200: dcd4 b6bd edbf 343d a49d 64bc 836a 31bd
00000210: d106 af3d c854 85bd 6f4e 56bc a8b7 e83c
00000220: 9564 9bbd 6f09 3d3c f24c 47bd 3a1e a0bc
00000230: ece6 4c3c 1338 95bc e788 6e3d dd0b 5b3c
00000240: fc64 ea3c e7e5 b8bd 9560 26bd c8c3 e2bc
00000250: 2cfb e3bc 1bd1 a2ba 3f48 bb3d 341e 1d3d
00000260: f804 b0bc 0d33 8f3d f3ba d9bd 9b8d 0ebe
00000270: 303e 3abc 0a44 0ebe cab4 103d c330 1bbc
00000280: 7b55 a7bc 37e6 b93c 0dc0 01be 98ed 563c
00000290: 4b7a a83d 3830 57bd 5be6 8b3d 4deb 21bd
000002a0: d885 833d fd11 eb3b 54de a8bc f0c1 8b3d
000002b0: 4481 473c c31d 07bd cd2c 0ebd 0e3e a73c
000002c0: baf7 5bbc d452 bbbd 9f24 89bd c239 ac3d
000002d0: 63b1 2b3c 7dfc d3bd ef71 fabd 081d 9bbd
000002e0: 3fd4 2abd bce5 f239 a491 83bc 2ebe 71bd
000002f0: b186 423b bc4a 4ebc 05bd 98bd 458a 4f3d
00000300: 861a 1cbf f06a 1ebf a440 0fbf defa 8abf
00000310: 33f6 92bf dc27 1fbf 60e1 a2bf 9dc5 9fbf
00000320: a172 9cbf b412 a2bf 86bb a3bf 11bf 8dbf
00000330: 63b8 88bf 7ff2 8abf 9566 a5bf 262f 8fbf
00000340: 7652 39bf ca9b 87bf 1913 0e3f 6e63 9cbf
00000350: e0a0 693f 2445 8dbf ef19 9abf c8af 85bf
00000360: e186 98bf 24b0 85bf 526a 8bbf 56ed e43e
00000370: dce2 8dbf 7677 b2be f5eb 6fbe 45d3 99bf
00000380: 256a 9abf a94c 1fbf 9cf8 133e 00a1 46bf
00000390: a79a 70bf b777 80bf 85eb 98bf f71c 38bf
000003a0: 4746 45bf a4f1 90bf 65d8 77bf 7c8e 77bf
000003b0: 7b57 acbf 75c2 9ebf 17f8 9cbf 6ed9 abbf
000003c0: 4be3 9dbf c408 b4be 101d 5fbf 87e1 20bc
000003d0: f81c 9dbf b022 a3bf ab29 a5be 372b 75bf
000003e0: 68f2 8ebf 8976 82bf 5abc a7bf f7c8 8fbf
000003f0: 4e03 93bf d27a 6abd 55ca 903e d120 a2bf

lstm.weight_ih_l1 f4 [256, 64]
0.20587909 -0.034326747 -0.121529646 -0.071400106 0.059469007 -0.23943889 0.13797918 0.07625203
0.05653112 0.07387053 -0.015426786 0.028908588 0.10831639 -0.11724228 -0.11050357 0.08167957
-0.07960936 0.107748374 0.23171647 -0.18165052 -0.1097444 -0.023354365 -0.09969816 -0.09681815
-0.08212124 -0.08921835 0.021758068 0.08055408 0.13657823 0.28849474 0.077023774 -0.045460466
0.027517136 -0.060421277 0.16099732 0.13956046 -0.14414062 0.156952 0.13943245 0.098971196
0.058750477 -0.07058088 0.014095331 0.01404787 0.012124023 0.015925094 -0.061447006 0.10548339
0.16724116 -0.11431179 0.066795185 -0.13018084 -0.102315105 0.045099184 0.10396184 0.010295779
-0.16378707 0.10279022 -0.17684194 0.14853106 0.11743683 -0.0019372737 -0.07366635 0.02891581
-0.0068133543 -0.0040102326 -0.18301424 0.069451734 0.009668009 -0.2314657 0.15843362 0.06456536
0.13014649 0.064009495 -0.16248782 -0.23080632 0.12031662 -0.064929955 -0.13393283 0.018065222
-0.0019473097 -0.019557165 0.35612515 0.035319738 -0.28624812 0.10420758 -0.079015024 0.011784178
0.07301821 0.07892298 -0.058954537 0.15988033 0.12833242 0.24052009 0.10246838 0.013206185
0.13257243 -0.034289762 0.29497665 0.04395484 -0.18331839 0.036398727 0.0856546 -0.0518433
0.15112782 0.01030939 0.21929836 0.067552984 0.034801483 0.089396894 0.06353764 -0.01587826
-0.02416107 -0.124380976 0.018372713 0.105115175 -0.06593259 0.058863405 0.16006857 -0.11036777
-0.17395306 0.06540549 -0.015677253 0.14627355 -0.051494695 -0.040992983 -0.2052095 0.055834014
0.16687934 -0.05958359 -0.026597304 -0.05521723 0.05837524 -0.112253584 0.09206675 -0.054062575
-0.025309777 0.10570151 -0.042951085 -0.0860955 -0.062309533 0.021027045 0.083610244 -0.1326432
-0.12551922 -0.06842117 0.16955075 -0.04027778 -0.05549487 0.029861914 0.05418976 0.10761796
-0.084067136 -0.11010628 -0.08787271 0.104663156 -0.0002566211 0.06996853 0.21677867 -0.058465134
0.09749885 0.039392784 0.21960586 0.1785608 -0.11987354 0.12845805 0.039705783 0.13170323
0.03668691 0.010266089 0.079592325 -0.037246037 0.078514986 -0.030245155 0.10216247 0.12324525
0.06870581 -0.04304857 0.09001191 -0.0054898243 0.09051722 0.08169986 0.07652796 -0.053988483
0.08922062 0.14891794 -0.02413453 0.035905045 -0.051883657 -0.15293704 -0.01680236 0.04614639
-0.016731631 0.018446382 0.02744955 -0.002778431 0.10191496 -0.10616637 0.057096872 -0.08424617
-0.08675134 0.10145175 -0.015794968 0.028230421 -0.0074717132 -0.020428576 -0.06125269 0.0060581355
-0.16968048 0.036613766 0.11144486 -0.0073719304 -0.1767347 -0.06350278 -0.13291985 -0.06273927
0.0176451 -0.11689943 0.04726897 0.11601203 -0.059102334 0.035715465 0.13623832 -0.010924953
0.10475196 -0.11943545 0.0025290684 0.10963855 -0.043549236 0.12468581 0.07003112 0.042694803
-0.005818543 -0.14017403 0.20308565 -0.10030605 0.06918103 0.09666842 0.001107633 0.06890319
0.079567626 -0.14328334 0.059908845 0.010812103 0.040506374 0.014259612 0.13809839 -0.15285881
0.05844412 0.094789475 -0.008534025 0.10761757 0.0021633245 -0.086159885 -0.13011268 -0.03834525
00000000: f8d1 523e 349a 0cbd 89e4 f8bd 383a 92bd
00000010: c695 733d 782f 75be 6a4a 0d3e 062a 9c3d
00000020: 2d8d 673d 6f49 973d a1c0 7cbc b4d1 ec3c
00000030: fcd4 dd3d b81c f0bd b24f e2bd 9e47 a73d
00000040: 3b0a a3bd 2eab dc3d 1547 6d3e 9802 3abe
00000050: acc1 e0bd a751 bfbc 8d2e ccbd 9848 c6bd
00000060: 2e2f a8bd 1cb8 b6bd fa3d b23c 8af9 a43d
00000070: 2adb 0b3e 95b5 933e a4be 9d3d c134 3abd
00000080: 9e6b e13c 4d7c 77bd 7bdc 243e f0e8 0e3e
00000090: 9999 13be 06b8 203e 61c7 0e3e 69b1 ca3d
000000a0: 57a4 703d b58c 90bd 1af0 663c 0a29 663c
000000b0: d7a3 463c 5875 823c dbaf 7bbd ad07 d83d
000000c0: 4441 2b3e 4d1c eabd eacb 883d 204e 05be
000000d0: 958a d1bd ecb9 383d f2e9 d43d a1af 283c
000000e0: ccb7 27be ae83 d23d 0e16 35be 8718 183e
000000f0: b982 f03d 1eec fdba 62de 96bd d9e0 ec3c
00000100: 8f42 dfbb 4568 83bb 1668 3bbe b63c 8e3d
00000110: 9266 1e3c 5805 6dbe 6c3c 223e d83a 843d
00000120: 1f45 053e 6917 833d 3563 26be 7e58 6cbe
00000130: 8f68 f63d fff9 84bd b025 09be 84fd 933c
00000140: df3c ffba 5936 a0bc 0956 b63e 6eab 103d
00000150: 1d8f 92be c96a d53d a1d2 a1bd 6d12 413c
00000160: 928a 953d 5fa2 a13d 507a 71bd abb7 233e
00000170: 9369 033e e64a 763e f1da d13d c15e 583c
00000180: 11c1 073e 6c73 0cbd 2e07 973e fe09 343d
00000190: d1b7 3bbe d516 153d ae6b af3d a459 54bd
000001a0: 40c1 1a3e b7e8 283c c08f 603e 3859 8a3d
000001b0: 008c 0e3d b815 b73d 0620 823d 2013 82bc
000001c0: 70ed c5bc 74bb febd 5f82 963c a046 d73d
000001d0: aa07 87bd c11a 713d 04e9 233e 7f08 e2bd
000001e0: c020 32be 50f3 853d 956d 80bc bcc8 153e
000001f0: 1aec 52bd 42e8 27bd 7022 52be 35b2 643d
00000200: 6be2 2a3e ec0d 74bd 97e2 d9bc 762b 62bd
00000210: e01a 6f3d 35e5 e5bd 7e8d bc3d b870 5dbd
00000220: 7356 cfbc 097a d83d 7aed 2fbd d652 b0bd
00000230: 4838 7fbd e940 ac3c d93b ab3d 9ed3 07be
00000240: 1c88 00be 6620 8cbd b69e 2d3e 50fa 24bd
00000250: 974e 63bd f9a0 f43c 15f6 5d3d ce66 dc3d
00000260: 642b acbd 677f e1bd 9bf6 b3bd a359 d63d
00000270: 1a8b 86b9 a94b 8f3d 3afb 5d3e 2379 6fbd
00000280: 7aad c73d 545a 213d 5ce0 603e a4d8 363e
00000290: 4280 f5bd 828a 033e 88a2 223d 36dd 063e
000002a0: 0345 163d 1933 283c 4d01 a33d 4d8f 18bd
000002b0: 77cc a03d b0c4 f7bc 8f3a d13d 0168 fc3d
000002c0: a2b5 8c3d b353 30bd 2a58 b83d fce3 b3bb
000002d0: 1861 b93d 4252 a73d b1ba 9c3d 0723 5dbd
000002e0: 4db9 b63d f27d 183e c7b5 c5bc 2b11 133d
000002f0: f583 54bd 879b 1cbe 1aa5 89bc ff03 3d3d
00000300: c610 89bc de1c 973c e1dd e03c 5616 36bb
00000310: cab8 d03d c16d d9bd 69de 693d 4289 acbd
00000320: b0aa b1bd efc5 cf3d 7364 81bc 7c43 e73c
00000330: 46d5 f4bb d459 a7bc 1ae4 7abd 5383 c63b
00000340: b8c0 2dbe 51f8 153d 343d e43d 3c90 f1bb
00000350: f1f9 34be bf0d 82bd 241c 08be 727d 80bd
00000360: 758c 903c f868 efbd 1c9d 413d b797 ed3d
00000370: 4a15 72bd 614a 123d 0f82 0b3e 93fe 32bc
00000380: 3288 d63d 939a f4bd babe 253b 2d8a e03d
00000390: af60 32bd 465b ff3d 7a6c 8f3d bfe0 2e3d
000003a0: 7aa9 bebb c889 0fbe aff5 4f3e 426d cdbd
000003b0: c9ae 8d3d 18fa c53d ff2d 913a 1e1d 8d3d
000003c0: 5af4 a23d deb8 12be fa62 753d 3f25 313c
000003d0: 03ea 253d 26a1 693c aa69 0d3e 0587 1cbe
000003e0: 1a63 6f3d fc20 c23d 4cd2 0bbc 9a66 dc3d
000003f0: 90c6 0d3b 9874 b0bd 423c 05be e90f 1dbd

lstm.weight_hh_l1 f4 [256, 64]
0.1740663 0.062154867 -0.020457571 -0.06721659 -0.08475846 0.1260834 -0.04918447 -0.020400874
0.12767693 0.039231602 0.19653703 -0.013941362 0.05766798 0.07434679 0.13636042 -0.029062562
0.088186845 0.14357217 -0.036076576 0.022578022 -0.009145924 0.11082593 0.049336135 0.1289248
0.103252225 0.08410305 0.11297208 -0.06758654 0.095737465 0.055473007 -0.078156605 -0.16069157
-0.0073415292 -0.10075155 -0.101780295 0.15464385 -0.079071656 0.106273584 -0.16709098 -0.018303474
0.051773943 -0.109602496 0.08513915 -0.037264504 0.19453193 -0.035556182 -0.09071894 0.027420485
0.13108465 -0.07725658 0.15644553 -0.12154099 0.16264823 0.13926476 -0.04335779 0.15309413
0.04855337 -0.02429545 0.13614106 -0.05208367 0.1083557 0.2103888 0.057881538 -0.04074222
0.074547626 0.07297032 0.14440413 -0.24667628 -0.100943744 0.033415176 -0.023785412 -0.036562856
0.23962359 -0.10370334 0.09085281 0.106220834 0.12643814 0.0004209625 -0.015010365 0.17842667
-0.20001926 0.031640604 -0.13299207 -0.075662605 0.14499749 0.12398912 -0.18491085 0.12621316
0.042965617 -0.031472325 -0.07700427 -0.17911054 0.31539702 -0.1594502 -0.29949117 0.101415485
0.15210666 -0.11038996 0.068364 0.12144167 0.14778028 0.13287733 -0.051128052 -0.165237
-0.032379523 -0.39386478 0.099866465 -0.24884966 0.1712527 -0.06659485 -0.29193184 0.17893134
-0.062206384 0.08853538 0.022505103 0.23900017 -0.027947178 -0.0082777245 -0.008737756 0.11376785
0.035209354 -0.11099535 -0.045476936 0.059734877 -0.017964236 0.19314337 0.07484549 -0.07174521
0.12388004 0.09822903 0.045963805 0.034830324 0.030810418 0.09195314 0.027185597 0.051053457
0.07444964 -0.028592015 -0.014684706 -0.06326338 -0.016702179 0.085399725 0.045996055 0.037778262
-0.1210303 -0.017536277 -0.035777967 0.027844965 0.17631057 0.08203666 0.07517299 0.18828382
0.07117074 -0.088959225 0.01848265 -0.13520128 -0.12761389 -0.0038111745 -0.09906397 0.019288767
0.07864704 -0.020157613 -0.07161363 0.100897685 -0.09902054 -0.08202052 -0.022698708 -0.0019633938
0.16238523 -0.09944559 0.018088428 -0.022763625 0.17785014 0.06927445 0.031175898 -0.05257832
0.042883836 -0.08560203 -0.052506544 -0.07642007 0.19760178 0.09851937 0.03305122 0.048669893
-0.094461985 -0.050167542 0.027845608 -0.09740085 0.15941663 0.22110336 0.13311143 -0.13042599
-0.024162946 0.0102432035 0.11410452 0.05309074 0.024015801 -0.0973119 0.055814818 -0.05425772
0.01048385 0.10612021 0.058137536 0.14140624 0.07165027 0.13537258 -0.0030025388 0.06346668
0.011291926 0.14268985 0.00088896515 -0.031377092 0.09647846 0.066676855 0.08747218 0.14907952
0.040312797 0.020682154 -0.040228788 -0.08235159 0.083258085 0.12292873 -0.0651105 -0.05205715
0.060435086 0.015307644 -0.0091327075 0.024095915 -0.045480028 -0.040263206 -0.0019682017 -0.048502393
0.1983946 -0.0914098 -0.107488155 -0.09623403 0.020173306 0.08694249 -0.014713408 0.014979759
0.0701846 -0.053137742 -0.04427762 0.08107988 -0.012429529 0.036402572 0.026694808 0.00080443046
0.10666475 0.0025165055 0.14594898 -0.033263296 -0.0067406213 0.049510792 -0.026204344 0.012890552
00000000: 703e 323e 1a96 7e3d a396 a7bc daa8 89bd
00000010: d895 adbd 021c 013e a875 49bd bc1f a7bc
00000020: bebd 023e 51b1 203d 0141 493e 4f6a 64bc
00000030: 4335 6c3d 2143 983d 11a2 0b3e 9c14 eebc
00000040: 4e9b b43d 9504 133e 08c5 13bd 8bf5 b83c
00000050: c9d8 15bc b5f8 e23d b014 4a3d dd04 043e
00000060: e775 d33d 383e ac3d e85d e73d d06a 8abd
00000070: 0112 c43d aa37 633d 9210 a0bd 558c 24be
00000080: 3691 f0bb d456 cebd 3072 d0bd f55a 1e3e
00000090: 52f0 a1bd f7a5 d93d e619 2bbe 2bf1 95bc
000000a0: ea10 543d 4677 e0bd 6f5d ae3d aaa2 18bd
000000b0: 6133 473e 5ca3 11bd daca b9bd eda0 e03c
000000c0: 0e3b 063e b338 9ebd 4233 203e 7cea f8bd
000000d0: 428d 263e 6c9b 0e3e f097 31bd b5c4 1c3e
000000e0: e6df 463d 4007 c7bc 9068 0b3e b055 55bd
000000f0: 98e9 dd3d 2970 573e 3115 6d3d 50e1 26bd
00000100: 6dac 983d 7771 953d adde 133e b598 7cbe
00000110: 98bb cebd 5ade 083d a0d9 c2bc efc2 15bd
00000120: e35f 753e 6b62 d4bd 0a11 ba3d 4f8a d93d
00000130: 0079 013e a1b4 dc39 09ee 75bc 7bb5 363e
00000140: d9d1 4cbe 9499 013d 132f 08be fff4 9abd
00000150: 397a 143e 02ee fd3d 4559 3dbe 063e 013e
00000160: b7fc 2f3d 20e9 00bd 6ab4 9dbd c168 37be
00000170: b87b a13e ea46 23be e856 99be ecb2 cf3d
00000180: d9c1 1b3e 2214 e2bd 6d02 8c3d 69b6 f83d
00000190: b753 173e ff10 083e a66b 51bd e333 29be
000001a0: 64a0 04bd a5a8 c9be ca86 cc3d 72d2 7ebe
000001b0: de5c 2f3e e162 88bd 1778 95be c739 373e
000001c0: 1fcc 7ebd 0a52 b53d 9f5c b83c 76bc 743e
000001d0: 7bf1 e4bc 4b9f 07bc ce28 0fbc 1eff e83d
000001e0: af37 103d 8851 e3bd 0646 3abd 8fac 743d
000001f0: bc29 93bc 60c7 453e 9848 993d 27ef 92bd
00000200: d2b4 fd3d 4d2c c93d 8b44 3c3d 3eaa 0e3d
00000210: 2166 fc3c ee51 bc3d 54b4 de3c 6e1d 513d
00000220: 0e79 983d cd39 eabc 1f98 70bc 3b90 81bd
00000230: 02d3 88bc 0de6 ae3d 5c66 3c3d 61bd 1a3d
00000240: bcde f7bd 3da8 8fbc eb8b 12bd 201b e43c
00000250: c28a 343e d602 a83d 4cf4 993d 79cd 403e
00000260: f7c1 913d 4130 b6bd ed68 973c 3472 0abe
00000270: 37ad 02be e6c4 79bb 0de2 cabd 7a03 9e3c
00000280: b311 a13d 9421 a5bc 2baa 92bd 72a3 ce3d
00000290: 48cb cabd 60fa a7bd a4f2 b9bc 48ac 00bb
000002a0: 5048 263e 21aa cbbd 2f2e 943c c87a babc
000002b0: 591e 363e c3df 8d3d 9964 ff3c 5d5c 57bd
000002c0: f6a6 2f3d 1e50 afbd 1a11 57bd 2082 9cbd
000002d0: 1f58 4a3e 86c4 c93d b760 073d 155a 473d
000002e0: 4975 c1bd 7b7c 4dbd 791c e43c 197a c7bd
000002f0: 1d3e 233e eb68 623e 5d4e 083e 648e 05be
00000300: 5ff1 c5bc 1cd3 273c a1af e93d ad75 593d
00000310: c9bc c43c 764b c7bd 149e 643d 583d 5ebd
00000320: 74c4 2b3c 8d55 d93d a021 6e3d cccc 103e
00000330: 60bd 923d 1c9f 0a3e 3ec6 44bb d2fa 813d
00000340: c501 393c 4a1d 123e 7109 693a 4485 00bd
00000350: 8096 c53d e08d 883d 9d24 b33d 4da8 183e
00000360: 081f 253d 9f6d a93c f1c6 24bd f3a7 a8bd
00000370: 3783 aa3d 0fc2 fb3d a758 85bd e139 55bd
00000380: c88a 773d eacc 7a3c 5aa1 15bc cc64 c53c
00000390: 4449 3abd 08eb 24bd f2fc 00bb 72aa 46bd
000003a0: f427 4b3e 1035 bbbd c022 dcbd 5916 c5bd
000003b0: 7d42 a53c e70e b23d 8210 71bc aa6d 753c
000003c0: f2bc 8f3d f6a6 59bd 735c 35bd 350d a63d
000003d0: 39a5 4bbc dd1a 153d 12af da3c 6ae0 523a
000003e0: 0c73 da3d f5eb 243b a673 153e 183f 08bd
000003f0: 6ee0 dcbb d4cb 4a3d 7eaa d6bc e532 533c

lstm.bias_ih_l1 f4 [256]
-1.0033277 -0.058312688 -1.1536977 -0.5007948 -1.2851783 -1.3752062 -0.7050178 -1.0039077
-0.89879125 -1.3080721 -0.50367284 -1.3294564 -0.82324 -0.6219126 -0.43616664 -0.55615467
-0.81169766 0.15680254 -0.83998346 -1.1148908 -0.26670772 -0.7851928 -1.1624795 -0.17949077
-1.2478205 -1.112011 -1.2216777 0.344949 -0.83662003 -0.90184724 -0.5879902 -1.1004862
-0.8159298 -0.893119 -1.203117 -0.7638576 -1.0452232 -0.67765754 -0.6835093 -1.2780197
-0.69894683 -0.63068473 -1.2013608 -0.8933866 -0.72995275 -1.3001521 -0.50287116 -0.6994713
-0.11800979 -0.9314905 -1.180968 -1.2493882 -0.34033328 -1.2711616 -1.1666692 -0.8418972
-1.0297486 -0.030606164 -0.39553377 -0.96529955 0.3832259 -0.028073434 -0.95660436 -0.65190476
-0.6252834 -0.16282609 -0.4019525 -0.39468113 -0.79539865 -0.6697969 -0.5889817 -0.15761352
-0.32316598 -0.6798811 -0.5045826 -0.68251395 -0.5009289 -0.021610713 -0.22940548 -0.3727606
-0.38702616 0.013066731 -0.3789902 -0.56451654 -0.038347006 -0.55085135 -0.49748474 -0.16164756
-0.3552116 -0.23560512 -0.4176508 -0.13269854 -0.4993692 -0.54475015 -0.55837345 -0.47311616
-0.49780804 -0.08426807 -0.65365183 -0.53820884 -0.38770375 -0.19559892 -0.14580873 -0.5457181
-0.2750727 -0.4156104 -0.5615402 -0.6522822 -0.047301404 -0.6678778 -0.66182643 -0.47486237
-0.47344863 -0.4615607 -0.27066562 -0.5074874 -0.30646747 -0.7229126 -0.613971 -0.28734142
-0.42288607 -0.15083872 -0.1487463 -0.30484214 -0.0922092 -0.2572853 -0.5145945 -0.47460482
0.010366941 0.07179468 -0.036404666 -0.06282623 0.037108753 -0.01879421 -0.010370675 -0.0457649
0.047075946 -0.10518474 -0.024145024 0.00122276 0.02944509 -0.062336277 -0.015400222 0.102992885
-0.08683233 -0.0067950618 -0.09762891 -0.0149588585 -0.02697054 0.005537947 -0.0036461295 -0.073261425
-0.07412366 -0.008304365 -0.037912197 -0.04106447 -0.044661153 -0.008497574 0.010106639 -0.01754791
0.04467862 -0.0060872636 0.06698505 0.0122765275 -0.047734123 0.062949404 -0.075604804 0.035064142
-0.04609467 -0.024928192 -3.4052893e-05 -0.0087461 -0.046233002 0.113987885 -0.042745385 -0.06139284
-0.12010539 0.10050653 0.039419167 0.0301653 0.019871904 -0.010084879 -0.007866221 0.025352377
0.09054189 0.00052309624 0.00799785 0.0045188996 0.039120838 -0.053146753 0.0011687053 0.06612343
-1.0095333 -0.18360837 -1.043237 -0.58940095 -1.3070017 -1.191748 -0.5511168 -1.0398159
-0.9411925 -1.2253416 -0.5005547 -1.0866756 -1.0422883 -0.65201616 -0.41477692 -0.5661173
-0.8233939 0.065399 -1.0287358 -1.0750114 -0.28000006 -0.6264561 -0.9947111 -0.18462692
-1.4862796 -0.9788332 -1.0474668 0.20205906 -0.80754215 -0.9606827 -0.63777333 -0.956305
-0.69898236 -0.89140075 -1.0691242 -0.8544997 -0.93562585 -0.68894017 -0.6234485 -1.2438649
-0.6308702 -0.6752255 -1.264836 -0.8593455 -0.7678345 -1.2139829 -0.48098063 -0.9356488
-0.062431544 -1.0140134 -1.0290653 -1.1832005 -0.26149955 -1.0204142 -1.0550017 -0.93626106
-0.94215155 -0.03544443 -0.31836814 -0.889213 0.20402387 0.06573543 -1.1030219 -0.6479276
00000000: 0b6d 80bf 49d9 6ebd 5eac 93bf 1734 00bf
00000010: b980 a4bf c206 b0bf 0c7c 34bf 0c80 80bf
00000020: 2f17 66bf e86e a7bf b4f0 00bf a12b aabf
00000030: dbbf 52bf aa35 1fbf 3c51 dfbe 2760 0ebf
00000040: 6bcb 4fbf d890 203e 2809 57bf beb4 8ebf
00000050: ea8d 88be 6502 49bf 21cc 94bf 6ecc 37be
00000060: 95b8 9fbf 6056 8ebf ef5f 9cbf 289d b03e
00000070: bb2c 56bf 76df 66bf 8786 16bf bbdc 8cbf
00000080: c6e0 50bf 72a3 64bf bdff 99bf 2c8c 43bf
00000090: e0c9 85bf f77a 2dbf 77fa 2ebf 2696 a3bf
000000a0: 2eee 32bf 8e74 21bf 31c6 99bf fcb4 64bf
000000b0: 2fde 3abf 626b a6bf 2abc 00bf 8d10 33bf
000000c0: 1eaf f1bd 2976 6ebf f629 97bf f4eb 9fbf
000000d0: 2a40 aebe 6cb5 a2bf 6b55 95bf 9386 57bf
000000e0: cdce 83bf c7b9 fabc 6783 cabe df1d 77bf
000000f0: 2f36 c43e 42fa e5bc 06e4 74bf 3be3 26bf
00000100: 9312 20bf e2bb 26be b8cc cdbe a513 cabe
00000110: 3f9f 4bbf cf77 2bbf 81c7 16bf 7065 21be
00000120: 0376 a5be b00c 2ebf 532c 01bf 3cb9 2ebf
00000130: e03c 00bf f308 b1bc 45e9 6abe 7ada bebe
00000140: 4b28 c6be d815 563c 010b c2be 2884 10bf
00000150: c011 1dbd 9804 0dbf 52b6 febe f086 25be
00000160: 4bde b5be 7842 71be 53d6 d5be 20e2 07be
00000170: 52ad ffbe bf74 0bbf 90f1 0ebf 483c f2be
00000180: b2e0 febe bd94 acbd ba55 27bf 0ec8 09bf
00000190: 1b81 c6be 154b 48be e24e 15be 2eb4 0bbf
000001a0: 54d6 8cbe e3ca d4be 19c1 0fbf f7fb 26bf
000001b0: 1ebf 41bd 0afa 2abf 756d 29bf 2921 f3be
000001c0: dc67 f2be af51 ecbe af94 8abe b2ea 01bf
000001d0: 4ee9 9cbe cd10 39bf 342d 1dbf 6a1e 93be
000001e0: 8684 d8be 7775 1abe f350 18be 4514 9cbe
000001f0: 2dd8 bcbd e6ba 83be 77bc 03bf 67ff f2be
00000200: 1ada 293c 1709 933d 0f1d 15bd 0aab 80bd
00000210: 59ff 173d 51f6 99bc c3e9 29bc fa73 3bbd
00000220: b5d2 403d 196b d7bd c9cb c5bc 0445 a03a
00000230: d436 f13c 5354 7fbd 3651 7cbc efed d23d
00000240: 26d5 b1bd 1ca9 debb aaf1 c7bd 0016 75bc
00000250: 52f1 dcbc ab77 b53b e7f3 6ebb 160a 96bd
00000260: 25ce 97bd 080f 08bc d249 1bbd 3833 28bd
00000270: 9dee 36bd 6939 0bbc 5196 253c a2c0 8fbc
00000280: ee00 373d ab77 c7bb 752f 893d 7d23 493c
00000290: db84 43bd 9eeb 803d b1d6 9abd 6b9f 0f3d
000002a0: c4cd 3cbd 3536 ccbc 04d4 0eb8 cd4b 0fbc
000002b0: d15e 3dbd 7b72 e93d c915 2fbd 0f77 7bbd
000002c0: d1f9 f5bd 5ed6 cd3d fe75 213d 381d f73c
000002d0: 67ca a23c 0c3b 25bc 52e1 00bc caaf cf3c
000002e0: 076e b93d 6520 093a 6a09 033c 4713 943b
000002f0: 2c3d 203d 69b0 59bd 3e2f 993a b96b 873d
00000300: 6338 81bf d503 3cbe ca88 85bf fbe2 16bf
00000310: d54b a7bf 338b 98bf fe15 0dbf b018 85bf
00000320: fef1 70bf fed7 9cbf 5a24 00bf 3018 8bbf
00000330: b469 85bf 88ea 26bf a45d d4be 10ed 10bf
00000340: f1c9 52bf e9ef 853d 9dad 83bf f999 89bf
00000350: 2b5c 8fbe 6d5f 20bf 63a5 7ebf d70e 3dbe
00000360: 693e bebf d094 7abf 6413 86bf 92e8 4e3e
00000370: 15bb 4ebf 4def 75bf 1d45 23bf 68d0 74bf
00000380: 82f0 32bf d732 64bf 10d9 88bf 7ec0 5abf
00000390: 2d85 6fbf 625e 30bf 529a 1fbf f736 9fbf
000003a0: b680 21bf 94db 2cbf 25e6 a1bf 11fe 5bbf
000003b0: cd90 44bf cb63 9bbf 1843 f6be ae86 6fbf
000003c0: 38b8 7fbd 31cb 81bf 69b8 83bf 1d73 97bf
000003d0: 45e3 85be ef9c 82bf 4c0a 87bf ceae 6fbf
000003e0: d830 71bf 2e2e 11bd 2601 a3be 77a3 63bf
000003f0: a2eb 503e 4ca0 863d d22f 8dbf 95de 25bf

lstm.bias_hh_l1 f4 [256]
-1.0135007 -0.17537847 -1.1746256 -0.74011093 -1.306329 -1.3202336 -0.70260036 -1.0205458
-0.9269094 -1.3193161 -0.4729683 -1.209058 -0.9728548 -0.6937355 -0.2209403 -0.42935508
-0.76751 -0.053782627 -0.786126 -1.0994344 -0.20158269 -0.6865012 -1.0290439 -0.20584309
-1.3073477 -1.0578645 -1.2460674 0.20876971 -0.87541634 -0.7512883 -0.82278055 -0.94229925
-0.7933123 -0.9608455 -1.2238231 -0.8169286 -0.8412732 -0.78653294 -0.55356055 -1.162168
-0.71972823 -0.777856 -1.1199735 -0.80204785 -0.66173714 -1.1705616 -0.48663962 -0.78289825
-0.046860706 -1.1022208 -1.1945573 -1.0955714 -0.35049027 -1.2996141 -1.2132512 -0.8497897
-0.96263856 -0.12497446 -0.27121273 -0.9382766 0.34813228 -0.13609566 -0.9800806 -0.49962595
-0.67835385 -0.12430368 -0.5851819 -0.30357388 -0.5812331 -0.63858336 -0.5325849 -0.20463762
-0.3208584 -0.5234543 -0.431905 -0.7019218 -0.5116756 -0.09025339 -0.42744887 -0.30568802
-0.2111789 -0.12319079 -0.25663608 -0.39143094 0.069342144 -0.5395942 -0.6684337 -0.057510387
-0.5059905 -0.45336422 -0.622888 -0.1485579 -0.4587856 -0.45753124 -0.42991123 -0.6501179
-0.57644737 -0.27423787 -0.6004499 -0.43569446 -0.48369834 -0.23816298 -0.152551 -0.6166895
-0.15724817 -0.5539585 -0.72066814 -0.53958124 -0.0558595 -0.73052514 -0.5672619 -0.3758401
-0.35050565 -0.49579725 -0.5093123 -0.43901289 -0.33533144 -0.64409477 -0.8003797 -0.30385578
-0.40993744 -0.1569524 0.00056530314 -0.3645229 -0.024673102 -0.16262238 -0.32985765 -0.49658233
-0.01799482 -0.09707292 0.051224913 0.044109683 -0.045439985 0.016629754 0.020790044 0.059917875
-0.032102097 0.0935513 0.013978671 -0.011390733 -0.009417052 0.046213716 -0.0061908215 -0.08795557
0.07843663 -0.03774408 0.10238609 0.006072722 0.0033341688 0.014152789 -0.011070411 0.041724283
0.06871451 0.024840478 0.026149174 0.09463588 0.06211524 -0.005717218 -0.028548053 0.035590168
-0.032288715 0.022539537 -0.057196088 -0.011775638 0.06637224 -0.051899284 0.09069728 -0.048354033
0.03634359 0.0039539756 0.0042063235 -0.008285253 0.034701947 -0.11744382 0.025928162 0.08069904
0.098157816 -0.08565068 -0.043986455 -0.020282768 -0.04015005 0.0026615807 0.016910348 -0.035475615
-0.077672414 0.03469991 -0.03334126 0.010893341 -0.08531022 0.015547569 -0.005274568 -0.056535017
-0.91927856 -0.20051347 -1.0072917 -0.50743985 -1.3721992 -1.2678943 -0.73101056 -0.93313354
-0.95580363 -1.1365994 -0.39254913 -1.2011546 -0.98464966 -0.6395898 -0.23998588 -0.6115881
-0.72661096 0.18802269 -0.94437 -0.97476625 -0.09331505 -0.621275 -1.1359946 -0.049741603
-1.3390666 -1.2013698 -1.1371555 0.26112843 -0.8932386 -0.9691288 -0.7250655 -1.125441
-0.7441436 -1.0508147 -1.2597378 -0.8259319 -1.0448803 -0.7463523 -0.7795038 -1.1422926
-0.7455028 -0.65746963 -1.292764 -0.77670294 -0.781954 -1.2261647 -0.3935632 -0.93916833
-0.14575188 -1.0639993 -1.0310478 -1.2922746 -0.31161463 -1.0244638 -0.9757566 -0.7207056
-0.9680457 -0.025254423 -0.27076524 -1.0554607 0.22362861 0.05569058 -0.9419073 -0.47816527
00000000: 64ba 81bf 6a96 33be 225a 96bf e977 3dbf
00000010: ca35 a7bf 6afd a8bf 9edd 33bf 3fa1 82bf
00000020: ef49 6dbf 5adf a8bf e728 f2be 6ac2 9abf
00000030: 030d 79bf a698 31bf 2d3e 62be 6ed4 dbbe
00000040: 897b 44bf 2c4b 5cbd 8e3f 49bf 44ba 8cbf
00000050: b16b 4ebe 8bbe 2fbf b6b7 83bf 88c8 52be
00000060: 2b57 a7bf 1b68 87bf 237f 9fbf bac7 553e
00000070: 491b 60bf 6e54 40bf bfa1 52bf 863a 71bf
00000080: 8416 4bbf f8f9 75bf 3ca6 9cbf 3c22 51bf
00000090: ae5d 57bf 395a 49bf 25b6 0dbf ecc1 94bf
000000a0: 1c40 38bf 9221 47bf 4b5b 8fbf 0253 4dbf
000000b0: 9b67 29bf f6d4 95bf d428 f9be 056c 48bf
000000c0: 03f1 3fbd 9215 8dbf 41e7 98bf af3b 8cbf
000000d0: 7673 b3be c159 a6bf d14b 9bbf d18b 59bf
000000e0: 7b6f 76bf 9cf2 ffbd 65dc 8abe e532 70bf
000000f0: 653e b23e a95c 0bbe 90e6 7abf f9ce ffbe
00000100: 99a8 2dbf ee92 febd 7bce 15bf 096e 9bbe
00000110: b1cb 14bf 337a 23bf 7c57 08bf 868c 51be
00000120: 8d47 a4be 1a01 06bf a722 ddbe 26b1 33bf
00000130: 2cfd 02bf c5d6 b8bd 94da dabe 2483 9cbe
00000140: 483f 58be 744b fcbd ce65 83be a369 c8be
00000150: 4103 8e3d d822 0abf 791e 2bbf 0390 6bbd
00000160: 9888 01bf 5b1f e8be 9775 1fbf 901f 18be
00000170: f2e5 eabe 8941 eabe 531d dcbe 206e 26bf
00000180: 0e92 13bf e868 8cbe 16b7 19bf 5813 dfbe
00000190: 4fa7 f7be ffe0 73be 5436 1cbe 5ddf 1dbf
000001a0: aa05 21be 39d0 0dbf b57d 38bf ff21 0abf
000001b0: eecc 64bd b203 3bbf 1338 11bf 1d6e c0be
000001c0: 7a75 b3be 23d9 fdbe 4a62 02bf 4cc6 e0be
000001d0: 90b0 abbe 65e3 24bf afe5 4cbf fc92 9bbe
000001e0: 52e3 d1be 21b8 20be da30 143a bfa2 babe
000001f0: 3f1f cabc 7b86 26be 1ae3 a8be 0a40 febe
00000200: df69 93bc 2bce c6bd 37d1 513d 5bac 343d
00000210: 471f 3abd 1f3b 883c e24f aa3c 726c 753d
00000220: 7d7d 03bd d397 bf3d cc06 653c 32a0 3abc
00000230: fb49 1abc 984a 3d3d 60dc cabb 0d22 b4bd
00000240: 62a3 a03d 8999 1abd ccaf d13d affd c63b
00000250: 1282 5a3b 19e1 673c ab60 35bc 15e7 2a3d
00000260: 31ba 8c3d 427e cb3c cb36 d63c 75d0 c13d
00000270: 8d6c 7e3d 8057 bbbb 9bdd e9bc ffc6 113d
00000280: 2c41 04bd d6a4 b83c 7246 6abd 9bee 40bc
00000290: 2bee 873d 5894 54bd 7fbf b93d e10e 46bd
000002a0: 04dd 143d 5a90 813b 33d5 893b dfbe 07bc
000002b0: a123 0e3d 6386 f0bd 4c67 d43c 8a45 a53d
000002c0: f706 c93d a069 afbd 242b 34bd 0c28 a6bc
000002d0: 6174 24bd ea6d 2e3b 9287 8a3c e14e 11bd
000002e0: b712 9fbd 7e21 0e3d d890 08bd fc79 323c
000002f0: 20b7 aebd 3bbb 7e3c 49d6 acbb 4391 67bd
00000300: d755 6bbf 6753 4dbe efee 80bf 94e7 01bf
00000310: 39a4 afbf 5c4a a2bf 8223 3bbf d7e1 6ebf
00000320: 8caf 74bf 177c 91bf 33fc c8be 6fbf 99bf
00000330: 0012 7cbf 28bc 23bf dcbe 75be 0a91 1cbf
00000340: 2d03 3abf 0589 403e 3bc2 71bf 488a 79bf
00000350: f61b bfbd e10b 1fbf 4568 91bf dabd 4bbd
00000360: 8966 abbf 7cc6 99bf 508e 91bf a0b2 853e
00000370: 49ab 64bf d318 78bf e59d 39bf 730e 90bf
00000380: 3280 3ebf 1981 86bf 173f a1bf 4670 53bf
00000390: a3be 85bf f210 3fbf 908d 47bf a536 92bf
000003a0: 46d9 3ebf ee4f 28bf 4a79 a5bf 01d6 46bf
000003b0: 232e 48bf f7f2 9cbf 1e81 c9be 566d 70bf
000003c0: fb3f 15be 2131 88bf 60f9 83bf 4169 a5bf
000003d0: f48b 9fbe a121 83bf 2fcb 79bf 2a80 38bf
000003e0: d8d1 77bf 5de2 cebc bea1 8abe 5619 87bf
000003f0: e6fe 643e ce1b 643d d620 71bf 14d2 f4be
